data/rl4wound_paper_res/ctr/models_map524/agent_ctr_True_ep_7924.pth (torch, 950255 bytes, 21 tensors)

fc1.weight f4 [512, 5]
-0.010292048 0.23615554 -0.36147904 -0.32639125 -0.168668 0.11505185 -0.009967857 0.35654002
-0.038723126 0.11710693 -0.13578656 -0.09436584 -0.42334586 -0.29581764 -0.1775635 0.017232055
0.17535125 0.26659897 -0.30655634 -0.19277105 0.16462752 0.36587632 -0.09459873 0.33589044
-0.07228343 0.04563131 0.3990343 -0.41349742 -0.27849585 -0.11343241 -0.17391397 0.38217634
-0.28531784 -0.20924866 -0.3069234 -0.41937804 -0.26028234 0.38080117 0.20108265 0.2157389
0.025990598 -0.22432052 0.07146976 -0.4183962 -0.3285005 -0.2317472 0.28482357 0.26332775
-0.1954862 -0.017595023 0.2822219 0.44302702 0.17930295 0.063911036 0.29962587 -0.26196432
0.07905022 -0.3442323 -0.3079966 -0.23020732 0.19611737 0.17555523 -0.26280543 0.13920467
0.24441661 -0.055070598 0.01396701 0.101383395 0.274649 0.43209752 -0.3428621 -0.16439298
0.1757978 0.3722494 0.38926023 0.39732468 0.08678964 -0.39143398 0.040537007 -0.2752651
-0.41318825 0.3989337 0.33897182 -0.44687995 0.08337289 -0.07901775 -0.07105589 -0.19885717
0.17595367 -0.26242507 0.1599359 0.22918266 0.32044604 0.17054059 -0.43827128 -0.29049632
0.216963 0.09257209 -0.3503692 -0.25577405 0.42223293 0.29946038 -0.19565772 -0.10853863
-0.43230626 -0.023037788 -0.3375724 -0.34377936 -0.022700567 0.06814219 -0.17895913 0.26822945
-0.27681133 0.40210322 0.3074192 -0.37544996 -0.109526105 0.020207878 0.06605248 0.110872336
0.17740552 0.02857528 -0.2185385 0.21097745 -0.42906165 -0.26309654 -0.1118925 -0.21881217
-0.16197811 -0.36274102 -0.089944854 0.09583602 -0.29747462 -0.025491474 0.31497347 -0.048737183
0.014792541 -0.04184389 0.08974945 0.28389052 0.42195573 0.2900723 0.4233386 -0.0336342
-0.39996654 -0.21335477 0.30400854 -0.0027248627 -0.2206283 -0.3401064 -0.4167307 -0.3796079
-0.095263846 0.24289522 0.24310432 -0.43332157 0.2796685 -0.34807566 -0.09363126 -0.17987564
-0.0860284 -0.103019774 -0.3993303 -0.38589883 -0.0703112 0.0101291165 -0.20655827 0.16432308
-0.40530238 -0.036604505 0.393887 -0.17918539 0.40066037 0.15858032 -0.40715277 0.284102
-0.054853633 -0.1977628 0.35723233 -0.3603226 0.04792362 -0.08932177 0.31870306 0.12513883
0.217339 0.15944755 -0.1036432 -0.097555995 -0.37453675 0.24101919 0.356952 0.3043593
-0.31931853 0.018056925 -0.3193173 -0.24480021 -0.25688875 0.15033296 -0.26717222 -0.012332736
0.017001344 0.290995 -0.33573306 -0.30610004 -0.25656924 0.31502134 -0.16138762 0.37305933
0.16474317 0.052811533 -0.003849517 -0.084352024 0.055485487 -0.104546145 -0.0041426 0.056298755
-0.34990448 -0.22902787 0.36718187 -0.3596857 -0.025620675 0.44691205 0.15486394 0.007967586
-0.38729393 0.22078893 -0.321009 -0.12531452 -0.14981678 -0.06228412 0.005030013 0.37212637
0.053438414 0.40143245 0.2710722 -0.28463045 0.19482511 -0.31313512 -0.18978958 0.13114278
0.14943305 0.33402768 -0.13808374 0.0017675557 0.23307292 -0.43033975 0.32497397 -0.37217674
0.0032457807 -0.07633447 -0.23475741 0.055533707 0.3711563 -0.1304612 -0.26400656 -0.16723545
00000000: fa9f 28bc c2d2 713e c813 b9be c11c a7be
00000010: 4eb7 2cbe 4ea0 eb3d 3950 23bc 6a8c b63e
00000020: 249c 1ebd c2d5 ef3d a20b 0bbe e142 c1bd
00000030: cac0 d8be 6975 97be 35d3 35be 3d2a 8d3c
00000040: 478f 333e a97f 883e f4f4 9cbe c665 45be
00000050: 1e94 283e 2454 bb3e fbbc c1bd d5f9 ab3e
00000060: 5609 94bd e6e7 3a3d 394e cc3e efb5 d3be
00000070: 0297 8ebe 404f e8bd 8116 32be 9eac c33e
00000080: 2e15 92be 4845 56be 1025 9dbe b8b8 d6be
00000090: ba43 85be 5ff8 c23e 9ce8 4d3e a8ea 5c3e
000000a0: 3cea d43c 47b4 65be bd5e 923d 0738 d6be
000000b0: 3831 a8be 234f 6dbe 65d4 913e e5d2 863e
000000c0: 892d 48be 7023 90bc 647f 903e 70d4 e23e
000000d0: 319b 373e cae3 823d 9068 993e 3020 86be
000000e0: 15e5 a13d 373f b0be bbb1 9dbe 78bb 6bbe
000000f0: fed2 483e c0c4 333e 6f8e 86be ab8b 0e3e
00000100: 5948 7a3e b591 61bd e3d5 643c 19a2 cf3d
00000110: cb9e 8c3e e33b dd3e 9f8b afbe a256 28be
00000120: 5704 343e 7997 be3e 1e4d c73e 246e cb3e
00000130: c4be b13d 096a c8be 220a 263d 8cef 8cbe
00000140: 698d d3be 0a41 cc3e b78d ad3e 73cd e4be
00000150: 68bf aa3d 0fd4 a1bd c085 91bd 37a1 4bbe
00000160: 332d 343e 945c 86be 3dc6 233e dcae 6a3e
00000170: 8111 a43e 31a2 2e3e 1865 e0be efbb 94be
00000180: 8c2b 5e3e 7096 bd3d 9763 b3be d1f4 82be
00000190: ea2e d83e df52 993e 7f5a 48be 8049 debd
000001a0: 3f57 ddbe beb9 bcbc 4ad6 acbe d903 b0be
000001b0: 8af6 b9bc 228e 8b3d 1041 37be 5f55 893e
000001c0: 37ba 8dbe 79e0 cd3e 0d66 9d3e fa3a c0be
000001d0: 394f e0bd fe8a a53c 8646 873d 0911 e33d
000001e0: cba9 353e b516 ea3c 8ec8 5fbe 790a 583e
000001f0: f8ad dbbe 97b4 86be e527 e5bd 4c10 60be
00000200: 97dd 25be 31b9 b9be 0235 b8bd ad45 c43d
00000210: 984e 98be 7fd3 d0bc 3444 a13e a4a0 47bd
00000220: 6a5c 723c 8064 2bbd 8fce b73d 195a 913e
00000230: 950a d83e 5b84 943e d6bf d83e 04c4 09bd
00000240: 6ac8 ccbe ac79 5abe 02a7 9b3e 9c93 32bb
00000250: 63ec 61be 6d22 aebe ba5d d5be f75b c2be
00000260: b119 c3bd 86b9 783e 57f0 783e 53dc ddbe
00000270: b630 8f3e f936 b2be bfc1 bfbd 5231 38be
00000280: a82f b0bd 08fc d2bd 0575 ccbe 8894 c5be
00000290: 52ff 8fbd 98f4 253c 0384 53be 4f44 283e
000002a0: cb83 cfbe 9bee 15bd 8fab c93e 607c 37be
000002b0: 5b23 cd3e e162 223e 5476 d0be d175 913e
000002c0: 34ae 60bd 5582 4abe 28e7 b63e 347c b8be
000002d0: 8f4b 443d 55ee b6bd 0c2d a33e 6524 003e
000002e0: 1d8e 5e3e 3846 233e e342 d4bd 70cb c7bd
000002f0: 48c3 bfbe bccd 763e 6ac2 b63e fbd4 9b3e
00000300: b87d a3be 1eec 933c 8f7d a3be e8ac 7abe
00000310: ec86 83be e2f0 193e ccca 88be 3e0f 4abc
00000320: 6746 8b3c 4cfd 943e 34e5 abbe 25b9 9cbe
00000330: 0b5d 83be 7a4a a13e cc42 25be a201 bf3e
00000340: 6fb2 283e e850 583d 2e48 7cbb c1c0 acbd
00000350: c044 633d 4a1c d6bd a6be 87bb 8699 663d
00000360: ae26 b3be 4886 6abe 43ff bb3e b928 b8be
00000370: 73e2 d1bc a8d1 e43e a794 1e3e 7a8a 023c
00000380: 644b c6be 7e16 623e 4b5b a4be 7352 00be
00000390: 9269 19be a21d 7fbd cfd2 a43b 5987 be3e
000003a0: 3de2 5a3d 8e88 cd3e fac9 8a3e 15bb 91be
000003b0: 3c80 473e 3f53 a0be 3358 42be 4b4a 063e
000003c0: fa04 193e ad05 ab3e d365 0dbe 54ad e73a
000003d0: abaa 6e3e 7e55 dcbe fd62 a63e f38d bebe
000003e0: 2ab7 543b 3f55 9cbd 3f64 70be 5077 633d
000003f0: 3308 be3e 9f97 05be de2b 87be c53f 2bbe

fc1.bias f4 [512]
-0.2953059 -0.3170568 0.2966185 -0.14566581 -0.029404622 0.13004865 -0.27756122 0.039917696
0.26779902 -0.26286688 0.12890233 -0.01654841 0.24577254 0.29721597 0.11565211 0.009211383
-0.38608745 0.17693491 0.27224907 -0.16342129 -0.43998748 0.37540022 -0.10257227 0.08474243
-0.11958358 0.2839703 0.436553 0.28087336 -0.14001782 0.31028634 0.21447937 0.045020763
-0.3597833 -0.18932045 -0.45431754 0.29843983 0.4425314 0.25974798 0.13162299 0.1053644
0.43510744 -0.22276302 -0.15044813 -0.38979736 -0.045794193 0.029002314 0.12202553 -0.3130261
-0.037141778 -0.3700135 -0.3600884 0.058484707 -0.4338624 0.12096666 -0.41500577 -0.3103323
-0.099115156 -0.4213203 0.36199787 0.3654051 -0.22861223 0.10665155 0.23032705 0.14136745
-0.06334578 -0.40264437 0.3385783 -0.39856616 -0.082841784 0.028654816 -0.15078114 -0.1390472
-0.38532588 0.021514494 -0.049062055 0.38978082 -0.14801458 0.33763453 0.012112297 -0.20557784
-0.107405834 -0.06522681 0.004799921 -0.077823594 0.1332523 0.351887 0.07563392 0.16210616
0.27833766 0.10466627 0.20723385 0.24263456 0.40588886 -0.41041842 0.15333046 -0.020883976
-0.072845615 -0.16163112 0.2539512 0.4094113 -0.3676227 0.24546 0.3281723 0.078012325
0.012436194 0.34382984 0.008647445 -0.11009382 -0.03404724 0.13984889 0.10972441 -0.01771351
0.13763754 0.11943127 -0.34107003 0.111155495 0.28009477 0.05047462 -0.038867302 0.34187636
-0.4029268 -0.20380953 -0.20190635 0.38421214 -0.43309763 0.026407892 -0.4423156 -0.015693853
0.16147672 -0.100778624 0.4382199 0.02372755 -0.22754832 0.10278811 0.22365293 -7.068677e-05
0.38296422 -0.27081758 0.1918072 0.24893919 0.22267723 0.0012217463 0.10186557 -0.35078126
-0.35317704 -0.028050793 -0.066544846 0.3311597 0.34899166 0.31181014 -0.20557931 -0.34983164
-0.4312136 0.18147603 -0.38500848 -0.4537289 -0.222061 -0.37924546 -0.18613026 -0.28043035
-0.23163016 0.42594135 -0.084586486 0.37123907 0.007937603 -0.06615403 -0.12877025 -0.31671813
-0.35860637 0.31046554 -0.13471691 -0.440557 0.41002128 0.00915111 -0.3014848 -0.35349756
-0.36349672 -0.3912916 0.40504888 0.30847692 0.03692028 -0.38052645 -0.11769198 -0.41826186
0.14643581 -0.120032325 -0.09867287 -0.13967396 0.20774822 0.24126633 0.09673554 -0.094613135
-0.043832216 -0.008431404 -0.33660504 0.4200868 -0.19431867 0.25908417 -0.25161433 0.012116565
0.14709921 -0.4098391 0.21479392 -0.35928953 0.0688742 -0.08906085 0.26677737 0.43712556
0.08215459 -0.016957812 -0.21472855 0.16803315 -0.21744755 0.17819709 -0.19387133 0.30662024
0.34427452 0.28651485 0.007793571 0.18917082 -0.41559708 0.3626823 -0.116813816 0.16489927
-0.07658212 -0.1477818 -0.20894915 0.2884636 -0.24537462 -0.08760992 0.21635036 0.045076158
-0.3696201 -0.44473997 -0.21774705 0.40860802 -0.3178457 0.248888 0.3206932 -0.18537359
-0.19532937 -0.31998694 0.06972404 -0.06363781 0.020800961 0.19304398 0.20578642 -0.14282179
0.031017413 0.11685335 0.008571189 0.089245506 -0.18025535 0.36623225 -0.04984009 -0.04111098
00000000: 5632 97be 4555 a2be 61de 973e 6b29 15be
00000010: f6e1 f0bc 792b 053e 811c 8ebe bd80 233d
00000020: f41c 893e 7d96 86be f9fe 033e 8890 87bc
00000030: ccab 7b3e b12c 983e 03db ec3d 57eb 163c
00000040: 41ad c5be 6d2e 353e 3b64 8b3e e957 27be
00000050: 0a46 e1be 7534 c03e 6911 d2bd 708d ad3d
00000060: 3ce8 f4bd 8e64 913e e083 df3e a2ce 8f3e
00000070: d560 0fbe dadd 9e3e 7ba0 5b3e b167 383d
00000080: 8435 b8be 38dd 41be 4f9c e8be 1bcd 983e
00000090: 7a93 e23e b0fd 843e 2dc8 063e 4ac9 d73d
000000a0: 67c6 de3e fd1b 64be 130f 1abe 8593 c7be
000000b0: b192 3bbd 4396 ed3c 85e8 f93d f544 a0be
000000c0: fa21 18bd 6972 bdbe 825d b8be a98d 6f3d
000000d0: 3623 debe 5ebd f73d a37b d4be e0e3 9ebe
000000e0: e3fc cabd 4bb7 d7be c957 b93e 6116 bb3e
000000f0: 5319 6abe 216c da3d dbda 6b3e a1c2 103e
00000100: 6fbb 81bd 6727 cebe 235a ad3e dd10 ccbe
00000110: f4a8 a9bd 81bd ea3c 5f66 1abe 6462 0ebe
00000120: 6f49 c5be 2a3f b03c 4bf5 48bd 5a91 c73e
00000130: 2291 17be 6fde ac3e a872 463c ff82 52be
00000140: 97f7 dbbd a295 85bd a848 9d3b fa61 9fbd
00000150: 4a73 083e 882a b43e f5e5 9a3d 28ff 253e
00000160: 4682 8e3e 455b d63d 1c35 543e 3275 783e
00000170: aad0 cf3e 5d22 d2be a902 1d3e df14 abbc
00000180: 1530 95bd a182 25be e405 823e 5c9e d13e
00000190: 0b39 bcbe de59 7b3e 3306 a83e edc4 9f3d
000001a0: 2ec1 4b3c 770a b03e 03ae 0d3c de78 e1bd
000001b0: 1e75 0bbd 8c34 0f3e 31b7 e03d ec1b 91bc
000001c0: dbf0 0c3e 6298 f43d bba0 aebe 7ea5 e33d
000001d0: 9568 8f3e 7abe 4e3d 5233 1fbd 6b0a af3e
000001e0: 6c4c cebe 72b3 50be 8ac0 4ebe 74b7 c43e
000001f0: f9be ddbe 5d55 d83c 3177 e2be 6590 80bc
00000200: 275a 253e 0665 cebd 5c5e e03e 4760 c23c
00000210: 6d02 69be 9382 d23d 4605 653e ac3d 94b8
00000220: e313 c43e 9aa8 8abe 1b69 443e eae9 7e3e
00000230: 8005 643e 0123 a03a e59e d03d 9a99 b3be
00000240: 9fd3 b4be c7ca e5bc aa48 88bd c48d a93e
00000250: 09af b23e 94a5 9f3e 6283 52be 221d b3be
00000260: 07c8 dcbe dad4 393e d51f c5be 284f e8be
00000270: f563 63be 762c c2be ee98 3ebe 9194 8fbe
00000280: 7530 6dbe fc14 da3e ae3b adbd 0c13 be3e
00000290: b80c 023c c47b 87bd 59dc 03be e128 a2be
000002a0: 419b b7be 57f5 9e3e 3bf3 09be b090 e1be
000002b0: 4fee d13e 8aee 153c 375c 9abe a2fd b4be
000002c0: 3e1c babe 5f57 c8be 9162 cf3e b0f0 9d3e
000002d0: b839 173d 5dd4 c2be 7e08 f1bd 6b26 d6be
000002e0: 45f3 153e 82d3 f5bd 0015 cabd b106 0fbe
000002f0: f3bb 543e 850e 773e 481d c63d 88c4 c1bd
00000300: 6989 33bd df23 0abc 7f57 acbe 9e15 d73e
00000310: 79fb 46be aea6 843e 98d3 80be 8f84 463c
00000320: 2da1 163e 6ed6 d1be f0f2 5b3e ccf4 b7be
00000330: eb0d 8d3d 8965 b6bd 0b97 883e ecce df3e
00000340: aa40 a83d 1ceb 8abc cde1 5bbe e210 2c3e
00000350: 92aa 5ebe 4c79 363e 3586 46be 54fd 9c3e
00000360: c044 b03e 13b2 923e 3661 ff3b ffb5 413e
00000370: 24c9 d4be 7fb1 b93e 153c efbd 5bdb 283e
00000380: 16d7 9cbd 1d54 17be c4f6 55be 80b1 933e
00000390: 7c43 7bbe d46c b3bd f38a 5d3e c7a1 383d
000003a0: d93e bdbe f5b4 e3be 15f9 5ebe 1235 d13e
000003b0: acbc a2be 7fdc 7e3e e631 a43e 93d2 3dbe
000003c0: 6c04 48be 54d5 a3be 7acb 8e3d 8a54 82bd
000003d0: c766 aa3c 52ad 453e adb9 523e e03f 12be
000003e0: 3b18 fe3c cf50 ef3d 2c6e 0c3c 59c6 b63d
000003f0: dc94 38be cb82 bb3e 1f25 4cbd fd63 28bd

fc2.weight f4 [256, 512]
0.040139385 0.032824833 -0.039395124 -0.017202334 0.020128062 -0.02599742 0.007941453 -0.020159889
0.008221211 0.016813336 0.0069460343 0.030965557 -0.008216274 0.017713958 0.010580376 -0.013466908
-0.03633385 0.041323956 -0.013512463 0.031530593 0.029477227 0.00023473459 -0.04112658 0.0020022057
-0.02025649 0.016119799 -0.018404098 0.0281132 -0.038777858 -0.009680917 0.0034144626 0.004624016
0.034754317 -0.015537953 -0.03579841 0.028906275 0.009279944 0.027691651 -0.02540758 -0.025701085
-0.017552685 0.00048084717 0.016799647 -0.025133574 -0.003572765 -0.0067136227 0.035435334 -0.017286366
0.041030508 -0.02772171 -0.017090425 -0.030823417 0.029088087 -0.032896996 0.01957846 -0.018420143
0.040969577 0.0072995564 -0.038233794 0.00604877 0.0022586542 -0.043733224 0.008485046 0.038983747
0.011747083 -0.0026292591 -0.009240797 0.0067132763 -0.020031538 0.043067183 0.033539463 0.01948513
-0.018518703 -0.042405475 -0.025830096 0.039083093 -0.044491854 -0.0432443 -0.0027737813 0.012806251
-0.048607077 -0.047010962 0.0011498412 -0.019151913 0.025953447 0.012715347 -0.038396545 -0.039221413
0.03151365 -0.0050493325 -0.021188064 0.014114548 -0.012304875 0.020613471 0.007109605 -0.018623639
-0.036292434 0.025379196 -0.029329412 -0.009408259 0.00087094994 -0.026980793 0.023171954 -0.032693986
0.011396399 0.0053539476 0.015354541 -0.04360667 0.0013170718 0.020071823 -0.027657457 0.00877604
0.0013873321 0.031608313 -0.009557179 -0.0015864483 -0.017807616 -0.015204392 0.009006173 -0.04653783
0.032641795 0.030730383 0.01906738 0.027992446 -0.016578618 0.0072502964 -0.004235143 -0.03218164
-0.01630313 -0.015887266 -0.009465945 -0.04091306 -0.033561353 -0.005548018 -0.009966766 -0.042079996
0.009291768 0.022077873 0.034576073 0.03430147 -0.03072087 -0.016470665 -0.023176614 0.0017193711
0.012037749 0.007921581 0.026038349 0.02425605 -0.02400258 0.031075504 0.028153393 0.007959423
-0.042171475 -0.029093955 0.006735668 0.014120579 0.04156631 0.023018474 0.014849433 0.0033742902
0.029317047 -0.017481532 0.01554951 -0.021941021 0.0014335747 0.02413673 0.023980452 -0.010098789
-0.0077440413 -0.02598195 0.019104585 0.03052282 0.011739353 -0.041512452 -0.031232085 0.027941937
-0.009668902 0.025819393 0.03186834 -0.015831916 -0.033187587 -0.03726121 0.009808573 0.019432796
-0.00916283 -0.046183508 -0.029781047 -0.003141615 0.024704846 -0.013391922 -0.030871224 -0.03263551
0.036024783 0.012727032 -0.037240934 -0.029747507 -0.037467226 0.006386469 -0.020634366 0.00068957533
-0.008199091 -0.038203754 -0.039820556 -0.03496412 -0.01895401 0.0067737726 -0.020256529 -0.0030232463
-0.00750082 0.038518816 -0.020558894 0.04025634 -0.03511805 -0.03936081 0.01188523 -0.026889298
0.024412537 -0.020884631 0.033215143 0.044012457 0.0014437748 0.010263911 0.043995332 0.02401733
-0.033584505 0.00039130347 -0.04081859 0.034146935 -0.009449861 0.00047411153 -0.026630512 -0.023522975
0.0023188354 0.039260786 -0.02383108 0.010489992 0.038286835 0.03927584 -0.010647081 0.039766613
0.015679818 0.041546836 0.00043323357 -0.042495426 -0.012346549 0.013075881 0.022872008 -0.043718554
0.031476498 -0.04013034 0.024844108 0.040136874 0.0077816145 -0.013218119 0.02325943 -0.01791154
00000000: 3269 243d 5573 063d c85c 21bd e9eb 8cbc
00000010: 9be3 a43c 8bf8 d4bc de1c 023c 5a26 a5bc
00000020: 42b2 063c 1fbc 893c 8f9b e33b 7bab fd3c
00000030: 8d9d 06bc dd1c 913c 5059 2d3c 4ea4 5cbc
00000040: ced2 14bd 4f43 293d 6163 5dbc 3926 013d
00000050: 3a7a f13c 1623 7639 5874 28bd 7037 033b
00000060: f0f0 a5bc ab0d 843c 31c4 96bc a74d e63c
00000070: 88d5 1ebd b59c 1ebc 2dc5 5f3b 0f85 973b
00000080: 8b5a 0e3d e692 7ebc 5ba1 12bd dacc ec3c
00000090: e80a 183c 9ad9 e23c 8f23 d0bc 158b d2bc
000000a0: a6ca 8fbc 371a fc39 6a9f 893c ede4 cdbc
000000b0: 0d25 6abb f3fd dbbb a424 113d 239c 8dbc
000000c0: 9b0f 283d a418 e3bc 3801 8cbc 6481 fcbc
000000d0: 244a ee3c 00bf 06bd 0263 a03c d7e5 96bc
000000e0: b7cf 273d 1e31 ef3b 0a9b 1cbd c334 c63b
000000f0: ee05 143b 9c21 33bd dd04 0b3c 6cad 1f3d
00000100: d676 403c a64f 2cbb b666 17bc 0bfb db3b
00000110: 2e19 a4bc 3767 303d ad60 093d 489f 9f3c
00000120: 89b4 97bc 5db1 2dbd a399 d3bc 9815 203d
00000130: 173d 36bd ef20 31bd 54c8 35bb 4fd1 513c
00000140: 3718 47bd 918e 40bd 45b6 963a 79e4 9cbc
00000150: 539c d43c 0854 503c b245 1dbd a2a6 20bd
00000160: 7514 013d df74 a5bb 9792 adbc b540 673c
00000170: 639a 49bc 95dd a83c b0f7 e83b 9a90 98bc
00000180: 60a7 14bd 08e8 cf3c 3c44 f0bc 1925 1abc
00000190: 7650 643a d306 ddbc 1cd3 bd3c 21ea 05bd
000001a0: f6b7 3a3c 2b70 af3b 9d91 7b3c e89c 32bd
000001b0: 99a1 ac3a aa6d a43c e491 e2bc 61c9 0f3c
000001c0: 24d7 b53a b877 013d b795 1cbc 5ff0 cfba
000001d0: 47e1 91bc d81b 79bc a18e 133c 749e 3ebd
000001e0: 67b3 053d 49be fb3c 3233 9c3c 6a50 e53c
000001f0: e2cf 87bc e593 ed3b f4c6 8abb e5d0 03bd
00000200: 248e 85bc 0326 82bc 0d17 1bbc 7494 27bd
00000210: a177 09bd 26cc b5bb a64b 23bc 135c 2cbd
00000220: 803c 183c a8dc b43c a49f 0d3d b37f 0c3d
00000230: 55aa fbbc 7ded 86bc e2dc bdbc 855c e13a
00000240: fb39 453c 85c9 013c 604e d53c a0b4 c63c
00000250: 0fa1 c4bc 0e92 fe3c f2a1 e63c 3d68 023c
00000260: ffbb 2cbd 7256 eebc e1b6 dc3b 005a 673c
00000270: 6f41 2a3d 3d91 bc3c 094b 733c 3223 5d3b
00000280: 4e2a f03c 6e35 8fbc 5fc3 7e3c a8bd b3bc
00000290: c9e6 bb3a 64ba c53c a772 c43c 6475 25bc
000002a0: bac1 fdbb 19d8 d4bc 3881 9c3c fe0a fa3c
000002b0: 6a56 403c f608 2abd 6eda ffbc 7de6 e43c
000002c0: 506a 1ebc 3183 d33c 6088 023d efb1 81bc
000002d0: b5ef 07bd 369f 18bd 23b4 203c 8731 9f3c
000002e0: b21f 16bc eb2a 3dbd 62f7 f3bc 8ee3 4dbb
000002f0: d161 ca3c cb69 5bbc a6e5 fcbc d0ac 05bd
00000300: b98e 133d 0b85 503c f389 18bd 0bb1 f3bc
00000310: 3c77 19bd 9645 d13b 6709 a9bc 9ec4 343a
00000320: 7b55 06bc 8a7b 1cbd e11a 23bd 8936 0fbd
00000330: 7145 9bbc 86f6 dd3b 05f1 a5bc a821 46bb
00000340: 70c9 f5bb e8c5 1d3d 206b a8bc d5e3 243d
00000350: f2d7 0fbd cd38 21bd 45ba 423c f246 dcbc
00000360: cdfc c73c 3f16 abbc 9a0c 083d 6846 343d
00000370: 0b3d bd3a f729 283c 7334 343d febf c43c
00000380: e88f 09bd dd27 cd39 6531 27bd a8dd 0b3d
00000390: 97d3 1abc 2c92 f839 3b28 dabc 41b3 c0bc
000003a0: 9af7 173b ebcf 203d 6639 c3bc 37de 2b3c
000003b0: a8d2 1c3d b4df 203d 1871 2ebc 51e2 223d
000003c0: f672 803c 042d 2a3d a023 e339 af0f 2ebd
000003d0: 2e49 4abc 383c 563c 145e bb3c 3a12 33bd
000003e0: 80ed 003d b65f 24bd df85 cb3c 9066 243d
000003f0: eafc fe3b cf90 58bc 8f8a be3c 39bb 92bc

fc2.bias f4 [256]
-0.005222495 0.035588887 -0.033466045 -0.040114798 -0.022105768 0.02986332 -0.03443821 0.034773536
0.0316267 0.045772422 0.01968859 0.007828423 0.013854625 0.03535099 -0.022786153 0.056808542
-0.04308999 -0.04727858 -0.035078615 0.033077892 -0.0055784127 -0.04760325 -0.03363181 -0.028132062
0.005635021 0.043336403 0.021450553 -0.001126223 0.0018774022 0.028155666 -0.009303968 0.00031234254
0.031418882 -0.038171653 0.013566573 -0.027389193 -0.032709204 0.014721267 -0.049464088 0.0330586
-0.021002607 -0.04421519 -0.03938182 0.040554903 -0.039561767 0.025344303 -0.021563483 0.013147714
0.02849337 -0.014630142 0.02009362 -0.017582579 0.0052688625 -0.053325836 0.037308816 0.01616802
0.0020462894 0.031308975 -0.03724298 0.0034531748 0.002286111 -0.014380118 -0.008024636 -0.014175851
0.021109581 -0.041201368 0.020282457 0.01417704 -0.040883534 -0.012768303 -0.014075036 0.03257255
-0.028783917 0.018239312 0.016412567 0.03001009 0.05756487 -0.0008692603 -0.031511344 0.041289248
-0.0011321298 -0.0055394066 0.01044027 0.025835786 0.024319177 -0.024565728 0.031022182 -0.017003499
0.010287007 -0.06079977 -0.004800599 -0.01558942 0.00913726 0.031651907 -0.0070335176 0.0047376836
-0.022799302 0.02683638 -0.016244052 0.019010723 0.030194312 0.03030785 0.04062032 -0.017147707
0.0038769338 -0.012335264 -0.03235383 0.005126839 0.066482775 -0.014391543 0.04183132 -0.012376505
-0.028603712 0.038998824 -0.017685853 0.035933364 -0.036445457 0.0060266876 -0.012658201 -0.042517506
0.016635934 -0.03976034 0.040470622 0.01957215 -0.016834488 -0.017974406 -0.00791911 0.040170796
-0.014085698 0.03540131 -0.03290851 0.0060318275 0.04634401 0.033816315 -0.010980358 0.027767858
0.0014175568 0.015266359 0.025392665 0.033086672 -0.0063413032 0.033404484 -0.0033435884 0.04172723
0.008035379 -0.0034454856 0.043967307 0.01685466 0.037150063 -0.030460926 0.044844132 0.02556196
0.03436097 -0.031838056 -0.051655587 -0.03302346 -0.025462104 0.025334772 0.018952254 -0.01655666
0.008416696 -0.015090874 -0.023141164 0.015245367 0.019954888 0.047835514 0.048036955 -0.02342571
-0.03508586 -0.034394514 0.018932061 -0.020608125 0.0038255611 0.00022747001 -0.041685577 -0.012079143
-0.016472148 -0.015136154 -0.028234972 -0.012280323 -0.04055348 -0.038514737 -0.034659553 -0.037220996
-0.010794989 -0.03475805 0.012739237 -0.032654107 -0.024087343 -0.020344874 0.0009048335 0.056067333
0.0040006503 0.02150211 0.00263747 -0.0027801695 0.019124616 -0.03583433 -0.008287965 0.04359102
0.014935494 -0.03807336 -0.00034539535 -0.04386613 -0.015577515 -0.01042483 -0.034804717 -0.045700863
0.006055963 -0.0042959293 -0.020438427 0.001141891 -0.0379662 0.036202237 -0.0032417492 0.020233868
-0.0007944198 -0.040586315 0.05063417 0.034433216 -0.0063574305 0.037323065 -0.014616448 -0.04193315
0.005136576 0.0229221 -0.008862357 -0.0024208187 -0.039397426 0.01141973 0.00622195 -0.038952827
0.0076190387 0.0011411574 0.021182632 -0.02595422 -0.031377222 -0.008674533 0.00036482757 0.035043195
0.041090894 0.005313704 0.008809481 -0.0074105468 0.036648706 -0.043885246 0.020451512 -0.028454462
-0.03003022 -0.017595697 -0.026467249 0.01008677 -0.001630992 -0.001876796 -0.05648693 0.028248299
00000000: 7721 abbb a7c5 113d b113 09bd 6a4f 24bd
00000010: 2817 b5bc eca3 f43c 150f 0dbd b26e 0e3d
00000020: 008b 013d dd7b 3b3d f749 a13c c942 003c
00000030: 82fe 623c 33cc 103d 07aa babc 13b0 683d
00000040: 217f 30bd 2fa7 41bd 98ae 0fbd af7c 073d
00000050: 1ecb b6bb a0fb 42bd 82c1 09bd 3675 e6bc
00000060: fba5 b83b 8381 313d 12b9 af3c c69d 93ba
00000070: 2a13 f63a b6a6 e63c ac6f 18bc e8c1 a339
00000080: 16b1 003d e159 1cbd 5546 5e3c 4d5f e0bc
00000090: 16fa 05bd 7831 713c db9a 4abd 7468 073d
000000a0: a90d acbc fd1a 35bd d54e 21bd e61c 263d
000000b0: 850b 22bd db9e cf3c e7a5 b0bc 8269 573c
000000c0: ee6a e93c 43b3 6fbc 609b a43c 5709 90bc
000000d0: 6ca6 ac3b 316c 5abd 21d1 183d cc72 843c
000000e0: 0a1b 063b d73d 003d 188c 18bd a94e 623b
000000f0: 94d2 153b 969a 6bbc c379 03bc d441 68bc
00000100: 00ee ac3c c4c2 28bd 6527 a63c d146 683c
00000110: 7e75 27bd 2532 51bc fb9a 66bc cb6a 053d
00000120: 40cc ebbc 9c6a 953c a673 863c b8d7 f53c
00000130: 24c9 6b3d 12df 63ba 0a12 01bd ea1e 293d
00000140: f963 94ba e983 b5bb ab0d 2b3c 92a5 d33c
00000150: 0339 c73c 113e c9bc 3b22 fe3c ec4a 8bbc
00000160: d68a 283c 2e09 79bd 584e 9dbb c46a 7fbc
00000170: 72b4 153c 6ea5 013d 6c79 e6bb 923e 9b3b
00000180: 9ac5 babc f8d7 db3c 3f12 85bc 60bc 9b3c
00000190: 105a f73c 2b48 f83c 7e61 263d 5979 8cbc
000001a0: 2814 7e3b d919 4abc 7385 04bd 0bff a73b
000001b0: 1f28 883d 82ca 6bbc 5157 2b3d d3c6 4abc
000001c0: 5552 eabc 3bbd 1f3d ece1 90bc dd2e 133d
000001d0: d547 15bd 857b c53b 5864 4fbc d626 2ebd
000001e0: 1548 883c bddb 22bd 86c4 253d c655 a03c
000001f0: 7be8 89bc 103f 93bc 28bf 01bc 228a 243d
00000200: b3c7 66bc f700 113d 13cb 06bd a3a6 c53b
00000210: 37d3 3d3d fa82 0a3d f6e6 33bc 6b79 e33c
00000220: 50cd b93a c01f 7a3c 4704 d03c e485 073d
00000230: b5ca cfbb 24d3 083d 1b20 5bbb 2cea 2a3d
00000240: d3a6 033c a8cd 61bb 1017 343d c912 8a3c
00000250: aa2a 183d 3189 f9bc 7bae 373d 5167 d13c
00000260: 17be 0c3d 9f68 02bd cf94 53bd 9c43 07bd
00000270: e795 d0bc de8a cf3c c241 9b3c d5a1 87bc
00000280: 2fe6 093c b73f 77bc 8a92 bdbc b4c7 793c
00000290: 6f78 a33c 2cef 433d 66c2 443d 46e7 bfbc
000002a0: 31b6 0fbd 43e1 0cbd 6917 9b3c 5fd2 a8bc
000002b0: 44b6 7a3b 0485 6e39 7fbe 2abd 99e7 45bc
000002c0: 99f0 86bc a2fd 77bc 074d e7bc 6833 49bc
000002d0: 681b 26bd a1c1 1dbd 2df7 0dbd 0b75 18bd
000002e0: 77dd 30bc 755e 0ebd 3cb8 503c 50c0 05bd
000002f0: d252 c5bc 4baa a6bc 5932 6d3a dca6 653d
00000300: e317 833b 3125 b03c 67d9 2c3b 8133 36bb
00000310: 3aab 9c3c 05c7 12bd 3fca 07bc 7f8c 323d
00000320: 01b4 743c d0f2 1bbd 2e16 b5b9 f9ac 33bd
00000330: d538 7fbc e8cc 2abc 648f 0ebd d430 3bbd
00000340: 1a71 c63b dec4 8cbb 7d6e a7bc 81ab 953a
00000350: 7282 1bbd cc48 143d 8773 54bb 7fc1 a53c
00000360: 9c40 50ba d63d 26bd c765 4f3d d809 0d3d
00000370: fe51 d0bb 12e0 183d d479 6fbc 18c2 2bbd
00000380: b950 a83b 21c7 bb3c 6b33 11bc 99a6 1ebb
00000390: 325f 21bd d219 3b3c 80e1 cb3b 008d 1fbd
000003a0: 21a9 f93b e392 953a 3387 ad3c f29d d4bc
000003b0: 6785 00bd a11f 0ebc 5446 bf39 7489 0f3d
000003c0: ed4e 283d 941e ae3b a455 103c 2cd4 f2bb
000003d0: f41c 163d 04c1 33bd ee89 a73c 5519 e9bc
000003e0: f001 f6bc da24 90bc d8d1 d8bc fb42 253c
000003f0: 03c7 d5ba d3fe f5ba d75e 67bd fa68 e73c

fc3.weight f4 [128, 256]
-0.015515116 -0.036037598 0.026209706 0.048443403 -0.01680379 -0.058781408 0.028715916 0.04139137
0.031667266 0.03820718 0.04584148 -0.0496195 -0.04394545 0.03231888 -0.019392831 0.037892856
0.04526447 -0.009439092 -0.056121167 0.009317614 0.02986188 0.026720144 0.021045709 -0.017309753
0.051307883 0.035041954 0.057232533 -0.03342348 -0.021938208 0.03075138 0.041387368 0.064908706
-0.05099576 0.021409003 0.018413404 -0.035977 -0.006951377 0.02162351 -0.023617178 0.045895506
-0.009786894 -0.010818179 0.01928366 -0.021039855 -0.0372567 0.057880804 0.008727619 -0.050352816
0.05259669 0.037324097 -0.0114231035 -0.02426556 -0.021533836 -0.022858022 0.047309544 0.011619413
0.0026929835 -0.026097637 0.059710175 -0.025486894 -0.04396939 -0.045754995 0.051898852 0.026863521
-0.06532458 -0.047432438 -0.007831325 0.044584855 0.0035042756 0.06289595 -0.050787654 0.030065993
-0.018901333 0.01176774 -0.014864186 -0.041386668 -0.055905007 -0.044517282 -0.034155205 -0.053928338
0.011992993 -0.010353983 0.007267038 -0.025095522 -0.048768204 -0.048653558 -0.023065263 -0.06060451
0.033438828 0.040110547 -0.039921083 0.016338732 -0.04245255 -0.020839803 -0.02088404 -0.044306513
0.025271859 0.014482437 0.008543436 0.0065136612 -0.057487514 0.015080323 0.04329947 -0.030750742
-0.051572263 -0.0012526523 0.029433096 0.014794648 0.04020267 -0.0071265735 -0.005991032 -0.054661732
-0.061337687 -0.05292131 -0.051597144 0.01012867 -0.014846222 -0.026767608 -0.0566213 0.051655114
-0.003419991 0.031251013 -0.056717865 -0.038265996 0.03904824 0.038850643 -0.046013713 0.05147901
0.03636807 0.050911825 -0.047755297 -0.061355453 -0.053656023 0.003405369 0.018442765 -0.012667853
-0.018526066 0.016497979 -0.037688013 -0.03927613 -0.05594112 0.012437294 -0.051474508 0.01597556
-0.0023011027 -0.04196065 0.05002783 0.03766954 0.048325453 -0.0547989 -0.04233465 -0.032620896
0.0057032728 0.028601278 -0.060833987 0.014971927 0.061460968 0.042564414 -0.016459575 0.002451976
0.00012870495 0.053970788 0.050337464 -0.010269144 -0.032704096 -0.018908834 0.036146075 0.040975887
0.030865291 -0.021487067 -0.0024098589 0.011205994 0.026102388 -0.050836686 0.013879878 -0.02312932
-0.014020358 0.035863616 0.025113275 0.052615974 0.03508197 -0.04701034 -0.0022899564 -0.056445688
-0.0048606093 0.0031122149 0.0050697285 0.0127785895 0.008352199 -0.058438815 -0.013566501 -0.010288801
0.046696823 -0.061762758 0.005178095 -0.032410923 -0.014832334 -0.04135952 -0.0014371311 0.03096263
-0.040245943 -0.021716459 0.06320473 -0.021334728 0.016891325 -0.04949084 0.039625175 -0.0026980978
-0.02178793 -0.020703882 0.058773432 0.04946839 -0.034536824 -0.058024038 0.02406065 -0.0032835659
0.0055624046 0.029882776 -0.051077455 0.028791381 -0.029811157 0.014179962 -0.00866184 -0.005371728
0.041645136 -0.01175341 0.015431992 0.0060020178 0.059561003 -0.044355836 0.059709 0.014602189
-0.0010663088 -0.002949631 -0.009257995 0.004278947 -0.019269358 0.0059321476 0.06031128 -0.010661421
0.025799653 -0.0026861425 -0.014060783 -0.019419948 0.008533675 -0.008532383 0.010008685 -0.050764985
-0.0060284226 -0.053073127 -0.055269618 -0.011705172 0.009534569 0.055199165 -0.003245786 0.0144426655
00000000: 1d33 7ebc 299c 13bd bdb5 d63c 976c 463d
00000010: 1aa8 89bc c6c4 70bd a43d eb3c ff89 293d
00000020: 89b5 013d 227f 1c3d 47c4 3b3d d13d 4bbd
00000030: 2500 34bd cd60 043d b7dd 9ebc 8a35 1b3d
00000040: 3d67 393d 6ca6 1abc 4fdf 65bd e8a8 183c
00000050: e7a0 f43c 34e4 da3c 0d68 ac3c 2fcd 8dbc
00000060: 3728 523d 2788 0f3d a96c 6a3d 0fe7 08bd
00000070: c2b7 b3bc 51ea fb3c cd85 293d dbee 843d
00000080: eee0 50bd ef61 af3c b5d7 963c 9e5c 13bd
00000090: 60c8 e3bb ca23 b13c d078 c1bc edfc 3b3d
000000a0: 3559 20bc bb3e 31bc c4f8 9d3c c65b acbc
000000b0: 7b9a 18bd 6c14 6d3d 4afe 0e3c c13e 4ebd
000000c0: a06f 573d 27e1 183d f827 3bbc 91c8 c6bc
000000d0: ba67 b0bc bf40 bbbc a7c7 413d 5a5f 3e3c
000000e0: c47c 303b b6ca d5bc a892 743d e4c9 d0bc
000000f0: 3f19 34bd 9769 3bbd e493 543d e310 dc3c
00000100: e5c8 85bd 8448 42bd f54e 00bc 9c9e 363d
00000110: fda7 653b 98cf 803d b706 50bd f54c f63c
00000120: f8d6 9abc 7bcd 403c ea88 73bc 1185 29bd
00000130: a6fc 64bd c157 36bd 54e6 0bbd f6e3 5cbd
00000140: 427e 443c c1a3 29bc 5520 ee3b 2095 cdbc
00000150: 2bc1 47bd f448 47bd 5df3 bcbc 6f3c 78bd
00000160: 27f7 083d f54a 243d 4a84 23bd ced8 853c
00000170: bae2 2dbd 3cb8 aabc 0215 abbc bf7a 35bd
00000180: ee06 cf3c be47 6d3c c5f9 0b3c 8d70 d53b
00000190: 0778 6bbd 7613 773c c95a 313d fbe8 fbbc
000001a0: 703d 53bd 0930 a4ba ad1d f13c 4065 723c
000001b0: 8eab 243d 0886 e9bb 6b50 c4bb fbe4 5fbd
000001c0: 3a3d 7bbd 04c4 58bd 8757 53bd b9f2 253c
000001d0: 913d 73bc be47 dbbc bceb 67bd 5094 533d
000001e0: ed21 60bb 1001 003d fe50 68bd cebc 1cbd
000001f0: 0cf1 1f3d da21 1f3d e078 3cbd a8db 523d
00000200: aff6 143d eb88 503d 0f9b 43bd db4f 7bbd
00000210: 6bc6 5bbd 9c2c 5f3b 4815 973c d48c 4fbc
00000220: fac3 97bc c526 873c bf5e 1abd 02e0 20bd
00000230: 8422 65bd cbc5 4b3c efd6 52bd 2ddf 823c
00000240: 19ce 16bb eede 2bbd fbe9 4c3d 604b 1a3d
00000250: e9f0 453d d074 60bd 1967 2dbd 7d9d 05bd
00000260: 85e2 ba3b 3a4d ea3c 0f2d 79bd d04c 753c
00000270: 7fbe 7b3d 0658 2e3d 3bd6 86bc 55b1 203b
00000280: f9f4 0639 7910 5d3d a82e 4e3d e93f 28bc
00000290: bbf4 05bd b3e6 9abc e80d 143d 55d6 273d
000002a0: 35d9 fc3c a505 b0bc b9ee 1dbb 5899 373c
000002b0: add4 d53c 213a 50bd 6e68 633c b379 bdbc
000002c0: a5b5 65bc bae5 123d 5bba cd3c d983 573d
000002d0: 1db2 0f3d ea8d 40bd 1813 16bb 9833 67bd
000002e0: bf45 9fbb 4df6 4b3b f71f a63b 4a5d 513c
000002f0: a9d7 083c 8a5d 6fbd 0846 5ebc 5c92 28bc
00000300: 2b45 3f3d f2fa 7cbd 02ad a93b 51c1 04bd
00000310: 5103 73bc 9a68 29bd 1e5e bcba 57a5 fd3c
00000320: eed8 24bd b7e6 b1bc 7b71 813d 2bc6 aebc
00000330: ad5f 8a3c e8b6 4abd 024e 223d 92d2 30bb
00000340: 9a7c b2bc 309b a9bc 69bc 703d 5e9f 4a3d
00000350: 7c76 0dbd 9daa 6dbd d71a c53c 1831 57bb
00000360: d544 b63b b9cc f43c 9836 51bd e7db eb3c
00000370: 8736 f4bc 1253 683c 64ea 0dbc 5205 b0bb
00000380: 1794 2a3d 6091 40bc 77d6 7c3c 93ac c43b
00000390: 3df6 733d 77ae 35bd 6d91 743d 053e 6f3c
000003a0: 63c3 8bba 994e 41bb d8ae 17bc 6936 8c3b
000003b0: c6da 9dbc 7662 c23b f608 773d 3ead 2ebc
000003c0: cb59 d33c fe09 30bb 335f 66bc 9516 9fbc
000003d0: d4d0 0b3c 68cb 0bbc 78fb 233c f2ee 4fbd
000003e0: 138a c5bb 3563 59bd 6562 62bd 0dc7 3fbc
000003f0: e236 1c3c 8518 623d 41b7 54bb eea0 6c3c

fc3.bias f4 [128]
0.035195895 -0.030584563 0.06277101 -0.047793306 0.019526068 0.0003873995 0.018859616 -0.026539898
0.07403657 0.021054666 -0.0034524587 -0.0161182 0.044822484 0.010532908 -0.047608554 0.045044877
-0.023423588 0.0035517528 -0.040400743 0.0014039426 0.061137117 -0.049003568 -0.05562581 -0.00017754929
-0.023764545 -0.034707457 0.04317736 -0.0621627 -0.009882828 0.06549617 0.007467777 0.037192665
-0.05064347 0.029805489 0.010628473 -0.0026100373 0.035560604 -0.024471426 0.009333297 0.04612105
0.013260787 0.05920369 0.053780403 0.033681925 -0.02865465 0.025053551 0.017538164 0.043620814
0.0074845846 0.015701242 -0.033815008 0.070847824 0.0028964402 -0.05969908 -0.012834492 -0.06483439
-0.011727807 0.036174733 0.04269334 -0.014556879 -0.030981917 0.003439505 0.022751546 0.006677484
-0.003790647 0.021598976 0.056450352 0.040219504 -0.04974771 -0.050088033 -0.0003732495 -0.013576349
0.047579642 0.052925702 -0.0045391363 -0.034719706 0.043486066 0.023097327 0.031970456 0.037754416
-0.035594013 0.01204233 -0.053934667 -0.032979872 -0.059601653 -0.03632866 0.056720465 0.041213445
0.049853805 -0.053800974 0.019189434 -0.006621872 -0.025418438 -0.029080376 -0.064194635 -0.005532373
-0.021944052 -0.007166169 0.005537385 0.06952786 -0.059132535 -0.02535395 0.014558885 0.011041136
-0.011903388 0.003402967 -0.0427479 -0.015376591 0.027803756 -0.026630642 -0.065152906 0.026839573
0.051687844 -0.031894937 0.009107988 -0.00023851985 -0.026830686 0.031932592 -0.07126956 0.057951134
-0.036084324 0.021101126 0.013687298 0.021118062 0.0013901357 0.06443216 0.01848262 -0.038826607
00000000: 9229 103d 7a8c fabc 168e 803d eac2 43bd
00000010: 22f5 9f3c e11b cb39 7b7f 9a3c 336a d9bc
00000020: 7ca0 973d d67a ac3c a542 62bb 510a 84bc
00000030: c897 373d 3892 2c3c 3001 43bd fa80 383d
00000040: d3e2 bfbc 86c4 683b 407b 25bd 7f04 b83a
00000050: ea6a 7a3d f7b7 48bd e4d7 63bd 862c 3ab9
00000060: ddad c2bc 6829 0ebd beda 303d 519e 7ebd
00000070: 96eb 21bc db22 863d 41b4 f43b 5657 183d
00000080: 876f 4fbd a42a f43c 0c23 2e3c 290d 2bbb
00000090: ffa7 113d 4d78 c8bc afea 183c 6de9 3c3d
000000a0: c643 593c 927f 723d d748 5c3d 0ff6 093d
000000b0: 28bd eabc 1b3d cd3c 32ac 8f3c bdab 323d
000000c0: 3f41 f53b e49f 803c 9b81 0abd aa18 913d
000000d0: 34d2 3d3b 0687 74bd c347 52bc e5c7 84bd
000000e0: fd25 40bc f52b 143d 36df 2e3d fa7f 6ebc
000000f0: cacd fdbc 5169 613b 7361 ba3c ccce da3b
00000100: 816c 78bb 56f0 b03c 7c38 673d 35bd 243d
00000110: 41c4 4bbd 1c29 4dbd b3b0 c3b9 566f 5ebc
00000120: dfe2 423d 9fc8 583d 09bd 94bb 4036 0ebd
00000130: 721e 323d 9b36 bd3c 74f3 023d 60a4 1a3d
00000140: 07cb 11bd 314d 453c 99ea 5cbd e715 07bd
00000150: dd20 74bd 5ccd 14bd b853 683d 6ecf 283d
00000160: 8133 4c3d 695e 5cbd 2933 9d3c 4afc d8bb
00000170: 543a d0bc f839 eebc 7a78 83bd e948 b5bb
00000180: 03c4 b3bc 2fd2 eabb f472 b53b 9f64 8e3d
00000190: f534 72bd 16b3 cfbc 6488 6e3c e2e5 343c
000001a0: 6e06 43bc 5004 5f3b 6c18 2fbd 19ee 7bbc
000001b0: b4c4 e33c 8128 dabc e36e 85bd aade db3c
000001c0: a2b6 533d 44a4 02bd ac39 153c 2f1b 7ab9
000001d0: 07cc dbbc c0cb 023d c6f5 91bd 2b5e 6d3d
000001e0: 28cd 13bd 45dc ac3c b040 603c c9ff ac3c
000001f0: 3735 b63a 02f5 833d dd68 973c a608 1fbd

bn1.weight f4 [512]
1.0000138 0.99426126 0.9998825 0.9995089 1.0004251 1.0004729 0.9971312 0.9990314
0.99956185 0.9987959 0.9978997 0.9993454 1.0000021 1.0007247 0.9987402 0.99881697
0.99890804 1.000157 1.0003772 0.999067 1.0011445 1.0007561 0.999778 1.000196
1.0012563 0.9998765 0.9995897 1.0023396 0.9993634 0.9986195 1.0010006 1.0013291
1.001489 1.0011815 0.9982083 0.9989687 1.0013065 1.0004435 0.999124 0.99973536
1.0012106 0.9981973 1.0005151 0.9989231 0.9974014 1.0008684 1.0010247 0.99810153
0.99949044 0.99849445 1.0027266 1.0007094 0.9999509 1.0005597 0.9967306 1.0003215
0.99832743 0.999873 0.9999332 1.0018716 0.9997406 0.99815375 1.0012422 0.9991272
0.9974126 1.0006446 1.0002773 1.0006442 0.99904025 0.9998696 0.99818635 1.0009266
1.0022458 1.0010648 1.0019488 0.99956137 0.9994645 0.9986555 0.99980414 1.0010941
1.000236 1.000011 1.0014954 1.0019257 0.9992942 1.000054 0.9998525 1.0009199
0.99867016 0.9988499 1.0010325 1.0009787 1.0012105 0.99949914 1.0023384 0.99945164
0.9984865 1.0009023 0.9996943 1.001528 1.0015575 1.0006471 1.0006127 0.9993346
0.99850374 1.0000132 0.99969834 1.0010242 0.9992043 0.9986409 0.9979858 1.0006456
0.9984743 0.99777526 0.99930286 1.0017966 0.9972617 0.999939 1.0002663 0.9992776
0.99958664 1.000524 0.99902874 0.99984837 0.9992571 0.9986805 0.99497736 1.0000937
0.9983348 0.9998421 0.99961644 1.0001708 1.0007715 1.0018919 1.0000257 0.9990456
0.9973373 0.9984803 0.99935234 0.9995859 0.999471 1.0016918 1.0006613 1.0027411
1.0003837 0.9976335 1.0047177 1.0008773 1.0006669 1.000926 0.9993329 1.0020095
1.000074 1.0016602 1.0008291 0.9994627 1.0005057 0.9994161 0.9984464 1.0002899
0.99921143 1.0012116 1.0005227 0.99331445 1.0003082 1.0005281 1.0004988 1.0015757
1.0026681 0.9999849 0.9991572 1.0005324 1.0020897 0.9999239 0.9982444 0.9980783
1.0000502 1.0002699 0.99967504 1.0002592 1.000333 0.99810374 1.0000095 0.9973269
1.0011156 1.0002304 1.0009801 0.999503 1.00278 0.9996726 1.0003877 1.0008312
1.0003165 0.99453944 1.0006819 0.9995382 1.0001704 0.9991938 0.9991391 1.0017259
1.0004131 1.000776 0.9996204 1.0019039 0.99891245 0.9998777 0.99987024 0.9996582
1.0008523 0.9996139 0.9994217 0.99872035 0.9981319 1.0013566 0.9996192 1.0003967
0.99913675 0.99851704 0.9998589 0.9998635 1.0010608 1.0024086 0.99909395 1.0020365
1.0004872 0.9979917 0.99999136 1.0002892 0.9985558 0.99976194 0.99928486 0.9986234
1.0004678 1.0003622 1.0000666 1.0006167 0.99999976 0.9999759 0.99942625 0.99805206
1.0009998 1.0017195 0.9992228 0.99911326 1.0023267 1.0002463 0.9991066 0.99919254
1.0006315 1.0015895 1.000462 1.0012583 1.0010251 1.0006326 1.0001673 0.9998628
00000000: 7400 803f e887 7e3f 4df8 7f3f d1df 7f3f
00000010: ee0d 803f 7f0f 803f fe43 7f3f 86c0 7f3f
00000020: 49e3 7f3f 17b1 7f3f 5b76 7f3f 1ad5 7f3f
00000030: 1200 803f bf17 803f 70ad 7f3f 78b2 7f3f
00000040: 70b8 7f3f 2505 803f 5c0c 803f dbc2 7f3f
00000050: 8125 803f c718 803f 73f1 7f3f 6c06 803f
00000060: 2b29 803f e8f7 7f3f 1ce5 7f3f aa4c 803f
00000070: 48d6 7f3f 87a5 7f3f ca20 803f 8d2b 803f
00000080: cb30 803f b726 803f 948a 7f3f 6abc 7f3f
00000090: d02a 803f 880e 803f 97c6 7f3f a8ee 7f3f
000000a0: ab27 803f dc89 7f3f e110 803f 6db9 7f3f
000000b0: b355 7f3f 751c 803f 9421 803f 9583 7f3f
000000c0: 9bde 7f3f 559d 7f3f 5859 803f 3f17 803f
000000d0: c8fc 7f3f 5712 803f bd29 7f3f 890a 803f
000000e0: 6392 7f3f adf7 7f3f 9ffb 7f3f 543d 803f
000000f0: 00ef 7f3f 0187 7f3f b428 803f cdc6 7f3f
00000100: 6f56 7f3f 1f15 803f 1609 803f 1c15 803f
00000110: 1ac1 7f3f 74f7 7f3f 2489 7f3f 5d1e 803f
00000120: 9749 803f e422 803f dc3f 803f 41e3 7f3f
00000130: e8dc 7f3f e3a7 7f3f 2af3 7f3f da23 803f
00000140: bc07 803f 5c00 803f 0031 803f 1a3f 803f
00000150: bfd1 7f3f c501 803f 55f6 7f3f 251e 803f
00000160: d9a8 7f3f a1b4 7f3f d521 803f 1220 803f
00000170: aa27 803f 2ddf 7f3f a04c 803f 10dc 7f3f
00000180: d09c 7f3f 911d 803f f7eb 7f3f 1232 803f
00000190: 0933 803f 3415 803f 1414 803f 64d4 7f3f
000001a0: f19d 7f3f 6f00 803f 3bec 7f3f 9021 803f
000001b0: dacb 7f3f eea6 7f3f ff7b 7f3f 2815 803f
000001c0: 039c 7f3f 336e 7f3f 50d2 7f3f df3a 803f
000001d0: 8b4c 7f3f 01fc 7f3f ba08 803f a8d0 7f3f
000001e0: e9e4 7f3f 2c11 803f 59c0 7f3f 10f6 7f3f
000001f0: 50cf 7f3f 86a9 7f3f d6b6 7e3f 1203 803f
00000200: df92 7f3f a7f5 7f3f dde6 7f3f 9905 803f
00000210: 4819 803f fe3d 803f d800 803f 74c1 7f3f
00000220: 7f51 7f3f 689c 7f3f 8ed5 7f3f dde4 7f3f
00000230: 55dd 7f3f 7037 803f ab15 803f d259 803f
00000240: 930c 803f e964 7f3f 979a 803f bf1c 803f
00000250: da15 803f 581e 803f 48d4 7f3f d941 803f
00000260: 6d02 803f 6736 803f 2b1b 803f cadc 7f3f
00000270: 9210 803f bcd9 7f3f 2f9a 7f3f 8009 803f
00000280: 52cc 7f3f b427 803f 2111 803f db49 7e3f
00000290: 190a 803f 4e11 803f 5810 803f a233 803f
000002a0: 6e57 803f 03ff 7f3f c4c8 7f3f 7211 803f
000002b0: 7a44 803f 03fb 7f3f f28c 7f3f 0f82 7f3f
000002c0: a501 803f d808 803f b4ea 7f3f 7e08 803f
000002d0: e90a 803f ba83 7f3f 5000 803f d150 7f3f
000002e0: 8e24 803f 8d07 803f 1e20 803f 6edf 7f3f
000002f0: 185b 803f 8bea 7f3f b40c 803f 3d1b 803f
00000300: 5f0a 803f 239a 7e3f 5816 803f bce1 7f3f
00000310: 9505 803f 2acb 7f3f 94c7 7f3f 8e38 803f
00000320: 890d 803f 6e19 803f 1fe7 7f3f 633e 803f
00000330: bab8 7f3f fcf7 7f3f 7ff7 7f3f 9ae9 7f3f
00000340: ee1b 803f b2e6 7f3f 1ada 7f3f 23ac 7f3f
00000350: 9285 7f3f 742c 803f 0be7 7f3f 000d 803f
00000360: 6dc7 7f3f d09e 7f3f c1f6 7f3f 0ef7 7f3f
00000370: c322 803f ed4e 803f 9fc4 7f3f bb42 803f
00000380: f70f 803f 627c 7f3f 6fff 7f3f 7a09 803f
00000390: 5aa1 7f3f 66f0 7f3f 22d1 7f3f c8a5 7f3f
000003a0: 540f 803f de0b 803f 2f02 803f 3514 803f
000003b0: fcff 7f3f 6cfe 7f3f 66da 7f3f 5780 7f3f
000003c0: c320 803f 5838 803f 11cd 7f3f e3c5 7f3f
000003d0: 3e4c 803f 1208 803f 73c5 7f3f 15cb 7f3f
000003e0: b114 803f 1634 803f 240f 803f 3b29 803f
000003f0: 9721 803f bb14 803f 7b05 803f 02f7 7f3f

bn1.bias f4 [512]
-0.00078403286 9.7460834e-05 0.0043563945 0.0027560443 0.008682315 -0.0094597535 -0.002837436 0.008815081
0.0043363106 -0.004251298 0.007867407 -0.014102816 -0.005724733 -0.00036112996 0.008030262 0.0062321564
0.015517811 0.0017071142 0.0048661176 -0.008748908 -0.00403496 0.007062497 0.0027343994 -0.005221683
0.010513543 -0.00073537126 -0.020197116 -0.0126317 0.0056837834 0.0025539228 0.0064446344 0.014696871
-0.010513391 -0.001741898 0.0069977157 -0.012784317 -0.003458264 0.007376864 0.0034414819 0.016963989
0.00263018 -0.00427745 -7.70645e-05 -0.0035450433 -0.012077541 0.0008457558 0.0009165624 0.011099391
0.011846881 0.015606587 0.014214717 -0.015635071 -0.004141684 0.001099931 -0.015440178 9.6991185e-05
-0.01069146 0.0075172083 0.0078228535 0.0058586844 0.00048267443 -0.0029739775 -0.0039579766 -0.020052943
-0.0066782236 0.0017663101 -0.009696198 -0.0020370365 -0.014705188 -0.004271275 -0.0025681593 -0.00019404296
-0.0037233827 0.013924212 0.0009801022 -0.0046166917 -0.003182504 -0.0011949266 -0.0060771126 0.0060205786
0.002276167 -0.025717601 0.008321583 -0.0077803596 -0.0009875562 0.013881845 0.008051486 -0.0014025233
0.006799649 0.000885244 0.0059887953 0.0113058565 0.011507827 -0.012358244 -0.005154536 0.0057029957
0.011415639 -0.012727932 -0.006630406 0.007984876 0.003303956 -0.00549751 -0.013518508 -0.0057319505
-0.004128602 0.01028763 0.023103986 -0.016760511 0.0065514357 -0.007243661 -0.018054636 -0.0019879916
0.012360491 -0.010876623 -0.018775662 -0.0070090843 0.0040577883 -0.010434938 -0.0025783714 -0.0009876592
-0.01656132 0.022638023 0.006787625 -0.01369213 -0.011020209 0.006866228 0.02750874 0.020063866
0.006213483 -0.013496613 0.015275949 -0.0067232987 -0.0019754604 0.012006893 0.008342959 0.010439974
-0.00117183 0.006072837 0.0043683564 0.0028516336 0.018756436 0.006049662 -0.0069185244 0.0018896855
-0.0079184985 -0.003745243 0.008073802 0.0110720415 -0.010524955 0.010423024 -0.021307023 0.007528431
0.0037825508 -0.014060576 0.005576846 -0.008794341 0.009828695 -0.0069751604 -0.009645769 0.000119427015
0.0033696902 -0.011855001 -0.0029179258 -0.0055104787 0.023495685 0.0066756983 -0.019497646 -0.0056386576
-0.0048524532 0.0012628459 0.0034413624 -0.007912207 -0.013531554 0.0108748255 -0.015971905 -0.0046914546
0.0042513167 -0.00038384116 -0.008402673 0.010690881 0.0036288858 0.014810225 0.008347652 -0.0022822884
-0.0119365305 -0.02415378 -0.009216582 0.0033185969 0.007912499 -0.0034496344 -0.025326341 -0.00811494
-0.017285468 -0.008505264 -0.007886031 -0.004951396 -0.0029717265 0.005693073 -0.01309043 -0.0068695443
0.020136604 -0.009606933 -0.0071751224 0.0013333632 -0.006051204 -0.0016711364 -0.0005409121 0.014411185
0.012638918 0.012670482 -0.0027979137 0.0055670934 -0.008242489 -0.004536887 0.0006462054 -0.01744803
0.0074179014 0.0041399323 -0.0073619755 0.021517606 -0.011831126 -0.004716546 -0.0030846787 -0.006126308
-0.0035024204 -0.022627732 0.0033704503 0.0014580295 -0.01255606 0.0033713316 -0.0013428904 -0.01360529
-0.0053596217 0.0120011 0.0242599 -0.011332637 -0.014693006 0.012542506 -0.0029637092 -0.018850114
-0.015682932 -0.0033877827 -0.020045863 -0.010194098 -0.0019115517 0.022962464 -0.014712033 -0.00034243293
-0.0037780625 -0.005258206 0.008370085 -0.013477148 -0.004420657 0.012032444 0.013205673 0.004409105
00000000: 8e87 4dba e363 cc38 16c0 8e3b c09e 343b
00000010: 4540 0e3c 15fd 1abc 47f4 39bb 216d 103c
00000020: 9c17 8e3b 794e 8bbb 4ce6 003c 7f0f 67bc
00000030: 8b96 bbbb 0b56 bdb9 5c91 033c 1e37 cc3b
00000040: 6b3e 7e3c 3fc1 df3a f473 9f3b 9457 0fbc
00000050: b337 84bb 856c e73b 9c33 333b a71a abbb
00000060: ff40 2c3c eec5 40ba 6c74 a5bc 31f5 4ebc
00000070: 083f ba3b b75f 273b 832d d33b 25cb 703c
00000080: 5c40 2cbc 6650 e4ba 184d e53b 5075 51bc
00000090: 0ba4 62bb 9fb9 f13b 7c8a 613b 10f8 8a3c
000000a0: 195f 2c3b da29 8cbb b09d a1b8 f553 68bb
000000b0: e1e0 45bc b6b5 5d3a 7645 703a 38da 353c
000000c0: 6c19 423c c5b2 7f3c d8e4 683c 1f15 80bc
000000d0: f7b6 87bb 8f2b 903a cdf8 7cbc bf67 cb38
000000e0: 3c2b 2fbc ea52 f63b 6d2b 003c 35fa bf3b
000000f0: 770f fd39 10e7 42bb eab1 81bb 1246 a4bc
00000100: 00d5 dabb 8883 e73a cddc 1ebc cd7f 05bb
00000110: 07ee 70bc 0df6 8bbb 904e 28bb 0378 4bb9
00000120: ff03 74bb 6122 643c c676 803a 9e47 97bb
00000130: 8f91 50bb 159f 9cba 8422 c7bb 4648 c53b
00000140: bf2b 153b b8ad d2bc 4057 083c 63f2 febb
00000150: e370 81ba ae70 633c 61ea 033c dfd4 b7ba
00000160: 97cf de3b b80f 683a a83d c43b 333c 393c
00000170: 538b 3c3c 3b7a 4abc 62e7 a8bb 32e0 ba3b
00000180: a908 3b3c d188 50bc e043 d9bb ffd2 023c
00000190: 2f87 583b 7524 b4bb bb7c 5dbc 16d3 bbbb
000001a0: 3949 87bb 738d 283c 9244 bd3c 574d 89bc
000001b0: 6dad d63b 3c5c edbb 51e7 93bc f748 02bb
000001c0: a883 4a3c dd33 32bc 6bcf 99bc 76ac e5bb
000001d0: 32f7 843b 4df7 2abc e5f9 28bb 5874 81ba
000001e0: 9bab 87bc 6073 b93c ba6a de3b f554 60bc
000001f0: 1b8e 34bc 18fe e03b 025a e13c fa5c a43c
00000200: 799a cb3b e620 5dbc f947 7a3c 1e4f dcbb
00000210: ba76 01bb 8fb8 443c e8b0 083c 6d0c 2b3c
00000220: 1798 99ba a6fe c63b 6e24 8f3b 79e2 3a3b
00000230: 19a7 993c 3e3c c63b cab4 e2bb 53af f73a
00000240: 97bc 01bc c072 75bb fb47 043c 8267 353c
00000250: dc70 2cbc 55c5 2a3c 118c aebc 0eb1 f63b
00000260: ace4 773b 555e 66bc fabd b63b 2416 10bc
00000270: 8908 213c e38f e4bb 4a09 1ebc e474 fa38
00000280: 05d6 5c3b 7a3b 42bc ac3a 3fbb 3f91 b4bb
00000290: 067a c03c d1bf da3b 87b9 9fbc 7dc4 b8bb
000002a0: 5401 9fbb 1486 a53a 7b88 613b 34a2 01bc
000002b0: 73b3 5dbc 532c 323c 83d7 82bc c6ba 99bb
000002c0: a14e 8b3b 4a3e c9b9 5dab 09bc ce28 2f3c
000002d0: 9ad2 6d3b 96a6 723c 97c4 083c 7292 15bb
000002e0: 7091 43bc 26de c5bc 2601 17bc d17c 593b
000002f0: 6da3 013c 4313 62bb 3079 cfbc 86f4 04bc
00000300: 419a 8dbc aa59 0bbc 6934 01bc 523f a2bb
00000310: 4cc1 42bb f58c ba3b 3e79 56bc ea19 e1bb
00000320: 85f5 a43c 6666 1dbc 4a1d ebbb 3fc4 ae3a
00000330: 2e49 c6bb 080a dbba ffcb 0dba e41c 6c3c
00000340: 7713 4f3c da97 4f3c 345d 37bb 2a6c b63b
00000350: 810b 07bc 2baa 94bb 1c66 293a 2cef 8ebc
00000360: de11 f33b 45a8 873b ba3c f1bb b145 b03c
00000370: 57d7 41bc 418d 9abb 5228 4abb 32bf c8bb
00000380: dd88 65bb cb5d b9bc c6e2 5c3b 5a1b bf3a
00000390: efb7 4dbc 8ff1 5c3b ed03 b0ba b9e8 5ebc
000003a0: c49f afbb 43a0 443c b3bc c63c 86ac 39bc
000003b0: efba 70bc 157f 4d3c ca3a 42bb 8e6b 9abc
000003c0: 7e79 80bc 9005 5ebb 3937 a4bc 2505 27bc
000003d0: 088d faba c71b bc3c bd0a 71bc 9288 b3b9
000003e0: 5f99 77bb 074d acbb ae22 093c 41cf 5cbc
000003f0: 29db 90bb ba23 453c 9b5c 583c 417a 903b
