data/rl4wound_paper_res/ctr/models_map524/agent_ctr_True_ep_1024.pth (torch, 950255 bytes, 21 tensors)

fc1.weight f4 [512, 5]
0	0xbbae2683	-0.0053146495
1	0x3e76ec67	0.24113618
2	0xbebb086c	-0.36529863
3	0xbea69ab7	-0.32539913
4	0xbe314789	-0.17312445
5	0x3def59fb	0.11687084
6	0xbc0bb714	-0.008527536
7	0x3eb5f6de	0.35539907
8	0xbd229544	-0.039693132
9	0x3df2eac9	0.11861188
10	0xbe09c479	-0.13453855
11	0xbdb77273	-0.08957376
12	0xbeda528b	-0.426411
13	0xbe97dd4e	-0.2966103
14	0xbe3a088a	-0.1816732
15	0x3c8fd7b3	0.017558908
16	0x3e3618cd	0.17782898
17	0x3e88656f	0.26639888
18	0xbe9c13fa	-0.3048399
19	0xbe488632	-0.19582441
20	0x3e26d4d7	0.1629213
21	0x3ebc72d5	0.3680636
22	0xbdbe72f5	-0.0929927
23	0x3eac2ff7	0.33630344
24	0xbd8fbcb1	-0.07018412
25	0x3d3b20c7	0.045685556
26	0x3ed05d8e	0.40696377
27	0xbed3f10d	-0.41394845
28	0xbe8dfad7	-0.27730438
29	0xbdede310	-0.11615574
30	0xbe32e13f	-0.17468737
31	0x3ec47683	0.38371667
32	0xbe933a5b	-0.2875546
33	0xbe55af67	-0.20867692
34	0xbe9ea9b8	-0.3098886
35	0xbed653d1	-0.41860822
36	0xbe83f508	-0.25772882
37	0x3ec41bb3	0.38302383
38	0x3e4d7368	0.20063555
39	0x3e5ec33d	0.21754165
40	0x3cc5ca90	0.02414444
41	0xbe68b759	-0.22726192
42	0x3d95907f	0.07302951
43	0xbed6b02b	-0.4193128
44	0xbea6308a	-0.32458907
45	0xbe6eb3ca	-0.23310772
46	0x3e8fd73c	0.28093898
47	0x3e87cb2b	0.26522192
48	0xbe47dd14	-0.19517928
49	0xbc57fdae	-0.013183041
50	0x3e9129ec	0.28352296
51	0x3ee45ecb	0.4460357
52	0x3e35359d	0.17696233
53	0x3d7bd5a4	0.06148304
54	0x3e9794aa	0.2960561
55	0xbe865133	-0.26233825
56	0x3dab54c5	0.08365778
57	0xbeb164fe	-0.34647363
58	0xbe9eae3a	-0.309923
59	0xbe6d589b	-0.23178332
60	0x3e4bb72e	0.19894096
61	0x3e36ab23	0.17838721
62	0xbe8667d3	-0.26251087
63	0x3e0c7595	0.13716729
64	0x3e7dbe2d	0.24779578
65	0xbd6459c6	-0.055749677
66	0x3c8ca5a6	0.017168831
67	0x3dd1f8aa	0.10252507
68	0x3e8c624c	0.27418745
69	0x3edd6c66	0.43246764
70	0xbeafb4d4	-0.34317648
71	0xbe284955	-0.16434224
72	0x3e333b99	0.17503203
73	0x3ebf28f4	0.37335932
74	0x3ec647fa	0.3872679
75	0x3eca54ee	0.3951792
76	0x3db4effb	0.08834835
77	0xbec779bc	-0.38960063
78	0x3d2822db	0.041048866
79	0xbe8ed53d	-0.27897063
80	0xbed4ef5b	-0.41588864
81	0x3ecc385f	0.39886758
82	0x3ead412f	0.33838794
83	0xbee542cb	-0.44777521
84	0x3da7c87e	0.08192538
85	0xbd9c0182	-0.07617475
86	0xbd903d50	-0.070429444
87	0xbe504233	-0.20337753
88	0x3e2ed05c	0.1707167
89	0xbe887ae9	-0.26656273
90	0x3e266b3c	0.16251844
91	0x3e694b56	0.22782645
92	0x3ea3493f	0.3189182
93	0x3e2bf150	0.16791272
94	0xbee24146	-0.44190425
95	0xbe948527	-0.29007837
96	0x3e62c9d9	0.22147311
97	0x3dbfca44	0.09364751
98	0xbeb260f4	-0.34839594
99	0xbe845ed1	-0.2585359
100	0x3ed78ba8	0.42098737
101	0x3e989bd1	0.29806378
102	0xbe48e298	-0.19617689
103	0xbde23b00	-0.110464096
104	0xbedb8de7	-0.428817
105	0xbc3a69f1	-0.011377797
106	0xbeab9581	-0.335125
107	0xbeb1e778	-0.3474691
108	0xbccb622c	-0.024827085
109	0x3d84b134	0.06479111
110	0xbe3acba0	-0.1824174
111	0x3e885a31	0.2663131
112	0xbe8c431d	-0.27394953
113	0x3ece3c16	0.40280217
114	0x3e9ed3b6	0.31020898
115	0xbec06e19	-0.37583998
116	0xbde456ae	-0.11149345
117	0x3ca56188	0.020188108
118	0x3d8870b6	0.06662123
119	0x3ddcb464	0.10776594
120	0x3e36d23e	0.17853639
121	0x3cf25de0	0.029585779
122	0xbe61e423	-0.22059684
123	0x3e54f1b0	0.20795321
124	0xbeddaebd	-0.43297377
125	0xbe86e075	-0.26343122
126	0xbde12f75	-0.1099538
127	0xbe606806	-0.21914682
128	0xbe22fa85	-0.15915878
129	0xbebb62cc	-0.36598814
130	0xbdbc3e6f	-0.09191596
131	0x3dc31d77	0.09527104
132	0xbe95cf0b	-0.29259524
133	0xbcc3c933	-0.02389965
134	0x3ea3af78	0.3196981
135	0xbd3b8ca3	-0.04578842
136	0x3c7c730f	0.0154082915
137	0xbd2467de	-0.040138118
138	0x3db453e3	0.088050626
139	0x3e92bd3f	0.28660008
140	0x3ed7cb31	0.4214721
141	0x3e92d136	0.2867524
142	0x3ed96235	0.4245774
143	0xbcfcd6a3	-0.030864066
144	0xbecedad4	-0.40401328
145	0xbe5aac50	-0.21354795
146	0x3e99f041	0.30066112
147	0xba2fc106	-0.0006704483
148	0xbe622744	-0.22085291
149	0xbeaf5982	-0.34247977
150	0xbed56354	-0.41677344
151	0xbec0ed61	-0.37681106
152	0xbdbd548f	-0.09244644
153	0x3e777038	0.24163902
154	0x3e7b10ee	0.24518177
155	0xbedd9722	-0.43279368
156	0x3e8e5c5e	0.27804846
157	0xbeb233d3	-0.34805164
158	0xbdc11726	-0.09428243
159	0xbe3b605c	-0.18298477
160	0xbdb08653	-0.0861937
161	0xbdbc9a17	-0.09209078
162	0xbecd066a	-0.40043956
163	0xbec49856	-0.38397473
164	0xbd9461ac	-0.07245192
165	0x3c126a11	0.008936421
166	0xbe4cd16d	-0.20001765
167	0x3e2884be	0.16456887
168	0xbed03530	-0.4066558
169	0xbd08fe2a	-0.033445515
170	0x3ec9ceeb	0.39415678
171	0xbe37eec8	-0.17962182
172	0x3ece4b8f	0.40292022
173	0x3e253407	0.16133128
174	0xbecf6d70	-0.40513182
175	0x3e915dec	0.2839197
176	0xbd5494ce	-0.051899724
177	0xbe4b2def	-0.19841741
178	0x3eb653f8	0.35610938
179	0xbeba0a50	-0.36335993
180	0x3d4065fa	0.046972252
181	0xbdba75d5	-0.09104506
182	0x3ea37678	0.31926322
183	0x3e00980e	0.12558004
184	0x3e5bbd36	0.21458897
185	0x3e223b95	0.15843041
186	0xbdd5aef1	-0.10433758
187	0xbdc66634	-0.096874624
188	0xbebec9cb	-0.3726333
189	0x3e76fb60	0.2411933
190	0x3eb67891	0.3563886
191	0x3e9ce13e	0.30640596
192	0xbea20678	-0.3164556
193	0x3c95fc31	0.01830873
194	0xbea18210	-0.31544542
195	0xbe7b8e3e	-0.2456598
196	0xbe84b837	-0.25921795
197	0x3e1b7c1d	0.15184064
198	0xbe88c92a	-0.26715976
199	0xbc30da62	-0.010794254
200	0x3c8eada4	0.017416783
201	0x3e95e7a5	0.29278293
202	0xbead5877	-0.33856556
203	0xbe9c6e5b	-0.30552945
204	0xbe859504	-0.26090252
205	0x3ea0e4a7	0.31424448
206	0xbe26f393	-0.16303854
207	0x3ebf8d4a	0.37412483
208	0x3e274074	0.1633318
209	0x3d674204	0.05645944
210	0xbb4d6038	-0.0031337868
211	0xbdac4549	-0.084116526
212	0x3d5fe46c	0.0546612
213	0xbdd691e9	-0.10477049
214	0xbbc44a47	-0.0059903
215	0x3d6710d3	0.05641253
216	0xbeb59b15	-0.3546988
217	0xbe6e1189	-0.23248877
218	0x3eba226e	0.36354393
219	0xbeb87336	-0.360254
220	0xbce2ca36	-0.027684312
221	0x3ee3a8e2	0.44464785
222	0x3e214416	0.15748629
223	0x3c2099d9	0.009802305
224	0xbec6a8f1	-0.38800767
225	0x3e62d062	0.22149804
226	0xbea4ca56	-0.3218562
227	0xbe004c4c	-0.12529105
228	0xbe180715	-0.14846452
229	0xbd7fd7d5	-0.062461693
230	0x3b97aef4	0.0046290103
231	0x3ebf2966	0.37336272
232	0x3d5deaf9	0.054179166
233	0x3ecbcf81	0.3980675
234	0x3e8c3437	0.27383587
235	0xbe91afa2	-0.2845431
236	0x3e4d4254	0.20044833
237	0xbea1c3c3	-0.31594667
238	0xbe411579	-0.18855847
239	0x3e05c844	0.13064677
240	0x3e18cf6f	0.1492288
241	0x3eab78ce	0.33490604
242	0xbe1384c1	-0.1440611
243	0x38d40d09	0.00010111376
244	0x3e6bb42e	0.23017952
245	0xbedca405	-0.43093887
246	0x3ea61cb3	0.3244377
247	0xbebe5a3c	-0.37178218
248	0x3b8ba9d7	0.00426219
249	0xbd9a022a	-0.07519944
250	0xbe6f96eb	-0.23397414
251	0x3d6afa10	0.057367384
252	0x3ebd45b1	0.36967233
253	0xbe062e1d	-0.13103528
254	0xbe892431	-0.26785424
255	0xbe2a7003	-0.16644292

fc1.bias f4 [512]
0	0xbe96c9b5	-0.29450765
1	0xbea1034b	-0.31447825
2	0x3e982b24	0.29720414
3	0xbe154b51	-0.14579512
4	0xbceceed8	-0.028922483
5	0x3e090b73	0.13383274
6	0xbe8d86a0	-0.27641773
7	0x3d2a13c7	0.041522767
8	0x3e87b035	0.26501623
9	0xbe8649cc	-0.26228178
10	0x3e05017d	0.12988849
11	0xbc81132d	-0.015756214
12	0x3e7b744b	0.24556081
13	0x3e9801cf	0.2968888
14	0x3ded038e	0.11572944
15	0x3c45f270	0.012081727
16	0xbec54277	-0.3852727
17	0x3e36c95b	0.17850249
18	0x3e8b9762	0.27263933
19	0xbe26edaf	-0.16301607
20	0xbee1980c	-0.44061315
21	0x3ebbe7a1	0.36700156
22	0xbdd68b06	-0.10475735
23	0x3db2255f	0.08698534
24	0xbe021bc7	-0.12705909
25	0x3e947842	0.28998
26	0x3edf95e7	0.43669054
27	0x3e8f87db	0.28033337
28	0xbe0e92a0	-0.1392312
29	0x3ea1be58	0.31590533
30	0x3e5d7cfa	0.21629706
31	0x3d36540f	0.04451376
32	0xbeb87c7c	-0.36032474
33	0xbe433a60	-0.19065237
34	0xbee3116a	-0.44349223
35	0x3e98f1aa	0.29871875
36	0x3ee23be0	0.44186306
37	0x3e8507bf	0.25982472
38	0x3e0eadbf	0.13933466
39	0x3dd889f4	0.105731875
40	0x3edbfa8f	0.429646
41	0xbe67e998	-0.22647703
42	0xbe1a2a5c	-0.15055221
43	0xbecc33be	-0.39883226
44	0xbd2f9f2f	-0.04287642
45	0x3cdecabc	0.02719628
46	0x3dfb15c7	0.12260013
47	0xbe9f93ef	-0.31167552
48	0xbd4abbd5	-0.049495537
49	0xbebdc9ba	-0.37067968
50	0xbeb95f42	-0.36205488
51	0x3d70c500	0.058781624
52	0xbedf72a8	-0.43642163
53	0x3df5b942	0.11998226
54	0xbed3e0db	-0.4138249
55	0xbe9f0bc0	-0.31063652
56	0xbdbcf702	-0.092268005
57	0xbed991cd	-0.4249405
58	0x3eb8ffbb	0.36132607
59	0x3ebb85c2	0.36625487
60	0xbe6b560d	-0.22982045
61	0x3dca8a97	0.09889715
62	0x3e6d63c9	0.23182596
63	0x3e116381	0.14198114
64	0xbd6cf6a8	-0.057852417
65	0xbed6234d	-0.41823807
66	0x3ea784b0	0.3271842
67	0xbec97061	-0.3934355
68	0xbda4b0e8	-0.08041555
69	0x3cd7cc4c	0.026342534
70	0xbe199015	-0.14996369
71	0xbe213c07	-0.15745555
72	0xbec68135	-0.38770452
73	0x3cb57008	0.022148147
74	0xbd496aa4	-0.049173966
75	0x3ec7b35e	0.39004034
76	0xbe1645cb	-0.14675061
77	0x3eadb700	0.3392868
78	0x3cda7ddd	0.026671344
79	0xbe519a31	-0.20468976
80	0xbddaf4c0	-0.106912136
81	0xbd5d7d8c	-0.05407481
82	0x3bb8a3f5	0.0056347796
83	0xbda25582	-0.079264656
84	0x3e07d764	0.13265759
85	0x3ebe4f0f	0.37169692
86	0x3d912d2f	0.07088696
87	0x3e25bd2a	0.16185442
88	0x3e8e9968	0.27851415
89	0x3dc39e7e	0.09551714
90	0x3e5318c7	0.2061492
91	0x3e7004a6	0.23439273
92	0x3ed3cec2	0.4136868
93	0xbed13c68	-0.408664
94	0x3e1d3272	0.15351275
95	0xbca6581d	-0.020305688
96	0xbda375b0	-0.079814315
97	0xbe2a03fd	-0.16603084
98	0x3e870a70	0.2637515
99	0x3ed17705	0.40911117
100	0xbebac8a4	-0.36481202
101	0x3e7658c6	0.24057302
102	0x3e9fe436	0.312288
103	0x3da02d45	0.078211345
104	0x3c052762	0.008127065
105	0x3eaffffe	0.34374994
106	0x3c27b896	0.01023688
107	0xbde2fab5	-0.11082975
108	0xbd0a3013	-0.033737253
109	0x3e0ff4bc	0.14058203
110	0x3de2e018	0.11077899
111	0xbc983115	-0.018578092
112	0x3e0cbe11	0.1374438
113	0x3df65906	0.120286986
114	0xbeb7177a	-0.357601
115	0x3de3ba3c	0.11119506
116	0x3e8c6420	0.2742014
117	0x3d4dc817	0.05023965
118	0xbd259154	-0.0404218
119	0x3eaf6fa8	0.34264874
120	0xbec7d8f5	-0.39032713
121	0xbe50e76d	-0.20400782
122	0xbe4e31c8	-0.20136178
123	0x3ec5afc0	0.3861065
124	0xbeddfb86	-0.4335596
125	0x3d4cda38	0.050012797
126	0xbee0268c	-0.4377941
127	0xbc8013fe	-0.015634533
128	0x3e2c5ed7	0.16833054
129	0xbdd1aad7	-0.10237663
130	0x3ede3faa	0.43407947
131	0x3b233ace	0.0024906876
132	0xbe691e47	-0.22765456
133	0x3dec841b	0.115486346
134	0x3e68ce8a	0.22735038
135	0xba7d42bc	-0.0009661128
136	0x3ec3e429	0.3826001
137	0xbe904e7f	-0.28184888
138	0x3e439e9d	0.19103475
139	0x3e7e928f	0.24860595
140	0x3e63e905	0.22256859
141	0x3aa1f7c7	0.0012357169
142	0x3df9ca6d	0.12196813
143	0xbeb1eb29	-0.34749725
144	0xbeb0c942	-0.34528548
145	0xbcdf9469	-0.027292447
146	0xbd708248	-0.058717996
147	0x3eaa20fc	0.3322829
148	0x3ea922b9	0.33034304
149	0x3e9c36fd	0.30510703
150	0xbe53e8b6	-0.20694241
151	0xbeb301de	-0.34962362
152	0xbed613c9	-0.4181197
153	0x3e2b7203	0.16742711
154	0xbecc78f2	-0.39936024
155	0xbee5329f	-0.44765183
156	0xbe648b41	-0.22318746
157	0xbec32bcb	-0.3811935
158	0xbe38c59f	-0.18044136
159	0xbe9054ed	-0.28189793
160	0xbe6c3940	-0.23068714
161	0x3ed9da17	0.42549202
162	0xbdadfb66	-0.08495216
163	0x3ebdbeda	0.3705967
164	0x3c1172bc	0.008877452
165	0xbd7b35b5	-0.061330516
166	0xbe052cda	-0.13005391
167	0xbea2e077	-0.31811878
168	0xbeb7a9d7	-0.35871765
169	0x3e9eb37c	0.3099631
170	0xbe0f7bf4	-0.14012128
171	0xbee03864	-0.43793023
172	0x3ed1d7c7	0.40984938
173	0x3c13a461	0.009011359
174	0xbe9a1687	-0.30095312
175	0xbeb4688f	-0.35236022
176	0xbebf15b8	-0.37321258
177	0xbec867dc	-0.39141738
178	0x3ecf5ddc	0.40501297
179	0x3e9db61f	0.3080301
180	0x3d153e57	0.036436405
181	0xbec42907	-0.3831255
182	0xbdeff08a	-0.11715801
183	0xbed5f25c	-0.41786468
184	0x3e220235	0.15821154
185	0xbdf60d2c	-0.12014231
186	0xbdc3ab00	-0.095541
187	0xbe0ef461	-0.1396041
188	0x3e565675	0.20931418
189	0x3e7d3be2	0.24729875
190	0x3dc64676	0.09681408
191	0xbd804aff	-0.06264304
192	0xbd351c36	-0.044216357
193	0xbbedcdb0	-0.007257186
194	0xbeab88a5	-0.3350269
195	0x3edce1e3	0.43141088
196	0xbe45d538	-0.19319618
197	0x3e8541ae	0.26026672
198	0xbe8087f0	-0.25103712
199	0x3bfdc3de	0.0077442965
200	0x3e1c8506	0.1528512
201	0xbed200b9	-0.41016176
202	0x3e556bb2	0.20841864
203	0xbeb12a84	-0.3460275
204	0x3d7f5989	0.062341247
205	0xbdb57629	-0.08860428
206	0x3e843e83	0.25828943
207	0x3edf4100	0.4360428
208	0x3dbde05d	0.092713095
209	0xbc535ad9	-0.012900078
210	0xbe60c2de	-0.21949336
211	0x3e2af74b	0.16695897
212	0xbe5a88d8	-0.21341264
213	0x3e3bad23	0.18327765
214	0xbe45f31c	-0.1933102
215	0x3e9a335e	0.30117315
216	0x3eafa0df	0.34302422
217	0x3e8efe8f	0.27928588
218	0x3c42b551	0.0118840495
219	0x3e51c6d3	0.20486002
220	0xbed2577f	-0.4108238
221	0x3eb9be4d	0.36278
222	0xbdec96fb	-0.11552235
223	0x3e27b3e2	0.16377214
224	0xbd9ed50f	-0.077554815
225	0xbe15ab67	-0.14616166
226	0xbe55d65c	-0.20882553
227	0x3e93832a	0.28811008
228	0xbe7acc27	-0.2449194
229	0xbda62322	-0.0811217
230	0x3e6243bf	0.22096156
231	0x3d3ab8d3	0.04558642
232	0xbebfaf14	-0.37438262
233	0xbee37096	-0.44421834
234	0xbe5f0f79	-0.21783246
235	0x3ed14abb	0.40877327
236	0xbea2c99e	-0.31794447
237	0x3e8024c4	0.2502805
238	0x3ea3e265	0.32008663
239	0xbe3f3b6e	-0.18675014
240	0xbe4ba263	-0.19886164
241	0xbea4a30d	-0.32155648
242	0x3d8db9f3	0.069202326
243	0xbd81c07e	-0.06335543
244	0x3cb2118f	0.021736888
245	0x3e46e35f	0.19422673
246	0x3e43b48c	0.19111842
247	0xbe135ff0	-0.14392066
248	0x3d0060a5	0.031342167
249	0x3de28f03	0.110624336
250	0x3c2f2196	0.01068916
251	0x3db744f4	0.08948699
252	0xbe38a24a	-0.18030658
253	0x3ebbd677	0.3668706
254	0xbd44a8ba	-0.048012473
255	0xbd74783b	-0.059684973

fc2.weight f4 [256, 512]
0	0x3d23a358	0.0399507
1	0x3d0d6ed4	0.034529522
2	0xbd23c7eb	-0.03998558
3	0xbc97003c	-0.018432729
4	0x3cc02ca1	0.02345878
5	0xbcd91bb2	-0.026502464
6	0x3bf90124	0.007599013
7	0xbc90bd97	-0.017668528
8	0x3bf0de25	0.0073507004
9	0x3cb6eaf8	0.022328839
10	0x3c4fc15e	0.01268038
11	0x3cfd2221	0.030900063
12	0xbbe0dec6	-0.006862494
13	0x3cc38b9a	0.023870278
14	0x3c7cfbb6	0.015440872
15	0xbc750de7	-0.014956928
16	0xbd03d2d8	-0.0321835
17	0x3d29e8af	0.04148167
18	0xbc38f7f2	-0.0112895835
19	0x3d04b347	0.032397535
20	0x3cda5bfc	0.02665519
21	0xbb5406ea	-0.0032352754
22	0xbd199cff	-0.03750324
23	0x3b9baa56	0.0047505302
24	0xbca91168	-0.020638183
25	0x3c3a1b3b	0.011359031
26	0xbc9d8c12	-0.01923183
27	0x3d03f68f	0.03221756
28	0xbd1b917c	-0.03798054
29	0xbc485ca0	-0.012229115
30	0x3bff28b8	0.0077868365
31	0x3b5f7bbd	0.0034100853
32	0x3d0f2270	0.03494495
33	0xbc7eefca	-0.0155601
34	0xbd09c26e	-0.03363269
35	0x3cf630fc	0.030052654
36	0x3c5c124e	0.013432099
37	0x3ce197e0	0.02753824
38	0xbcde119d	-0.027108008
39	0xbcd10678	-0.02551578
40	0xbc9bee36	-0.019034486
41	0x3b912229	0.004429121
42	0x3c741d8f	0.014899625
43	0xbcc807cb	-0.024417778
44	0xbafade57	-0.0019139749
45	0xbc19238b	-0.009346853
46	0x3d254352	0.040347405
47	0xbc8dc376	-0.017305117
48	0x3d2920d9	0.04129109
49	0xbce51f91	-0.027969154
50	0xbc8899ee	-0.016674962
51	0xbd034d8c	-0.032056376
52	0x3d0bea1a	0.034158804
53	0xbcecbe5c	-0.028899364
54	0x3c91c958	0.017796203
55	0xbc8f25ff	-0.017474173
56	0x3d318562	0.043340094
57	0x3ba475f5	0.0050189444
58	0xbd16cf4e	-0.036818795
59	0x3bed9709	0.007250671
60	0x3b8750d7	0.00412951
61	0xbd280c3e	-0.0410273
62	0x3c192fe4	0.009349797
63	0x3d2ec2a1	0.04266608
64	0x3c33e141	0.010978998
65	0x3a16c96c	0.000575206
66	0xbbf7e073	-0.007564598
67	0x3c563f47	0.01307661
68	0xbc93c743	-0.018039351
69	0x3d2bd1e3	0.04194821
70	0x3d1a0a96	0.03760775
71	0x3c9a6b12	0.018849883
72	0xbc90415a	-0.017609287
73	0xbd2f90f0	-0.042862833
74	0xbcd867c3	-0.026416665
75	0x3d35c6bf	0.044378992
76	0xbd214c76	-0.03937956
77	0xbd32f094	-0.043686464
78	0xbb932734	-0.0044907574
79	0x3c4c7141	0.012478174
80	0xbd38071f	-0.044928666
81	0xbd276ca2	-0.040875085
82	0x3af10633	0.0018388688
83	0xbc8a6a8c	-0.016896509
84	0x3d004a40	0.03132081
85	0x3c3756fb	0.011190171
86	0xbd1660c5	-0.03671338
87	0xbd209902	-0.03920842
88	0x3d03591b	0.0320674
89	0xbbcd0d82	-0.006257714
90	0xbc8fd026	-0.017555308
91	0x3c4be7d9	0.0124454135
92	0xbc1fa5f2	-0.009744154
93	0x3ca1cb15	0.019750157
94	0x3c286fde	0.0102805775
95	0xbc988f2f	-0.018622963
96	0xbd1294d8	-0.03578648
97	0x3cd69227	0.026192738
98	0xbce79529	-0.028269367
99	0xbbc169a9	-0.0059024883
100	0x3be7129a	0.007051778
101	0xbcd054b8	-0.025431022
102	0x3cb9edd2	0.02269641
103	0xbcf2f5b8	-0.029658183
104	0x3c19ee66	0.0093952175
105	0x3ba1b1c3	0.004934521
106	0x3c73f6e4	0.014890406
107	0xbd38175d	-0.044944156
108	0x3a9bac38	0.0011876887
109	0x3c9ecece	0.019385722
110	0xbcdff0ff	-0.027336596
111	0x3c40bcff	0.01176381
112	0x3af90ec5	0.0019001594
113	0x3d15161c	0.03639804
114	0xbc308f13	-0.010776299
115	0xbabc795d	-0.0014379431
116	0xbca6abfb	-0.020345679
117	0xbc1ef45f	-0.009701817
118	0x3c415218	0.011799358
119	0xbd2a2f73	-0.041549157
120	0x3d0b917c	0.03407429
121	0x3cfa3c2b	0.030546268
122	0x3c9e684f	0.019336848
123	0x3d084140	0.033265352
124	0xbc74669c	-0.014917042
125	0x3c11a39e	0.008889107
126	0x39f6ff2e	0.000471109
127	0xbd034c20	-0.03205502
128	0xbc79391d	-0.015211371
129	0xbc8e64f7	-0.017382128
130	0xbc26f1d4	-0.010189492
131	0xbd1ddfd5	-0.03854354
132	0xbd025f55	-0.031829197
133	0xbbaf4877	-0.0053492147
134	0xbbc0cfdc	-0.005884154
135	0xbd206dae	-0.0391671
136	0x3bf434ed	0.0074525983
137	0x3cba1dc1	0.022719266
138	0x3d1ccb36	0.038279735
139	0x3d14a558	0.036290497
140	0xbd0009a9	-0.031259213
141	0xbc6d3702	-0.014478447
142	0xbcb89d50	-0.02253595
143	0x3c08bd4d	0.008345914
144	0x3c293db8	0.010329656
145	0x3c183ebd	0.009292302
146	0x3cd6b9da	0.026211668
147	0x3cba233f	0.022721885
148	0xbcbb14d7	-0.022837086
149	0x3ceec8cc	0.029148482
150	0x3d00b01a	0.031417944
151	0x3be79a6a	0.007067968
152	0xbd21ca60	-0.03949964
153	0xbcd62472	-0.026140425
154	0x3c557a4e	0.013029648
155	0x3c845be6	0.016157102
156	0x3d30e818	0.04319009
157	0x3cab1bb4	0.020887233
158	0x3c90a909	0.017658727
159	0xbb322023	-0.00271798
160	0x3cedfae9	0.029050307
161	0xbc8dda43	-0.01731599
162	0x3c889633	0.016673183
163	0xbca5b335	-0.020227054
164	0xb9bf26c7	-0.0003645925
165	0x3cce4589	0.025179641
166	0x3c9e8a13	0.019352948
167	0xbc3c25c3	-0.0114836125
168	0xbacabf14	-0.0015468323
169	0xbcbf0951	-0.023319872
170	0x3c9bc509	0.019014852
171	0x3cfe6c35	0.031057457
172	0x3c5e0076	0.013549915
173	0xbd35b16a	-0.04435865
174	0xbd06b2d5	-0.03288539
175	0x3cec311b	0.028832009
176	0xbbefdff6	-0.0073203994
177	0x3cd0431c	0.025422625
178	0x3d0d772e	0.034537487
179	0xbc59165e	-0.013249962
180	0xbccd6879	-0.02507423
181	0xbd26a6d0	-0.04068643
182	0x3c76c067	0.015060521
183	0x3cae84cd	0.021303559
184	0xbc187cff	-0.009307145
185	0xbd32a8a7	-0.04361787
186	0xbcf717db	-0.030162742
187	0xbb27826b	-0.0025559913
188	0x3ca8b97f	0.020596264
189	0xbc766c56	-0.015040478
190	0xbcf61b10	-0.030042201
191	0xbd031723	-0.032004487
192	0x3d220701	0.03955746
193	0x3c6c66b8	0.014428787
194	0xbd0be95e	-0.034158103
195	0xbcebe4ba	-0.028795589
196	0xbd19cf02	-0.037550934
197	0x3bac5372	0.005258971
198	0xbca09644	-0.019602902
199	0xba96a988	-0.0011494616
200	0xbc0d06f9	-0.008607619
201	0xbd242a2d	-0.040079284
202	0xbd278547	-0.040898588
203	0xbd1258bb	-0.03572915
204	0xbc9f5999	-0.019451903
205	0x3beaaf9b	0.007162047
206	0xbcb6aef3	-0.02230022
207	0xbb5799aa	-0.0032897987
208	0xbbd8957b	-0.0066096163
209	0x3d1fa551	0.038976017
210	0xbc971e7f	-0.018447159
211	0x3d31c323	0.043398988
212	0xbd032f03	-0.032027256
213	0xbd1d4e74	-0.038404897
214	0x3c4b56c8	0.012410827
215	0xbcc702f4	-0.0242934
216	0x3cb9f578	0.022700056
217	0xbcc9b182	-0.024620775
218	0x3d111966	0.035424612
219	0x3d2a4053	0.04156525
220	0x3b94190e	0.0045195883
221	0x3c03f055	0.008052905
222	0x3d2f6c06	0.04282763
223	0x3ccd1750	0.02503553
224	0xbd1b65b6	-0.037938796
225	0xba474853	-0.00076020247
226	0xbd1bec11	-0.038066927
227	0x3d11d300	0.035601616
228	0xbc1d0b9b	-0.0095852865
229	0x3a15510c	0.0005695976
230	0xbcec6101	-0.028854849
231	0xbcbcba64	-0.023038097
232	0x3badff71	0.005309992
233	0x3d1b644f	0.03793746
234	0xbcc032e6	-0.02346177
235	0x3bb8a786	0.0056352047
236	0x3d1fc7cd	0.039008904
237	0x3d2961e7	0.041353133
238	0xbbe12c90	-0.0068717673
239	0x3d2c4826	0.042060994
240	0x3c736dec	0.01485775
241	0x3d2aa022	0.04165662
242	0x3a6c7385	0.00090198993
243	0xbd1a091c	-0.037606344
244	0xbc56c2e8	-0.013107993
245	0x3c738741	0.01486379
246	0x3cb508ce	0.022098925
247	0xbd2c6fc8	-0.04209879
248	0x3d093edf	0.033507224
249	0xbd1c9645	-0.038229246
250	0x3cc8933f	0.024484275
251	0x3d2cb979	0.042169068
252	0x3c39dff7	0.011344901
253	0xbbeb686c	-0.007184079
254	0x3cbccebf	0.023047803
255	0xbc45ab42	-0.012064757

fc2.bias f4 [256]
0	0xbc54eb51	-0.012995557
1	0x3d07a664	0.033117667
2	0xbcf5c9b6	-0.03000341
3	0xbd1b8fc3	-0.0379789
4	0xbcb8b995	-0.02254943
5	0x3cd06048	0.025436535
6	0xbd045dad	-0.0323159
7	0x3d046681	0.032324318
8	0x3d031b1e	0.032008283
9	0x3d05da1f	0.03267872
10	0x3c300893	0.010744232
11	0x3c612a64	0.013743017
12	0x3c711cb9	0.014716321
13	0x3d067874	0.032829717
14	0xbc638d66	-0.0138886925
15	0x3d2fc127	0.042908814
16	0xbd3c725d	-0.046007503
17	0xbd1e7e3b	-0.0386946
18	0xbd021e08	-0.03176692
19	0x3d0f479e	0.03498041
20	0xbbd4ba7c	-0.006491957
21	0xbd0a2bdf	-0.033733245
22	0xbce2e167	-0.02769537
23	0xbad8289c	-0.0016491595
24	0x3c5b5198	0.013386153
25	0x3d238ca8	0.039929062
26	0x3ca5e10a	0.020248909
27	0x3b97f5cb	0.004637455
28	0xbb12b862	-0.0022387733
29	0x3ce05ca5	0.027387926
30	0xbc34f120	-0.011043817
31	0xbbac7d79	-0.005263981
32	0x3d1f0749	0.038825307
33	0xbd013637	-0.031545844
34	0x3cbe1377	0.023202641
35	0xbcede94e	-0.029041912
36	0xbd20590a	-0.039147414
37	0x3c8ccb42	0.017186765
38	0xbd1890bb	-0.0372474
39	0x3d111f9f	0.035430547
40	0xbc8a7932	-0.016903494
41	0xbd1ab384	-0.037768856
42	0xbd307be0	-0.043086886
43	0x3d1573f4	0.036487535
44	0xbd33ee08	-0.043928176
45	0x3c92ba4d	0.0179111
46	0xbcc3f3d4	-0.023919977
47	0x3c61843e	0.013764439
48	0x3cf35b06	0.02970649
49	0xbc32dfff	-0.010917663
50	0x3cea0a12	0.028569255
51	0xbc7a604f	-0.015281751
52	0x3bcc3627	0.0062320414
53	0xbcf3aa41	-0.02974427
54	0x3cd53f7d	0.02603125
55	0x3bf9c889	0.0076227826
56	0x3b706c77	0.0036685744
57	0x3cf72d01	0.030172827
58	0xbd24d0c0	-0.040238142
59	0x3c8cb060	0.017173946
60	0xbbd6ac89	-0.0065513295
61	0xbc89c49e	-0.016817387
62	0xbbdb3383	-0.0066894903
63	0x3af366e9	0.0018570098
64	0x3d13b1e5	0.036058325
65	0xbd2abb8d	-0.04168277
66	0x3c9b8eca	0.018988986
67	0x3ca1f5c8	0.019770518
68	0xbd24e812	-0.040260382
69	0xbc1db7dd	-0.009626356
70	0xbc7dd9d7	-0.015493832
71	0x3d08048b	0.033207458
72	0xbd0619cd	-0.03273945
73	0x3cdcd7af	0.026958315
74	0x3c8669cf	0.016407875
75	0x3d1c2eb6	0.038130485
76	0x3d11d148	0.035599977
77	0xbb28a906	-0.0025735511
78	0xbcb6d168	-0.02231665
79	0x3d2f9403	0.042865764
80	0xbc8bed01	-0.017080786
81	0xbb7ca822	-0.0038552363
82	0x3c81daa9	0.015851336
83	0x3cd307bc	0.025760524
84	0x3ce9af27	0.028525902
85	0xbca7d5bd	-0.02048766
86	0x3cdcddcb	0.026961228
87	0xbc9081cc	-0.017640017
88	0x3afd5e72	0.0019330515
89	0xbd34c1fe	-0.044130318
90	0xbb2fa9c9	-0.002680408
91	0xbc316c18	-0.010828994
92	0xba933c91	-0.001123326
93	0x3d13dcfb	0.036099415
94	0xbc5fc2f2	-0.013657318
95	0x3c731106	0.014835602
96	0xbcd44ee3	-0.025916522
97	0x3ce8159e	0.02833062
98	0xbc888090	-0.016662866
99	0x3c963dde	0.018340047
100	0x3cc4ac17	0.02400784
101	0x3cbe30e0	0.023216665
102	0x3d0bee50	0.03416282
103	0xbd0bfe0b	-0.03417782
104	0xbb112c9a	-0.0022151829
105	0xbbc8870a	-0.0061196135
106	0xbd28357c	-0.04106663
107	0xbb96804b	-0.0045929304
108	0x3d46e9af	0.0485627
109	0xbc6353ec	-0.013874989
110	0x3d19b661	0.037527446
111	0xbc33af71	-0.010967121
112	0xbcd6f91f	-0.026241837
113	0x3cf419dd	0.029797489
114	0xbc723893	-0.014783996
115	0x3d116a5d	0.035501827
116	0xbd316ddf	-0.043317672
117	0xb8e7eff8	-0.00011059636
118	0xbcb37bb9	-0.021909581
119	0xbd2e3daa	-0.042539276
120	0x3c86126b	0.016366204
121	0xbd36b968	-0.04461041
122	0x3d23c63d	0.039983977
123	0x3c9fdc7b	0.019514313
124	0xbccb6f72	-0.024833415
125	0xbc9c4cc6	-0.019079577
126	0xbb4089a7	-0.0029378922
127	0x3d153866	0.03643074
128	0xbc56b5fd	-0.013104913
129	0x3d14e739	0.036353324
130	0xbcf5440f	-0.02993968
131	0x3b9d5777	0.0048016864
132	0x3d3b97be	0.04579901
133	0x3caa0bf2	0.02075765
134	0xbbf54e1c	-0.007486118
135	0x3ca15d03	0.019697672
136	0x3b605d46	0.0034235283
137	0x3c46a992	0.01212539
138	0x3cb25670	0.021769732
139	0x3d296a8c	0.041361377
140	0xbcc3753b	-0.02385961
141	0x3d0c99c7	0.03432634
142	0x3bb5366c	0.0055301692
143	0x3d17ae52	0.03703148
144	0x3c144cdb	0.009051527
145	0x3a8440a3	0.0010090064
146	0x3cace6c1	0.021106126
147	0x3c92243e	0.017839547
148	0x3cfdb159	0.030968355
149	0xbcd9176b	-0.026500424
150	0x3d0f53d3	0.03499205
151	0x3d0071ce	0.031358533
152	0x3d2fcafd	0.042918194
153	0xbd271f54	-0.04080136
154	0xbd392383	-0.045199882
155	0xbce694b0	-0.028147072
156	0xbcafdb25	-0.021466801
157	0x3ce89d64	0.028395362
158	0x3c352e7b	0.011058445
159	0xbc899a80	-0.016797304
160	0x3c039d9e	0.008033184
161	0xbc7c5714	-0.01540162
162	0xbccfa832	-0.025348756
163	0x3d2e38bb	0.04253457
164	0x3c2fc2fb	0.010727639
165	0x3d195c28	0.037441403
166	0x3d1aa6a0	0.037756562
167	0xbcc5c23a	-0.024140466
168	0xbd192c65	-0.037395854
169	0xbd15467a	-0.036444165
170	0x3cc62d6c	0.02419158
171	0xbcdcd918	-0.026958987
172	0x3bd71347	0.0065635773
173	0x3a8a266d	0.0010540016
174	0xbcfc78a6	-0.030819248
175	0xb93433e3	-0.00017185467
176	0xbc4dd602	-0.0125632305
177	0xbc545f66	-0.012962198
178	0xbd1f565d	-0.03890072
179	0xbc989af5	-0.018628577
180	0xbc436793	-0.0119265495
181	0xbd0f32e0	-0.034960628
182	0xbd1b5d2c	-0.037930652
183	0xbce9f5b4	-0.028559543
184	0xbbab00dd	-0.005218609
185	0xbd303888	-0.043022662
186	0x3c7f9da0	0.015601546
187	0xbcf940f3	-0.030426478
188	0xbccd2812	-0.025043521
189	0xbcbf602c	-0.023361288
190	0x3c6faaef	0.014628156
191	0x3ceb1028	0.028694227
192	0x3bb6138b	0.005556529
193	0x3cc70865	0.024295995
194	0x3c22fd0c	0.009948026
195	0x3766224b	1.3717053e-05
196	0x3ca61c26	0.020277094
197	0xbd238a99	-0.0399271
198	0xbce1b2a2	-0.027551
199	0x3d38d25c	0.04512249
200	0x3c013b26	0.007887637
201	0xbd226c3b	-0.039653998
202	0x3bd882c8	0.006607387
203	0xbd1a8158	-0.037721008
204	0xbc8ccc2c	-0.0171872
205	0xbc3881ea	-0.011261443
206	0xbce53680	-0.02798009
207	0xbd238cd0	-0.03992921
208	0xbc059e77	-0.008155457
209	0xbbee1968	-0.0072662123
210	0xbcf30c0a	-0.029668827
211	0xbb34979c	-0.0027556187
212	0xbd1495c6	-0.036275648
213	0x3d161099	0.036636923
214	0xbc07334b	-0.008251975
215	0x3d294028	0.04132095
216	0x3c147404	0.009060863
217	0xbd29fbc0	-0.041499853
218	0x3d3a772c	0.045523807
219	0x3ceb88a3	0.028751677
220	0xbc368d07	-0.011142022
221	0x3cba08e1	0.022709312
222	0xbcdd3e8a	-0.02700736
223	0xbcdf0831	-0.027225586
224	0xbcc9645d	-0.02458399
225	0x3cdefba1	0.027219595
226	0xbbe5c4ed	-0.007012001
227	0xbaf850ed	-0.0018945016
228	0xbd1d8b8c	-0.03846316
229	0x3ca06ef0	0.01958415
230	0x3ba07c90	0.0048976615
231	0xbd31b4da	-0.043385364
232	0x3c225da3	0.00991002
233	0x3957d742	0.00020584188
234	0x3c3c9b9c	0.01151171
235	0xbd0249d1	-0.031808678
236	0xbcde59f4	-0.027142502
237	0xbb4be1aa	-0.0031109848
238	0x3b00c319	0.0019647537
239	0x3d07a7ca	0.033119
240	0x3d0cbe05	0.034360904
241	0x3c02905c	0.007968988
242	0xbb29d0f1	-0.0025911892
243	0xbb887b35	-0.004165078
244	0x3d017e4c	0.031614587
245	0xbd2003b2	-0.039066024
246	0x3cd46ee9	0.025931792
247	0xbcebf440	-0.02880299
248	0xbcc2b5bd	-0.0237683
249	0xbcb72b7a	-0.022359598
250	0xbd13067d	-0.03589486
251	0x3c0ea583	0.008706453
252	0xbc4d4eeb	-0.012531023
253	0xbc039f9a	-0.008033657
254	0xbcefd09f	-0.029274283
255	0x3d0cce01	0.034376148

fc3.weight f4 [128, 256]
0	0xbc87e60b	-0.016589185
1	0xbd1208cd	-0.035652924
2	0x3ce14729	0.027499752
3	0x3d520ba6	0.05128064
4	0xbc99e06d	-0.018783772
5	0xbd6d6a6d	-0.057962824
6	0x3ce3759b	0.02776604
7	0x3d31563b	0.043295126
8	0x3d07bbc5	0.033138055
9	0x3d3da119	0.046296213
10	0x3d2d0336	0.04223939
11	0xbd44655c	-0.047948226
12	0xbd3d9cdb	-0.046292167
13	0x3cfe49ce	0.031041052
14	0x39b9bc80	0.00035426393
15	0x3d22c485	0.039738197
16	0x3d3d59a2	0.04622806
17	0xbc2c719b	-0.0105251325
18	0xbd7488fc	-0.05970095
19	0x3c1ca0ff	0.009559869
20	0x3ce2ae06	0.027670871
21	0x3cca6517	0.024706407
22	0x3b7b7e1b	0.0038374725
23	0xbc90286a	-0.017597396
24	0x3d3a6f56	0.045516334
25	0x3d23bbb5	0.039973933
26	0x3d654c72	0.055981107
27	0xbd0ae737	-0.03391191
28	0xbcaec0d0	-0.021332175
29	0x3ce293ff	0.02765846
30	0x3d514656	0.05109247
31	0x3d843828	0.064560235
32	0xbd4acca1	-0.049511556
33	0x3ca05aad	0.019574488
34	0x3ca7e3c8	0.020494357
35	0xbd1bf4b4	-0.038075164
36	0xbc21fb9e	-0.00988665
37	0x3cbede86	0.023299467
38	0xbc812f4d	-0.015769625
39	0x3d301d70	0.042996824
40	0xbc1b319f	-0.00947228
41	0xbc06aa61	-0.008219332
42	0x3c93d1be	0.018044349
43	0xbcbca815	-0.023029367
44	0xbd190afb	-0.037363987
45	0x3d4b6e42	0.049665697
46	0x3c39a8fd	0.011331794
47	0xbd552908	-0.052041084
48	0x3d4d7335	0.050158698
49	0x3d0ab3e3	0.03386296
50	0xbc34628e	-0.011009825
51	0xbced89ae	-0.028996315
52	0xbcbf16fe	-0.023326393
53	0xbccd78f7	-0.025082095
54	0x3d534d75	0.05158754
55	0x3c2fada1	0.010722549
56	0x3b612d08	0.0034359116
57	0xbcc5c7c9	-0.024143117
58	0x3d7775e4	0.060415164
59	0xbd5a430d	-0.0532866
60	0xbd5020bf	-0.05081248
61	0xbd180576	-0.037114583
62	0x3d50dc01	0.050991062
63	0x3cce7647	0.025202883
64	0xbd715f3d	-0.058928717
65	0xbd3c7f90	-0.04602009
66	0xbc20ede8	-0.009822346
67	0x3d321151	0.043473545
68	0x3b367375	0.0027839814
69	0x3d8570ff	0.06515693
70	0xbd4a0819	-0.04932413
71	0x3cce43aa	0.02517875
72	0xbc82049e	-0.015871342
73	0x3c6e5a88	0.0145479515
74	0xbc736022	-0.014854463
75	0xbd2b2844	-0.041786447
76	0xbd654a45	-0.055979032
77	0xbd3dc132	-0.046326824
78	0xbd10024d	-0.035158444
79	0xbd656107	-0.056000736
80	0x3c6e8d79	0.014560097
81	0xbc7265cf	-0.014794781
82	0x3b87608e	0.0041313833
83	0xbcbdc534	-0.023165323
84	0xbd50b042	-0.050949343
85	0xbd3fd2d0	-0.046831906
86	0xbcc60147	-0.024170531
87	0xbd769ee3	-0.06021012
88	0x3d0b81f2	0.034059472
89	0x3d179727	0.037009384
90	0xbd1adb71	-0.037806932
91	0x3c985d81	0.018599274
92	0xbd26ed47	-0.04075363
93	0xbcbd7831	-0.0231286
94	0xbc91b064	-0.017784305
95	0xbd2c19aa	-0.042016663
96	0x3cd45f68	0.0259244
97	0x3c85905c	0.016304187
98	0x3bf5ecb0	0.007505022
99	0x3c04ff2e	0.00811748
100	0xbd65f54b	-0.056142133
101	0x3c69f057	0.014278493
102	0x3d38ec6e	0.045147352
103	0xbd0c5dfb	-0.034269314
104	0xbd61ac0c	-0.055095717
105	0xb968fcfb	-0.00022219487
106	0x3cefff21	0.02929646
107	0x3c5b5d6d	0.013388974
108	0x3d074052	0.033020325
109	0xbbe66f28	-0.007032294
110	0xbbd5c0b8	-0.006523218
111	0xbd6adf20	-0.057341695
112	0xbd8204f3	-0.063486
113	0xbd5932bc	-0.0530269
114	0xbd53c51d	-0.051701654
115	0x3c1de07d	0.009636042
116	0xbc63327e	-0.013867019
117	0xbcd333c7	-0.025781525
118	0xbd6a2032	-0.05715961
119	0x3d4d54de	0.050129764
120	0xbb53b691	-0.0032304863
121	0x3d093738	0.033499926
122	0xbd5691df	-0.052385207
123	0xbd1d9fc9	-0.03848246
124	0x3d179dcc	0.03701572
125	0x3d28b9f0	0.04119295
126	0xbd32ebb2	-0.043681808
127	0x3d45004a	0.04809598
128	0x3d0c5041	0.034256224
129	0x3d521385	0.051288147
130	0xbd4a6542	-0.049412973
131	0xbd809aef	-0.06279551
132	0xbd60e732	-0.054907985
133	0x3b2e79dc	0.0026622927
134	0x3c9ceb24	0.019155093
135	0xbc87fc62	-0.016599838
136	0xbc7cac9f	-0.015422015
137	0x3c892290	0.016740113
138	0xbd093ad3	-0.033503365
139	0xbd287285	-0.04112484
140	0xbd5ca4b9	-0.05386803
141	0x3c4fbe9b	0.012679721
142	0xbd2fe73e	-0.04294514
143	0x3c99a23b	0.018754115
144	0xbbed7986	-0.0072471527
145	0xbd25a53e	-0.04044079
146	0x3d61c71e	0.055121534
147	0x3d0e4511	0.034733836
148	0x3d457cc9	0.048214708
149	0xbd54e7a2	-0.051978715
150	0xbd1c00df	-0.03808677
151	0xbd04a9a8	-0.03238836
152	0x3bb74e10	0.0055940226
153	0x3cf8825b	0.030335596
154	0xbd6de7f6	-0.058082543
155	0x3c9b3aea	0.01894899
156	0x3d7d1ade	0.0617932
157	0x3d34c4ab	0.04413287
158	0xbc6add98	-0.014335059
159	0x3ae80c79	0.0017703912
160	0xbbd08b46	-0.006364259
161	0x3d5dabe5	0.05411901
162	0x3d536c94	0.05161722
163	0xbbf365bf	-0.0074279006
164	0xbd3bd356	-0.045855843
165	0xbcbcec37	-0.023061855
166	0x3d19dba7	0.037562992
167	0x3d35f86a	0.04442636
168	0x3d133c8b	0.03594641
169	0xbcd3b0c1	-0.025841119
170	0xbb1e36e1	-0.0024141597
171	0x3c0b25ec	0.008492928
172	0x3cda5e03	0.026656156
173	0xbd49f860	-0.049309134
174	0x3c7b225c	0.015328016
175	0xbcbe6f6f	-0.023246495
176	0xbc4dba13	-0.012556571
177	0x3d09d039	0.033645842
178	0x3ccbe38c	0.024888776
179	0x3d63a9e7	0.055581953
180	0x3cfae625	0.03062732
181	0xbd3526cb	-0.04422645
182	0xbb32b4ec	-0.0027268482
183	0xbd6b7bb4	-0.05749102
184	0xbbdba546	-0.0067030517
185	0xbbcaa4ba	-0.0061841877
186	0x3babb0df	0.0052395905
187	0x3c7c325f	0.015392869
188	0x3c82c6f8	0.015964016
189	0xbd699cb1	-0.0570342
190	0xbc856881	-0.016285183
191	0xbc4e787d	-0.012601969
192	0x3d1fc5fd	0.039007176
193	0xbd7d6288	-0.061861545
194	0x3b4e6d23	0.0031498156
195	0xbd08d093	-0.033402037
196	0xbc6533c9	-0.013989397
197	0xbd1278d4	-0.035759762
198	0x3aa4d233	0.0012574851
199	0x3cf948b4	0.030430175
200	0xbd109e14	-0.035307005
201	0xbca54d3d	-0.020178432
202	0x3d7ed487	0.0622144
203	0xbcabe7ba	-0.02098452
204	0x3c9aa7a4	0.018878765
205	0xbd46c179	-0.048524354
206	0x3d274d80	0.040845394
207	0xb9d043d4	-0.00039723387
208	0xbc9cd447	-0.01914419
209	0xbc94ecc7	-0.01817931
210	0x3d67f351	0.05662853
211	0x3d4c6b57	0.049907055
212	0xbd100a19	-0.03516588
213	0xbd74fcc2	-0.05981136
214	0x3cbf150b	0.023325464
215	0xbb8ef61d	-0.004362835
216	0x3be6ad3f	0.0070396955
217	0x3cf4e54b	0.029894492
218	0xbd4b43a2	-0.049625047
219	0x3ce7e9ec	0.028309785
220	0xbd06d13e	-0.032914393
221	0x3c3fdcaf	0.01171033
222	0xbbbf2a62	-0.00583391
223	0xbba145f5	-0.0049216696
224	0x3d2f5d09	0.042813335
225	0xbc4a17ce	-0.012334777
226	0x3c73e8cf	0.014887049
227	0x3bd298fa	0.0064269276
228	0x3d72ecb7	0.05930778
229	0xbd459e21	-0.048246507
230	0x3d7ca409	0.061679874
231	0x3c8603fe	0.016359325
232	0xb9b07852	-0.00033658982
233	0xbbcf377c	-0.006323753
234	0xbc044c5e	-0.008074848
235	0x3aa3c47e	0.0012494472
236	0xbc9b85a7	-0.018984629
237	0x3be7482c	0.007058164
238	0x3d818e03	0.06325915
239	0xbc442f79	-0.011974209
240	0x3cd4ab60	0.025960624
241	0xbabd2c22	-0.0014432708
242	0xbc9dd89d	-0.019268328
243	0xbc8f55e2	-0.017497007
244	0x3bff6325	0.0077938014
245	0xbbb9c509	-0.0056692404
246	0x3c17cb5c	0.009264793
247	0xbd501bf5	-0.050807912
248	0xbb621a9b	-0.0034500721
249	0xbd56c94b	-0.05243806
250	0xbd63e96a	-0.055642523
251	0xbc094488	-0.0083781555
252	0x3c0fc461	0.008774848
253	0x3d65ec37	0.056133475
254	0xbbb2cd23	-0.005456583
255	0x3c7cb7b0	0.015424654

fc3.bias f4 [128]
0	0x3cccbb56	0.024991672
1	0xbd0f40a1	-0.034973744
2	0x3d581ae6	0.052760027
3	0xbd44472e	-0.047919445
4	0x3c87a525	0.01655824
5	0x3bfd5fb0	0.007732354
6	0x3c28b90e	0.010298027
7	0xbcb1cc23	-0.021703785
8	0x3d7fcf98	0.062453836
9	0x3c130205	0.008972649
10	0xbb89b723	-0.00420274
11	0xbc2b57d6	-0.010457953
12	0x3ceeb483	0.02913881
13	0x3b926602	0.0044677267
14	0xbd3fe962	-0.04685343
15	0x3d2ff42b	0.042957466
16	0xbd01b770	-0.03166908
17	0x3b994688	0.0046775974
18	0xbd3ebe56	-0.046568237
19	0x3bc481b0	0.0059969053
20	0x3d7065ce	0.05869084
21	0xbd20a233	-0.039217185
22	0xbd575f95	-0.05258139
23	0xbb5c6962	-0.003363215
24	0xbd008ad2	-0.03138239
25	0xbd2b8392	-0.041873522
26	0x3d1c06e0	0.038092494
27	0xbd6ced37	-0.057843413
28	0xbcb7d699	-0.022441195
29	0x3d6404dd	0.0556687
30	0x3c4ab4b3	0.012372184
31	0x3d045b44	0.0323136
32	0xbd49bac5	-0.049250383
33	0x3cf69494	0.030100144
34	0x3c3c2ace	0.011484815
35	0x3b20eac7	0.0024554
36	0x3d1ea15b	0.0387281
37	0xbcccad96	-0.024985116
38	0x3c4b9b55	0.012427171
39	0x3d1e55e6	0.038656138
40	0x3c20173b	0.009771164
41	0x3d5eac2f	0.054363426
42	0x3d2e9476	0.042622052
43	0x3d35e369	0.04440633
44	0xbcc87bd5	-0.02447311
45	0x3cbb732a	0.022882063
46	0x3c0f6345	0.008751695
47	0x3d12a2ee	0.035799913
48	0xb9a9ddb0	-0.00032399362
49	0x3c8c529c	0.017129235
50	0xbd0b0476	-0.0339398
51	0x3d6dd360	0.05806291
52	0x3a9911bf	0.0011678262
53	0xbd67ce61	-0.056593303
54	0xbcaede3a	-0.0213462
55	0xbd79145e	-0.06081044
56	0xbc80cda3	-0.015723055
57	0x3d148dc5	0.036268014
58	0x3d0d0213	0.034425806
59	0xbc8ff693	-0.01757363
60	0xbd23ad00	-0.039959908
61	0x3b82af5b	0.003988189
62	0x3cbbd4c4	0.022928603
63	0xbb8ef588	-0.0043627657
64	0xbbffbdb0	-0.007804595
65	0x3c9a5f61	0.018844308
66	0x3d3f8ec6	0.04676702
67	0x3d2f1dab	0.042752903
68	0xbd33ca67	-0.043894198
69	0xbd18f719	-0.037345026
70	0xbba4079e	-0.005005791
71	0xbba0b059	-0.004903835
72	0x3d2819f3	0.041040372
73	0x3d47544d	0.04866438
74	0xbba680f0	-0.0050812885
75	0xbcd2f9e6	-0.025753926
76	0x3d288127	0.041138794
77	0x3ca2bcd7	0.019865436
78	0x3d389d2b	0.045071762
79	0x3d3e28bc	0.046425566
80	0xbd06630d	-0.032809306
81	0x3c1084d6	0.008820733
82	0xbd3f7b9d	-0.046748746
83	0xbd11cec9	-0.035597596
84	0xbd6dd3ea	-0.058063425
85	0xbd13d4c4	-0.03609158
86	0x3d560d75	0.052258927
87	0x3d226cc5	0.039654512
88	0x3d57443e	0.052555315
89	0xbd5b793a	-0.053582408
90	0x3caa4ce3	0.020788616
91	0x3b72a95a	0.003702721
92	0xbcf81678	-0.030284151
93	0xbd0af068	-0.033920676
94	0xbd65ec07	-0.056133296
95	0x3806c4ff	3.2131557e-05
96	0xbcb6766f	-0.02227327
97	0xbb9d9f36	-0.004810239
98	0x3b9fcaa4	0.0048764516
99	0x3d62fb95	0.05541571
100	0xbd803aab	-0.0626119
101	0xbcdbcfcc	-0.026832484
102	0x3c446039	0.011985832
103	0x3c53a3ee	0.012917502
104	0xbb7f480d	-0.0038952858
105	0x3b82c8f7	0.003991242
106	0xbd38a20d	-0.04507642
107	0xbc7d67b2	-0.015466617
108	0x3cb94762	0.022617046
109	0xbcffac03	-0.031209951
110	0xbd7551e0	-0.059892535
111	0x3ceddd98	0.029036328
112	0x3d4c4f0a	0.049880065
113	0xbd0e0f30	-0.034682453
114	0x3c26087a	0.010133857
115	0x3bb58f54	0.0055407677
116	0xbd33a620	-0.0438596
117	0x3d074924	0.033028737
118	0xbd792326	-0.060824536
119	0x3d51a35a	0.051181175
120	0xbd0932c9	-0.033495698
121	0x3c1d858a	0.009614358
122	0x3c823daf	0.015898554
123	0x3c381ec6	0.011237806
124	0xbb4f9ca3	-0.0031679056
125	0x3d6b84a7	0.057499554
126	0x3c913b68	0.017728522
127	0xbd1798c8	-0.037010938

bn1.weight f4 [512]
0	0x3f8003ea	1.0001194
1	0x3f7f23e8	0.99664164
2	0x3f801077	1.0005025
3	0x3f7fc671	0.9991217
4	0x3f7ff56c	0.9998386
5	0x3f8025e2	1.0011561
6	0x3f7f8316	0.99809396
7	0x3f7fbc23	0.9989645
8	0x3f7ff327	0.99980396
9	0x3f7fd82e	0.9993924
10	0x3f7e9513	0.9944622
11	0x3f7ff149	0.99977547
12	0x3f8011ca	1.0005429
13	0x3f8015b1	1.000662
14	0x3f7f99aa	0.9984385
15	0x3f7fedba	0.99972117
16	0x3f7fe1ce	0.99953926
17	0x3f8019f7	1.0007924
18	0x3f8022a9	1.0010577
19	0x3f7fd23d	0.99930173
20	0x3f7ff3b1	0.9998122
21	0x3f7fb6c9	0.99888283
22	0x3f7ff004	0.9997561
23	0x3f8003bb	1.0001138
24	0x3f804352	1.0020545
25	0x3f7ff41b	0.9998185
26	0x3f7feb8b	0.99968785
27	0x3f803f4e	1.0019319
28	0x3f802235	1.0010439
29	0x3f7fda92	0.99942887
30	0x3f801cc3	1.0008777
31	0x3f802212	1.0010397
32	0x3f8014a6	1.0006301
33	0x3f801e62	1.0009272
34	0x3f7fa88a	0.99866545
35	0x3f7fd1d8	0.9992957
36	0x3f801123	1.000523
37	0x3f7fff60	0.99999046
38	0x3f7fb860	0.9989071
39	0x3f800e90	1.0004444
40	0x3f8028ed	1.001249
41	0x3f7f9d2c	0.998492
42	0x3f800041	1.0000077
43	0x3f7fed4e	0.99971473
44	0x3f7f40a9	0.9970804
45	0x3f80150c	1.0006423
46	0x3f801c50	1.000864
47	0x3f7fd9e2	0.9994184
48	0x3f7fae81	0.99875647
49	0x3f7f64a5	0.99762946
50	0x3f802f64	1.0014462
51	0x3f800f3a	1.0004647
52	0x3f80109b	1.0005068
53	0x3f8024fa	1.0011284
54	0x3f7f7ee7	0.9980301
55	0x3f80104b	1.0004972
56	0x3f7fcfbd	0.9992636
57	0x3f7fdfe8	0.9995103
58	0x3f802484	1.0011144
59	0x3f8039f1	1.0017682
60	0x3f800d8b	1.0004133
61	0x3f7f8cc8	0.9982419
62	0x3f8032e6	1.0015533
63	0x3f7fd8c2	0.9994012
64	0x3f7fad0a	0.9987341
65	0x3f800e79	1.0004417
66	0x3f801893	1.00075
67	0x3f8004e6	1.0001495
68	0x3f7fb674	0.99887776
69	0x3f7ffa09	0.999909
70	0x3f7fa995	0.99868137
71	0x3f801c09	1.0008556
72	0x3f8030e9	1.0014926
73	0x3f801d9f	1.000904
74	0x3f8033f1	1.0015851
75	0x3f7fe928	0.99965143
76	0x3f7ff350	0.9998064
77	0x3f7fa1b9	0.99856144
78	0x3f7fe949	0.9996534
79	0x3f8025cf	1.0011538
80	0x3f800692	1.0002005
81	0x3f802c82	1.0013583
82	0x3f802f17	1.0014371
83	0x3f806f8a	1.0034039
84	0x3f7fb3be	0.9988364
85	0x3f7fe1b9	0.999538
86	0x3f7fdc76	0.9994577
87	0x3f802d47	1.0013818
88	0x3f7fbcf3	0.9989769
89	0x3f7fa4e9	0.9986101
90	0x3f80204c	1.0009856
91	0x3f80227c	1.0010524
92	0x3f803c4d	1.0018402
93	0x3f800081	1.0000154
94	0x3f803a8b	1.0017866
95	0x3f800272	1.0000746
96	0x3f7fd9bd	0.9994162
97	0x3f804ca4	1.0023389
98	0x3f7ffbca	0.99993575
99	0x3f801dcd	1.0009094
100	0x3f8015e5	1.0006682
101	0x3f8024d2	1.0011237
102	0x3f800edc	1.0004535
103	0x3f8000c7	1.0000237
104	0x3f7fac39	0.99872166
105	0x3f80302a	1.0014699
106	0x3f800153	1.0000404
107	0x3f801702	1.0007021
108	0x3f7fcf08	0.9992528
109	0x3f7f9ffd	0.998535
110	0x3f7fc179	0.9990459
111	0x3f8006b9	1.0002052
112	0x3f7fb779	0.9988933
113	0x3f7f9ff6	0.99853456
114	0x3f7ff0e7	0.9997696
115	0x3f803983	1.0017551
116	0x3f7f8ce6	0.9982437
117	0x3f7ff44a	0.9998213
118	0x3f801187	1.0005349
119	0x3f80073f	1.0002211
120	0x3f7fdc8e	0.99945915
121	0x3f800967	1.0002869
122	0x3f800ba9	1.0003558
123	0x3f8006f6	1.0002124
124	0x3f7fb988	0.99892473
125	0x3f7f96b2	0.9983932
126	0x3f7f484b	0.99719685
127	0x3f7ff2eb	0.9998004
128	0x3f7faabc	0.99869895
129	0x3f7fd0fe	0.9992827
130	0x3f7feedf	0.99973863
131	0x3f7ffc8f	0.9999475
132	0x3f800fa3	1.0004772
133	0x3f8031d5	1.0015208
134	0x3f80055f	1.0001639
135	0x3f7fbba6	0.99895704
136	0x3f7f6edb	0.9977853
137	0x3f7f97c6	0.9984096
138	0x3f7fdc67	0.9994568
139	0x3f7f985e	0.9984187
140	0x3f7fdbfc	0.99945045
141	0x3f804981	1.0022432
142	0x3f800adf	1.0003318
143	0x3f802de3	1.0014004
144	0x3f800a8e	1.0003221
145	0x3f7f753d	0.99788266
146	0x3f80357f	1.0016326
147	0x3f802636	1.0011661
148	0x3f800891	1.0002614
149	0x3f8019ee	1.0007913
150	0x3f7ff335	0.9998048
151	0x3f80393a	1.0017464
152	0x3f8000ae	1.0000207
153	0x3f802454	1.0011086
154	0x3f80101c	1.0004916
155	0x3f7ff67f	0.999855
156	0x3f8013ed	1.0006081
157	0x3f7f15fd	0.99642926
158	0x3f7f99f0	0.99844265
159	0x3f7fe5f9	0.99960285
160	0x3f7ff41a	0.99981844
161	0x3f801ca2	1.0008738
162	0x3f7fe86e	0.99964035
163	0x3f7f0c8b	0.99628514
164	0x3f800d4c	1.0004058
165	0x3f80153d	1.0006481
166	0x3f7fe9f2	0.9996635
167	0x3f802e64	1.0014157
168	0x3f80363e	1.0016553
169	0x3f8005e8	1.0001802
170	0x3f7fdefd	0.9994963
171	0x3f801de5	1.0009123
172	0x3f801e11	1.0009176
173	0x3f800576	1.0001667
174	0x3f7fa08b	0.99854344
175	0x3f7fcb98	0.99920034
176	0x3f7ff163	0.999777
177	0x3f801cdf	1.0008811
178	0x3f7fe615	0.9996045
179	0x3f800878	1.0002584
180	0x3f800afc	1.0003352
181	0x3f800d91	1.000414
182	0x3f7fbb26	0.9989494
183	0x3f7f8b09	0.99821526
184	0x3f801e7f	1.0009307
185	0x3f8006fe	1.0002134
186	0x3f8011b7	1.0005406
187	0x3f800fca	1.0004818
188	0x3f804823	1.0022014
189	0x3f7ff966	0.99989927
190	0x3f7fd6f0	0.99937344
191	0x3f80056c	1.0001655
192	0x3f7ff840	0.99988174
193	0x3f7f4400	0.99713135
194	0x3f801535	1.0006472
195	0x3f7fc3ee	0.9990834
196	0x3f800083	1.0000156
197	0x3f800d0c	1.0003982
198	0x3f7fed55	0.99971515
199	0x3f801c22	1.0008585
200	0x3f8003c0	1.0001144
201	0x3f8025d0	1.001154
202	0x3f7fe0f7	0.99952644
203	0x3f80145d	1.0006214
204	0x3f7fed85	0.999718
205	0x3f800984	1.0002904
206	0x3f7fe843	0.9996378
207	0x3f8005f4	1.0001817
208	0x3f801c57	1.0008649
209	0x3f7ff19d	0.9997805
210	0x3f7fd2d4	0.99931073
211	0x3f7fb6b2	0.99888146
212	0x3f7f9ced	0.99848825
213	0x3f804545	1.0021139
214	0x3f8003f7	1.000121
215	0x3f8004d8	1.0001478
216	0x3f7f2f99	0.99682003
217	0x3f7fd28e	0.99930656
218	0x3f7fe27b	0.99954957
219	0x3f800e95	1.000445
220	0x3f801e5e	1.0009267
221	0x3f801e55	1.0009257
222	0x3f7ffea5	0.9999793
223	0x3f8016a3	1.0006908
224	0x3f7fac46	0.99872243
225	0x3f7fa531	0.9986144
226	0x3f7ff28c	0.9997947
227	0x3f801404	1.0006108
228	0x3f7fa27c	0.99857306
229	0x3f800a75	1.0003191
230	0x3f7ff7a5	0.9998725
231	0x3f7f57bc	0.9974325
232	0x3f8018db	1.0007585
233	0x3f80178f	1.000719
234	0x3f7ffa3b	0.99991196
235	0x3f7ff38d	0.99981004
236	0x3f7fe730	0.9996214
237	0x3f7ffb1f	0.99992555
238	0x3f7fde1f	0.99948305
239	0x3f7fb177	0.99880165
240	0x3f8027db	1.0012163
241	0x3f8003fe	1.0001218
242	0x3f7fd1e0	0.9992962
243	0x3f7fc6e7	0.99912876
244	0x3f803f13	1.0019249
245	0x3f80050c	1.000154
246	0x3f7fdcf8	0.99946547
247	0x3f7fd721	0.99937636
248	0x3f801a57	1.0008038
249	0x3f80218c	1.0010238
250	0x3f7fecec	0.9997089
251	0x3f8037e6	1.0017059
252	0x3f801a7f	1.0008086
253	0x3f800797	1.0002316
254	0x3f8013cb	1.000604
255	0x3f801cdc	1.0008807
