data/rl4wound_paper_res/ctr/models_map524/agent_ctr_True_ep_1009.pth (torch, 950255 bytes, 21 tensors)

fc1.weight f4 [512, 5]
00000000: 775b aebb 69f6 763e b60b bbbe d19d a6be
00000010: 4353 31be b464 ef3d b9a9 0bbc 75f6 b53e
00000020: 279b 22bd 3cd4 f23d 15c4 09be f482 b7bd
00000030: c652 dabe 82db 97be 350f 3abe 34cd 8f3c
00000040: 3720 363e b865 883e 6213 9cbe 118f 48be
00000050: 28ce 263e db73 bc3e a56a bebd e031 ac3e
00000060: 97ad 8fbd 5127 3b3d bf63 d03e 47f3 d3be
00000070: e2fc 8dbe aeeb edbd 98dd 32be 5d6f c43e
00000080: 053a 93be e0b0 55be baac 9ebe cb52 d6be
00000090: 17f5 83be e519 c43e 9a75 4d3e 0ac9 5e3e
000000a0: 88b3 c53c 9cba 68be e598 953d beaf d6be
000000b0: 9528 a6be 43ad 6ebe 91d4 8f3e 3ec8 873e
000000c0: 84e5 47be e299 57bc ce2f 913e ca5c e43e
000000d0: 1330 353e d0c0 7b3d d89e 973e d64e 86be
000000e0: 2057 ab3d 2a68 b1be 5bb0 9ebe 405d 6dbe
000000f0: 6ebb 4b3e 56ac 363e 9b67 86be 7273 0c3e
00000100: dac1 7d3e d34e 64bd 5477 8c3c 08f5 d13d
00000110: 1766 8c3e 4369 dd3e 20ae afbe c64b 28be
00000120: 9633 333e bf2c bf3e d249 c63e f957 ca3e
00000130: 8af7 b43d 547e c7be a70b 283d 37d0 8ebe
00000140: bbed d4be 8c3b cc3e cb3d ad3e 5b46 e5be
00000150: 4ed3 a73d eef4 9bbd 143e 90bd 7d49 50be
00000160: adc9 2e3e fd7c 88be e970 263e 554a 693e
00000170: ba48 a33e 59ec 2b3e 9243 e2be 2d83 94be
00000180: b9d4 623e e1be bf3d 3863 b2be 6a61 84be
00000190: 0d8e d73e 1598 983e a0e6 48be 6d36 e2bd
000001a0: 288e dbbe a268 39bc dd95 abbe b6e6 b1be
000001b0: 5683 cbbc 269e 843d 9ed5 3abe 4357 883e
000001c0: cf3f 8cbe 7a3e ce3e 2bd2 9e3e 796f c0be
000001d0: a053 e4bd 6980 a53c e670 883d b39a dc3d
000001e0: 96cc 363e 5451 f23c cce0 61be 9df5 543e
000001f0: 9bad ddbe 87e0 86be f625 e1bd 2969 60be
00000200: 7df3 22be d567 bbbe 7d55 bcbd a71a c33d
00000210: 0dc9 95be 0ab3 c3bc 1fb3 a33e 2eb4 3bbd
00000220: 4f59 7c3c bd2e 24bd 1d6b b43d 54b7 923e
00000230: a4c9 d73e 0cd0 923e fc63 d93e 79b1 fcbc
00000240: d0dc cebe aaac 5abe dff3 993e 4a24 2fba
00000250: 0029 62be f755 afbe 2967 d5be 95ec c0be
00000260: f240 bdbd e372 773e f00a 7b3e d896 ddbe
00000270: b760 8e3e 0534 b2be 6f14 c1bd c95e 3bbe
00000280: a184 b0bd 4e6b bcbd 7c08 cdbe f29c c4be
00000290: 2a61 94bd 357c 123c 0dca 4cbe a383 283e
000002a0: c035 d0be c3da 08bd e1ce c93e ccfc 37be
000002b0: d94c ce3e 7832 253e ec6b cfbe 4362 913e
000002c0: f860 54bd c635 4bbe f64f b63e 3f09 babe
000002d0: 2d44 403d ed68 babd 6879 a33e 3298 003e
000002e0: b8b4 5b3e e631 223e 7ea5 d5bd 2056 c6bd
000002f0: 0ac6 bebe a604 773e a879 b63e 89df 9c3e
00000300: 7008 a2be 812b 963c 757e a1be 4b8f 7bbe
00000310: 85b9 84be d87c 1b3e cec8 88be 1c61 30bc
00000320: dab3 8e3c 46e7 953e 7a59 adbe 4e70 9cbe
00000330: 5197 85be 86e3 a03e 1d00 27be c08f bf3e
00000340: 403a 273e e558 673d fe61 4cbb 6b41 acbd
00000350: 62c0 5f3d dba2 d6bd 86e5 c3bb 3519 673d
00000360: 3994 b5be ef15 6ebe a023 ba3e 2372 b8be
00000370: 29ee e2bc 27a7 e33e 5f48 213e 9dc9 203c
00000380: 29aa c6be 0ed7 623e 7bcc a4be e550 00be
00000390: 51fc 17be 49fb 7fbd 5b3f 983b 8d28 bf3e
000003a0: c5df 5d3d 82cf cb3e 6b35 8c3e 04a8 91be
000003b0: 9959 4d3e d0c9 a1be 9f22 41be c7c4 053e
000003c0: 13d3 183e 5e79 ab3e c68b 13be b281 b738
000003d0: c7af 6b3e 0aa8 dcbe 6018 a63e a556 bebe
000003e0: 2395 8c3b a114 9abd 7c94 6fbe a50a 6b3d
000003f0: b644 bd3e e12f 06be 9124 89be 2665 2abe
-0.005320962 0.24117436 -0.36532372 -0.3254228 -0.17316918 0.116891295 -0.008524352 0.35539594
-0.039698746 0.11856887 -0.13453706 -0.08960524 -0.42641276 -0.2965966 -0.18169864 0.017553903
0.17785726 0.26640105 -0.30483538 -0.19585826 0.1628958 0.3680714 -0.092976846 0.33631802
-0.070155315 0.045691792 0.407011 -0.41396543 -0.27731997 -0.11617218 -0.17467344 0.38366213
-0.28755203 -0.20868254 -0.30991155 -0.4186004 -0.25772926 0.38301006 0.20064393 0.21756378
0.024133459 -0.22727436 0.07304553 -0.41930956 -0.32452837 -0.23308282 0.28091863 0.2651996
-0.19521147 -0.013159247 0.28356785 0.44602042 0.1769412 0.061463177 0.29613376 -0.26232022
0.08366227 -0.34649783 -0.30993924 -0.23180103 0.19895718 0.17839178 -0.2625092 0.13715914
0.2478098 -0.055739235 0.017146744 0.10251814 0.27421638 0.4324437 -0.34312534 -0.16435155
0.17500147 0.37338826 0.38728195 0.39520243 0.08836277 -0.38963568 0.041026738 -0.2789323
-0.41587624 0.3988918 0.33836207 -0.4478024 0.081946 -0.07615076 -0.070430905 -0.20340534
0.1706912 -0.26657858 0.1625401 0.22782262 0.31891423 0.16789378 -0.44192177 -0.2900633
0.2215146 0.09362579 -0.34841323 -0.2585557 0.42100564 0.2980353 -0.19619226 -0.11045537
-0.42881894 -0.01131645 -0.33512774 -0.3474633 -0.0248429 0.06475477 -0.18245551 0.26629075
-0.27392432 0.4028204 0.3101972 -0.37585047 -0.11148763 0.020202832 0.06662159 0.10771694
0.17851481 0.029579796 -0.2205841 0.20796819 -0.43296513 -0.26343176 -0.109935686 -0.21915115
-0.15913196 -0.36602655 -0.09195993 0.09526568 -0.29254952 -0.023889083 0.31972596 -0.04582613
0.015402152 -0.040083636 0.08809493 0.28655493 0.42146027 0.28674352 0.42459095 -0.030846344
-0.40402842 -0.21354929 0.3006887 -0.00066811277 -0.22085953 -0.34245273 -0.41680267 -0.37680498
-0.09240903 0.2416492 0.24515891 -0.43279147 0.27808163 -0.34805313 -0.094277255 -0.18297876
-0.08619047 -0.09200154 -0.40045536 -0.3840099 -0.07245095 0.008940746 -0.19998951 0.16456465
-0.40666008 -0.033411752 0.3941565 -0.17967528 0.40293005 0.16132534 -0.40512025 0.2839528
-0.05185029 -0.19844732 0.3560788 -0.3633518 0.046940017 -0.09102044 0.31928563 0.12558058
0.21455657 0.15839347 -0.10431956 -0.09684396 -0.37260467 0.24122867 0.3563969 0.30639294
-0.31647062 0.018331291 -0.31541792 -0.2456638 -0.2592279 0.15184343 -0.26715702 -0.01076534
0.017419744 0.2927801 -0.33857328 -0.30554432 -0.26092008 0.31423587 -0.16308637 0.3741436
0.16330814 0.05648126 -0.0031186338 -0.08410915 0.05462683 -0.10480281 -0.005978289 0.056420524
-0.35464647 -0.23250555 0.36355305 -0.3602458 -0.027701454 0.44463465 0.15750264 0.009813693
-0.38801697 0.2215235 -0.32187256 -0.12530859 -0.14842345 -0.062495504 0.0046462244 0.37335625
0.05416848 0.39806753 0.27384505 -0.28448498 0.2005371 -0.31599283 -0.18860863 0.13063346
0.14924268 0.33491033 -0.14408788 8.7502776e-05 0.23016272 -0.43096954 0.32440472 -0.3717548
0.0042902394 -0.07523466 -0.23396486 0.0573832 0.36966485 -0.13104202 -0.2678571 -0.16640148

fc1.bias f4 [512]
00000000: 76c4 96be 5102 a1be fe28 983e b440 15be
00000010: 09c1 ecbc be00 093e 8e83 8dbe 82fd 293d
00000020: 6fb1 873e c94c 86be 1c09 053e 32e7 80bc
00000030: 226d 7b3e 5903 983e fafa ec3d dbe3 453c
00000040: c03f c5be 58c5 363e ba94 8b3e d0e7 26be
00000050: 88a1 e1be 09df bb3e a986 d6bd bc30 b23d
00000060: f122 02be ca74 943e e48e df3e c487 8f3e
00000070: 1398 0ebe 83bd a13e e57f 5d3e a85d 363d
00000080: 7878 b8be 9e41 43be a50e e3be c4ed 983e
00000090: d33b e23e 270d 853e 6fb2 0e3e fc81 d83d
000000a0: 0ff9 db3e a1e7 67be 9728 1abe 6735 ccbe
000000b0: c1d2 2fbd 0264 de3c f115 fb3d 2993 9fbe
000000c0: bdef 4abd 35cd bdbe 5c62 b9be 45e5 703d
000000d0: 6e71 dfbe fc93 f53d a6e2 d3be 6c0f 9fbe
000000e0: 81e2 bcbd 4299 d9be 4101 b93e a986 bb3e
000000f0: e862 6bbe 355a ca3d c564 6d3e 4560 113e
00000100: 8aeb 6cbd 6829 d6be 7683 a73e 3172 c9be
00000110: 9abe a4bd b8f7 d73c c58e 19be 513c 21be
00000120: 977a c6be 0f66 b53c c65b 49bd bdb3 c73e
00000130: 6e42 16be 8cc6 ad3e 9902 db3c 8c9a 51be
00000140: 6af0 dabd c37e 5dbd 1027 b83b 5847 a2bd
00000150: 80db 073e b844 be3e 9c13 913d 1cbe 253e
00000160: 9599 8e3e e48a c33d f71a 533e e300 703e
00000170: c9d7 d33e b539 d1be 7231 1d3e c890 a6bc
00000180: 417b a3bd b91a 2abe 7610 873e f473 d13e
00000190: a2d0 babe 345e 763e f2de 9f3e 0233 a03d
000001a0: 2563 043c f801 b03e 581d 283c de12 e3bd
000001b0: 2d0c 0abd 10f9 0f3e 58ff e23d 23b0 98bc
000001c0: acc1 0c3e d854 f63d 6a20 b7be d1c3 e33d
000001d0: 1064 8c3e 09a5 4d3d 1e85 25bd bd71 af3e
000001e0: 22d8 c7be 0be9 50be 8e37 4ebe 42b4 c53e
000001f0: aa01 debe b4a2 4c3d 441f e0be 60a3 7fbc
00000200: b552 2c3e 08b7 d1bd 913c de3e c68f 1d3b
00000210: a41a 69be c0a4 ec3d e3cf 683e c7b6 7dba
00000220: 33df c33e 3452 90be 65a1 433e 43a7 7e3e
00000230: 05e8 633e 18b0 a43a 4328 fa3d 8aea b1be
00000240: 78ce b0be 368e dfbc d56f 70bd bb24 aa3e
00000250: 061b a93e d335 9c3e 63e0 53be fdfd b2be
00000260: 9516 d6be 886b 2b3e d87d ccbe 042b e5be
00000270: 9599 64be 182a c3be 3ac0 38be 1b54 90be
00000280: 7d30 6cbe 65db d93e cdef adbd 5ebf bd3e
00000290: cf59 113c 391e 7bbd a237 05be e2e3 a2be
000002a0: bba8 b7be ebb5 9e3e 7870 0fbe bd3a e0be
000002b0: 16d8 d13e 9e35 133c 3a14 9abe 7d68 b4be
000002c0: b013 bfbe bd64 c8be 825a cf3e 0cbb 9d3e
000002d0: e449 153d fd25 c4be 5ff1 efbd 2ff3 d5be
000002e0: a00e 223e 3efc f5bd 15a7 c3bd 79f7 0ebe
000002f0: bd5a 563e 4425 7d3e e450 c63d b926 80bd
00000300: 8e13 35bd 706f eebb 0d87 abbe 46eb dc3e
00000310: 3ec8 45be 9140 853e e68b 80be 03d1 fc3b
00000320: 4bb0 1c3e e105 d2be 4d58 553e 6926 b1be
00000330: 937e 7f3d b37a b5bd 003c 843e 9346 df3e
00000340: 2e01 be3d 2681 53bc 98bd 60be 02f9 2a3e
00000350: 9483 5abe 4cb7 3b3e 6ef9 45be 4f36 9a3e
00000360: 18a1 af3e 09f1 8e3e bce2 413c 44cf 513e
00000370: a84e d2be 0fbe b93e c099 ecbd 0baf 273e
00000380: 67c9 9ebd a5a5 15be 7fdc 55be 7781 933e
00000390: 4fcb 7abe a117 a6bd 9657 623e 3fb3 3a3d
000003a0: 6ab2 bfbe d26d e3be 3e09 5fbe a94d d13e
000003b0: a4cb a2be 3726 803e 0ae4 a33e fe37 3fbe
000003c0: 089d 4bbe e0a3 a4be 36af 8d3d 36cb 81bd
000003d0: fe18 b23c 03e2 463e aeb7 433e 6357 13be
000003e0: 4964 003d 657c e23d 4e7c 2e3c b255 b73d
000003f0: 58a3 38be 29d7 bb3e 2786 44bd d233 74bd
-0.29446763 -0.3144708 0.29718775 -0.14575464 -0.02890064 0.1337919 -0.2763943 0.04150153
0.2650256 -0.26230457 0.12991756 -0.015735243 0.2455335 0.29690054 0.115713075 0.012078251
-0.385252 0.17848718 0.27261907 -0.16299367 -0.4406855 0.366936 -0.10474903 0.087007016
-0.12708642 0.28995353 0.43663704 0.28033268 -0.13925199 0.31589898 0.21630819 0.04452291
-0.3602941 -0.19068 -0.4434711 0.298689 0.44186267 0.25986597 0.13935255 0.105716676
0.42963454 -0.22646953 -0.15054546 -0.39884493 -0.0429256 0.027147297 0.12260044 -0.31166962
-0.04954504 -0.37070623 -0.36207855 0.0588124 -0.43641227 0.119911164 -0.41383857 -0.31066453
-0.0922289 -0.4249974 0.3613377 0.36626175 -0.22986948 0.09880487 0.23182972 0.1419688
-0.057841815 -0.41828465 0.32717484 -0.39344934 -0.08044167 0.026363239 -0.14995869 -0.15745665
-0.38765404 0.022143392 -0.049159788 0.39004317 -0.14673778 0.33940542 0.026734637 -0.20469111
-0.106903866 -0.054075968 0.005619891 -0.07923764 0.13267326 0.37161803 0.07083818 0.16185802
0.2785155 0.09547976 0.20615755 0.23437838 0.41375569 -0.4086434 0.15350893 -0.020332709
-0.07982493 -0.16611756 0.26379746 0.40908778 -0.364873 0.24059373 0.3122478 0.07822229
0.0080802785 0.34376502 0.010260902 -0.11087583 -0.033703018 0.14059854 0.11083859 -0.018638676
0.13745755 0.120279014 -0.35766917 0.111213334 0.27420092 0.050206218 -0.040410154 0.34266463
-0.39032084 -0.20401399 -0.2013838 0.38614088 -0.43360645 0.049959853 -0.43773854 -0.0156029165
0.16828425 -0.102399886 0.43405584 0.0024041994 -0.22764069 0.11554861 0.22735552 -0.000967842
0.38256225 -0.28187716 0.19104536 0.24868493 0.22256477 0.0012564687 0.122147106 -0.34749252
-0.34532523 -0.027289491 -0.0587004 0.33231148 0.3302843 0.30509815 -0.20691065 -0.34959403
-0.41814104 0.16740239 -0.3993976 -0.4475938 -0.22324212 -0.38118052 -0.18042079 -0.28189167
-0.23065372 0.42550197 -0.08493004 0.37060064 0.00887151 -0.06130812 -0.13009503 -0.31814486
-0.3587092 0.30998167 -0.14007747 -0.43794814 0.40985173 0.008984951 -0.30093557 -0.35235968
-0.37319708 -0.39139357 0.4049874 0.30806768 0.03644742 -0.38310233 -0.1171596 -0.41787097
0.15825891 -0.12011002 -0.09553353 -0.13961591 0.20933051 0.24721247 0.096833974 -0.06257386
-0.044208102 -0.007276468 -0.33501473 0.4314825 -0.19314668 0.26025823 -0.25106734 0.007715346
0.15301625 -0.4102011 0.20834465 -0.34599617 0.06237657 -0.08861294 0.25827026 0.4360853
0.09277569 -0.012909209 -0.21947324 0.16696551 -0.21339256 0.18331641 -0.19333431 0.3011956
0.34302592 0.2791827 0.011833843 0.20489222 -0.41075635 0.36277816 -0.11552763 0.16375367
-0.07753258 -0.1461397 -0.20884894 0.2880971 -0.24491619 -0.081099756 0.22103724 0.0455811
-0.37440807 -0.44419724 -0.2178087 0.40879562 -0.3179599 0.25029156 0.32009917 -0.18673703
-0.19884121 -0.32156277 0.069181845 -0.063375875 0.021740433 0.19422154 0.19113037 -0.14388804
0.03134564 0.110588826 0.010649754 0.08951892 -0.1803106 0.36687592 -0.0479795 -0.059619732

fc2.weight f4 [256, 512]
00000000: c9ad 233d 7e4f 0d3d 26be 23bd 975e 97bc
00000010: 5383 c03c 0d06 d9bc f81f f93b 03cb 90bc
00000020: cbab f03b fa60 b63c 71d7 4f3c a22a fd3c
00000030: 09db dfbb 8efa c33c 0176 7d3c f899 74bc
00000040: 53f2 03bd c30c 2a3d 8b0c 39bc 7c93 043d
00000050: ce7b da3c 0097 52bb a46e 19bd 88a1 9b3b
00000060: 4dca a8bc dfce 393c 4c6a 9dbc 9719 043d
00000070: 70b4 1bbd 4e26 49bc 4963 003c e79b 5f3b
00000080: 592d 0f3d f425 7fbc 5fc6 09bd df87 f63c
00000090: aefc 5b3c 2fa6 e13c 12e1 ddbc 0260 d1bc
000000a0: 9fdf 9bbc a127 913b 846b 733c 13af c7bc
000000b0: 84cc feba 7b06 19bc 6f75 253d 8dbc 8dbc
000000c0: be30 293d 9b02 e5bc e1e0 88bc e669 03bd
000000d0: e505 0c3d ba80 ecbc 491e 923c d318 8fbc
000000e0: c3c0 313d 0708 a43b 96e7 16bd 599d ee3b
000000f0: 9f73 883b 020f 28bd 7a87 183c 6905 2f3d
00000100: 5e4d 343c 6e67 1f3a 390d f8bb d2a6 563c
00000110: 1acc 93bc 01cc 2b3d 902d 1a3d 8d4a 9a3c
00000120: 0cd2 8fbc 6982 2fbd 9662 d8bc a9d0 353d
00000130: 7f19 21bd 790d 33bd 32df 92bb f094 4c3c
00000140: 0bd1 37bd 57a2 27bd 7b91 ee3a 4a30 8abc
00000150: ac8f 003d 2c57 373c b574 16bd 2777 20bd
00000160: 9666 033d e53b cdbb 49d3 8fbc 87cf 4b3c
00000170: e353 20bc 88e5 a13c c4c1 273c a3d5 98bc
00000180: 4461 12bd 6c43 d63c acc0 e7bc 5047 bfbb
00000190: 50ea e73b 65b7 d0bc 46e1 b93c bba2 f2bc
000001a0: 62a1 193c 6795 a13b a330 743c 5a0c 38bd
000001b0: 26fb 993a 9fdc 9e3c 7334 e0bc 779c 413c
000001c0: ff7f fb3a 5f52 153d c461 30bc 98ba b7ba
000001d0: 333f a6bc 6458 1ebc 574a 423c f716 2abd
000001e0: 60c2 0b3d ed38 fa3c b62a 9e3c 9675 083d
000001f0: 8f79 74bc fe9c 113c 25bb fd39 8c41 03bd
00000200: 1977 79bc e183 8ebc 518a 27bc 800d 1ebd
00000210: 0591 02bd 5ff4 afbb 84a8 bfbb 193c 20bd
00000220: 97ab f43b e070 ba3c 20e3 1c3d d0bd 143d
00000230: cbd6 ffbc 9add 6dbc 8f84 b8bc bea8 093c
00000240: a463 293c 6bcb 183c e2cd d63c dc71 ba3c
00000250: 2961 bbbc e4e8 ee3c d5b8 003d f896 e63b
00000260: 819f 21bd 7787 d6bc 15fb 553c 4ea2 843c
00000270: 82db 303d 4f60 ab3c 308e 903c bf12 31bb
00000280: 93b3 ed3c 00aa 8dbc bb41 883c 23e1 a5bc
00000290: ff2f cdb9 6fa3 ce3c 6172 9e3c d9fd 3bbc
000002a0: 8fd0 c5ba 123e bfbc 08d2 9b3c 02ac fe3c
000002b0: f50f 5e3c 8fa9 35bd bb98 06bd d6b1 eb3c
000002c0: 0100 eebb bd72 d03c de86 0d3d f4bc 57bc
000002d0: 192a cdbc 949f 26bd d22a 773c 3cec ae3c
000002e0: 619d 17bc c17a 32bd 51b4 f6bc 8116 25bb
000002f0: ed1f a93c c68f 75bc a00d f6bc e6ee 02bd
00000300: 5fc8 213d 77d5 6c3c 44e9 0bbd 9311 ecbc
00000310: 78f1 19bd f0b1 ab3b 94a2 a0bc a89c 93ba
00000320: 412a 0dbc 5a16 24bd a2a8 27bd 8152 12bd
00000330: 8ee3 9ebc ccb7 e93b faae b6bc 5354 57bb
00000340: c2b9 d8bb 32a6 1f3d 2414 97bc 27d9 313d
00000350: 9f1c 03bd 4e27 1dbd 7f31 4b3c 2cba c6bc
00000360: 75d4 b93c 03a6 c9bc 243e 113d 6957 2a3d
00000370: 4042 943b 9abd 043c 6f81 2f3d 9618 cd3c
00000380: 0043 1bbd 6d3f 3dba dfd2 1bbd a3e2 113d
00000390: 43ef 1cbc bb0d 1d3a 3d30 ecbc 5cf1 bcbc
000003a0: 0dd1 af3b 0127 1b3d 5825 c0bc 8912 b73b
000003b0: 8798 1f3d 4363 293d 5c57 e0bb 5d6b 2c3d
000003c0: 353d 733c b18a 2a3d d9f1 5f3a a842 1abd
000003d0: 8e53 56bc 7cae 733c b61b b53c 7b68 2cbd
000003e0: 321e 093d 346c 1cbd 1f98 c83c 0adc 2c3d
000003f0: b00e 393c baad eabb 45e3 bc3c 4d21 45bc
0.039960656 0.034499638 -0.03997626 -0.018477721 0.02350012 -0.026492143 0.007602688 -0.017674929
0.007344698 0.022263039 0.012685643 0.030904118 -0.006831531 0.023923185 0.015470029 -0.014929287
-0.03221352 0.041516077 -0.011294494 0.032367215 0.026670363 -0.003213346 -0.03745903 0.0047494806
-0.020604277 0.011340826 -0.019215725 0.032250967 -0.038013875 -0.012277199 0.007836171 0.0034120025
0.034955356 -0.015573014 -0.033636447 0.030094085 0.013426943 0.027545063 -0.027084861 -0.025558475
-0.01902753 0.004429773 0.014857177 -0.024375474 -0.0019439613 -0.009339924 0.040395197 -0.017301822
0.04130625 -0.027955344 -0.016708793 -0.032083414 0.03418531 -0.028869975 0.017836707 -0.017467892
0.043396723 0.0050058397 -0.03684195 0.007281941 0.0041641737 -0.041029938 0.009309644 0.04272977
0.011004774 0.0006080781 -0.0075699356 0.0131012965 -0.01804166 0.0419426 0.037641108 0.018834377
-0.017556213 -0.04284898 -0.026414197 0.044388447 -0.039330956 -0.04371402 -0.0044821734 0.012486681
-0.044877093 -0.040926304 0.0018201316 -0.01686873 0.031387016 0.011190217 -0.036732394 -0.039176133
0.032080255 -0.0062632435 -0.017556803 0.012439615 -0.009785625 0.01976277 0.010239068 -0.018656557
-0.03573729 0.026155196 -0.028290115 -0.0058373585 0.007077493 -0.025478074 0.022690427 -0.029618612
0.009376856 0.00493114 0.014904174 -0.044933654 0.0011747822 0.01939231 -0.02736876 0.011817089
0.0019187926 0.03645551 -0.010765497 -0.0014017401 -0.020293808 -0.009664629 0.011858544 -0.041525807
0.034120917 0.030544722 0.019307476 0.033315264 -0.01492156 0.0088875275 0.00048395354 -0.032044932
-0.015226149 -0.01739687 -0.010225848 -0.038587093 -0.031876583 -0.0053697075 -0.005848946 -0.039119814
0.007466744 0.022758901 0.03830254 0.03631383 -0.031230351 -0.014518166 -0.022524146 0.008402048
0.010338698 0.009325842 0.02622122 0.02275937 -0.022873478 0.029163785 0.03142627 0.00703704
-0.039458755 -0.026187642 0.013060351 0.016190674 0.04317809 0.020919947 0.017645925 -0.002701923
0.029016292 -0.017292976 0.016632905 -0.020248955 -0.00039136407 0.025224416 0.01934165 -0.011474096
-0.0015092063 -0.023345027 0.01902105 0.03108788 0.013553609 -0.044351157 -0.0328605 0.028771322
-0.007263184 0.025445336 0.034552447 -0.0131676085 -0.025044488 -0.04067953 0.015085893 0.02135288
-0.009253831 -0.0435741 -0.030115278 -0.0025190415 0.020645106 -0.014987892 -0.030035794 -0.031966113
0.03949773 0.014455191 -0.034158006 -0.028816974 -0.0375838 0.0052397177 -0.019608773 -0.0011261897
-0.008616031 -0.04006038 -0.040932305 -0.035723213 -0.019395616 0.007132506 -0.022300232 -0.0032856658
-0.006613941 0.038976856 -0.018442221 0.043419983 -0.032009717 -0.038367562 0.0124019375 -0.024258696
0.022684315 -0.024615293 0.035459653 0.041587267 0.004524499 0.008101845 0.042848047 0.025036138
-0.037905693 -0.0007219229 -0.0380429 0.03561653 -0.009578529 0.00059911207 -0.028831596 -0.023064308
0.005365497 0.037878994 -0.023455307 0.0055869264 0.03896382 0.04135443 -0.0068463515 0.042094577
0.014846136 0.041636173 0.0008542813 -0.037661225 -0.013081444 0.014873143 0.02210794 -0.042091828
0.033476062 -0.038189128 0.0244866 0.042202033 0.011295006 -0.007161823 0.02305759 -0.012031865

fc2.bias f4 [256]
00000000: d33c 55bc 9a73 073d 8380 f6bc 7486 1bbd
00000010: fb80 b8bc 3e86 d03c 5991 04bd d689 043d
00000020: 862b 033d 86ef 053d e3f7 2f3c 9349 633c
00000030: 611c 713c d970 063d 6d5b 64bc cd05 303d
00000040: f55f 3cbd 74d9 1ebd b450 02bd 0d1b 0f3d
00000050: 9a70 d4bb c215 0abd 92f5 e2bc 4278 deba
00000060: 0ac0 5b3c 8e9a 233d 99ff a53c a70b 983b
00000070: 02ed 17bb 135d e03c 6738 36bc 9634 adbb
00000080: 3a18 1f3d ea11 01bd b553 be3c 26db edbc
00000090: 986f 20bd 70c8 8c3c eaa4 18bd 8928 113d
000000a0: ac5b 8abc 16d0 1abd 5173 30bd 4b95 153d
000000b0: 8af8 33bd 7cfb 923c c91c c4bc 3b24 613c
000000c0: 5dd0 f33c 81a3 32bc 9c09 ea3c 7e7c 7abc
000000d0: 552c cb3b 4ad4 f2bc c752 d53c 243a f93b
000000e0: f029 6e3b 2d18 f73c f6fb 24bd eef1 8c3c
000000f0: b499 d8bb 10ea 89bc 4819 dabb 1001 ef3a
00000100: 8fe9 133d abd6 2abd 7fbc 9b3c aef2 a13c
00000110: 68ed 24bd 8546 1ebc 13f6 7dbc f0ef 073d
00000120: dc3f 06bd 39f6 dc3c 446d 863c 1d27 1c3d
00000130: 7e58 113d 6287 28bb 3df0 b6bc 2348 2f3d
00000140: 47fc 8bbc 6960 7cbb c4ee 813c 5cfe d23c
00000150: 1497 e93c d916 a8bc 604c dc3c d2a9 90bc
00000160: b66a f83a 79d1 34bd 67ad 2dbb f412 31bc
00000170: 19ec 93ba a9f5 133d 41b5 5fbc 51ac 733c
00000180: c440 d4bc 8a72 e83c 3fc6 88bc a7e7 953c
00000190: 9499 c43c 431a be3c 86f7 0b3d 3bfb 0bbd
000001a0: d532 13bb 19fb c7bb d73c 28bd b879 98bb
000001b0: b57f 463d 7ec3 63bc bf7f 193d 7a97 33bc
000001c0: 5ebe d7bc f526 f43c f067 72bc 7faa 113d
000001d0: ec7b 31bd 9fab 16b9 281b b3bc 722b 2ebd
000001e0: 0dc9 853c 23a5 36bd 3bcc 233d f2e1 9f3c
000001f0: 25a7 cbbc 260f 9cbc 9f36 3ebb 1029 153d
00000200: bfb8 56bc c3e5 143d bd90 f5bc c76b 9d3b
00000210: fa6b 3b3d 28b6 a93c 6001 f5bb e360 a13c
00000220: e8af 653b 138f 463c 392b b23c da53 293d
00000230: e75b c3bc 3683 0c3d 5c04 b53b 72ad 173d
00000240: ad52 143c 4349 8f3a e4a4 ac3c 5272 923c
00000250: 5e9b fd3c 2815 d9bc 10cd 0e3d ac97 003d
00000260: 85e6 2f3d 7b3e 27bd e510 39bd 3479 e6bc
00000270: 8335 afbc 118f e83c e0f7 333c 748d 88bc
00000280: 538c 033c c7a7 7cbc 50a5 cfbc cf57 2e3d
00000290: bbc1 2e3c d428 193d ed57 1a3d a70a c5bc
000002a0: bc05 19bd 463a 15bd 86e4 c53c 9e80 ddbc
000002b0: 7ce6 d73b f8e8 8d3a 5c70 fcbc d2cf 05b9
000002c0: ca9d 4dbc d874 54bc 12be 1fbd 488b 98bc
000002d0: 87ba 42bc 8058 0fbd c35f 1bbd 672a eabc
000002e0: 1853 acbb 1bf6 2fbd 5daa 7f3c 8ad3 f8bc
000002f0: 35c8 ccbc a461 bfbc fa4f 6f3c 0a51 ea3c
00000300: ae58 b63b a2ec c63c 6943 233c 1dd2 1cb8
00000310: 6f0e a63c c269 23bd 7af2 e1bc 69c8 383d
00000320: 96db 003c d07e 22bd 9ad1 d83b f478 1abd
00000330: d3a1 8cbc a016 38bc 4236 e5bc ffba 23bd
00000340: 1892 06bc cb13 edbb 03a3 f2bc f84e 31bb
00000350: fed2 14bd 58fe 153d 4a9d 07bc e350 293d
00000360: 2fac 153c 26ff 29bd a180 3a3d e760 eb3c
00000370: 3c57 38bc dcaa b93c 5715 ddbc cc98 dfbc
00000380: 828e c9bc 0402 df3c 398a e5bb 64ac faba
00000390: e278 1dbd d250 a03c adaf a23b a4d4 31bd
000003a0: 90c4 213c eabd 8839 801e 3d3c 6f25 02bd
000003b0: 2640 debc f7bc 47bb 8604 033b d79c 073d
000003c0: f985 0c3d 9c73 023c 2c7b 2bbb 121f 8abb
000003d0: 0172 013d 0937 20bd c468 d43c 86f3 ebbc
000003e0: d882 c2bc 6e5e b7bc 3042 13bd af50 0e3c
000003f0: 27b8 4ebc 93cb 03bc 439d efbc 13cd 0c3d
-0.01301499 0.03306923 -0.030090576 -0.03797002 -0.02252244 0.025454637 -0.032365177 0.032358013
0.03202393 0.03269913 0.010740253 0.013872522 0.014716239 0.032822464 -0.013937813 0.042974282
-0.04598995 -0.0387816 -0.031815246 0.034937907 -0.0064831497 -0.033712156 -0.027704988 -0.0016973095
0.013412485 0.039942317 0.02026348 0.004640061 -0.002318204 0.027388131 -0.011121846 -0.0052858097
0.038841464 -0.031511225 0.023233274 -0.029035162 -0.039168924 0.01718542 -0.03726665 0.035439048
-0.016889416 -0.037796102 -0.043078724 0.03651933 -0.043938197 0.017942183 -0.023939507 0.013741548
0.029762441 -0.01090324 0.028569035 -0.01528847 0.006200353 -0.029642243 0.026040448 0.007605808
0.0036340915 0.030162895 -0.04027935 0.017205205 -0.0066101197 -0.016835243 -0.006655846 0.001823457
0.03611141 -0.04170863 0.01901078 0.019769039 -0.04026547 -0.009660368 -0.015500563 0.033187807
-0.032775745 0.026972877 0.016409524 0.03812324 0.035484783 -0.002571546 -0.022331351 0.042793404
-0.017088069 -0.0038509613 0.015860923 0.025756054 0.028514422 -0.020518707 0.026891887 -0.017659102
0.0018952701 -0.04414508 -0.002650106 -0.010807741 -0.0011285573 0.03612295 -0.013654054 0.014872626
-0.025909789 0.028374929 -0.016696094 0.018298937 0.023999013 0.023205882 0.034171604 -0.03417514
-0.0022460718 -0.006102931 -0.041073646 -0.004653182 0.048461635 -0.013901589 0.037475344 -0.010961408
-0.026335891 0.029803732 -0.014795288 0.03556299 -0.04333107 -0.00014369049 -0.021863535 -0.0425219
0.01633122 -0.04459108 0.03998969 0.019516919 -0.024859974 -0.019050192 -0.0029024256 0.036416113
-0.01310557 0.03635193 -0.029976243 0.004804108 0.04575727 0.020716742 -0.0074769706 0.01969952
0.0035047475 0.0121190725 0.021749126 0.041339733 -0.023847533 0.03430482 0.0055242013 0.037030645
0.009052915 0.0010931868 0.02107472 0.017876778 0.030957874 -0.026499346 0.03486353 0.031394646
0.04294445 -0.04083107 -0.045182128 -0.028133966 -0.021387821 0.028388532 0.010984391 -0.016669013
0.008029061 -0.015420861 -0.025347382 0.04256421 0.010666306 0.037392452 0.03768151 -0.024052931
-0.037358984 -0.036432527 0.02415682 -0.027038869 0.006588755 0.0010826876 -0.030815296 -0.00012761288
-0.012549827 -0.012967311 -0.038999625 -0.018621102 -0.011885292 -0.03499651 -0.037933122 -0.028584672
-0.005258929 -0.042959314 0.015604583 -0.030374307 -0.02499781 -0.023361988 0.01460647 0.028603096
0.0055647707 0.024282757 0.009964802 -3.738898e-05 0.020270554 -0.03989578 -0.027581442 0.045113
0.007864853 -0.03967172 0.0066167833 -0.037713006 -0.017167008 -0.011235863 -0.027979974 -0.039973255
-0.008213542 -0.0072350255 -0.029618746 -0.0027055126 -0.03633403 0.036619514 -0.008277247 0.041336905
0.00913529 -0.041503094 0.045532826 0.02873273 -0.011251267 0.02266448 -0.026987715 -0.027294539
-0.024604086 0.02722264 -0.007005003 -0.0019124863 -0.03844536 0.019569788 0.00496479 -0.04341568
0.009873524 0.00026081438 0.011542916 -0.03177398 -0.027130198 -0.0030477622 0.001999171 0.03310856
0.034307454 0.007962134 -0.0026165945 -0.0042151297 0.031602863 -0.039114986 0.025928862 -0.028802644
-0.023744032 -0.022383895 -0.035951793 0.008686229 -0.0126171475 -0.008044141 -0.029249793 0.03437526

fc3.weight f4 [128, 256]
00000000: 200c 88bc e02e 12bd 1895 e13c 3602 523d
00000010: 6595 99bc 826d 6dbd 7bda e33c c241 313d
00000020: d6a5 073d 0ed4 3d3d 2014 2d3d 1b76 44bd
00000030: 34a8 3dbd 0c5a fe3c 461a cd39 76ac 223d
00000040: 4751 3d3d 2b92 2cbc 46ae 74bd c63e 1c3c
00000050: 059d e23c b98e ca3c b31c 783b 1ff3 8fbc
00000060: d96a 3a3d 6fc6 233d 9e38 653d 79f7 0abd
00000070: 231e afbc 897c e23c ee75 513d f732 843d
00000080: 2dd1 4abd 9a4c a03c c8c9 a73c c5f3 1bbd
00000090: aad1 21bc 38b4 be3c 7b26 81bc 2c0b 303d
000000a0: a029 1bbc 7c0c 07bc 1aac 933c 55a7 bcbc
000000b0: a936 19bd 4214 4b3d 597e 393c ee1f 55bd
000000c0: ce67 4d3d 24b5 0a3d b556 34bc 61a2 edbc
000000d0: 0f79 bfbc 3f31 cdbc 0c6d 533d 4bce 2f3c
000000e0: 0dfb 613b feda c5bc 4882 773d 7573 5abd
000000f0: ec41 50bd d7bd 17bd a4d5 503d 307b ce3c
00000100: 6e4b 71bd d7a0 3cbd 9cf6 20bc 4102 323d
00000110: 08cb 363b 2b6b 853d bf12 4abd a7bf cd3c
00000120: 9f0c 82bc 6f18 6e3c e416 73bc d029 2bbd
00000130: 0a3a 65bd 4fb6 3dbd 9816 10bd ab85 65bd
00000140: 0d64 6e3c 6733 72bc cca3 863b 75b1 bdbc
00000150: caa7 50bd 2be4 3fbd 32ff c5bc d99d 76bd
00000160: 787c 0b3d a36f 173d d3eb 1abd 1551 983c
00000170: baed 26bd 6a47 bdbc 4178 91bc 150b 2cbd
00000180: 7574 d43c 55ac 853c be15 f63b 30d0 043c
00000190: b5fa 65bd d902 6a3c 8eee 383d 2a5f 0cbd
000001a0: eb9e 61bd 7e23 6ab9 b6fa ef3c 42a9 5b3c
000001b0: 4905 073d d2e3 e5bb 7eab d5bb e9e6 6abd
000001c0: d205 82bd cd3c 59bd 9fbc 53bd 7b5e 1d3c
000001d0: 4057 63bc 0545 d3bc 5cfa 69bd 5c51 4d3d
000001e0: df90 53bb cb3e 093d 0bb4 56bd 7aa3 1dbd
000001f0: fc57 173d 44b2 283d faf3 32bd 05f9 443d
00000200: 354d 0c3d 6106 523d 1162 4abd eb9e 80bd
00000210: 63ec 60bd 1020 2c3b 6bdc 9c3c d203 88bc
00000220: bd1b 7dbc bbef 883c d354 09bd 2d4b 28bd
00000230: 74b6 5cbd 2e8e 4f3c 86e8 2fbd bb93 993c
00000240: 9c8d edbb a6b5 25bd 7bd5 613d 0d50 0e3d
00000250: 16ab 453d 38ef 54bd 1517 1cbd 7ebb 04bd
00000260: ca6c b73b 614b f83c c5d2 6dbd 4d7a 9b3c
00000270: f5fa 7c3d c4c1 343d 5461 6abc 2e87 eb3a
00000280: ac03 d0bb 0fb6 5d3d cf7b 533d ed02 f2bb
00000290: eb05 3cbd 8a9c bcbc 28da 193d 63df 353d
000002a0: b232 133d f09e d3bc 9fcc 1cbb e992 0a3c
000002b0: a15a da3c 4ef2 49bd 7beb 7a3c ed9c bebc
000002c0: bbae 4dbc 0e81 093d 3700 cc3c 2395 633d
000002d0: df04 fb3c 6f38 35bd 0962 32bb 0293 6bbd
000002e0: f75f dbbb 7f85 cbbb c55d ab3b d1fb 7c3c
000002f0: 8d84 823c 7e9c 69bd 113f 85bc 594f 4ebc
00000300: c2ad 1f3d 6757 7dbd 8075 4e3b 61d4 08bd
00000310: 325b 65bc 2730 12bd 7ae3 a23a 254d f93c
00000320: 9a8d 10bd a061 a5bc cdbb 7e3d 21df abbc
00000330: ef87 9a3c dccb 46bd 1b49 273d ac81 d6b9
00000340: 3cb0 9cbc 9437 95bc 89e5 673d b463 4c3d
00000350: 5e52 10bd 89f5 74bd 90fc be3c de4e 8fbb
00000360: b9ba e63b 8bba f43c b96f 4bbd 926d e83c
00000370: ccf3 06bd 986b 403c f96a bfbb 4429 a1bb
00000380: 204c 2f3d bdde 49bc 5fc5 733c 4cae d23b
00000390: 68e3 723d 9576 45bd b992 7c3d 0800 863c
000003a0: d6f4 9ab9 4915 d0bb 558f 04bc 78a6 a63a
000003b0: f89c 9bbc 3018 e73b aa7c 813d c386 44bc
000003c0: 1fa9 d43c e9a0 b9ba 5aa2 9dbc d787 8fbc
000003d0: bccf fe3b 3b2f b9bb 373f 173c 591f 50bd
000003e0: 2ea6 63bb 2abd 56bd a9f9 63bd 0da5 09bc
000003f0: 134d 0f3c 82eb 653d aa93 b1bb 680f 7d3c
-0.016607344 -0.035689235 0.027536914 0.05127164 -0.018747995 -0.057965763 0.02781414 0.043275602
0.033117138 0.04634481 0.04225552 -0.047964197 -0.04630299 0.031048797 0.00039120222 0.039715253
0.04622009 -0.010532896 -0.059736513 0.009536451 0.027662763 0.024726259 0.0037858903 -0.017571984
0.045512054 0.039984163 0.055962197 -0.033927415 -0.021376675 0.027647274 0.051137857 0.06455033
-0.04951589 0.019567776 0.020481959 -0.038074274 -0.009876648 0.023279294 -0.01576542 0.042979404
-0.009470373 -0.008242723 0.0180264 -0.023029009 -0.037405644 0.049579866 0.011321628 -0.052032404
0.050147824 0.033864155 -0.011007001 -0.029008092 -0.023373155 -0.025047896 0.051617667 0.010730336
0.0034481913 -0.024152275 0.06042698 -0.053332765 -0.050844118 -0.03704628 0.050984994 0.025205225
-0.058909826 -0.046051826 -0.009824421 0.04345918 0.0027892012 0.06514581 -0.049334284 0.025115801
-0.015875159 0.014532193 -0.0148370005 -0.041787922 -0.055963553 -0.04631644 -0.035177797 -0.05603568
0.014550221 -0.014782763 0.0041088816 -0.023155907 -0.050941266 -0.046848457 -0.024169538 -0.06020913
0.03405425 0.0369717 -0.037822556 0.01859335 -0.040754057 -0.023105342 -0.017757537 -0.042002756
0.025934437 0.016317526 0.007509916 0.008106276 -0.056147296 0.0142829055 0.04514938 -0.034270443
-0.055083197 -0.00022329201 0.029294353 0.013407053 0.032964025 -0.0070156837 -0.0065206876 -0.05734912
-0.063487664 -0.0530365 -0.051693555 0.009605045 -0.0138757825 -0.025789747 -0.057123527 0.05012642
-0.0032282395 0.03350715 -0.052417796 -0.03848598 0.036949143 0.041185632 -0.043689705 0.048089046
0.034253318 0.051275615 -0.04940993 -0.06280311 -0.054912936 0.0026264228 0.019148072 -0.016603384
-0.015448508 0.016715875 -0.03352816 -0.04108732 -0.05388494 0.012668176 -0.04294636 0.018747201
-0.007249547 -0.040456437 0.05513523 0.03474431 0.048258863 -0.05198595 -0.03810795 -0.03240537
0.0055976855 0.030309381 -0.058062334 0.018979216 0.06176277 0.0441301 -0.014305431 0.0017969364
-0.006348094 0.054128703 0.051631745 -0.0073856027 -0.04590408 -0.023023862 0.037561566 0.04440249
0.03593702 -0.025832623 -0.0023925675 0.008457878 0.026654543 -0.049303345 0.015314932 -0.023268187
-0.012553866 0.03357034 0.024902446 0.05556215 0.030641971 -0.044243272 -0.0027219078 -0.057513244
-0.0066947895 -0.0062109823 0.005229684 0.015440897 0.015932346 -0.05703401 -0.016265424 -0.01259216
0.038984068 -0.06185093 0.003150314 -0.033405665 -0.013998793 -0.035690453 0.0012427412 0.030432293
-0.03529129 -0.020188153 0.06219082 -0.02098042 0.018863646 -0.04853426 0.040841203 -0.00040913874
-0.019127004 -0.018214978 0.056615386 0.04989977 -0.0352348 -0.059804473 0.02331379 -0.0043734154
0.007041302 0.029874107 -0.049667094 0.02837256 -0.032947347 0.011744402 -0.0058416096 -0.0049182493
0.042797208 -0.012321171 0.0148786 0.006429469 0.059298903 -0.04820879 0.061663363 0.016357437
-0.00029555586 -0.0063501936 -0.008090814 0.0012714406 -0.018995747 0.007052444 0.06322606 -0.01199502
0.02595955 -0.0014162335 -0.019242454 -0.017520828 0.0077762287 -0.0056513823 0.00923138 -0.050811145
-0.0034736502 -0.052426495 -0.055658016 -0.008401168 0.008746403 0.0561328 -0.0054192143 0.015445568

fc3.bias f4 [128]
00000000: 87c2 cc3c e252 0fbd 13d2 573d 520e 44bd
00000010: 6591 863c 5166 fd3b 2837 283c 10c4 b1bc
00000020: cc9f 7f3d ac64 123c b25d 89bb de39 2ebc
00000030: da97 ed3c b88c 903b fa02 40bd c1fa 2f3d
00000040: e4e1 01bd 2cbc 983b 97d4 3ebd e00f c53b
00000050: 7c58 703d 3d29 20bd 3584 57bd 9b07 62bb
00000060: 7088 00bd fc9f 2bbd c362 1c3d a0e8 6cbd
00000070: 6603 b8bc 9de1 633d f653 4a3c 2ce2 033d
00000080: a831 4abd 7a7b f73c 5bc9 3b3c 532a 243b
00000090: 06a4 1e3d dea5 ccbc 9060 4b3c b047 1e3d
000000a0: 2883 1f3c 718a 5e3d 7d4a 2e3d 84eb 353d
000000b0: a7c9 c8bc 9c27 bb3c b742 0e3c 134a 123d
000000c0: 6903 bdb9 9258 8c3c 7ffe 0abd ae9c 6d3d
000000d0: cdea 923a c4e5 67bd bffe aebc aafe 78bd
000000e0: 854d 81bc 657a 143d 93e3 0c3d 7739 90bc
000000f0: f5c4 23bd 8748 833b 13c5 bb3c f2da 8fbb
00000100: 816b ffbb 2846 9a3c 3e76 3f3d e409 2f3d
00000110: b5dc 33bd 0ef0 18bd 096e a6bb 4e02 9fbb
00000120: d70b 283d 583e 473d b64b a6bb 89be d2bc
00000130: b46e 283d 5846 a23c 86c3 383d 331f 3e3d
00000140: be86 06bd d344 103c 4783 3fbd eefa 11bd
00000150: b5f3 6dbd e913 14bd 13e1 553d 7b6b 223d
00000160: 8b44 583d 82aa 5bbd df17 aa3c b49a 733b
00000170: 9a3b f8bc 6b03 0bbd f0fb 65bd ef34 0338
00000180: a15a b6bc 31c7 9dbb 417b 9f3b 5cba 623d
00000190: 2d43 80bd 14d6 dbbc 2ed0 433c 3bcf 533c
000001a0: 1ae9 7dbb bbfc 823b 9fab 38bd f81d 7ebc
000001b0: 8013 b93c 4fc5 ffbc 4e5d 75bd 8917 ee3c
000001c0: ff48 4c3d 8d01 0ebd 4dfa 253c 604e b53b
000001d0: 68f2 33bd d04b 073d 1c1f 79bd 43d9 503d
000001e0: ea27 09bd e833 1d3c 4232 823c c7cd 373c
000001f0: 45a3 52bb 8677 6b3d 6171 913c 848b 17bd
0.024995102 -0.034991153 0.052690577 -0.04786522 0.016426751 0.0077331443 0.0102670565 -0.021699935
0.062408254 0.008935135 -0.0041920776 -0.010633914 0.029003073 0.004411306 -0.04687784 0.042963747
-0.031709567 0.0046611037 -0.04658946 0.0060138553 0.058678135 -0.039101828 -0.052616317 -0.0034489396
-0.031380117 -0.04190062 0.038180124 -0.057839036 -0.022462558 0.055635083 0.012349119 0.032198116
-0.049363762 0.030210245 0.011461581 0.0025049641 0.038730644 -0.024981435 0.012413159 0.038642585
0.00973586 0.054331247 0.042551506 0.04441406 -0.024510218 0.022846036 0.008682898 0.035715174
-0.0003605143 0.017132077 -0.033934113 0.05801075 0.0011208892 -0.056615606 -0.021361707 -0.06078974
-0.015784035 0.036249537 0.03439672 -0.017605526 -0.039982755 0.0040064487 0.02292112 -0.004390114
-0.007794798 0.018832281 0.046743624 0.04273404 -0.043911655 -0.03733831 -0.005079035 -0.0048525697
0.041026916 0.04864344 -0.0050749434 -0.02572562 0.0411212 0.019808933 0.04510834 0.046416473
-0.032843344 0.0088054715 -0.046756055 -0.035639696 -0.058093745 -0.0361518 0.0522166 0.039653283
0.052799743 -0.053629406 0.020763336 0.0037171068 -0.030301858 -0.033938807 -0.05614847 3.1282132e-05
-0.022260012 -0.004815005 0.004866988 0.055353507 -0.06262813 -0.026835479 0.011951489 0.012927826
-0.0038743676 0.003997413 -0.045085546 -0.015510075 0.022592306 -0.031222014 -0.059903435 0.029063957
0.049874302 -0.034669448 0.010130477 0.0055330247 -0.04393235 0.033031285 -0.060820684 0.050988447
-0.03348533 0.009594895 0.015893105 0.011218495 -0.0032140773 0.057487033 0.017754259 -0.036998287

bn1.weight f4 [512]
00000000: df04 803f f224 7f3f 5811 803f fbc8 7f3f
00000010: 5ef6 7f3f 2527 803f a384 7f3f 70bc 7f3f
00000020: 78f0 7f3f 9ad6 7f3f eb96 7e3f abf2 7f3f
00000030: 6d12 803f d815 803f ca98 7f3f f0ed 7f3f
00000040: 4ae3 7f3f 4919 803f 4622 803f d6d3 7f3f
00000050: b8f2 7f3f 07b6 7f3f 32ee 7f3f 1d03 803f
00000060: ac42 803f 6ff5 7f3f d8e9 7f3f 053f 803f
00000070: 3b23 803f d0db 7f3f 461d 803f 6822 803f
00000080: 6b15 803f b31d 803f c9a8 7f3f 41d0 7f3f
00000090: e410 803f ddfd 7f3f 69b7 7f3f fd0d 803f
000000a0: 6329 803f d39e 7f3f 4500 803f daeb 7f3f
000000b0: 6042 7f3f 1c16 803f 4b1d 803f 81da 7f3f
000000c0: 97ae 7f3f c962 7f3f b72e 803f 5210 803f
000000d0: e510 803f 9424 803f 177e 7f3f 660f 803f
000000e0: bed1 7f3f 66de 7f3f 5e24 803f 8438 803f
000000f0: 2f0d 803f 7c8a 7f3f a532 803f bcd7 7f3f
00000100: f6ac 7f3f 2e0e 803f e517 803f ff04 803f
00000110: 31b7 7f3f ddfa 7f3f c9a9 7f3f 481b 803f
00000120: 9f31 803f 151d 803f 5f34 803f bce8 7f3f
00000130: 4df2 7f3f b1a4 7f3f 79ea 7f3f 0225 803f
00000140: 9907 803f 2d2c 803f da2e 803f fa6f 803f
00000150: 68b2 7f3f 89e3 7f3f 42dc 7f3f 7f2d 803f
00000160: 37bd 7f3f 4aa3 7f3f 781f 803f aa22 803f
00000170: 173c 803f d500 803f 543b 803f 7e01 803f
00000180: 1ed8 7f3f 984c 803f 73fb 7f3f 4b1d 803f
00000190: 4015 803f 5625 803f 1510 803f 9b00 803f
000001a0: ecab 7f3f c730 803f ec00 803f 7715 803f
000001b0: 46d1 7f3f 339f 7f3f 39c5 7f3f 3607 803f
000001c0: 34b6 7f3f 0fa1 7f3f 58f1 7f3f e438 803f
000001d0: 7e8e 7f3f 87f1 7f3f 4812 803f c207 803f
000001e0: 6dde 7f3f 2409 803f 1d0b 803f be07 803f
000001f0: 86b6 7f3f 5397 7f3f cc4a 7f3f c7f4 7f3f
00000200: 21aa 7f3f d9d1 7f3f 8eee 7f3f 83fe 7f3f
00000210: 1310 803f 2232 803f e606 803f 21bc 7f3f
00000220: eb6d 7f3f 9996 7f3f addd 7f3f 9c97 7f3f
00000230: 39dc 7f3f e848 803f 6f0a 803f c52d 803f
00000240: 130b 803f 6075 7f3f 5331 803f f025 803f
00000250: 8207 803f b619 803f 72f3 7f3f fe39 803f
00000260: 5f01 803f ee24 803f 830f 803f 80f8 7f3f
00000270: 1313 803f 7716 7f3f a39a 7f3f 1ae6 7f3f
00000280: c3f5 7f3f 471c 803f b0e9 7f3f 550f 7f3f
00000290: ff0d 803f 8516 803f 0deb 7f3f a42d 803f
000002a0: e334 803f 9306 803f 0adf 7f3f 221d 803f
000002b0: 9f1e 803f bd04 803f daa0 7f3f 9bcb 7f3f
000002c0: 4cf1 7f3f b01d 803f ace5 7f3f ff07 803f
000002d0: 520a 803f 090e 803f e4ba 7f3f 008b 7f3f
000002e0: 141e 803f 4d06 803f fa11 803f c30f 803f
000002f0: ec48 803f 12f9 7f3f b2d7 7f3f 5a06 803f
00000300: c9f8 7f3f 0b45 7f3f be14 803f cfc3 7f3f
00000310: d201 803f c50c 803f 6ceb 7f3f e91c 803f
00000320: b302 803f 0b25 803f 2ddf 7f3f 6714 803f
00000330: a8ec 7f3f 3809 803f 79e9 7f3f b104 803f
00000340: bb1d 803f c5f1 7f3f 78d4 7f3f 7bb5 7f3f
00000350: 7c9e 7f3f a445 803f 7303 803f 3204 803f
00000360: 5232 7f3f 0ed4 7f3f 16e1 7f3f e40f 803f
00000370: 4f1e 803f bc1e 803f 18fe 7f3f d515 803f
00000380: cfad 7f3f c9a3 7f3f 88f0 7f3f 5413 803f
00000390: 75a2 7f3f ba0a 803f c7f8 7f3f ee56 7f3f
000003a0: 5b18 803f 2018 803f a5fb 7f3f aff1 7f3f
000003b0: 7ce6 7f3f 07fa 7f3f 21df 7f3f c2b3 7f3f
000003c0: 3a29 803f ca03 803f bad0 7f3f a2c5 7f3f
000003d0: 353e 803f 9b05 803f 8bdd 7f3f 1cd7 7f3f
000003e0: 711a 803f 2422 803f 85ec 7f3f f338 803f
000003f0: 641a 803f ad06 803f 4c15 803f cf1d 803f
1.0001487 0.9966575 1.0005293 0.99916047 0.999853 1.0011946 0.9981176 0.9989691
0.999763 0.9993683 0.9944903 0.99979657 1.0005623 1.0006666 0.9984251 0.9997244
0.9995619 1.0007716 1.001046 0.9993261 0.99979734 0.99887127 0.9997283 1.000095
1.0020347 0.99983877 0.9996619 1.0019232 1.0010751 0.9994478 1.0008934 1.00105
1.0006536 1.0009063 0.9986692 0.99927145 1.0005155 0.9999674 0.99889237 1.0004269
1.001263 0.9985172 1.0000082 0.99969256 0.99710655 1.0006747 1.000894 0.99942786
0.9987578 0.9976011 1.0014256 1.000498 1.0005156 1.0011163 0.9980177 1.0004699
0.99929416 0.9994873 1.0011098 1.0017247 1.0004023 0.99820685 1.0015455 0.9993856
0.9987329 1.0004327 1.0007292 1.0001525 0.998889 0.9999216 0.99868447 1.0008326
1.0015143 1.0008875 1.0015982 0.999645 0.99979097 0.99860674 0.9996715 1.0011294
1.0002319 1.0013481 1.0014298 1.0034173 0.998816 0.99956566 0.9994546 1.0013884
0.99898094 0.99858534 1.0009604 1.0010579 1.0018338 1.0000254 1.0018106 1.0000455
0.99939144 1.0023375 0.99993056 1.000894 1.0006485 1.0011394 1.0004908 1.0000185
0.99871707 1.0014886 1.0000281 1.000655 0.999287 0.99852294 0.9991031 1.0002201
0.99887395 0.9985513 0.99977636 1.0017362 0.998268 0.99977916 1.0005579 1.0002367
0.9994877 1.000279 1.0003392 1.0002363 0.99887884 0.9984028 0.99723506 0.99982876
0.9986897 0.9992958 0.9997338 0.9999773 1.0004905 1.0015299 1.0002105 0.99896437
0.99777097 0.9983917 0.99947625 0.9984071 0.9994541 1.0022249 1.0003184 1.0013968
1.000338 0.99788475 1.0015053 1.0011578 1.0002291 1.0007846 0.99980843 1.0017698
1.0000418 1.001127 1.0004734 0.99988556 1.0005821 0.99643654 0.9984533 0.9996048
0.9998438 1.000863 0.99965954 0.9963277 1.0004271 1.0006872 0.99968034 1.0013928
1.001614 1.0002006 0.99949706 1.0008891 1.0009345 1.0001446 0.99854815 0.9992005
0.99977565 1.000906 0.99959826 1.000244 1.000315 1.0004283 0.9989455 0.9982147
1.0009179 1.0001923 1.0005486 1.000481 1.0022254 0.99989426 0.999385 1.0001938
0.9998899 0.99714726 1.000633 0.99908155 1.0000556 1.0003897 0.999686 1.0008823
1.0000824 1.0011305 0.99949914 1.0006226 0.99970484 1.0002813 0.99965626 1.0001432
1.0009073 0.99978286 0.99933577 0.9988629 0.998512 1.0021253 1.0001053 1.000128
0.9968616 0.99932945 0.9995283 1.000485 1.000925 1.0009379 0.9999709 1.0006663
0.99874586 0.9985929 0.99976397 1.0005898 0.99857265 1.0003273 0.9998898 0.9974202
1.0007433 1.0007362 0.99993354 0.99978155 0.99961066 0.99990886 0.9994984 0.99883664
1.0012581 1.0001156 0.99927866 0.9991094 1.0018984 1.0001711 0.9994742 0.99937606
1.0008069 1.0010419 0.99970275 1.001738 1.0008054 1.0002037 1.0006499 1.0009097

bn1.bias f4 [512]
00000000: 21e3 243b a215 02bb 3920 dfba 5d4b e63a
00000010: 691a 86ba 35bd d239 6a7f 6abb 6f72 293b
00000020: fef7 3a3b 2907 ebba c6e8 0fbb e957 123b
00000030: 80d8 88bb 5609 83bb dbfb bb39 dbb4 923a
00000040: dad0 f93a 3351 5d3b 4028 833b 5632 383b
00000050: 1e8c 37bb d610 083b 8f6c ddba 8b7d b739
00000060: 363a 223a d6b1 353b e4be deba 9115 36bb
00000070: 2976 a83b 3f66 6bb9 5f38 18bb 772a b23b
00000080: 68e6 95b8 b667 13ba 7a7f 5e3b 37b4 023b
00000090: ffe7 65bb 95cd 033b b8b4 ffba 7d29 2739
000000a0: 120b 8439 411f a2bb e17d 5f3b b881 26bb
000000b0: ec17 b23a e8d3 a73b 8a34 bdba 5372 e6b9
000000c0: 9463 96ba a845 523b 792c 1f3a f151 293b
000000d0: 028a 9eba 928a a23a 771e b6ba 2bf4 20bb
000000e0: 17f7 6db9 e510 ad3b a5da 233b 20a8 023b
000000f0: 3243 843a 48c9 fe3a 19e9 7c39 315a 0e3b
00000100: ee49 6dbb 8d1e dc3a 888b d73a cc6f 76ba
00000110: 1830 49bb dd33 a0bb a355 57b8 5e78 063b
00000120: 80cf 01bb 77d1 e3b9 8d53 683b 7e25 503a
00000130: 5ef8 0aba 3eae e6ba 9619 c639 a25f 6ebb
00000140: 0f06 0ebb ba2b 44bb 49d0 5c3b 7129 93bb
00000150: c5b1 eb3a 1e1f 2bbb 8213 253b 7c74 a0ba
00000160: 051b e839 4a89 2bbb 8b7b 793b 6cb4 243b
00000170: 05b2 6bbb 24e4 97b9 dd4e 1f3a a910 f339
00000180: 00c2 cf39 b980 92bb b4b1 ed3a 52c7 6e3a
00000190: 0a69 bf3a b8d2 4abb 2d9e 67bb ddfa a23b
000001a0: da60 56bb 1abe f93a 7206 933b 8c06 c8bb
000001b0: 15cc d03a ee01 a5ba 99e8 67bb 5f72 9dbb
000001c0: 9144 b43a 9b84 f0b9 dd13 8dbb 2515 99ba
000001d0: 9890 2abb 339a bb3a 8980 70bb a40d 113b
000001e0: 5ebd f7ba d0d2 df3a 3869 30bb f6fd daba
000001f0: 8188 b53a 253c 8cba c9e6 41bb 42a4 6c3b
00000200: fcd7 00bb 4d55 db3a 3641 6c39 f443 93ba
00000210: e2b4 d6ba e6c4 7bba d610 a9bb f87f a83b
00000220: f9dc fbb9 7645 303b 605f 8d37 e119 cfba
00000230: 9501 df3a 6e39 e037 c902 7ebb fa99 08bb
00000240: 84c1 953b 74e7 a7bb 58cf 183b fdfa 7d3b
00000250: e7ae b7b8 23e5 f83a 402c faba 804c fe3a
00000260: 8095 ba38 f912 e7ba ef24 b73a a429 093a
00000270: 31cb 0e3b a226 84b9 883c 4eb9 adfb a3ba
00000280: d2a8 353a 4d8b 503a 2e74 08bb 9587 6bbb
00000290: c1f7 8e3b 3186 4c3a 51b3 3e3b a249 95ba
000002a0: b985 313b 84c5 5e3b 3ebb 9db9 d4a9 fd39
000002b0: 831e 83bb 19f5 b4ba 1208 67bb 53e2 acbb
000002c0: 5382 08bb 3c1d 43bb 5035 40ba dda8 873b
000002d0: 0b88 833a 0084 013b e85b a9ba abf2 b03b
000002e0: 3d66 233b 8d4e 87bb 320f 5fbb b8fd 563b
000002f0: 799a ba3a 1ae1 813b ff90 03bb ab14 47bb
00000300: fdc8 b73a 2e5b d23a e9db 8c3b f5db 59bb
00000310: 4d75 7c3b 110e 98ba 6c3c 02bb 14b2 1abb
00000320: a2f3 90ba 041d d9ba b44c ba3a 67ea 683b
00000330: 4f64 ddb8 124b 39bb d9c1 a03b 7402 f6ba
00000340: b9c6 c83a 4458 6fba 9bde 36bb ef10 b03b
00000350: 5ea4 4c3b 92ea 423a b363 4abb ed7b 8aba
00000360: cc28 1cbb 1b60 113b a140 30bb 5e8c c73a
00000370: bdb2 00bb 6578 45bb 0dbd 35bb 3710 963a
00000380: ebcd e3ba 73a6 6dbb 18db 6cbb d777 673b
00000390: 51f0 1038 482d 1f3b 4f54 72bb 0a28 083b
000003a0: 0a27 5fba 7611 93ba 0af5 08bb d475 1ebb
000003b0: 7dd0 5abb 4030 463b 89d2 8dbb 97be e039
000003c0: 02e6 fdb9 a351 5cba 2980 043b b8d6 08bb
000003d0: 624a 11bb 478c cdba 6956 b1ba 93ff a43b
000003e0: 2b6b fa39 95a5 4cbb b43f 0c3b e9f0 9abb
000003f0: 2cdf 1bbb 9c22 7b3b 2825 80bb 735d 97bb
0.0025159793 -0.001984932 -0.0017023153 0.0017570067 -0.001023126 0.00040195292 -0.003578151 0.0025855561
0.0028529163 -0.0017931211 -0.0021958812 0.002233023 -0.0041761994 -0.0039989157 0.00035855066 0.0011192815
0.0019059435 0.0033770322 0.004002601 0.0028106174 -0.00280071 0.0020761988 -0.0016893315 0.00034998017
0.00061884837 0.0027724407 -0.0016994146 -0.002778385 0.005141039 -0.00022449436 -0.002322696 0.005437191
-7.14779e-05 -0.0005623059 0.0033950494 0.0019943842 -0.0035080907 0.002011155 -0.0019508814 0.00015941817
0.0002518525 -0.0049475734 0.003410213 -0.0025406908 0.0013587452 0.0051216967 -0.0014435214 -0.00043954197
-0.0011473768 0.0032084975 0.00060719956 0.0025836194 -0.0012095573 0.0012400916 -0.0013894577 -0.0024559598
-0.0002269413 0.005281555 0.0025002148 0.0019936636 0.0010090827 0.0019438649 0.00024119428 0.0021721239
-0.0036207396 0.0016793773 0.0016444782 -0.00094008143 -0.0030698832 -0.004888995 -5.133975e-05 0.0020518522
-0.0019807518 -0.00043452877 0.003545019 0.0007940157 -0.0005301292 -0.0017599536 0.00037784566 -0.003637292
-0.0021671092 -0.002993329 0.0033693484 -0.004491024 0.0017982057 -0.0026111077 0.002518863 -0.0012241746
0.0004427062 -0.002617436 0.0038068022 0.0025131954 -0.0035964262 -0.00028970942 0.000607712 0.00046360985
0.00039626658 -0.0044709113 0.0018134625 0.00091086805 0.0014603448 -0.0030948352 -0.0035342083 0.004973753
-0.0032711537 0.0019053847 0.0044868523 -0.006104296 0.0015929962 -0.0012589076 -0.0035386442 -0.004804894
0.0013753345 -0.00045875166 -0.0043053464 -0.0011679275 -0.0026026126 0.0014312923 -0.0036697707 0.0022133375
-0.001890104 0.0017076377 -0.0026918184 -0.0016707766 0.0013849885 -0.0010699077 -0.0029587022 0.0036108647
-0.0019659987 0.0016733796 0.00022531007 -0.0011235462 -0.0016380812 -0.000960423 -0.0051594777 0.005142208
-0.00048039088 0.002689687 1.6852922e-05 -0.0015800559 0.0017014021 2.6729624e-05 -0.0038758984 -0.002084373
0.004570188 -0.005124027 0.0023316946 0.0038754337 -8.758698e-05 0.0018989187 -0.0019086674 0.0019401461
8.897018e-05 -0.0017629556 0.0013972799 0.000523234 0.0021788592 -0.00025205786 -0.0001966824 -0.0012510918
0.0006929758 0.0007955328 -0.0020821202 -0.0035938967 0.0043630307 0.00078019785 0.002909858 -0.0011389742
0.0027087762 0.003399224 -0.0003008488 0.00048382452 -0.00400144 -0.0013805955 -0.0035252613 -0.0052760034
-0.0020829632 -0.0029772064 -0.0007332163 0.004140003 0.0010035051 0.0019762516 -0.0012921067 0.005400022
0.0024932765 -0.004129237 -0.0034036157 0.0032805037 0.001423671 0.003963602 -0.0020075438 -0.003037731
0.0014021691 0.0016048902 0.0042986763 -0.0033242677 0.0038522065 -0.0011600872 -0.001987244 -0.0023604678
-0.0011058936 -0.0016564433 0.0014213533 0.0035540105 -0.00010556785 -0.0028273505 0.004905921 -0.0018769042
0.0015318013 -0.0009130279 -0.002790368 0.0053731124 0.00312259 0.00074354664 -0.003088218 -0.0010565497
-0.0023828028 0.0022182527 -0.002689399 0.0015224328 -0.0019637786 -0.0030131575 -0.0027731091 0.0011448924
-0.0017380094 -0.0036262542 -0.0036141332 0.0035319233 3.4556087e-05 0.0024288464 -0.0036976521 0.0020775818
-0.0008512592 -0.0011220414 -0.0020898008 -0.0024179118 -0.003338843 0.0030241162 -0.0043280763 0.0004286661
-0.0004842729 -0.0008404499 0.002021799 -0.0020879935 -0.002216958 -0.0015682065 -0.001352978 0.0050353496
0.00047763562 -0.0031226624 0.0021400275 -0.0047284258 -0.0023784144 0.003832019 -0.0039106794 -0.0046192943
