data/rl4wound_paper_res/ctr/models_map524/agent_ctr_True_ep_104.pth (torch, 950164 bytes, 21 tensors)

fc1.weight f4 [512, 5]
00000000: 432a 74bb ef0c 753e 1c20 bcbe be1a a8be
00000010: d7dd 30be 43eb f33d bf5b 0dbc 66a1 b53e
00000020: 1249 23bd 4c29 f13d 7964 09be 6412 b6bd
00000030: d233 dbbe c110 98be 12e3 3bbe 3efa 8a3c
00000040: 491f 363e c6df 883e 3abd 9bbe e2fb 47be
00000050: 67ee 253e 16ae bd3e f869 bbbd b9b4 ab3e
00000060: b3f0 91bd e672 423d 4e7c cf3e 04a0 d4be
00000070: 871c 90be 1abe e9bd 8fe6 32be 8ea8 c53e
00000080: 4ef5 93be fea4 53be 25a0 9fbe b427 d6be
00000090: f6e8 85be b57f c43e 8a09 4d3e 0f3d 5d3e
000000a0: a4c0 be3c 38c0 69be 68aa 993d 8030 d6be
000000b0: 2317 a5be 5fc7 6cbe f1c3 903e a28f 863e
000000c0: 184d 4abe 2523 76bc 493c 923e f7e5 e33e
000000d0: 137e 353e 86cd 753d b4b0 993e fad9 86be
000000e0: 7c62 ab3d c36b b1be 9e8a 9ebe 713a 6dbe
000000f0: a62d 4e3e 5c80 373e 3b38 87be 1a0f 0b3e
00000100: 844f 7c3e 6402 64bd 7a8e 8f3c bd95 d23d
00000110: ccab 8d3e d63f dc3e 1f38 b0be accf 28be
00000120: 9a11 343e 4336 be3e fee8 c63e 898b ca3e
00000130: 6172 b43d 4e53 c7be 0849 273d f8d3 8ebe
00000140: a461 d5be 7bf6 cb3e 19ba ad3e f4c5 e4be
00000150: 02f7 a93d 9398 9abd 689f 95bd 69e9 50be
00000160: 371b 2f3e 5621 88be 375b 273e 16f6 673e
00000170: e66f a33e ff9d 2b3e 2e88 e2be 53d6 94be
00000180: d0a4 633e 2130 c13d fa51 b2be 00cd 83be
00000190: f7c4 d73e 6ecc 993e 6a53 48be 7faf e4bd
000001a0: d254 dabe 902b fdbb 971b acbe 4fff b0be
000001b0: 3c3a cfbc f4a9 873d 2997 3bbe 943a 883e
000001c0: bfcc 8bbe f633 cf3e fc5b 9d3e af9a c0be
000001d0: fd9b e5bd 390d 9e3c 0865 873d 3ca1 da3d
000001e0: e90e 343e a894 e43c 627f 60be 09a8 573e
000001f0: e121 dcbe 138b 87be 36f2 e3bd 6faf 5fbe
00000200: 9985 20be 13d7 bbbe 2e51 c4bd 1617 c23d
00000210: 2ccb 94be e41b b5bc bd63 a43e 8159 39bd
00000220: 28ba 5b3c 24ab 20bd 927c b73d a60e 923e
00000230: fc50 d83e b2f7 913e 6d69 d93e f92c 01bd
00000240: 9c34 cebe 55cc 59be 9fc1 9b3e 7d06 16bb
00000250: adb8 63be b61b afbe 8919 d6be d8b5 c0be
00000260: 5640 bbbd 075d 7a3e 0f5b 783e 9140 ddbe
00000270: da45 8e3e 7fa4 b2be 9a3e c0bd aae8 39be
00000280: acd2 afbd 984d b6bd 4c4e cdbe db6c c5be
00000290: ba46 91bd b808 da3b 3a64 4fbe 5c80 2b3e
000002a0: e59b cebe 76a0 fcbc 70b3 c93e ad0b 3abe
000002b0: f3c6 ce3e 4c1c 253e 2af8 cebe cd81 903e
000002c0: 6b64 53bd e768 4bbe 932d b73e 4c96 b9be
000002d0: d462 443d ea40 c0bd fd47 a33e ff6d 003e
000002e0: 7270 5b3e 86cb 213e 29e8 d9bd e6d1 c1bd
000002f0: b8f9 bcbe f2e1 783e fcf9 b53e 3bfd 9c3e
00000300: 25ed a1be b010 9c3c 1701 a1be 02a9 7bbe
00000310: 3d48 85be ae23 1c3e b49f 88be a517 29bc
00000320: 5227 953c 0724 943e e53d adbe 9829 9dbe
00000330: eb5b 85be 64bf a03e 4da5 25be c1e2 c03e
00000340: 0db7 243e 097c 653d d6d2 2fbb c60e b3bd
00000350: 2f03 623d 5a24 d3bd 2dc5 81bb bb7f 663d
00000360: 9383 b3be 7961 6fbe 1753 b93e aa7f b9be
00000370: fee4 00bd 2bf3 e23e 3a9c 243e 24a1 403c
00000380: 83f8 c5be 0957 633e eaaa a3be 17d6 01be
00000390: b8db 18be d765 86bd 4473 b43b 9e6a bd3e
000003a0: a330 603d fa98 cc3e e089 8c3e 5be2 90be
000003b0: 2dd0 4c3e dba4 a1be 75c9 42be 0ef8 053e
000003c0: 7bee 173e a1f8 ab3e 6623 14be f8ee 9839
000003d0: 6d39 6b3e faeb dcbe baff a53e 0be8 bdbe
000003e0: 0314 ab3b a903 9bbd 4a74 70be ee53 6f3d
000003f0: d87a bd3e fbc5 05be b762 88be a6d4 29be
-0.0037256635 0.23930715 -0.36743248 -0.32832903 -0.17272125 0.11910107 -0.008627831 0.354747
-0.039864607 0.11775455 -0.13417234 -0.088902265 -0.42812973 -0.29700282 -0.18348339 0.016965028
0.17785372 0.26733226 -0.30417806 -0.1952968 0.16204225 0.3704688 -0.09151071 0.33536318
-0.07125988 0.047472857 0.40524524 -0.41528332 -0.28146765 -0.11413212 -0.17470764 0.3860516
-0.2889809 -0.20668408 -0.31176868 -0.41827166 -0.26154298 0.38378683 0.2002317 0.21605323
0.023285218 -0.22827232 0.075032055 -0.41833878 -0.32244214 -0.23122929 0.2827449 0.26281458
-0.19755971 -0.015023028 0.2856162 0.44511387 0.17723875 0.060010456 0.30017626 -0.26338178
0.08368394 -0.34652528 -0.30965132 -0.23166825 0.20134601 0.17920059 -0.26410088 0.1357998
0.24639708 -0.055666342 0.017523993 0.102824666 0.27670133 0.43017453 -0.34417817 -0.1648547
0.1758484 0.37150773 0.38849634 0.39559582 0.088108785 -0.38930744 0.040841132 -0.27896094
-0.41676056 0.39836487 0.33931044 -0.44682276 0.08299066 -0.075486325 -0.07305795 -0.20401539
0.17100225 -0.26587933 0.1634339 0.22652468 0.3192131 0.1675949 -0.44244522 -0.29069766
0.2223084 0.09433008 -0.34828168 -0.2574234 0.4214246 0.3003878 -0.1956307 -0.11166286
-0.42642838 -0.0077261403 -0.336148 -0.34569785 -0.025296323 0.06624213 -0.18319382 0.26607192
-0.27304646 0.4046933 0.3073424 -0.37618014 -0.11211393 0.019293414 0.06611067 0.10675284
0.17583813 0.027902916 -0.21923593 0.21060194 -0.42994598 -0.26473293 -0.111301824 -0.21844266
-0.15675963 -0.36687526 -0.09585796 0.094770595 -0.29061258 -0.022108026 0.32107344 -0.045251373
0.013411082 -0.039225712 0.08959307 0.285268 0.42249286 0.2850929 0.42463246 -0.03153703
-0.40274513 -0.21269353 0.3042116 -0.002289205 -0.22238417 -0.3420083 -0.41816357 -0.37638736
-0.091431305 0.2444955 0.24253486 -0.43213323 0.27787668 -0.34891126 -0.0938694 -0.1815516
-0.08585104 -0.089015186 -0.40098798 -0.38559613 -0.07093568 0.0066538714 -0.20253077 0.16748184
-0.40353313 -0.030838232 0.39394712 -0.18168516 0.4038616 0.16124076 -0.4042371 0.2822403
-0.051609438 -0.19864236 0.35776958 -0.3624748 0.047945812 -0.093873814 0.3189086 0.1254196
0.21429613 0.15800294 -0.10639984 -0.09463863 -0.3690927 0.24304941 0.35542285 0.3066195
-0.3162624 0.019050926 -0.31446144 -0.2457619 -0.26031676 0.15247986 -0.26684344 -0.010320579
0.018207226 0.28933737 -0.33836284 -0.30695796 -0.2604669 0.3139602 -0.16176338 0.37673
0.16085453 0.056026492 -0.002682855 -0.08743052 0.055178817 -0.10309668 -0.0039602728 0.056274157
-0.3506132 -0.23377027 0.36196205 -0.36230212 -0.031468384 0.44326147 0.1607522 0.011757169
-0.38666162 0.2220117 -0.31966335 -0.12679325 -0.14927566 -0.06562393 0.005506905 0.36995405
0.054733884 0.39960462 0.2744894 -0.28297696 0.20001288 -0.31571087 -0.19022162 0.13082907
0.14837067 0.33588126 -0.14466628 0.00029169745 0.22971125 -0.43148786 0.32421666 -0.37091097
0.0052208914 -0.075690575 -0.23481861 0.05842965 0.37007785 -0.13063805 -0.26637813 -0.16585025

fc1.bias f4 [512]
00000000: c9a3 96be c5d0 9fbe d8a2 973e 15f2 14be
00000010: 1674 ecbc b0ec 053e 0aa8 8cbe 6332 213d
00000020: 4963 883e 5408 86be ff3f 053e 15d0 76bc
00000030: 2ef2 7b3e 8918 983e 00b1 f13d 9ffe 4b3c
00000040: 2856 c5be ed56 363e 1e88 8b3e 9ffe 26be
00000050: 5daf e3be ddd5 b93e 135b d7bd 6751 b53d
00000060: 42dd 01be 0fa0 913e 2668 df3e 2e72 8f3e
00000070: 65ad 10be fcc6 a03e f728 5f3e 5645 353d
00000080: 8868 b8be 5708 44be 32e8 e2be bafa 983e
00000090: 9a54 e23e 055f 853e bd6d 113e 05ca d83d
000000a0: 2909 dc3e 199f 68be a922 1abe 4a12 cdbe
000000b0: 260d 39bd 6c0b f33c 2da7 fa3d 908f 9fbe
000000c0: 0b10 57bd 22f0 bcbe ccce b9be c3ef 703d
000000d0: dc95 dfbe 7ca8 f43d 22fc d2be 1f1f 9fbe
000000e0: df49 bdbd 98d0 dabe c600 b93e fd9d bb3e
000000f0: 5188 6ebe 9684 c13d 5c10 6b3e fd73 113e
00000100: b618 76bd 7e39 d8be 3bdc a63e 0cab c8be
00000110: 3153 a8bd af50 e83c 10fd 16be 49a1 26be
00000120: 254e c6be e96b c73c f4ce 4cbd c0a1 c73e
00000130: f38a 16be fdbd b03e 8444 a83c e4c8 4ebe
00000140: 2505 dabd aadd 52bd f6bb a23b 86ea 98bd
00000150: eee2 073e 26c3 bc3e 66cc 8f3d ddca 253e
00000160: 77ed 8d3e c126 c43d 67f0 523e 0644 6f3e
00000170: aeb3 d53e 66c6 d0be 54d8 1c3e 6973 a1bc
00000180: 05c5 a3bd 712f 30be 8820 893e de7d d13e
00000190: 2f1d bbbe 95eb 763e c06c 9e3e 7600 a03d
000001a0: 14aa b83b ec13 b03e b8b4 5a3c a871 e3bd
000001b0: 0b17 09bd b51d 123e 4039 e43d 2265 bebc
000001c0: 1761 103e 8b68 f63d 171c b9be 4173 e43d
000001d0: a16b 8c3e eb9b 513d d2ed 28bd c87a af3e
000001e0: 9f78 c8be 3b5c 50be eb7d 4ebe 31d4 c53e
000001f0: b7c7 ddbe 2556 393d 751d debe 5395 74bc
00000200: 576c 2a3e befc d4bd 50df dd3e 0464 0c39
00000210: 2ef4 68be 1822 ed3d 8d20 6e3e 5d87 6cba
00000220: 58d6 c33e 72dd 90be 8054 433e 3db0 813e
00000230: ea6a 633e 5ee6 713a d409 023e ec78 b3be
00000240: f828 b3be 717b e1bc 4de0 68bd b309 aa3e
00000250: c7bd a63e 32ae 9b3e a56d 52be e461 b3be
00000260: 24b5 d6be b4e7 263e 0514 cebe 23e4 e4be
00000270: 1b89 66be ea7d c1be a460 35be 5d28 90be
00000280: 5629 6bbe 3ead d93e 8d0c aebd 0de7 bd3e
00000290: 4030 1b3c 1be4 6cbd d7f8 04be 9d4b a3be
000002a0: bacb b7be 31a2 9e3e 3be5 0dbe cea4 dfbe
000002b0: 110b d23e c904 103c fe32 99be 67c7 b3be
000002c0: e8e6 bfbe b252 c8be b855 cf3e 88d0 9d3e
000002d0: 0784 153d e546 c3be 209e efbd 7f9e d6be
000002e0: 37de 1e3e 9027 f4bd f20e c6bd 2eee 0ebe
000002f0: eeb0 563e 72be 783e 6e3d c73d 6337 68bd
00000300: 39c4 36bd 8e8c fdbb be05 abbe df0b df3e
00000310: cf39 46be ef5a 853e eb73 80be f968 343b
00000320: 97be 1c3e fb1d d2be 7078 523e 0090 afbe
00000330: f7d4 7b3d 2804 b7bd 3f77 833e 88e4 de3e
00000340: 5ce9 cc3d 5c74 5abc fb1e 62be 79cf 2a3e
00000350: 3719 5cbe 523e 3c3e 0e0b 46be dc58 9b3e
00000360: b5a3 af3e facd 8c3e 3b12 a63b b1a9 543e
00000370: ee54 d0be 0dc8 b93e 8a8c eebd b61f 273e
00000380: d3c9 9abd 0bde 18be 8aca 56be acb9 933e
00000390: d7a2 79be a726 a1bd f22f 663e ae85 3c3d
000003a0: e358 c0be 706d e3be 4d4e 5ebe 14c1 d23e
000003b0: 8c1e a3be 3646 7d3e 7cde a33e 3d8d 3ebe
000003c0: 5bfe 49be 110d a5be e929 8e3d fb2d 81bd
000003d0: 6e5e b23c 5a9a 463e ed4b 413e 92db 0fbe
000003e0: 4b16 fe3c 80b5 db3d 566f 0f3c 7262 b73d
000003f0: e79b 39be 8f9c bb3e 00c8 37bd 94e6 66bd
-0.29421833 -0.31213966 0.29616427 -0.14545472 -0.028863948 0.1307857 -0.27471954 0.039354693
0.2663825 -0.2617823 0.13012694 -0.015064259 0.24604103 0.2970622 0.11801338 0.012450843
-0.38542295 0.17806597 0.27252287 -0.16308068 -0.4446973 0.36295977 -0.10515418 0.08853417
-0.1268206 0.28442428 0.43634146 0.280168 -0.14128645 0.31401813 0.2179297 0.044255577
-0.3601725 -0.19143806 -0.44317776 0.2987879 0.4420517 0.26049057 0.14202018 0.10585407
0.4297574 -0.22716941 -0.15052284 -0.40053016 -0.045178555 0.029668532 0.122389175 -0.31164217
-0.052505534 -0.36901957 -0.36290586 0.058822405 -0.4366902 0.11946198 -0.41207987 -0.3107843
-0.092426054 -0.4273727 0.36133403 0.36643973 -0.23294188 0.09449117 0.2295546 0.14204402
-0.06008216 -0.42231363 0.32589898 -0.39192998 -0.082189925 0.028358785 -0.14744973 -0.16272463
-0.38731495 0.024343448 -0.050002053 0.38990593 -0.14701442 0.3451995 0.020540483 -0.20193821
-0.106455125 -0.051480927 0.0049662543 -0.07466607 0.1327016 0.36867636 0.07021408 0.16190667
0.27720234 0.09577704 0.20599519 0.23365793 0.41738647 -0.40776366 0.15316898 -0.019708352
-0.07996563 -0.17205597 0.26782632 0.40916342 -0.36545703 0.24113305 0.30942345 0.07812588
0.0056355093 0.343902 0.013348751 -0.111056626 -0.03346924 0.14269145 0.11143732 -0.023241583
0.14099537 0.12031659 -0.36154243 0.111547954 0.27425864 0.051174086 -0.041242428 0.34273362
-0.39154527 -0.20347683 -0.20165221 0.38638452 -0.43316433 0.04524817 -0.4338185 -0.01492818
0.16642891 -0.10399769 0.43334436 0.00013388699 -0.22749397 0.115787685 0.23254605 -0.0009022856
0.3824947 -0.2829395 0.19075203 0.25329772 0.22208753 0.0009227748 0.12699062 -0.35053194
-0.34992194 -0.027524682 -0.056854535 0.33210525 0.32566664 0.30406338 -0.20549639 -0.35035622
-0.41935074 0.16299325 -0.4024965 -0.44705305 -0.22513239 -0.37791377 -0.17712647 -0.28155795
-0.22964987 0.42514986 -0.084984876 0.3709034 0.009471953 -0.057834726 -0.1298555 -0.31893626
-0.3589762 0.30983117 -0.13856976 -0.43680423 0.41024068 0.008790203 -0.29921716 -0.3511307
-0.37480855 -0.39125592 0.40495086 0.3082316 0.036502864 -0.38140026 -0.11700082 -0.41917798
0.15514456 -0.119216084 -0.09670819 -0.13958046 0.20965931 0.24291399 0.09728514 -0.056693446
-0.044620726 -0.0077377027 -0.33402818 0.43563744 -0.1935799 0.2604594 -0.25088438 0.002752839
0.1530708 -0.41038498 0.20553756 -0.3428955 0.061482396 -0.089363396 0.25676915 0.4353373
0.10005447 -0.013333406 -0.2208213 0.16680707 -0.21493994 0.18383148 -0.19340155 0.30341232
0.34304586 0.27500898 0.005068091 0.20767857 -0.40689796 0.3628544 -0.116478994 0.1632069
-0.07558026 -0.14928453 -0.209757 0.28852594 -0.24378525 -0.078687005 0.22479227 0.046025924
-0.37567815 -0.44419432 -0.21709557 0.41162932 -0.31859243 0.24733815 0.3200568 -0.18608566
-0.19725935 -0.3223653 0.069415875 -0.06307598 0.021773543 0.19394818 0.1887662 -0.14048603
0.03101649 0.10727978 0.008754572 0.08954324 -0.18125878 0.36642882 -0.04486847 -0.05637224

fc2.weight f4 [256, 512]
00000000: ef31 253d 2a42 0d3d ec1c 22bd bf10 93bc
00000010: 21b3 ba3c ae62 d6bc c71b fe3b eb08 94bc
00000020: cc27 033c 1e89 b43c 0908 533c 047e ff3c
00000030: 046b d0bb 5dc1 c33c d3b3 743c df93 72bc
00000040: e166 03bd edea 253d 3612 48bc 17f7 043d
00000050: a132 dd3c e124 33bb ab07 1abd 4eec 8d3b
00000060: cf14 b0bc 8d6a 343c b04c 98bc ffba 063d
00000070: 6ee5 1ebd 806b 4ebc 48c4 f43b 3e69 563b
00000080: abf4 103d a14d 71bc e270 0cbd c27f ef3c
00000090: 9f30 583c 9905 e73c 2a71 ddbc 6838 cebc
000000a0: b0bf 99bc a141 853b 77ec 7f3c cdda cebc
000000b0: e485 50bb a284 09bc 45bf 223d dc80 8abc
000000c0: a849 2b3d 6a22 e6bc a4ba 8cbc bbbf 03bd
000000d0: d810 083d 82fe f2bc 9df2 8f3c 7665 8dbc
000000e0: d225 313d b709 cd3b b436 19bd 50d7 da3b
000000f0: 3bf4 8c3b c977 2bbd 19fa 1c3c 2e35 2e3d
00000100: 488b 3f3c 8686 97b9 ac9f 06bc 49db 4a3c
00000110: 8493 99bc 7bc4 2e3d 2306 183d 336c a33c
00000120: bf4b 8fbc 7bc7 2dbd ecd7 d7bc 3fac 323d
00000130: 0c9d 23bd 4bc6 2ebd 94cf 83bb 21e4 563c
00000140: 2314 38bd 3ce3 26bd b431 a23a 8d30 82bc
00000150: ee0f 003d 9121 403c 1b16 19bd c376 24bd
00000160: 03bf ff3c 0416 dfbb 5e9c 96bc e0ed 563c
00000170: 11eb 15bc 85b9 a53c 155a 2f3c 32de 95bc
00000180: 730c 14bd cfa1 cc3c 3ade dfbc d0d8 babb
00000190: a170 d23b af0e cebc e17b bd3c e4a9 f8bc
000001a0: db3e 273c 79ae 7f3b d98f 7a3c 6976 35bd
000001b0: abf3 d63a 2f47 a93c face dfbc d4a8 333c
000001c0: 4515 7c3a d6d1 153d 6941 28bc f314 44ba
000001d0: 6ff8 a4bc 336d 2abc 529a 413c 8d5d 2bbd
000001e0: 8b52 083d 74ae fc3c cd1b a13c e0d9 053d
000001f0: d885 70bc 6c80 153c b461 b93a 7dfe 00bd
00000200: d514 83bc cb79 84bc 0b65 21bc ec68 1dbd
00000210: 1c61 febc 99ce 85bb d245 d5bb c269 23bd
00000220: 1f4c 0b3c aec0 bc3c 812b 1a3d 0305 143d
00000230: 6bfe 01bd 1f41 61bc 1d73 b3bc c586 053c
00000240: eef0 353c cb4b 123c 5735 cf3c b9bd b83c
00000250: 2324 bbbc 3921 f13c f428 fb3c bba5 e33b
00000260: 7ecb 21bd b0c0 d6bc 6320 563c 2d08 773c
00000270: a2b9 2c3d 5af4 af3c ce12 8b3c 4428 18bb
00000280: 4088 f73c edd2 8bbc 7d88 8f3c 1bf7 a4bc
00000290: 12a3 c939 eead cd3c 45bd a33c 4eb8 31bc
000002a0: 7159 e4ba 24ab c1bc c4e1 9f3c cf2d f53c
000002b0: 580b 693c 7c35 33bd eb7d 05bd f710 f03c
000002c0: dab2 edbb 02f4 d53c d45f 083d f752 4dbc
000002d0: 9747 d1bc 4e46 27bd 3581 813c ec6b b13c
000002e0: 5e01 0fbc a9cc 33bd b3f5 f1bc 604f 49bb
000002f0: e782 a53c 9efb 7abc 776d f1bc ae18 02bd
00000300: 0671 213d 380c 753c ce2a 0fbd b033 e6bc
00000310: bf8d 16bd 3c4f d13b 10c3 9abc ea16 8aba
00000320: 7eeb fdbb 35e1 21bd ef94 24bd f937 10bd
00000330: 3e2a 9ebc f2c0 f93b 1238 b1bc 54bd 21bb
00000340: 1d11 cdbb c8c1 213d 2e79 9dbc a0eb 2c3d
00000350: b1e6 07bd 578f 1bbd 3b2d 5e3c 5907 cdbc
00000360: e2cf c03c edf5 ccbc cfe9 0c3d 3962 2b3d
00000370: 1199 753b a607 0b3c 43f7 2b3d c606 cf3c
00000380: f5ab 1cbd bfd0 caba 4aa1 20bd 87a3 0d3d
00000390: 5747 14bc 3a3f 04ba 40ae e6bc e74c bdbc
000003a0: 7220 a43b 518e 173d 14b0 bdbc a61e a23b
000003b0: 41ec 223d c1f9 253d 2e3d 02bc efe2 273d
000003c0: f9e8 793c a8fe 283d 4790 b63a 21f3 19bd
000003d0: a708 54bc 2e7b 683c 1d36 b93c aecb 30bd
000003e0: a767 093d 9f3c 20bd 7d91 cc3c 3743 2e3d
000003f0: 576b 3b3c 7f78 fabb 6696 bf3c 3013 54bc
0.040330824 0.034486927 -0.039578363 -0.017952321 0.022790493 -0.026170101 0.007754776 -0.018070659
0.008005094 0.022038039 0.012880334 0.031188019 -0.0063604135 0.023895914 0.014935452 -0.014805763
-0.032080535 0.040507246 -0.012211373 0.032462206 0.02700168 -0.0027335214 -0.03760497 0.004331148
-0.021494297 0.011011732 -0.018591255 0.032893177 -0.03879302 -0.012598872 0.0074696876 0.0032716538
0.035389584 -0.014727981 -0.03428734 0.029235724 0.013195186 0.028200911 -0.0270315 -0.025173381
-0.018768162 0.0040666615 0.015620342 -0.025250817 -0.0031818086 -0.0083934385 0.03973319 -0.016907148
0.04181829 -0.028092582 -0.017178841 -0.03216527 0.03321919 -0.029662374 0.017571742 -0.017260294
0.04324896 0.0062572616 -0.037405685 0.0066784993 0.0043015755 -0.041862283 0.009581112 0.042531185
0.011690922 -0.00028901192 -0.00821678 0.012381383 -0.018747099 0.042667847 0.037115227 0.019949054
-0.017492173 -0.042426568 -0.026348077 0.043621298 -0.039944693 -0.042669576 -0.004022548 0.013115914
-0.04494108 -0.04074405 0.0012374432 -0.015892291 0.03126519 0.011726753 -0.037374597 -0.040152323
0.031219011 -0.0068080444 -0.018385109 0.013118237 -0.0091502825 0.020230064 0.01070263 -0.018294428
-0.036144685 0.0249795 -0.027327646 -0.0057021156 0.006422118 -0.025153486 0.02313036 -0.030354448
0.010207857 0.0039013906 0.015293085 -0.044302378 0.0016399523 0.020663826 -0.027320374 0.010965545
0.00096162065 0.03657707 -0.010269501 -0.00074799283 -0.020137994 -0.010402012 0.011816578 -0.041837264
0.033281844 0.030844904 0.019666577 0.032678485 -0.014680348 0.009124856 0.0014143498 -0.0314927
-0.016001144 -0.016171357 -0.009850751 -0.03843014 -0.031052165 -0.0040834663 -0.0065085674 -0.03989578
0.008502035 0.023041096 0.037639145 0.036137592 -0.031736773 -0.013748436 -0.021905476 0.008149807
0.011104805 0.008929203 0.02529399 0.022551404 -0.02284438 0.029434787 0.030659176 0.006947247
-0.039500706 -0.026214927 0.013069245 0.015077633 0.04216922 0.02147882 0.01697674 -0.002321736
0.030216336 -0.01706835 0.017521137 -0.02013736 0.00038459204 0.02510735 0.019987712 -0.010847164
-0.0017421675 -0.023641177 0.019516833 0.02992907 0.014223896 -0.04375218 -0.032590788 0.029304964
-0.007253987 0.026117329 0.033294514 -0.012531987 -0.025546832 -0.040838532 0.015808681 0.021657906
-0.008728353 -0.04389635 -0.029536104 -0.0030717477 0.02020402 -0.015318779 -0.029471142 -0.031761818
0.03941443 0.014956526 -0.03495293 -0.028100818 -0.036756273 0.0063876193 -0.018891841 -0.0010535393
-0.00774902 -0.039521415 -0.040181097 -0.03520963 -0.019307252 0.007621878 -0.021633182 -0.0024679499
-0.0062581436 0.039491445 -0.019222822 0.042216897 -0.03317899 -0.037978496 0.0135605885 -0.025027918
0.023536626 -0.02501961 0.034402665 0.04184172 0.0037475268 0.00848571 0.041983854 0.025271785
-0.03824993 -0.0015473588 -0.039216317 0.03457978 -0.009050212 -0.0005044822 -0.02815926 -0.023107959
0.0050087506 0.037000958 -0.02315525 0.0049475012 0.03977609 0.040521387 -0.007949157 0.040987905
0.015253299 0.041258484 0.0013928496 -0.03758538 -0.012941516 0.014189525 0.022608811 -0.043162994
0.033546116 -0.039120313 0.024971718 0.04254457 0.011439166 -0.007643759 0.023387145 -0.012944028

fc2.bias f4 [256]
00000000: 3a5c 51bc 3326 fe3c 8760 f9bc d1aa 15bd
00000010: 0a0c bebc f063 d33c 20c1 09bd 46a3 143d
00000020: ca59 163d 34fc 163d 5c2f 0e3c c4ec 6e3c
00000030: 2970 493c 10a1 0d3d 9176 83bc 81f2 273d
00000040: 2b96 30bd 9bcd 1cbd d59e 10bd 2427 053d
00000050: d5ab d0bb 5ad3 08bd e97a f0bc 686d c5bb
00000060: 0d32 813c 7a18 273d ee05 b53c 98c3 e43b
00000070: 02ce cbbb b875 df3c a9ae 6cbc e8a8 1dbc
00000080: 1403 253d 155b e4bc f375 d13c b3bf f8bc
00000090: 59ab 21bd 47ac 653c 6696 21bd 33d4 0c3d
000000a0: 5bbe 85bc 650b 2abd 45e0 26bd 34e8 123d
000000b0: 870b 2ebd 3999 a13c 58ba d1bc 00e3 323c
000000c0: 81f9 023d 4ffd 34bc 7cc0 ea3c 02a9 87bc
000000d0: 3548 fb3b 1091 e4bc f2fb dd3c 8603 b53b
000000e0: 23e2 74ba b9ab ef3c 0abc 22bd fb6d 9a3c
000000f0: b0f1 ecbb f845 adbc 8d80 c9bb d1e5 08bb
00000100: 8288 263d 4f48 28bd 59ec 9e3c 6dbc bd3c
00000110: 0f2a 20bd ce8a 1bbc 4371 60bc a4e7 fd3c
00000120: 9766 04bd f2fb e53c 434c 7f3c 30d1 143d
00000130: 59fd ea3c 07b3 88ba bc7f d0bc 3dd8 2a3d
00000140: 2e7b 9bbc a6e0 94bb 1be8 6b3c 077d c53c
00000150: 9950 d53c 49ac cabc 6250 c43c fafe a1bc
00000160: 0470 cbba 32c6 2fbd 950d 5aba 1f38 40bc
00000170: dec7 b4ba 1fcf 073d c8e1 4bbc e902 683c
00000180: 987e d4bc 67b7 fe3c 4bd3 99bc b833 7e3c
00000190: 68fb ad3c 519a c83c c03b 033d f9bc 15bd
000001a0: c6c9 d9bb 3d35 fbbb d353 2ebd fac3 e3bb
000001b0: 7df0 283d 34ac 8cbc 55fc 113d b518 26bc
000001c0: d756 00bd ffb3 e93c 612a 85bc d93c 123d
000001d0: 6adf 32bd faff adbb b040 8ebc 7998 33bd
000001e0: ad88 473c 2d87 2ebd baaa 2c3d de32 a13c
000001f0: 6ff5 b5bc 7165 8dbc 6521 efba c451 033d
00000200: c15a 80bc 8954 133d 456f 00bd 16ad a13b
00000210: 16d8 2e3d 4a4c a13c 50a8 cdbb c299 753c
00000220: 225d 183c 74f5 273c 141f 9b3c 7787 253d
00000230: f44a c3bc c4d0 033d 10e0 bb3b 61f5 223d
00000240: f275 283c 4020 d73b 2cea b13c 936c bb3c
00000250: 0693 e63c 168b eebc 2652 123d 54a8 093d
00000260: 3752 313d 2f25 23bd 168b 38bd 41b4 eebc
00000270: 1602 68bc 0d49 d23c 639e a53b fc20 89bc
00000280: c3aa 963b 08ed 94bc dfcc dbbc 6bb2 2d3d
00000290: 91de 0b3c 93cf 0d3d f01d 093d 5ee9 9ebc
000002a0: 3dd1 11bd f785 0cbd 6804 b43c f5e0 ffbc
000002b0: 29e7 ce3b 9659 7fba d608 04bd 1fa0 453b
000002c0: 7f29 3cbc 567a 16bc 9101 32bd 833f 96bc
000002d0: c391 38bc c0ed 0dbd feb9 22bd e388 00bd
000002e0: d326 31bc 4cad 20bd d716 703c 133b efbc
000002f0: ef6c b7bc 1a8e c0bc 584b 6e3c e9bc ab3c
00000300: 44f0 e83b c4f1 bc3c f10a 593c 07e9 82bb
00000310: 0b88 983c fa2a 1bbd 298e fcbc 10fc 2d3d
00000320: a869 7b3b 979c 20bd 96c4 053c 02f9 1ebd
00000330: 8891 8cbc cddf 1abc af12 e4bc b90f 2cbd
00000340: b0ea 3bbc 10fd 8bbb a57e d9bc cba1 173b
00000350: bbd2 23bd 8139 113d fb5d 39bc 28ad 253d
00000360: c413 233c c15a 27bd 726e 273d 62c9 e63c
00000370: 7bb8 60bc ac64 ae3c c49e c3bc 3e12 ebbc
00000380: ceab d9bc 55df d73c 9eca d3bb a6f1 73ba
00000390: 4ef2 19bd 125f 903c a33d 103c 6f6a 2fbd
000003a0: 05e0 183c f8af caba 4d7b 4e3c 231a e5bc
000003b0: b41a dbbc 68a3 c838 c93a 8d3b 0203 fa3c
000003c0: 5573 143d cce0 e43b 574f 06bb bfe8 cfbb
000003d0: 0769 063d e3cb 29bd 2436 d73c 38b0 e7bc
000003e0: 7177 b0bc e696 a8bc e058 2abd 8a49 163c
000003f0: b398 94bc 8cdc 09bc 8db5 fabc 441f 113d
-0.012778336 0.031024074 -0.030441536 -0.036539856 -0.0231991 0.02580449 -0.033631444 0.036288522
0.036706723 0.036861613 0.008678284 0.0145828165 0.0122948075 0.03457743 -0.016047748 0.041002754
-0.04311196 -0.03828202 -0.035307724 0.03250803 -0.00636814 -0.033404686 -0.029355483 -0.006025005
0.015770936 0.040794827 0.022097554 0.0069813244 -0.0062196264 0.027277812 -0.014445939 -0.00962279
0.04028614 -0.027875463 0.025568938 -0.030364847 -0.03947005 0.014018125 -0.03945007 0.034382056
-0.01632612 -0.041514773 -0.040741224 0.035865977 -0.042491462 0.019726383 -0.025601551 0.010918379
0.031976227 -0.011046722 0.028656237 -0.016560081 0.00766852 -0.027901202 0.027097676 0.0055241017
-0.00093415583 0.029256688 -0.03973011 0.01885127 -0.00723096 -0.021151528 -0.0061493577 -0.0020888934
0.040657528 -0.041084584 0.019399809 0.023161137 -0.03910261 -0.009493543 -0.013698879 0.030994244
-0.0323244 0.028074238 0.015582147 0.03633231 0.028685259 -0.0010429331 -0.025451533 0.041710127
-0.018979635 -0.0045433817 0.0143986 0.02410747 0.026039409 -0.024740355 0.02396411 -0.019774903
-0.0015521054 -0.042913623 -0.0008318064 -0.01173213 -0.0013792475 0.03315651 -0.012443967 0.01416085
-0.02593927 0.031093312 -0.01877751 0.01551526 0.021238044 0.024487646 0.032039404 -0.03655717
-0.0066463677 -0.0076662586 -0.04256041 -0.0069508525 0.041244972 -0.017171957 0.035641033 -0.010137727
-0.031332817 0.028528212 -0.01625556 0.03570256 -0.043670096 -0.005310056 -0.01736483 -0.04384658
0.012178582 -0.042609382 0.042155005 0.019677576 -0.022211758 -0.017260285 -0.0018244205 0.0320604
-0.015668275 0.03596929 -0.031356115 0.0049339635 0.042686544 0.019689698 -0.006276168 0.014990272
0.009299548 0.010251392 0.018935718 0.040412392 -0.023839451 0.032181516 0.0057334974 0.039784793
0.010282027 0.006565124 0.021718107 0.02287892 0.028146278 -0.029119056 0.035722874 0.033607796
0.043291297 -0.039830383 -0.045054518 -0.029138686 -0.014160654 0.025669599 0.0050542816 -0.016739361
0.004597993 -0.018179432 -0.026831089 0.04240648 0.008536951 0.034621786 0.033475816 -0.019398388
-0.035599936 -0.034307446 0.021974757 -0.031235198 0.0063141775 -0.00097408274 -0.03223499 0.0030155254
-0.011484503 -0.009184441 -0.043458525 -0.018340832 -0.011265221 -0.034650564 -0.039728157 -0.031380545
-0.010812479 -0.03922777 0.014653883 -0.029202973 -0.02239081 -0.02350526 0.014544331 0.020964103
0.00710872 0.023064502 0.013247238 -0.003995064 0.018619558 -0.037882783 -0.030829506 0.042476714
0.0038362537 -0.039211836 0.0081645455 -0.03881169 -0.017159238 -0.009452772 -0.02784094 -0.04200718
-0.011469528 -0.0042721108 -0.026549647 0.0023137208 -0.03999589 0.03545523 -0.011313911 0.040448338
0.009953443 -0.040858034 0.040876813 0.028172199 -0.013715859 0.021288238 -0.023879416 -0.028695222
-0.02657118 0.02635161 -0.006463363 -0.0009305723 -0.037584595 0.017623458 0.008803758 -0.042826112
0.009330754 -0.001546382 0.012602639 -0.027966565 -0.026746131 9.56718e-05 0.0043099863 0.030519012
0.0362428 0.0069848057 -0.0020494068 -0.006344884 0.032815006 -0.041454207 0.026270933 -0.02828227
-0.02154133 -0.020579766 -0.041588664 0.0091728065 -0.018139219 -0.008414399 -0.030604148 0.035430208

fc3.weight f4 [128, 256]
00000000: 0663 acbc ceaa 28bd 7053 0c3d 622a 4a3d
00000010: 721b 52bc f8e5 6fbd 9d84 0d3d 6063 253d
00000020: cc8e db3c d4dd 553d 3f74 3a3d b88b 51bd
00000030: 2b2e 3cbd 0cce f93c 1601 9a3a 31f8 0a3d
00000040: 13ae 383d 4e55 14bc 9640 7fbd 0a5a 133c
00000050: 752c e63c a4b3 df3c 3e0f 9aba 42fa 57bc
00000060: 22e8 433d 492a 1b3d 1659 663d 0d1d 15bd
00000070: c334 ccbc ffc1 e53c 3953 693d e112 7a3d
00000080: 1615 4dbd 8c9a a93c 06bd 903c 355f 18bd
00000090: e398 d6bb 1495 a53c 1671 82bc a060 2b3d
000000a0: 1948 2dbc 1d45 47bc 9249 803c 8598 b4bc
000000b0: c389 2bbd 7c6c 333d 82d1 203c c566 47bd
000000c0: ea19 4f3d 869a 113d 546e 1cbc 417b e1bc
000000d0: 52e1 ccbc fd35 a5bc 076d 5a3d b4d2 4b3c
000000e0: 615e cf3b 1533 d6bc adb8 723d ba24 64bd
000000f0: d4e9 5fbd 0ffc f0bc 49ea 513d 8ff7 d13c
00000100: c0c7 6bbd 31a8 5abd b511 08bc e0ee 343d
00000110: 5ec8 9c3b 415d 813d a7b4 52bd 4a5c b23c
00000120: 3139 94bc d62b 2d3c e5c9 49bc 3102 24bd
00000130: 954c 59bd 626e 34bd 58d1 1dbd 42e8 6dbd
00000140: 6084 483c f854 34bc dd8a 0b3a 03f7 aebc
00000150: 4802 48bd d1a6 4cbd 70e9 b9bc 3e2b 6bbd
00000160: d31e 013d 493b 033d 0855 2abd ec41 893c
00000170: 677e 2abd a034 8cbc ad92 86bc fd77 18bd
00000180: dc60 da3c 585e 833c 47c5 1d3c a71c 043c
00000190: aa8f 6abd d39f 7a3c 30a2 323d 1776 14bd
000001a0: 573d 4fbd 36ba 60ba 80f5 eb3c 6831 943c
000001b0: a780 fc3c 1728 80bb 31c3 a2bb d6e7 68bd
000001c0: e235 7cbd 24c1 60bd d85d 54bd e370 963b
000001d0: 43b3 82bc 1b1f dabc 6e42 56bd 70f1 4d3d
000001e0: d9e9 b0ba a2fa fa3c 5174 6abd e695 19bd
000001f0: fc1e f53c 2217 173d 6f82 3ebd 40d9 473d
00000200: c733 0d3d 4519 4d3d a346 40bd 1e61 7ebd
00000210: 4d6b 51bd 5c77 0bbb 72c6 8d3c 99cd 89bc
00000220: a139 a9bc 8be7 5d3c 5000 1fbd d58f 0dbd
00000230: 4ec6 69bd d63e 2b3c a579 42bd f475 8a3c
00000240: 2f87 b3bb c41b 36bd f83f 623d 42c9 103d
00000250: 642f 563d fcb3 5dbd 90bd 2dbd afb6 14bd
00000260: 1fe8 a13b 8c1c d33c d6e1 67bd a2df b43c
00000270: 0ff8 703d eed4 363d f098 25bc f344 463b
00000280: e120 74ba e638 683d 1820 653d 14cf 44bb
00000290: f9df 45bd b155 90bc b81a 1c3d 1bd0 273d
000002a0: 457c 063d ce97 afbc e49f 78b6 b89d dd3b
000002b0: b6e4 d73c d136 48bd 1c4b 533c 0374 ddbc
000002c0: 57da 3ebc d088 d93c d636 e23c 416f 523d
000002d0: c69b 093d c228 3fbd 0204 61bb 0c95 71bd
000002e0: 2b13 90ba e892 a9bb 6d7d e93a f14c ad3c
000002f0: ab33 6d3c 363c 6dbd e6df 4abc 72bc 24bc
00000300: 93be 313d 27e0 66bd c4da c63b 45dd 01bd
00000310: dd82 86bc fb18 e4bc 63c5 77bb 7dbc 003d
00000320: 739d 08bd fde6 b1bc c609 6e3d c7d8 acbc
00000330: b3d0 873c 2fe5 4dbd 518f 243d 86cb deba
00000340: 7a3a 87bc 7323 cfbc a523 633d 1e3c 423d
00000350: 066d 22bd 01d7 69bd d351 a63c 09ec 3cbb
00000360: 8d8d a63b c1eb df3c b670 65bd 8c47 0d3d
00000370: 66b3 09bd 3550 893c 8cd4 23bc a533 5dbb
00000380: b678 213d 9646 27bc 9ddd 573c 70b4 c93b
00000390: 9f1a 743d f60a 38bd e350 713d 7842 6d3c
000003a0: bdbe 443b 950b 0abc b9b7 36bc f450 b03b
000003b0: d37c 9abc c899 b83b b022 6d3d 8b33 2cbc
000003c0: 954a ca3c 7d60 333b 6c6b 5dbc c492 aebc
000003d0: 1d94 8a3b b219 49bb ffb6 493b 1444 5abd
000003e0: ba42 fcbb be22 56bd 750f 69bd 297d 58bc
000003f0: b3cb 4d3b a701 683d 6a96 013a 79f7 a33c
-0.021043312 -0.041178517 0.03425926 0.049356826 -0.012823926 -0.058568925 0.034550298 0.040377975
0.02680149 0.052213505 0.045521017 -0.051158637 -0.045942467 0.030493759 0.0011749591 0.0339281
0.045087885 -0.009053541 -0.062317453 0.008993635 0.02809737 0.027307339 -0.001175381 -0.013182225
0.0478288 0.037882123 0.056237303 -0.036404658 -0.024927502 0.028046606 0.056964133 0.06105316
-0.050068937 0.020703577 0.017668258 -0.03720017 -0.0065489872 0.020212688 -0.015923064 0.041840196
-0.010576271 -0.012162474 0.015660081 -0.022045383 -0.041879427 0.04380463 0.009815576 -0.048681993
0.050561823 0.035547756 -0.009547789 -0.027524592 -0.025009785 -0.020167345 0.053326633 0.012440372
0.0063283895 -0.026147405 0.05925815 -0.055699088 -0.054666355 -0.029417066 0.051248822 0.02563074
-0.057563543 -0.053383056 -0.008305003 0.04417312 0.004784628 0.06316615 -0.051441815 0.021772522
-0.018093677 0.010569533 -0.012316202 -0.040041152 -0.05305155 -0.04405058 -0.038529724 -0.058082826
0.012238592 -0.011006586 0.00053231214 -0.021358019 -0.0488303 -0.049963776 -0.02269432 -0.057414286
0.031523537 0.03203896 -0.041585 0.016755067 -0.041624453 -0.017114937 -0.016427362 -0.037223805
0.026657514 0.016036198 0.009629554 0.008063472 -0.057265915 0.015296894 0.043611705 -0.03624543
-0.050595608 -0.00085726695 0.028803587 0.018089965 0.030823065 -0.003911029 -0.0049671163 -0.05686172
-0.061574824 -0.054871693 -0.05184731 0.004591094 -0.01595462 -0.02662616 -0.052309446 0.05027908
-0.0013497426 0.03063709 -0.057239834 -0.03749647 0.029922001 0.036887296 -0.04651111 0.04879117
0.034473207 0.050072927 -0.046942364 -0.062104337 -0.05112772 -0.002128086 0.01730654 -0.01682167
-0.020657362 0.013543974 -0.038818657 -0.034560997 -0.057073884 0.010451993 -0.04747929 0.016901948
-0.0054787616 -0.044460073 0.055236787 0.035348184 0.05229129 -0.054126725 -0.04241711 -0.036307033
0.004941001 0.025770448 -0.05661186 0.022079293 0.058830317 0.04463666 -0.010107264 0.00302535
-0.00093127607 0.056694888 0.05593881 -0.0030030655 -0.0483093 -0.017618986 0.03811142 0.04096995
0.032833356 -0.02143469 -3.7047948e-06 0.0067631863 0.026354175 -0.048880402 0.012896325 -0.027032858
-0.011648736 0.026554495 0.027614038 0.05137563 0.033595823 -0.04666973 -0.0034334664 -0.058980033
-0.0010992041 -0.0051749833 0.0017813869 0.021154853 0.014477651 -0.05791875 -0.012382483 -0.0100546945
0.043394636 -0.056366112 0.0060685594 -0.03170516 -0.016419822 -0.027843943 -0.003780686 0.031429756
-0.03335328 -0.02171659 0.05811479 -0.021099461 0.016579008 -0.050267395 0.04017574 -0.001699791
-0.016507376 -0.025285458 0.055453915 0.047420613 -0.039654754 -0.05708981 0.020302689 -0.0028827211
0.005082792 0.027334096 -0.056015693 0.03449206 -0.033618353 0.016761879 -0.009999406 -0.0033752706
0.03942176 -0.0102097 0.013175395 0.006155543 0.0595957 -0.04493233 0.05891503 0.014481179
0.0030020915 -0.008425613 -0.011152201 0.005380744 -0.018858349 0.0056335665 0.05789441 -0.010510336
0.024693767 0.0027370744 -0.013514381 -0.021310218 0.0042290823 -0.0030685482 0.003077924 -0.05328758
-0.007698384 -0.052279226 -0.056899507 -0.013213434 0.0031401932 0.0566422 0.0004943373 0.020015465

fc3.bias f4 [128]
00000000: daa1 ea3c 5385 17bd 76ec 3f3d fbc6 21bd
00000010: 4118 883c 12f5 2f3c 9bee e23b d2ba dfbc
00000020: 68d0 6a3d 9063 063c 914e 14ba 0d90 b9bc
00000030: 899c 8f3c b410 3739 1114 42bd a4f8 423d
00000040: ce7d 0dbd fd88 3c3b c0bb 46bd f7e1 0d3c
00000050: af5e 653d 7851 04bd 3840 52bd dd3d 20bc
00000060: b2c3 16bd 7106 35bd 29e0 413d 10ef 69bd
00000070: c246 ddbc 16d9 6b3d db1c 933c 754a e23c
00000080: 4b51 46bd d277 143d a3ea 6a3c 1093 d23b
00000090: 3413 223d 553a b5bc 23b3 5b3c b389 173d
000000a0: daf6 c83b 72a8 4b3d 3413 1c3d b7f0 4b3d
000000b0: 6fdf e6bc 34cc 8a3c c6e0 ae3b 274c e93c
000000c0: 3937 6bbb 1a1c a23c a69e f6bc 5568 633d
000000d0: 2822 cfbb c4ec 65bd 5518 cbbc 2e2e 72bd
000000e0: 15e1 45bc 1911 063d 6b8b 043d 38e6 afbc
000000f0: 1b53 35bd cacd d93b 13a7 963c a3f2 0dbc
00000100: b4b1 c9bb 3003 ba3c 1b6c 283d 7446 323d
00000110: 1378 2fbd 8983 18bd 4f4e 66bc b58f 9aba
00000120: 6ee6 323d dd77 403d 4d58 27bb 9e8c b6bc
00000130: f060 2c3d a8da 763c f5f2 443d bd7a 283d
00000140: ebaf 1cbd 2fbb b83b 157f 3cbd 2fd5 2ebd
00000150: 6e9f 6bbd 1872 24bd f4e0 4b3d c2d9 373d
00000160: 41ce 5e3d 2a6d 59bd e8b2 be3c 3104 b93b
00000170: 9fb8 0bbd 99e7 13bd c153 67bd b476 003b
00000180: ebed 9fbc 38a5 56bb 49b9 d13b 7b7d 443d
00000190: 1642 6dbd f62f d2bc 2f2e d63b d195 873c
000001a0: 2a3f 9fba 6818 ea3b 8175 3ebd ce07 5fbc
000001b0: 4b49 8e3c cffd e3bc 14ca 6fbd e7b1 cc3c
000001c0: 0205 5c3d 9a14 05bd bc06 4d3c 36fa e73b
000001d0: 38b7 2fbd 0cd5 083d 0231 71bd 2ae0 353d
000001e0: 180b 05bd ee15 033c 4779 a43c 1b7b df3b
000001f0: db7f 2dbc 423b 523d a052 ae3c 608c 0cbd
0.02864163 -0.036992382 0.046856366 -0.039496403 0.016613128 0.010739582 0.0069254166 -0.027310763
0.057327658 0.0082024485 -0.0005657459 -0.022651697 0.017530696 0.00017458462 -0.047382418 0.047600403
-0.034543805 0.0028768175 -0.048518896 0.008659831 0.0559985 -0.032304257 -0.051330775 -0.009780374
-0.036807723 -0.044195596 0.047332916 -0.057112753 -0.027011279 0.057580076 0.017958095 0.027623395
-0.04841737 0.036247082 0.014338168 0.0064262226 0.039569095 -0.022122541 0.013409409 0.036996555
0.0061329426 0.04972119 0.03810425 0.04979011 -0.028182713 0.016943075 0.0053368537 0.028478695
-0.003589107 0.01978879 -0.030104946 0.05551942 -0.0063212104 -0.056134 -0.024791876 -0.05912607
-0.0120775895 0.03273115 0.03235952 -0.021472082 -0.04426871 0.0066468464 0.018390214 -0.008663806
-0.006155217 0.022706598 0.041118722 0.04352422 -0.04283912 -0.037234817 -0.014056756 -0.0011792096
0.043676786 0.04698931 -0.002553481 -0.022283848 0.042084634 0.01506678 0.048083264 0.041132677
-0.038253706 0.0056375484 -0.046019632 -0.042683776 -0.05752509 -0.04014787 0.04977508 0.044885404
0.054395918 -0.053082623 0.023278669 0.0056462516 -0.034111615 -0.03610954 -0.05647636 0.0019602003
-0.019522628 -0.0032752287 0.0064002615 0.04797123 -0.057924353 -0.025657635 0.006536267 0.01655093
-0.0012149562 0.0071440227 -0.04649878 -0.013612701 0.017368933 -0.027830986 -0.058542326 0.024987174
0.053715713 -0.03249035 0.012513813 0.007079388 -0.04289934 0.033406302 -0.058884628 0.044403233
-0.032481283 0.008000834 0.02007736 0.0068200952 -0.010589565 0.051326044 0.021279633 -0.03431356

bn1.weight f4 [512]
00000000: 08e7 7f3f 6ec1 7f3f 5d17 803f 80d4 7f3f
00000010: 0100 803f f315 803f 88f1 7f3f 0fcd 7f3f
00000020: d2e4 7f3f 7bec 7f3f 6ecf 7f3f 4106 803f
00000030: c710 803f bf07 803f 52d8 7f3f a8c9 7f3f
00000040: 67e3 7f3f c905 803f d91d 803f cad5 7f3f
00000050: ae05 803f 94cc 7f3f a5e8 7f3f 7307 803f
00000060: 021f 803f fefd 7f3f c314 803f bd19 803f
00000070: 0a1c 803f 46f3 7f3f b40a 803f 7814 803f
00000080: f501 803f 2312 803f 19dc 7f3f 1dd3 7f3f
00000090: d506 803f f1e2 7f3f 79ca 7f3f a805 803f
000000a0: 28fc 7f3f a8fb 7f3f aae6 7f3f f506 803f
000000b0: ded5 7f3f dc0e 803f 241c 803f 47dd 7f3f
000000c0: 69f6 7f3f b4dd 7f3f 421d 803f 8a12 803f
000000d0: 0f14 803f 4f12 803f def8 7f3f b40c 803f
000000e0: 8fcf 7f3f c2da 7f3f cfef 7f3f 1823 803f
000000f0: 1710 803f a8dc 7f3f cc0a 803f b6d3 7f3f
00000100: 43f1 7f3f 741b 803f ad0a 803f 7901 803f
00000110: cec7 7f3f 60df 7f3f e9e4 7f3f 9b08 803f
00000120: 3019 803f 9511 803f a119 803f 2802 803f
00000130: 200f 803f bee3 7f3f cddb 7f3f 7a1b 803f
00000140: 5ed4 7f3f 1505 803f 2be8 7f3f f6f7 7f3f
00000150: 88c8 7f3f add3 7f3f 7a04 803f 9b09 803f
00000160: dcd2 7f3f aeb9 7f3f e61e 803f 1719 803f
00000170: 5812 803f 0e0d 803f a904 803f 6512 803f
00000180: a20c 803f dc00 803f 91fd 7f3f bc17 803f
00000190: d411 803f ca1f 803f 5c17 803f a4f3 7f3f
000001a0: e5d2 7f3f 0414 803f f2ea 7f3f 110f 803f
000001b0: 82e3 7f3f 0ac7 7f3f 4ddd 7f3f d0f1 7f3f
000001c0: ceff 7f3f d8c5 7f3f 7107 803f 2b16 803f
000001d0: 55ce 7f3f 240c 803f 410f 803f fb08 803f
000001e0: c7d4 7f3f ce15 803f 7a0d 803f 61ee 7f3f
000001f0: add8 7f3f b0d2 7f3f c5d9 7f3f c1f5 7f3f
00000200: 89f3 7f3f ccf8 7f3f efe9 7f3f ab08 803f
00000210: 3411 803f b317 803f 15fd 7f3f cde0 7f3f
00000220: 31ba 7f3f 75cf 7f3f 9b09 803f 8fea 7f3f
00000230: 30e7 7f3f a211 803f 3709 803f 9519 803f
00000240: ad13 803f ddd5 7f3f 0a05 803f ab1d 803f
00000250: 87fa 7f3f d310 803f c9dd 7f3f 2d18 803f
00000260: bde7 7f3f 7618 803f 2df1 7f3f dbfd 7f3f
00000270: ef19 803f d0e7 7f3f edc3 7f3f 5af9 7f3f
00000280: 5df7 7f3f e2e2 7f3f 00d2 7f3f 1e03 803f
00000290: a5dc 7f3f f8dd 7f3f ede6 7f3f a418 803f
000002a0: 2f10 803f b6d0 7f3f 54eb 7f3f c209 803f
000002b0: 8b00 803f 0310 803f e104 803f 660d 803f
000002c0: 62e9 7f3f 011e 803f f7ff 7f3f 320a 803f
000002d0: b013 803f 15f6 7f3f c2c6 7f3f 5abc 7f3f
000002e0: 1d0b 803f 2bfa 7f3f f4f6 7f3f 0eef 7f3f
000002f0: 2013 803f 9400 803f a9d4 7f3f 6508 803f
00000300: c6e3 7f3f 1ec8 7f3f e60b 803f 4ace 7f3f
00000310: f4d1 7f3f f514 803f acf4 7f3f e910 803f
00000320: 5414 803f d90a 803f c8c4 7f3f 170e 803f
00000330: 0ceb 7f3f 35d3 7f3f 85e5 7f3f 56ed 7f3f
00000340: 69f4 7f3f abd8 7f3f b3d4 7f3f f1db 7f3f
00000350: 2ad7 7f3f 2918 803f 9c0d 803f 3e07 803f
00000360: 37bb 7f3f d8eb 7f3f 40ec 7f3f 0f15 803f
00000370: 8c19 803f 1916 803f d2f9 7f3f 4d05 803f
00000380: 7c07 803f b4d7 7f3f 59f2 7f3f 3612 803f
00000390: 95e0 7f3f 4e02 803f 2f18 803f 76b5 7f3f
000003a0: f21e 803f dd0f 803f 370c 803f edf8 7f3f
000003b0: e0d6 7f3f 99f6 7f3f 84e0 7f3f cfbc 7f3f
000003c0: a019 803f e5d5 7f3f f1e8 7f3f 3bdc 7f3f
000003d0: ff17 803f 6311 803f 83da 7f3f a1fe 7f3f
000003e0: 8a0a 803f 9403 803f 84c8 7f3f d819 803f
000003f0: 27f9 7f3f 0912 803f 6e11 803f 6316 803f
0.999619 0.99904525 1.000713 0.99933624 1.0000001 1.0006698 0.9997792 0.9992227
0.9995853 0.99970216 0.9992589 1.0001909 1.000512 1.0002364 0.99939454 0.9991708
0.99956363 1.0001765 1.0009109 0.9993559 1.0001733 0.99921536 0.9996436 1.0002273
1.0009463 0.99996936 1.0006336 1.0007855 1.0008557 0.9998058 1.0003266 1.0006247
1.0000597 1.0005535 0.9994522 0.9993151 1.0002085 0.9995566 0.99918324 1.0001726
0.99994135 0.9999337 0.9996134 1.0002123 0.9993571 1.0004535 1.0008588 0.9994702
0.9998537 0.9994767 1.0008929 1.0005658 1.0006121 1.0005587 0.99989116 1.0003877
0.99926084 0.9994317 0.99975294 1.001071 1.000491 0.9994607 1.0003295 0.9993242
0.9997751 1.0008378 1.0003258 1.000045 0.9991425 0.9995022 0.99958664 1.0002626
1.0007687 1.0005366 1.0007821 1.0000658 1.0004616 0.9995688 0.99944764 1.0008385
0.9993342 1.0001551 0.99963635 0.99987733 0.9991536 0.99932367 1.0001366 1.0002931
0.9993112 0.998927 1.000943 1.0007657 1.0005598 1.0003984 1.0001422 1.0005614
1.0003855 1.0000262 0.99996287 1.0007243 1.0005441 1.0009701 1.0007129 0.9998114
0.99931175 1.0006108 0.99967873 1.0004598 0.99956524 0.99913085 0.99947053 0.9997835
0.999997 0.9991126 1.0002271 1.0006765 0.9992421 1.0003705 1.0004655 1.0002741
0.9993405 1.0006654 1.0004113 0.9997311 0.99939996 0.9993086 0.99941665 0.99984366
0.9998098 0.9998901 0.9996633 1.0002645 1.000525 1.0007232 0.9999555 0.99952394
0.9989348 0.9992593 1.0002931 0.99967283 0.9996214 1.0005381 1.0002812 1.0007807
1.0006005 0.99935704 1.0001538 1.0009054 0.9999165 1.0005134 0.9994779 1.0007378
0.9996298 1.0007465 0.9997738 0.9999673 1.0007914 0.9996309 0.99908334 0.99989855
0.9998682 0.9995557 0.9992981 1.0000951 0.9994605 0.9994807 0.9996174 1.000752
1.0004939 0.9992784 0.9996846 1.0002978 1.0000166 1.0004886 1.0001489 1.0004089
0.9996549 1.0009156 0.99999946 1.0003111 1.0006008 0.99984866 0.99912655 0.99896777
1.0003392 0.999911 0.99986196 0.99974144 1.0005836 1.0000176 0.9993387 1.0002562
0.9995693 0.9991473 1.0003631 0.9992415 0.9992974 1.0006396 0.99982715 1.000516
1.0006204 1.000331 0.9990964 1.00043 0.9996803 0.9993165 0.99959594 0.9997152
0.99982315 0.99939984 0.9993393 0.9994498 0.9993769 1.0007373 1.0004153 1.000221
0.9989504 0.99969244 0.99969864 1.0006427 1.0007796 1.0006744 0.9999057 1.0001618
1.0002284 0.9993851 0.9997917 1.0005558 0.9995206 1.0000703 1.000738 0.9988626
1.0009444 1.0004841 1.0003728 0.99989206 0.9993725 0.99985653 0.9995196 0.99897474
1.000782 0.9993575 0.99964815 0.9994542 1.0007323 1.0005306 0.999428 0.9999791
1.0003216 1.0001092 0.9991534 1.0007887 0.9998955 1.0005504 1.0005319 1.0006832

bn1.bias f4 [512]
00000000: 7a94 483a 6f5e 6fba 9a2f 89b9 8bc4 fe39
00000010: ec04 7bba 8c71 e7b9 324b 50ba 1201 f438
00000020: 8c5a 403a 3862 bbb6 1596 4aba edb1 df39
00000030: 4c70 6eba e7d0 66ba 6b0a 1aba d58c 583a
00000040: 1bda 903a e58e 053a b06d 853a fe91 823a
00000050: a4e6 99b9 524d 45ba dfae 32ba ebeb 2139
00000060: dc76 05ba 80fc 803a 7216 ed39 da23 823a
00000070: fa31 743a c99e bab9 96f6 4fba 6a24 ee39
00000080: b7e9 19ba 6fca 53ba fb00 7cba 1321 463a
00000090: eb4e 03ba 1a77 213a 27a3 70ba 25bf 4bba
000000a0: 2e71 6e3a 9146 9cba d5b9 e839 3e57 6936
000000b0: 4e3f 823a 2ccd 7b3a 66f0 68ba e27f 0aba
000000c0: ef11 d239 1dcb 7fb9 29aa e2b9 1827 823a
000000d0: 826c 78ba 134b 03ba 02ee 0737 17f1 ebb9
000000e0: 8354 1aba 37fe d639 fe5d 3d3a a1ff 7a3a
000000f0: 8ca7 3a3a 36e9 343a ae04 69ba d0cf 093a
00000100: 3ef1 93ba b016 013a aeb8 7a3a a714 49ba
00000110: 6e1c 77ba 4671 1dba 25dc 633a 2740 673a
00000120: c4af 52ba b306 a2ba 8450 893a 9563 573a
00000130: 3c50 9139 d967 65ba 4c82 733a c9b1 6aba
00000140: 8fbb 50ba 0710 85b9 9dc1 4338 1947 90ba
00000150: 1271 313a f99b 31b9 8a8a 5d3a f069 be38
00000160: d440 f5b8 abfa 013a 7f07 083a ec0b 443a
00000170: 0de5 6aba 8cc4 8c3a 0283 44b9 32ec 61ba
00000180: ba97 c5b8 3339 b1b8 1af0 50ba e31b 75ba
00000190: cdc6 843a c38a 4cba 02ff 21b8 ba78 263a
000001a0: 05f0 26ba d41e 0b3a 440c 1b3a d22c 89ba
000001b0: 205d 923a c68d 2aba a13a 313a c726 40ba
000001c0: fdba 37ba ae23 a539 5eb4 6eba 1b1d 3eba
000001d0: 2d74 7dba 714a 8b3a 8afa 80ba bc9c 713a
000001e0: 41c8 50ba aa39 4cba 5a71 44ba acfb 3b3a
000001f0: 4b31 6c3a e1c8 773a 0e5b 94ba 8846 db39
00000200: 0d85 6e39 09c9 623a b820 85ba 0bdc 403a
00000210: a1f6 3eba 1990 75ba 8344 43ba 2eca 15ba
00000220: 7f5b 743a fddb 86ba e6ef eab9 b225 5f3a
00000230: 6590 99ba 8d32 53ba 5163 3339 32a9 01b9
00000240: 9aba 343a f7d0 7fba 4d34 55ba f133 eb39
00000250: 8a3d 40ba 19a0 0c3a cc06 dd39 5c96 0bba
00000260: c014 83b9 aa61 0538 cf77 b8b9 63c9 373a
00000270: 21e0 503a b1af c7b9 f5e1 84ba 48dd 51b9
00000280: cd3f 583a ec45 683a 7595 6c3a 46fe cdb8
00000290: eee0 8eb9 a671 6ab9 4bfa 273a e728 99ba
000002a0: 9588 cfb9 c8b5 39ba 594b 38ba 5a73 3a37
000002b0: 5db5 88ba c965 3fba ffb7 03ba f46d 77ba
000002c0: 3161 9bb8 4a51 38ba 26e1 83ba 5d69 ca39
000002d0: 1bf7 a339 1884 003a d2ba 9ab9 8c04 133a
000002e0: 33d5 403a fc0a 6438 2565 91ba 5166 053a
000002f0: b10b 1b3a 25b5 543a b327 173a f610 89ba
00000300: 9044 543a 04df 5639 aa8c 5c3a c44a 86ba
00000310: 11ee 833a b8fd 30ba ab03 fe39 473b 5aba
00000320: 8dc8 6eba aab7 8438 2fe9 603a 57e1 2f3a
00000330: 1b90 1c3a 54b2 a1b8 fa77 453a c702 60ba
00000340: 3153 d639 ed3d 62ba 260e 88ba f3da fa39
00000350: 0ef6 b7b9 605e 2a3a 43cb 60ba e17b c0b7
00000360: 1b2f 76ba ecee 6f3a 9d69 84b9 5e27 93b9
00000370: 2cd1 fb39 c43f 8db9 1bc4 8239 35ff f439
00000380: a557 51b8 45ba 9eb8 4c4f 3cba d268 ea39
00000390: 1ca8 8639 eba0 783a 9fc8 64ba de96 74b9
000003a0: c657 203a 82cf 25ba 74bf e238 f356 8cba
000003b0: 1476 5437 2fe0 1f3a 3cc1 2cba 1a0f 3fba
000003c0: 1e92 a139 7a2e 283a 473a 443a 1adc 0a3a
000003d0: d063 7eba 7935 9aba 325a 23ba d1f6 3039
000003e0: 76c1 d7b9 c937 66ba 8f00 12ba 6191 60ba
000003f0: 233e 88ba 2f59 d539 19f3 6cba 5720 8aba
0.0007651519 -0.0009131198 -0.00026166142 0.0004859309 -0.00095756236 -0.00044144352 -0.0007945775 0.00011635026
0.0007337711 -5.5844685e-06 -0.00077280524 0.0004266644 -0.0009095713 -0.00088049326 -0.0005876186 0.00082607317
0.0011051329 0.00050948403 0.0010179784 0.0009961722 -0.00029354275 -0.0007526475 -0.0006816219 0.00015442043
-0.0005091259 0.0009840876 0.00045220886 0.0009928897 0.00093153084 -0.0003559499 -0.00079331675 0.00045422028
-0.0005871313 -0.0008079176 -0.0009613183 0.0007558029 -0.0005009013 0.000615941 -0.0009179585 -0.0007772318
0.00090958446 -0.0011922886 0.00044388944 3.4770487e-06 0.0009937079 0.0009605463 -0.000888592 -0.0005283338
0.00040067683 -0.0002439436 -0.00043232858 0.0009929864 -0.0009476618 -0.00050084403 8.102043e-06 -0.0004500232
-0.0005887227 0.00041006666 0.0007223784 0.0009574835 0.00071203033 0.0006901206 -0.0008888942 0.0005257102
-0.0011287106 0.000492434 0.00095642626 -0.0007670619 -0.00094265386 -0.0006005954 0.0008692167 0.000882151
-0.00080370554 -0.0012361616 0.0010476266 0.0008216438 0.00027716334 -0.0008751131 0.000928913 -0.00089528837
-0.0007962519 -0.00025379678 4.667194e-05 -0.0011007517 0.0006768863 -0.0001693814 0.0008451125 9.0796384e-05
-0.000116945856 0.0004958312 0.0005189105 0.0007478583 -0.0008960523 0.0010739728 -0.00018740821 -0.00086182647
-9.421953e-05 -8.450672e-05 -0.0007970348 -0.0009350164 0.0010130048 -0.00078026595 -3.8622886e-05 0.0006350387
-0.0006368163 0.0005307023 0.00059146085 -0.0010465628 0.001116667 -0.0006506111 0.00067607505 -0.0007329997
-0.00070087594 0.00031497836 -0.00091058563 -0.0007252262 -0.00096684956 0.0010627044 -0.0009840291 0.00092167757
-0.00079644105 -0.0007790575 -0.00074936973 0.0007170986 0.0009010031 0.00094522355 -0.001131864 0.00041823485
0.00022747014 0.00086511724 -0.0010156846 0.00073570077 -0.00072846754 -0.00093674805 -0.0007448869 -0.0005714026
0.00093214953 -0.001028895 -0.00044810696 0.0008512392 -0.0011716007 -0.0008056544 0.00017107769 -0.00012365429
0.0006894261 -0.0009758616 -0.00081330986 0.00044861392 -0.0007333389 0.00053644326 0.0004215747 -0.00053248345
-0.00025001727 3.1800628e-05 -0.0003518448 0.0007010905 0.0007967968 -0.00038087138 -0.0010138141 -0.00020014227
0.0008249253 0.0008860517 0.00090249564 -9.822524e-05 -0.00027251936 -0.00022358316 0.0006407841 -0.0011685163
-0.00039583878 -0.00070842775 -0.00070302706 1.1113321e-05 -0.0010430027 -0.0007301239 -0.0005024671 -0.00094386865
-7.409079e-05 -0.0007031156 -0.0010061606 0.00038606944 0.0003127389 0.0004902496 -0.0002951236 0.00056082825
0.0007355988 5.4369666e-05 -0.0011092765 0.00050887937 0.0005914523 0.0008114151 0.00057661085 -0.0010457325
0.0008097375 0.0002049171 0.00084132946 -0.001024567 0.0010065456 -0.0006751674 0.00048449388 -0.0008324873
-0.0009108864 6.3284606e-05 0.0008579669 0.00067092985 0.0005972401 -7.7102944e-05 0.00075328315 -0.0008545336
0.00040879243 -0.00086304435 -0.0010380193 0.00047846846 -0.00035087805 0.00064990483 -0.000857521 -2.294587e-05
-0.00093911745 0.00091527286 -0.0002525569 -0.00028067356 0.00048030296 -0.00026941125 0.00024941642 0.0004672945
-4.991111e-05 -7.5687225e-05 -0.0007183447 0.00044710055 0.00025683723 0.0009484428 -0.00087274046 -0.00023325856
0.0006116595 -0.00063251716 0.00010812181 -0.0010707065 1.2663677e-05 0.00060987746 -0.00065900735 -0.0007288322
0.0003081718 0.0006415617 0.00074854906 0.000529708 -0.0009704204 -0.0011765204 -0.00062313967 0.00016876614
-0.00041152135 -0.00087821163 -0.0005569541 -0.0008566585 -0.0010394495 0.00040692973 -0.000903891 -0.0010538202
