data/rl4wound_paper_res/ctr/models_map524/agent_ctr_True_ep_1064.pth (torch, 950255 bytes, 21 tensors)

fc1.weight f4 [512, 5]
0	0xbbb0ea8c	-0.005399054
1	0x3e770305	0.24122246
2	0xbebafb6d	-0.36519948
3	0xbea68e29	-0.32530335
4	0xbe312733	-0.1730011
5	0x3def4095	0.1168224
6	0xbc0c4684	-0.008561734
7	0x3eb5fa13	0.35542354
8	0xbd2273a0	-0.03966105
9	0x3df309d7	0.11867111
10	0xbe09cfb7	-0.13458143
11	0xbdb74ae6	-0.089498326
12	0xbeda480a	-0.42633086
13	0xbe97dc6f	-0.29660365
14	0xbe39f5fd	-0.18160243
15	0x3c90711a	0.017632056
16	0x3e360db6	0.17778668
17	0x3e885e44	0.2663442
18	0xbe9c1bc2	-0.30489928
19	0xbe486af6	-0.19572052
20	0x3e26dbe1	0.16294815
21	0x3ebc6d4f	0.36802146
22	0xbdbe76e4	-0.0930002
23	0x3eac3083	0.33630762
24	0xbd8fd262	-0.07022549
25	0x3d3b265b	0.045690876
26	0x3ed04b0d	0.4068226
27	0xbed3edaf	-0.41392276
28	0xbe8df700	-0.2772751
29	0xbdedd014	-0.116119534
30	0xbe32d36b	-0.17463462
31	0x3ec479a3	0.3837405
32	0xbe933ab9	-0.2875574
33	0xbe55bb39	-0.20872201
34	0xbe9ea4ff	-0.30985257
35	0xbed6557d	-0.41862097
36	0xbe83ea27	-0.25764582
37	0x3ec4174b	0.3829902
38	0x3e4d7b59	0.20066585
39	0x3e5ebd37	0.21751867
40	0x3cc66583	0.024218326
41	0xbe68c3e0	-0.2273097
42	0x3d956f62	0.07296635
43	0xbed6b20f	-0.41932723
44	0xbea64019	-0.32470778
45	0xbe6eb4e4	-0.23311192
46	0x3e8fdde3	0.28098974
47	0x3e87cbf6	0.26522797
48	0xbe47d82d	-0.19516058
49	0xbc58f8e7	-0.013242937
50	0x3e911d95	0.28342882
51	0x3ee46525	0.44608417
52	0x3e353a47	0.17698012
53	0x3d7bfe2d	0.061521698
54	0x3e977e3c	0.29588497
55	0xbe8653a4	-0.26235688
56	0x3dab6008	0.08367926
57	0xbeb161d8	-0.3464496
58	0xbe9eaec2	-0.30992705
59	0xbe6d4991	-0.23172595
60	0x3e4ba68e	0.19887754
61	0x3e36a235	0.17835315
62	0xbe8663c3	-0.26247987
63	0x3e0c8283	0.13721661
64	0x3e7db052	0.24774292
65	0xbd6444b1	-0.05572957
66	0x3c8c4155	0.017120996
67	0x3dd1f37a	0.102515176
68	0x3e8c5969	0.27411965
69	0x3edd752e	0.43253464
70	0xbeafb500	-0.3431778
71	0xbe2852fe	-0.16437909
72	0x3e333ccb	0.1750366
73	0x3ebf297c	0.37336338
74	0x3ec648a6	0.387273
75	0x3eca4f94	0.39513838
76	0x3db50d17	0.08840387
77	0xbec77b78	-0.38961387
78	0x3d280d3b	0.041028243
79	0xbe8ed70c	-0.27898443
80	0xbed4edc1	-0.41587642
81	0x3ecc2f21	0.39879707
82	0x3ead460f	0.33842513
83	0xbee53dba	-0.44773656
84	0x3da7c439	0.081917234
85	0xbd9c2077	-0.0762338
86	0xbd903751	-0.07041801
87	0xbe503140	-0.20331287
88	0x3e2ee255	0.17078526
89	0xbe8874e8	-0.26651692
90	0x3e2654ce	0.16243288
91	0x3e695502	0.22786334
92	0x3ea34c71	0.31894258
93	0x3e2c018e	0.16797468
94	0xbee237b2	-0.44183117
95	0xbe948540	-0.29007912
96	0x3e62b16a	0.2213799
97	0x3dbfd259	0.093662925
98	0xbeb26058	-0.3483913
99	0xbe8456a2	-0.25847346
100	0x3ed79220	0.42103672
101	0x3e9889e2	0.29792696
102	0xbe48df1b	-0.19616358
103	0xbde22e3a	-0.11043973
104	0xbedb9422	-0.42886454
105	0xbc3d15fb	-0.011540885
106	0xbeab99de	-0.3351583
107	0xbeb1e28f	-0.34743163
108	0xbccaf611	-0.024775537
109	0x3d84cb01	0.064840324
110	0xbe3ac11f	-0.18237732
111	0x3e8857cb	0.2662948
112	0xbe8c44d8	-0.27396274
113	0x3ece3d7f	0.40281293
114	0x3e9ed25a	0.3101986
115	0xbec07274	-0.3758732
116	0xbde4353d	-0.11142967
117	0x3ca56cbc	0.02019345
118	0x3d8859b9	0.06657738
119	0x3ddcf10b	0.10788163
120	0x3e36cd26	0.17851695
121	0x3cf1fe5b	0.029540231
122	0xbe61d7bc	-0.22054952
123	0x3e54f99c	0.20798343
124	0xbeddadd9	-0.43296698
125	0xbe86df32	-0.2634216
126	0xbde1330d	-0.10996065
127	0xbe6068b6	-0.21914944
128	0xbe23150d	-0.15925999
129	0xbebb54c4	-0.3658811
130	0xbdbc0294	-0.09180179
131	0x3dc31c49	0.09526879
132	0xbe95dac8	-0.2926848
133	0xbcc4614c	-0.023972176
134	0x3ea3a64f	0.3196282
135	0xbd3b8ae0	-0.04578674
136	0x3c7c397f	0.0153945675
137	0xbd247b0c	-0.04015641
138	0x3db435fb	0.087993585
139	0x3e92c530	0.28666067
140	0x3ed7cf33	0.42150268
141	0x3e92de7b	0.28685364
142	0x3ed95647	0.42448637
143	0xbcfdad7d	-0.030966515
144	0xbeced496	-0.40396565
145	0xbe5aaa0f	-0.21353935
146	0x3e99f1dc	0.30067337
147	0xba3726c7	-0.0006986674
148	0xbe622653	-0.22084932
149	0xbeaf60e7	-0.34253618
150	0xbed55f3c	-0.4167422
151	0xbec0f38b	-0.3768581
152	0xbdbd6748	-0.09248215
153	0x3e7768d6	0.24161085
154	0x3e7b1510	0.24519753
155	0xbedd9519	-0.43277815
156	0x3e8e57b6	0.27801293
157	0xbeb2368c	-0.3480724
158	0xbdc120dd	-0.09430096
159	0xbe3b6745	-0.18301113
160	0xbdb07d10	-0.08617604
161	0xbdbd2458	-0.09235448
162	0xbecd00cd	-0.40039673
163	0xbec48a3d	-0.38386717
164	0xbd946085	-0.07244972
165	0x3c13aa8a	0.009012828
166	0xbe4cef1b	-0.20013086
167	0x3e287667	0.16451417
168	0xbed039ad	-0.40669003
169	0xbd09193f	-0.033471342
170	0x3ec9c87f	0.3941078
171	0xbe37d606	-0.17952737
172	0x3ece5111	0.40296224
173	0x3e253463	0.16133265
174	0xbecf7080	-0.40515518
175	0x3e916399	0.283963
176	0xbd54bd85	-0.051938552
177	0xbe4b3265	-0.19843443
178	0x3eb64f7e	0.35607523
179	0xbeba08df	-0.36334893
180	0x3d4063b0	0.04697007
181	0xbdba8874	-0.091080576
182	0x3ea3748b	0.31924853
183	0x3e009421	0.12556507
184	0x3e5bcd38	0.21465003
185	0x3e22484c	0.15847892
186	0xbdd5d536	-0.104410574
187	0xbdc67374	-0.0968999
188	0xbebecc72	-0.37265354
189	0x3e76e502	0.24110797
190	0x3eb67ff7	0.35644504
191	0x3e9cda5e	0.3063535
192	0xbea20165	-0.3164169
193	0x3c961fae	0.018325653
194	0xbea18c1b	-0.31552204
195	0xbe7b82e5	-0.24561651
196	0xbe84b4fb	-0.25919327
197	0x3e1b6fdc	0.1517939
198	0xbe88ce71	-0.26720002
199	0xbc322dcb	-0.010875176
200	0x3c8e67f2	0.01738355
201	0x3e95f390	0.29287386
202	0xbead5537	-0.33854076
203	0xbe9c6817	-0.30548164
204	0xbe859046	-0.26086634
205	0x3ea0e616	0.31425542
206	0xbe26f100	-0.16302872
207	0x3ebf8b0b	0.3741077
208	0x3e2747f1	0.16336037
209	0x3d66d9a4	0.056359902
210	0xbb4ed626	-0.0031560748
211	0xbdac1b10	-0.08403599
212	0x3d5fe665	0.05466308
213	0xbdd69fdb	-0.10479709
214	0xbbc4b7ae	-0.0060033416
215	0x3d66e1ac	0.05636756
216	0xbeb59e31	-0.35472253
217	0xbe6e1093	-0.2324851
218	0x3eba2298	0.36354518
219	0xbeb870e5	-0.36023632
220	0xbce237c3	-0.02761448
221	0x3ee3b08d	0.44470635
222	0x3e212cbf	0.15739726
223	0x3c1ff3f7	0.009762756
224	0xbec6a5ce	-0.38798374
225	0x3e62cb3e	0.22147843
226	0xbea4c41e	-0.32180876
227	0xbe004dd2	-0.12529686
228	0xbe181c77	-0.14854608
229	0xbd7f74a0	-0.06236708
230	0x3b9845ce	0.0046469932
231	0x3ebf273c	0.3733462
232	0x3d5dde7a	0.05416725
233	0x3ecbd40b	0.39810213
234	0x3e8c301a	0.2738045
235	0xbe91b6e7	-0.28459856
236	0x3e4d0696	0.20022044
237	0xbea1baf3	-0.31587943
238	0xbe410e22	-0.18853047
239	0x3e05cdff	0.13066863
240	0x3e18c54c	0.14919013
241	0x3eab7806	0.33490008
242	0xbe1371fe	-0.14398953
243	0x39122ab4	0.00013939553
244	0x3e6bbf22	0.2302213
245	0xbedca44e	-0.43094105
246	0x3ea61e58	0.32445025
247	0xbebe5939	-0.37177446
248	0x3b8b3815	0.004248629
249	0xbd9a0052	-0.07519592
250	0xbe6f9406	-0.2339631
251	0x3d6afd97	0.05737075
252	0x3ebd429a	0.36964875
253	0xbe0632cd	-0.13105316
254	0xbe892636	-0.26786965
255	0xbe2a72b1	-0.16645314

fc1.bias f4 [512]
0	0xbe96cb26	-0.29451865
1	0xbea109e4	-0.31452858
2	0x3e98350c	0.29727972
3	0xbe15467b	-0.14577667
4	0xbced2bf5	-0.028951624
5	0x3e092016	0.13391146
6	0xbe8d83ab	-0.27639517
7	0x3d2a4c01	0.04157639
8	0x3e87a5af	0.26493594
9	0xbe864cf8	-0.26230597
10	0x3e04f1f1	0.12982918
11	0xbc8119b0	-0.015759319
12	0x3e7b7373	0.24555759
13	0x3e980298	0.2968948
14	0x3decd44e	0.115639314
15	0x3c4661da	0.012108291
16	0xbec54316	-0.38527745
17	0x3e36c75c	0.17849487
18	0x3e8b94ce	0.27261966
19	0xbe26ef97	-0.16302334
20	0xbee18f5a	-0.4405468
21	0x3ebbfe63	0.3671752
22	0xbdd68f1a	-0.10476513
23	0x3db222c3	0.086980365
24	0xbe01f56a	-0.12691274
25	0x3e947ee6	0.29003066
26	0x3edf9a40	0.4367237
27	0x3e8f894b	0.28034434
28	0xbe0e8bc0	-0.13920498
29	0x3ea1b8cc	0.315863
30	0x3e5d8136	0.21631321
31	0x3d3646bd	0.044501055
32	0xbeb87bc1	-0.36031917
33	0xbe4336cf	-0.19063877
34	0xbee30d7f	-0.44346234
35	0x3e98f21c	0.29872215
36	0x3ee2405c	0.44189727
37	0x3e8500b9	0.25977114
38	0x3e0ea79e	0.13931128
39	0x3dd87d9c	0.10570833
40	0x3edbfdf2	0.42967182
41	0xbe67c8ef	-0.22635244
42	0xbe1a2b91	-0.15055682
43	0xbecc3531	-0.39884332
44	0xbd2f5939	-0.0428097
45	0x3cdf75d5	0.027277866
46	0x3dfb2ecb	0.122647844
47	0xbe9f9693	-0.31169567
48	0xbd4a3cf5	-0.04937454
49	0xbebdcd62	-0.37070757
50	0xbeb95de4	-0.36204445
51	0x3d70d031	0.058792297
52	0xbedf753b	-0.43644127
53	0x3df5ec04	0.12007907
54	0xbed3e5b8	-0.413862
55	0xbe9f0e8f	-0.31065795
56	0xbdbcf61a	-0.09226628
57	0xbed9881c	-0.42486656
58	0x3eb8f9c3	0.36128053
59	0x3ebb8b1d	0.36629573
60	0xbe6b3d4b	-0.229726
61	0x3dcaf636	0.09910242
62	0x3e6d6f83	0.2318707
63	0x3e11657d	0.14198871
64	0xbd6cfaf2	-0.057856508
65	0xbed6113e	-0.4181003
66	0x3ea784af	0.32718417
67	0xbec97914	-0.39350188
68	0xbda4a5d2	-0.0803944
69	0x3cd7d194	0.026345052
70	0xbe199ba1	-0.15000774
71	0xbe213e6c	-0.15746468
72	0xbec67fd7	-0.3876941
73	0x3cb50eba	0.022101749
74	0xbd4954b0	-0.04915303
75	0x3ec7b91c	0.39008415
76	0xbe1645bb	-0.14675038
77	0x3ead86fc	0.33892047
78	0x3cda3637	0.02663718
79	0xbe519372	-0.20466402
80	0xbddae304	-0.10687831
81	0xbd5dc6bb	-0.054144602
82	0x3bba58a7	0.0056868377
83	0xbda2667e	-0.07929705
84	0x3e07dbf6	0.13267502
85	0x3ebe5d8e	0.37180752
86	0x3d915bf9	0.070976205
87	0x3e25bd63	0.16185527
88	0x3e8e9559	0.27848318
89	0x3dc3d67c	0.09562394
90	0x3e5313bd	0.20612998
91	0x3e70192b	0.23447101
92	0x3ed3b143	0.41346177
93	0xbed14315	-0.40871492
94	0x3e1d3811	0.15353419
95	0xbca6772b	-0.020320496
96	0xbda38904	-0.07985118
97	0xbe29d791	-0.16586138
98	0x3e86ffc9	0.26367024
99	0x3ed17e30	0.40916586
100	0xbebac742	-0.36480147
101	0x3e764567	0.24049912
102	0x3e9ff5e0	0.31242275
103	0x3da0120f	0.078159444
104	0x3c06d3e9	0.008229234
105	0x3eaff631	0.34367517
106	0x3c26dd04	0.01018453
107	0xbde3075a	-0.110853866
108	0xbd0a23d7	-0.033725586
109	0x3e0fe017	0.14050327
110	0x3de2e45b	0.110787116
111	0xbc96f887	-0.018429054
112	0x3e0cb894	0.13742286
113	0x3df66bbf	0.1203227
114	0xbeb70050	-0.35742426
115	0x3de3b8d9	0.11119241
116	0x3e8c792f	0.27436206
117	0x3d4dfc5d	0.0502895
118	0xbd252b5e	-0.04032456
119	0x3eaf7173	0.34266242
120	0xbec7d615	-0.3903052
121	0xbe50eaab	-0.20402019
122	0xbe4e3536	-0.20137486
123	0x3ec5acbc	0.38608348
124	0xbeddfdf6	-0.4335782
125	0x3d4cc969	0.049996767
126	0xbee0304e	-0.43786854
127	0xbc803518	-0.015650317
128	0x3e2c97eb	0.16854827
129	0xbdd1ab3f	-0.10237741
130	0x3ede42a2	0.43410212
131	0x3b343fe1	0.0027503895
132	0xbe691fc4	-0.22766024
133	0x3dec3b2b	0.11534723
134	0x3e68b35d	0.22724672
135	0xba7d03f5	-0.0009651774
136	0x3ec3e0e6	0.3825752
137	0xbe90421e	-0.28175443
138	0x3e43a0e2	0.1910434
139	0x3e7e67f5	0.24844344
140	0x3e63dc6f	0.22252057
141	0x3a9bcf86	0.0011887408
142	0x3df9328d	0.12167845
143	0xbeb1e5f0	-0.3474574
144	0xbeb0ad29	-0.3450711
145	0xbcdfe452	-0.027330551
146	0xbd707765	-0.058707613
147	0x3eaa2141	0.33228496
148	0x3ea93873	0.3305088
149	0x3e9c33d8	0.30508304
150	0xbe53e997	-0.20694576
151	0xbeb3013b	-0.34961876
152	0xbed61841	-0.4181538
153	0x3e2b892b	0.16751544
154	0xbecc70c0	-0.3992977
155	0xbee5376f	-0.44768855
156	0xbe647bad	-0.22312804
157	0xbec32b45	-0.3811895
158	0xbe38e7d9	-0.18057193
159	0xbe905286	-0.2818796
160	0xbe6c3a07	-0.2306901
161	0x3ed9da76	0.42549485
162	0xbdadf2d8	-0.084935844
163	0x3ebdbd32	0.37058407
164	0x3c1126ec	0.008859377
165	0xbd7b8a0b	-0.061410945
166	0xbe053629	-0.13008942
167	0xbea2df24	-0.31810868
168	0xbeb7a2a0	-0.3586626
169	0x3e9eaf75	0.30993238
170	0xbe0f9066	-0.14019927
171	0xbee0326e	-0.43788475
172	0x3ed1d7f3	0.4098507
173	0x3c131579	0.008977287
174	0xbe9a182d	-0.3009657
175	0xbeb46eb8	-0.35240722
176	0xbebf15fe	-0.37321466
177	0xbec86e23	-0.39146528
178	0x3ecf5c0b	0.4049991
179	0x3e9db312	0.30800682
180	0x3d150894	0.036385134
181	0xbec42e33	-0.38316497
182	0xbdefe28d	-0.11713133
183	0xbed5f0f8	-0.41785407
184	0x3e21e2b7	0.15809141
185	0xbdf60d40	-0.12014246
186	0xbdc39877	-0.09550565
187	0xbe0ee82b	-0.13955753
188	0x3e564c7d	0.20927615
189	0x3e7d6ae9	0.24747814
190	0x3dc64b84	0.09682372
191	0xbd80be90	-0.06286347
192	0xbd35058a	-0.044194736
193	0xbbedeee1	-0.0072611426
194	0xbeab8849	-0.33502415
195	0x3edcda1c	0.43135154
196	0xbe45cd64	-0.19316632
197	0x3e854167	0.2602646
198	0xbe808b57	-0.25106308
199	0x3c009771	0.007848606
200	0x3e1c1dee	0.15245792
201	0xbed1f4f5	-0.410072
202	0x3e559763	0.2085853
203	0xbeb13112	-0.3460775
204	0x3d7eeaa8	0.062235504
205	0xbdb5750b	-0.08860215
206	0x3e8443e3	0.25833043
207	0x3edf3f46	0.4360296
208	0x3dbda2ce	0.09259568
209	0xbc52d2f3	-0.012867677
210	0xbe60b98d	-0.21945782
211	0x3e2afdba	0.16698352
212	0xbe5a9c4e	-0.21348688
213	0x3e3ba142	0.18323234
214	0xbe45f3f5	-0.19331343
215	0x3e9a331e	0.30117124
216	0x3eaf9c77	0.3429906
217	0x3e8f0e65	0.2794067
218	0x3c45fdf4	0.012084473
219	0x3e51aef3	0.20476894
220	0xbed2643d	-0.410921
221	0x3eb9be98	0.36278224
222	0xbdec889b	-0.11549493
223	0x3e27b509	0.16377653
224	0xbd9ed3d2	-0.07755245
225	0xbe159834	-0.14608842
226	0xbe55cee8	-0.2087971
227	0x3e937d56	0.2880656
228	0xbe7ad3c0	-0.24494839
229	0xbda63e50	-0.08117354
230	0x3e621d8a	0.22081581
231	0x3d3ab733	0.04558487
232	0xbebfa852	-0.37433106
233	0xbee36c7a	-0.444187
234	0xbe5f09cf	-0.21781085
235	0x3ed14b72	0.40877873
236	0xbea2c806	-0.3179323
237	0x3e802f95	0.25036302
238	0x3ea3e8e2	0.32013613
239	0xbe3f462c	-0.18679112
240	0xbe4ba58d	-0.19887371
241	0xbea4a19b	-0.32154545
242	0x3d8db08a	0.06918438
243	0xbd81c453	-0.06336274
244	0x3cb23d89	0.021757858
245	0x3e46e667	0.19423829
246	0x3e43b509	0.19112028
247	0xbe1363e7	-0.14393578
248	0x3d00571f	0.031333085
249	0x3de2bff2	0.11071767
250	0x3c2f6ae4	0.010706637
251	0x3db741ea	0.08948119
252	0xbe38a3bb	-0.18031208
253	0x3ebbd379	0.36684778
254	0xbd454f23	-0.048171174
255	0xbd75330c	-0.059863135

fc2.weight f4 [256, 512]
0	0x3d23b2bc	0.039965376
1	0x3d0d72a2	0.03453315
2	0xbd23bf5f	-0.039977428
3	0xbc969f8e	-0.018386628
4	0x3cc042aa	0.023469288
5	0xbcd8f872	-0.026485655
6	0x3bf9e3e6	0.0076260446
7	0xbc90cf92	-0.017677102
8	0x3bf11996	0.0073577864
9	0x3cb7532f	0.022378532
10	0x3c50807b	0.012725945
11	0x3cfd48f9	0.030918585
12	0xbbe0fd3f	-0.006866127
13	0x3cc36c27	0.023855282
14	0x3c7cae72	0.01542245
15	0xbc751b8c	-0.014960181
16	0xbd039b84	-0.032130733
17	0x3d29e02e	0.04147356
18	0xbc38befa	-0.011276001
19	0x3d04e878	0.032448262
20	0x3cda70ce	0.026665118
21	0xbb5540f6	-0.003253994
22	0xbd199f0c	-0.037505195
23	0x3b9b1919	0.0047332165
24	0xbca9113e	-0.020638105
25	0x3c3a1c80	0.011359334
26	0xbc9d95bb	-0.019236436
27	0x3d03e90e	0.03220468
28	0xbd1b694d	-0.03794222
29	0xbc4741fc	-0.012161728
30	0x3bfd7d20	0.0077358633
31	0x3b6124a8	0.0034354124
32	0x3d0f2b7f	0.03495359
33	0xbc7ed546	-0.015553778
34	0xbd09c1fd	-0.033632267
35	0x3cf6228d	0.030045772
36	0x3c5bfb71	0.0134266475
37	0x3ce1a231	0.02754316
38	0xbcde01c0	-0.027100444
39	0xbcd112d3	-0.025521671
40	0xbc9bc51c	-0.019014888
41	0x3b90e9b3	0.0044223904
42	0x3c7404f2	0.014893757
43	0xbcc825cc	-0.024432085
44	0xbaf2b646	-0.0018517456
45	0xbc1985a0	-0.009370238
46	0x3d254e4c	0.040357873
47	0xbc8da27e	-0.017289396
48	0x3d29295b	0.041299205
49	0xbce501e4	-0.027955003
50	0xbc88859d	-0.016665274
51	0xbd035d89	-0.032071624
52	0x3d0bf242	0.034166582
53	0xbcecd8cd	-0.028911972
54	0x3c91944d	0.01777091
55	0xbc8efd3b	-0.017454734
56	0x3d316ae8	0.043314844
57	0x3ba3f477	0.0050035077
58	0xbd16c386	-0.03680756
59	0x3bede37e	0.007259785
60	0x3b870f01	0.0041216617
61	0xbd280716	-0.041022383
62	0x3c192dc1	0.0093492875
63	0x3d2e97ef	0.042625364
64	0x3c33acaa	0.010966459
65	0x3a1b072c	0.00059138495
66	0xbbf80554	-0.0075689945
67	0x3c567e2c	0.013091605
68	0xbc93c9e2	-0.018040601
69	0x3d2be338	0.04196474
70	0x3d1a1cb2	0.037625022
71	0x3c9a65f6	0.018847447
72	0xbc907057	-0.017631693
73	0xbd2f863d	-0.04285263
74	0xbcd82e0f	-0.02638915
75	0x3d35da2e	0.044397525
76	0xbd215d03	-0.039395344
77	0xbd32dcc0	-0.043667555
78	0xbb930a9f	-0.00448735
79	0x3c4c98cc	0.0124876015
80	0xbd3811ef	-0.044938978
81	0xbd274645	-0.0408385
82	0x3af18174	0.0018425421
83	0xbc8ab48b	-0.016931793
84	0x3d000fe2	0.031265147
85	0x3c3765a0	0.011193663
86	0xbd165763	-0.036704432
87	0xbd209712	-0.039206572
88	0x3d034b6d	0.032054354
89	0xbbcd0f05	-0.006257894
90	0xbc8fb4f5	-0.017542342
91	0x3c4c1ff7	0.012458793
92	0xbc1f75c2	-0.0097326655
93	0x3ca1da52	0.019757424
94	0x3c298a3d	0.0103479
95	0xbc98ac94	-0.01863698
96	0xbd12ab11	-0.035807673
97	0x3cd746de	0.02627891
98	0xbce78180	-0.028259993
99	0xbbc2a593	-0.005940148
100	0x3be783d3	0.007065275
101	0xbcd035c8	-0.02541627
102	0x3cba1d1e	0.022718962
103	0xbcf32367	-0.029679967
104	0x3c1a1026	0.009403264
105	0x3ba370c9	0.0049878103
106	0x3c74296d	0.014902455
107	0xbd381a6e	-0.04494708
108	0x3a9e9c08	0.0012100944
109	0x3c9ea693	0.019366538
110	0xbce006db	-0.027347019
111	0x3c4073a2	0.011746319
112	0x3af746bc	0.0018865685
113	0x3d150264	0.036379233
114	0xbc306382	-0.010765912
115	0xbabecd0e	-0.0014556961
116	0xbca700fe	-0.020386215
117	0xbc1f05d6	-0.009705981
118	0x3c40d672	0.011769878
119	0xbd2a471c	-0.04157172
120	0x3d0b84c5	0.034062166
121	0x3cfa6f17	0.03057055
122	0x3c9e495c	0.01932209
123	0x3d0844f9	0.033268902
124	0xbc73d49c	-0.014882233
125	0x3c12276d	0.008920533
126	0x39fda089	0.00048375528
127	0xbd0348c1	-0.032051805
128	0xbc791a9a	-0.015204096
129	0xbc8e7c98	-0.017393395
130	0xbc271d2a	-0.010199824
131	0xbd1dd569	-0.038533602
132	0xbd0254fb	-0.031819325
133	0xbbaf9498	-0.00535829
134	0xbbc18359	-0.0059055504
135	0xbd20796d	-0.0391783
136	0x3bf3a267	0.0074351314
137	0x3cba0907	0.022709383
138	0x3d1cbd28	0.03826633
139	0x3d14ad67	0.03629818
140	0xbd000454	-0.031254128
141	0xbc6d25ef	-0.014474376
142	0xbcb89a0d	-0.022534395
143	0x3c087cdb	0.008330549
144	0x3c2903e6	0.010315871
145	0x3c186174	0.009300578
146	0x3cd717a5	0.026256392
147	0x3cba1427	0.022714688
148	0xbcbb05d5	-0.02282993
149	0x3ceedf1b	0.02915912
150	0x3d00ae5b	0.03141628
151	0x3be7645f	0.0070615257
152	0xbd21cc57	-0.039501514
153	0xbcd610f0	-0.026131123
154	0x3c54e98c	0.012995135
155	0x3c846c26	0.01616485
156	0x3d30f68b	0.04320387
157	0x3caaed52	0.020865116
158	0x3c90bd52	0.0176684
159	0xbb340c93	-0.0027473315
160	0x3cedebd5	0.029043118
161	0xbc8dc473	-0.017305588
162	0x3c88a6b8	0.01668106
163	0xbca5c067	-0.020233346
164	0xb9c3d39c	-0.0003735096
165	0x3cce3049	0.025169509
166	0x3c9e7895	0.019344607
167	0xbc3c184f	-0.011480405
168	0xbac86b3f	-0.0015290751
169	0xbcbeeac6	-0.023305308
170	0x3c9be3eb	0.019029578
171	0x3cfe6da0	0.031058133
172	0x3c5e411c	0.013565328
173	0xbd35b74e	-0.044364266
174	0xbd06bbd8	-0.032893986
175	0x3ceca8b4	0.028889038
176	0xbbf0b531	-0.0073458184
177	0x3cd035b2	0.025416229
178	0x3d0d88d1	0.034554306
179	0xbc5a8b63	-0.013338896
180	0xbccd25ce	-0.02504244
181	0xbd26ddc4	-0.040738836
182	0x3c76c191	0.015060798
183	0x3cae4cd2	0.021276865
184	0xbc190b7a	-0.009341115
185	0xbd32ad8f	-0.04362255
186	0xbcf74fc3	-0.0301894
187	0xbb2732d0	-0.0025512464
188	0x3ca85eee	0.020553079
189	0xbc770842	-0.015077652
190	0xbcf60ecf	-0.030036358
191	0xbd031da5	-0.032010693
192	0x3d22381d	0.039604295
193	0x3c6c6c87	0.014430172
194	0xbd0be32b	-0.03415219
195	0xbcebafbe	-0.028770324
196	0xbd19ea3a	-0.03757689
197	0x3bab4d7c	0.0052277427
198	0xbca06f83	-0.019584423
199	0xba95e207	-0.0011435159
200	0xbc0d18c3	-0.008611861
201	0xbd243ae0	-0.04009521
202	0xbd276ac4	-0.040873304
203	0xbd12481a	-0.035713293
204	0xbc9f9941	-0.019482257
205	0x3bea1386	0.0071434407
206	0xbcb69cfe	-0.022291657
207	0xbb57cc79	-0.0032928272
208	0xbbd7ad9f	-0.0065819765
209	0x3d1fba5f	0.038996097
210	0xbc97251c	-0.018450312
211	0x3d31d265	0.04341354
212	0xbd03233c	-0.032016024
213	0xbd1d5e7e	-0.038420193
214	0x3c4b46ea	0.012407044
215	0xbcc73d5e	-0.024321254
216	0x3cb9c1f3	0.02267549
217	0xbcc96f45	-0.02458919
218	0x3d11231b	0.03543387
219	0x3d2a3b63	0.04156054
220	0x3b9411f9	0.004518744
221	0x3c036be7	0.008021331
222	0x3d2f58b7	0.042809214
223	0x3ccd488b	0.025059005
224	0xbd1b95e9	-0.037984762
225	0xba4b538f	-0.00077562866
226	0xbd1be53c	-0.03806041
227	0x3d11d22d	0.03560083
228	0xbc1cdcc2	-0.009574117
229	0x3a159736	0.0005706431
230	0xbcec856d	-0.028872216
231	0xbcbcc1e3	-0.023041671
232	0x3bad66eb	0.00529181
233	0x3d1b8e06	0.03797724
234	0xbcc00638	-0.023440465
235	0x3bb9b62a	0.0056674676
236	0x3d1fd55a	0.039021827
237	0x3d296262	0.04135359
238	0xbbe0d3c9	-0.0068611843
239	0x3d2c5308	0.042071372
240	0x3c740201	0.014893056
241	0x3d2a9c5c	0.041653022
242	0x3a6dd5fe	0.000907272
243	0xbd19e121	-0.037568215
244	0xbc56b4c5	-0.013104622
245	0x3c735fd3	0.014854389
246	0x3cb522f9	0.022111403
247	0xbd2c690c	-0.042092368
248	0x3d097475	0.033558328
249	0xbd1cadd5	-0.038251717
250	0x3cc8bd7f	0.024504421
251	0x3d2cb821	0.042167787
252	0x3c3a2815	0.011362095
253	0xbbeb5b8c	-0.007182544
254	0x3cbcf237	0.023064716
255	0xbc45342d	-0.012036365

fc2.bias f4 [256]
0	0xbc55821f	-0.013031512
1	0x3d083df6	0.033262216
2	0xbcf48ef4	-0.029853322
3	0xbd1b9202	-0.03798104
4	0xbcb81b4f	-0.02247396
5	0x3cd04735	0.02542458
6	0xbd03d397	-0.03218421
7	0x3d04b3f4	0.03239818
8	0x3d02dcde	0.031948917
9	0x3d057de3	0.032590758
10	0x3c311711	0.010808722
11	0x3c5b9bd3	0.013403851
12	0x3c70626a	0.014671901
13	0x3d067327	0.03282466
14	0xbc63fd90	-0.0139154345
15	0x3d2f94a5	0.042866368
16	0xbd3caeb5	-0.04606505
17	0xbd1e3a48	-0.0386298
18	0xbd01f870	-0.03173107
19	0x3d0f7cf0	0.03503126
20	0xbbd21097	-0.006410669
21	0xbd0a62af	-0.03378552
22	0xbce286f0	-0.027652234
23	0xbacdeb66	-0.0015710413
24	0x3c5a5c6a	0.013327697
25	0x3d238df2	0.03993029
26	0x3ca57538	0.020197496
27	0x3b98af5c	0.0046595763
28	0xbb056d07	-0.0020359175
29	0x3ce01c7a	0.027357329
30	0xbc32d724	-0.010915551
31	0xbba962c7	-0.005169246
32	0x3d1ec726	0.03876414
33	0xbd01a8b7	-0.03165504
34	0x3cbcdef8	0.023055539
35	0xbcedb0e6	-0.029015016
36	0xbd20261c	-0.039098844
37	0x3c8c54a3	0.017130202
38	0xbd18597c	-0.037194714
39	0x3d112134	0.035432056
40	0xbc8aeba2	-0.016958062
41	0xbd1a5b50	-0.03768474
42	0xbd308ca9	-0.043102894
43	0x3d14f3ff	0.036365505
44	0xbd343824	-0.043998852
45	0x3c9159eb	0.017743072
46	0xbcc3e2c1	-0.023911836
47	0x3c623c99	0.013808393
48	0x3cf2ae7a	0.029624213
49	0xbc3474a3	-0.0110141365
50	0x3ce96cd7	0.028494282
51	0xbc7aa603	-0.015298369
52	0x3bcd066a	0.006256868
53	0xbcf59c45	-0.029981742
54	0x3cd55788	0.026042715
55	0x3bf97c97	0.007613729
56	0x3b762226	0.0037556975
57	0x3cf7931d	0.030221516
58	0xbd249bd2	-0.040187664
59	0x3c8bd64f	0.017069964
60	0xbbd10699	-0.0063789603
61	0xbc88fcb7	-0.016722066
62	0xbbdc6814	-0.0067262743
63	0x3b017a1c	0.001975662
64	0x3d1331f7	0.035936322
65	0xbd2ac1ac	-0.041688606
66	0x3c9ba3f8	0.018999085
67	0x3ca16fb1	0.019706579
68	0xbd24e1a8	-0.040254265
69	0xbc1d0506	-0.009583717
70	0xbc7df901	-0.015501262
71	0x3d084f12	0.033278532
72	0xbd05cf7d	-0.03266858
73	0x3cdc6528	0.026903704
74	0x3c869556	0.01642863
75	0x3d1c2475	0.038120706
76	0x3d12e4b9	0.03586266
77	0xbb28767d	-0.002570539
78	0xbcb6cac6	-0.022313487
79	0x3d30241c	0.043003187
80	0xbc8be79d	-0.017078215
81	0xbb7cfc43	-0.0038602508
82	0x3c818b49	0.015813487
83	0x3cd31b6a	0.025769908
84	0x3ce9ddd1	0.028548153
85	0xbca72cb7	-0.020407064
86	0x3cdde7a8	0.027088001
87	0xbc902f2e	-0.017600622
88	0x3afdcc8f	0.0019363331
89	0xbd348f97	-0.04408225
90	0xbb2fdde4	-0.0026835138
91	0xbc32bed0	-0.010909751
92	0xba8ddd00	-0.001082331
93	0x3d13b144	0.036057726
94	0xbc604f45	-0.013690774
95	0x3c718106	0.014740234
96	0xbcd47129	-0.025932865
97	0x3ce73e04	0.028227814
98	0xbc87f996	-0.016598504
99	0x3c970db9	0.01843916
100	0x3cc4f2ea	0.024041612
101	0x3cbe66bd	0.023242349
102	0x3d0be7bc	0.034156546
103	0xbd0bf9e7	-0.034173872
104	0xbb0b97f6	-0.0021300293
105	0xbbc91d0e	-0.006137497
106	0xbd27be4d	-0.04095297
107	0xbb9204f7	-0.0044561583
108	0x3d47c543	0.048772108
109	0xbc617b98	-0.013762377
110	0x3d1a32c5	0.037646074
111	0xbc340336	-0.010987094
112	0xbcd5a60e	-0.026080158
113	0x3cf41ff6	0.029800396
114	0xbc72619c	-0.01479378
115	0x3d10844c	0.035282418
116	0xbd3168a9	-0.043312702
117	0xb7928bfa	-1.7469738e-05
118	0xbcb47bfb	-0.022031775
119	0xbd2ea596	-0.042638384
120	0x3c8725ff	0.01649761
121	0xbd36cf3c	-0.044631228
122	0x3d23ea0b	0.040018123
123	0x3c9f86d5	0.019473473
124	0xbccba4f0	-0.024858922
125	0xbc9c7961	-0.019100847
126	0xbb40a71d	-0.0029396482
127	0x3d155f73	0.03646798
128	0xbc56151d	-0.013066557
129	0x3d153925	0.03643145
130	0xbcf4bf18	-0.029876277
131	0x3b9dd818	0.00481702
132	0x3d3bdcaf	0.045864757
133	0x3caa3d0f	0.020781068
134	0xbbf5fc31	-0.00750687
135	0x3ca15c3c	0.019697301
136	0x3b564cf4	0.0032699676
137	0x3c46d0a8	0.012134708
138	0x3cb35dcf	0.021895317
139	0x3d2958ac	0.04134433
140	0xbcc3b5d3	-0.023890411
141	0x3d0d0a4b	0.034433644
142	0x3bb32ab6	0.005467738
143	0x3d17d429	0.037067566
144	0x3c14005a	0.009033287
145	0x3a52ca9b	0.0008041055
146	0x3cad58e3	0.021160549
147	0x3c90f3eb	0.017694434
148	0x3cfdcd32	0.030981634
149	0xbcd95816	-0.02653126
150	0x3d107fc6	0.035278104
151	0x3d002f8f	0.031295355
152	0x3d2fa0ed	0.04287808
153	0xbd26f0fc	-0.040757164
154	0xbd397618	-0.04527864
155	0xbce622cf	-0.02809277
156	0xbcb18c64	-0.021673389
157	0x3ce8716e	0.0283744
158	0x3c37df05	0.011222606
159	0xbc8b832a	-0.017030317
160	0x3c05bb68	0.008162357
161	0xbc7c16aa	-0.015386263
162	0xbccf48cc	-0.025303267
163	0x3d2dbb5a	0.042415
164	0x3c32695a	0.010889376
165	0x3d1a0665	0.037603755
166	0x3d1b1954	0.03786595
167	0xbcc7ded7	-0.02439825
168	0xbd193ea9	-0.037413273
169	0xbd158b9d	-0.0365101
170	0x3cc6ec81	0.024282696
171	0xbcdb7a9d	-0.026791865
172	0x3bd6421f	0.006538644
173	0x3a770ce2	0.0009424222
174	0xbcfc816a	-0.030823428
175	0xb96477f1	-0.00021788456
176	0xbc4da66b	-0.012551884
177	0xbc55d190	-0.013050452
178	0xbd1e69e2	-0.038675196
179	0xbc9809a7	-0.01855929
180	0xbc4572ff	-0.012051343
181	0xbd0f1704	-0.03493406
182	0xbd1b703f	-0.037948843
183	0xbce94eca	-0.028479952
184	0xbba702bd	-0.005096762
185	0xbd310ecb	-0.043227
186	0x3c800df6	0.015631657
187	0xbcfae2ad	-0.030625666
188	0xbcce0ea2	-0.025153462
189	0xbcbf4c49	-0.023351805
190	0x3c7063b2	0.014672207
191	0x3ced6afd	0.02898168
192	0x3bb39208	0.0054800548
193	0x3cc73005	0.02431489
194	0x3c223e24	0.009902511
195	0x3909af84	0.00013130723
196	0x3ca6c31b	0.020356705
197	0xbd23f031	-0.040023986
198	0xbce12a29	-0.027485924
199	0x3d39110e	0.04518228
200	0x3c01d9cf	0.007925465
201	0xbd220452	-0.0395549
202	0x3bd90340	0.006622702
203	0xbd1a97b7	-0.037742343
204	0xbc8caad2	-0.017171297
205	0xbc37edc2	-0.0112261195
206	0xbce4ea50	-0.02794376
207	0xbd232a20	-0.039835095
208	0xbc038f37	-0.008029751
209	0xbbedd8e2	-0.0072585205
210	0xbcf30559	-0.029665636
211	0xbb390e36	-0.002823723
212	0xbd1424af	-0.036167797
213	0x3d163bd1	0.03667814
214	0xbc055189	-0.008137115
215	0x3d290c47	0.041271474
216	0x3c12367d	0.008924124
217	0xbd2a11e4	-0.041520968
218	0x3d3a76b4	0.04552336
219	0x3ceb02f1	0.028687926
220	0xbc324dd2	-0.010882812
221	0x3cbaca9e	0.022801694
222	0xbcdd52ee	-0.027017083
223	0xbcdea1ef	-0.027176825
224	0xbcc8aae3	-0.024495548
225	0x3cdec643	0.027194148
226	0xbbe6747a	-0.007032928
227	0xbaf1417f	-0.001840636
228	0xbd1d9da7	-0.038480427
229	0x3ca15472	0.019693587
230	0x3b9c5fe7	0.0047721746
231	0xbd31a2d8	-0.04336819
232	0x3c23fb88	0.0100087
233	0x392bc9c1	0.0001638299
234	0x3c3cb316	0.011517307
235	0xbd02d082	-0.03193713
236	0xbcdee07e	-0.027206656
237	0xbb5292f1	-0.003213104
238	0x3afa51b9	0.0019097842
239	0x3d07d8b5	0.033165652
240	0x3d0d1383	0.034442436
241	0x3c0202d3	0.007935244
242	0xbb2ccc94	-0.0026367055
243	0xbb8392b4	-0.004015291
244	0x3d01d36f	0.03169578
245	0xbd1f6766	-0.038916968
246	0x3cd3ffc8	0.025878802
247	0xbcec358d	-0.028834129
248	0xbcc2e26a	-0.023789603
249	0xbcb78c1c	-0.022405677
250	0xbd124162	-0.035706885
251	0x3c0ecb33	0.008715439
252	0xbc498a68	-0.012301065
253	0xbc03411b	-0.008011128
254	0xbcf12b33	-0.029439544
255	0x3d0cbdec	0.03436081

fc3.weight f4 [128, 256]
0	0xbc87d4fe	-0.016581055
1	0xbd11aa2f	-0.03556269
2	0x3ce08826	0.02740867
3	0x3d523224	0.05131735
4	0xbc9a78d9	-0.018856453
5	0xbd6d4ea1	-0.057936314
6	0x3ce26dce	0.02764025
7	0x3d31870b	0.043341678
8	0x3d07ea50	0.033182442
9	0x3d3d12b8	0.04616043
10	0x3d2cd219	0.042192552
11	0xbd443384	-0.04790069
12	0xbd3d9276	-0.046282254
13	0x3cfe3f5c	0.031036071
14	0x396dc33c	0.00022674812
15	0x3d230c18	0.039806455
16	0x3d3d570c	0.046225592
17	0xbc2c7c00	-0.010527611
18	0xbd743d31	-0.05962867
19	0x3c1d527e	0.009602187
20	0x3ce2b802	0.027675632
21	0x3cc9e802	0.024646763
22	0x3b818e4d	0.003953731
23	0xbc90c5f6	-0.01767252
24	0x3d3a6bc5	0.045512933
25	0x3d23a2ce	0.039950185
26	0x3d65601e	0.055999868
27	0xbd0aa7f1	-0.033851568
28	0xbcae11c8	-0.021248713
29	0x3ce2a344	0.027665742
30	0x3d50c57f	0.050969597
31	0x3d8433e1	0.064552076
32	0xbd4ab72c	-0.049491093
33	0x3ca06a2f	0.019581882
34	0x3ca83e37	0.020537479
35	0xbd1c04d3	-0.03809054
36	0xbc21fbe2	-0.009886714
37	0x3cbf5f03	0.023360735
38	0xbc8160c4	-0.015793212
39	0x3d303e82	0.043028362
40	0xbc1b20d3	-0.009468275
41	0xbc05c029	-0.00816349
42	0x3c941f6b	0.018081388
43	0xbcbcd0fc	-0.02304887
44	0xbd18934d	-0.037249852
45	0x3d4c61da	0.049898006
46	0x3c3a4e8a	0.011371264
47	0xbd553ede	-0.052061908
48	0x3d4d814f	0.050172146
49	0x3d0aa84a	0.0338519
50	0xbc341cc0	-0.010993183
51	0xbced4135	-0.028961757
52	0xbcbe4720	-0.023227274
53	0xbcce1db2	-0.025160644
54	0x3d52fbd9	0.051509712
55	0x3c2f2677	0.010690323
56	0x3b5fa357	0.0034124458
57	0xbcc577ba	-0.024104942
58	0x3d776280	0.06039667
59	0xbd59bb8a	-0.053157367
60	0xbd4fbd7c	-0.050717816
61	0xbd18c8c2	-0.037300833
62	0x3d50dab9	0.05098984
63	0x3cce2361	0.025163354
64	0xbd71a245	-0.058992643
65	0xbd3c3a3a	-0.045953967
66	0xbc211ce3	-0.009833547
67	0x3d322453	0.043491673
68	0x3b347ba7	0.0027539523
69	0x3d85859a	0.06519623
70	0xbd49e570	-0.049291074
71	0x3ccf915d	0.02533787
72	0xbc81f93d	-0.015865916
73	0x3c6f727e	0.014614699
74	0xbc744a67	-0.014910317
75	0xbd2b21f0	-0.041780412
76	0xbd657eae	-0.056029014
77	0xbd3de9cd	-0.046365548
78	0xbd0ff3c5	-0.035144586
79	0xbd65155e	-0.05592858
80	0x3c6f4a7f	0.014605164
81	0xbc7306f3	-0.0148332
82	0x3b888b08	0.0041669644
83	0xbcbe1d50	-0.023207337
84	0xbd50d38b	-0.050982993
85	0xbd3f9856	-0.04677614
86	0xbcc62057	-0.024185343
87	0xbd769791	-0.06020314
88	0x3d0b9c2e	0.03408449
89	0x3d17ff16	0.037108503
90	0xbd1aafb8	-0.037765235
91	0x3c988a7f	0.018620728
92	0xbd26ce82	-0.040724285
93	0xbcbdfa23	-0.023190564
94	0xbc92678a	-0.017871637
95	0xbd2c494a	-0.04206208
96	0x3cd45c2d	0.02592286
97	0x3c855bc8	0.016279116
98	0x3bf52f8a	0.0074824737
99	0x3c05323e	0.008129654
100	0xbd65dd8b	-0.056119483
101	0x3c695df5	0.0142435925
102	0x3d38f02b	0.045150917
103	0xbd0c44eb	-0.034245413
104	0xbd61dd0e	-0.055142455
105	0xb9534bff	-0.00020150839
106	0x3cf02ce5	0.029318282
107	0x3c5a4a6a	0.013323406
108	0x3d07d24f	0.03315955
109	0xbbe83401	-0.0070862775
110	0xbbd64942	-0.0065394947
111	0xbd6add71	-0.05734009
112	0xbd820891	-0.0634929
113	0xbd590124	-0.052979603
114	0xbd53c9da	-0.051706173
115	0x3c1f292d	0.009714407
116	0xbc628200	-0.01382494
117	0xbcd2dc85	-0.025739918
118	0xbd6a833b	-0.057254057
119	0x3d4d7059	0.05015597
120	0xbb54a4a1	-0.003244676
121	0x3d090c43	0.03345896
122	0xbd565568	-0.052327543
123	0xbd1d8d3d	-0.038464773
124	0x3d184da1	0.037183408
125	0x3d28c788	0.041205913
126	0xbd32ddf0	-0.043668687
127	0x3d45068a	0.04810194
128	0x3d0c4a6a	0.034250654
129	0x3d524f56	0.051345192
130	0xbd4a6d25	-0.049420495
131	0xbd808473	-0.06275263
132	0xbd60f635	-0.0549223
133	0x3b32e789	0.002729865
134	0x3c9d1cfb	0.019178858
135	0xbc88271f	-0.016620217
136	0xbc7b667e	-0.01534426
137	0x3c897436	0.016779047
138	0xbd08f712	-0.03343875
139	0xbd28d90c	-0.041222617
140	0xbd5c6ae3	-0.053812873
141	0x3c5089b1	0.012728141
142	0xbd2fd976	-0.042931996
143	0x3c99c135	0.018768886
144	0xbbedabbd	-0.007253139
145	0xbd257004	-0.04039003
146	0x3d61ae26	0.05509772
147	0x3d0e15a7	0.034688618
148	0x3d451e5b	0.048124652
149	0xbd54c560	-0.051946044
150	0xbd1bc432	-0.038028903
151	0xbd048f94	-0.03236349
152	0x3bb7c991	0.0056087454
153	0x3cf93e9c	0.030425362
154	0xbd6e0fbe	-0.05812048
155	0x3c9a9e79	0.018874394
156	0x3d7d76ca	0.061880864
157	0x3d34d68c	0.04414992
158	0xbc6c47ae	-0.014421387
159	0x3ae2af79	0.0017294727
160	0xbbd1c53b	-0.0064016855
161	0x3d5d9679	0.05409858
162	0x3d536395	0.05160864
163	0xbbf68539	-0.0075232056
164	0xbd3b3de8	-0.045713335
165	0xbcbdc292	-0.023164067
166	0x3d19c5ac	0.03754203
167	0x3d363ee5	0.044493575
168	0x3d1355d8	0.03597054
169	0xbcd39d40	-0.025831819
170	0xbb228b0f	-0.0024802124
171	0x3c0c51dd	0.00856444
172	0x3cda7716	0.026668113
173	0xbd49f5a4	-0.049306527
174	0x3c7b7d51	0.015349702
175	0xbcbdfc45	-0.02319158
176	0xbc4e66f8	-0.012597792
177	0x3d0a97fe	0.033836357
178	0x3ccb85e4	0.024844117
179	0x3d63e2c1	0.05563617
180	0x3cfa83ce	0.030580427
181	0xbd34f5e1	-0.0441798
182	0xbb32521f	-0.0027209593
183	0xbd6b3d5e	-0.05743157
184	0xbbdbb949	-0.0067054373
185	0xbbc8d609	-0.0061290306
186	0x3bac01f0	0.0052492544
187	0x3c7a93d1	0.015294031
188	0x3c834940	0.01602614
189	0xbd6993c2	-0.05702568
190	0xbc85ecea	-0.016348321
191	0xbc4f0e0d	-0.012637627
192	0x3d1ff9eb	0.0390567
193	0xbd7d65b4	-0.06186457
194	0x3b4d3acc	0.0031315563
195	0xbd08d789	-0.033408675
196	0xbc64b7ad	-0.013959807
197	0xbd132c87	-0.035931136
198	0x3aaafdf1	0.0013045651
199	0x3cf92a00	0.030415535
200	0xbd10d8c5	-0.035362978
201	0xbca4efa0	-0.020133793
202	0x3d7f276d	0.06229346
203	0xbcac1076	-0.021003943
204	0x3c9b1d35	0.018934825
205	0xbd46ab17	-0.048503008
206	0x3d275eef	0.04086202
207	0xb9b24fd9	-0.00034010297
208	0xbc9d48e2	-0.019199792
209	0xbc942f48	-0.018088952
210	0x3d67f904	0.056633964
211	0x3d4c7b42	0.049922235
212	0xbd0f5976	-0.034997426
213	0xbd750b55	-0.05982526
214	0x3cbf7233	0.023369884
215	0xbb8de83b	-0.0043306625
216	0x3be6e9e2	0.007046924
217	0x3cf577ea	0.029964406
218	0xbd4acec2	-0.049513586
219	0x3ce6a014	0.028152503
220	0xbd06889a	-0.032845117
221	0x3c3e7a27	0.011625803
222	0xbbbed453	-0.005823651
223	0xbba24daf	-0.0049531083
224	0x3d2f9297	0.04286441
225	0xbc4ac129	-0.0123751545
226	0x3c74a8c9	0.01493282
227	0x3bd33c2d	0.0064463825
228	0x3d7306a1	0.059332494
229	0xbd45ea3c	-0.048319086
230	0x3d7cde73	0.06173558
231	0x3c85fbca	0.016355414
232	0xb9ea2a29	-0.0004466337
233	0xbbcdceff	-0.0062807794
234	0xbc03abb6	-0.008036545
235	0x3a9c2c7b	0.0011915112
236	0xbc9b3d2d	-0.01895007
237	0x3be7f4d0	0.0070787445
238	0x3d81b84d	0.06333981
239	0xbc433e52	-0.011916714
240	0x3cd49cab	0.025953611
241	0xbac1f2f9	-0.0014797143
242	0xbc9e33e4	-0.019311853
243	0xbc8ed090	-0.017433435
244	0x3c0055bb	0.00783294
245	0xbbbb8fd7	-0.005723934
246	0x3c18a506	0.009316688
247	0xbd5005fc	-0.050786957
248	0xbb5e148c	-0.0033886759
249	0xbd56de4b	-0.05245809
250	0xbd63ad8d	-0.055585433
251	0xbc085f3f	-0.00832349
252	0x3c111e5f	0.008857339
253	0x3d65ff37	0.056151595
254	0xbbb62d3f	-0.005559593
255	0x3c7c4937	0.015398315

fc3.bias f4 [128]
0	0x3ccca010	0.024978667
1	0xbd0f276f	-0.034949716
2	0x3d58bc85	0.05291416
3	0xbd44dbb8	-0.048061103
4	0x3c8a2264	0.016862102
5	0x3bfcdacb	0.007716512
6	0x3c2a2fa1	0.010387332
7	0xbcb1e53c	-0.021715753
8	0x3d8024d2	0.06257023
9	0x3c148806	0.009065634
10	0xbb8a5145	-0.004221114
11	0xbc25079d	-0.010072616
12	0x3cf1881a	0.029483844
13	0x3b9765ec	0.0046203043
14	0xbd3fcb5a	-0.04682479
15	0x3d2fcdce	0.04292088
16	0xbd0152b8	-0.031573027
17	0x3b9a44ab	0.004707893
18	0xbd3e8232	-0.046510883
19	0x3bc346fb	0.0059593893
20	0x3d706d7c	0.058698162
21	0xbd22197d	-0.03957509
22	0xbd5710c4	-0.052506223
23	0xbb50ead7	-0.0031878257
24	0xbd008e0d	-0.03138547
25	0xbd2b1ec8	-0.041777402
26	0x3d1b0c4e	0.03785353
27	0xbd6cedcc	-0.05784397
28	0xbcb71984	-0.022351034
29	0x3d643119	0.055710886
30	0x3c4ad151	0.0123790065
31	0x3d055c49	0.032558713
32	0xbd48dbd1	-0.04903776
33	0x3cf47b15	0.029843846
34	0x3c3cb020	0.011516601
35	0x3b185347	0.0023242997
36	0x3d1e969e	0.03871786
37	0xbcccd5e4	-0.025004335
38	0x3c4c075d	0.012452927
39	0x3d1e5bfa	0.038661934
40	0x3c214cea	0.009844998
41	0x3d5ef9c0	0.0544374
42	0x3d2f33f2	0.04277415
43	0x3d35ce6c	0.044386312
44	0xbcc8279b	-0.024432948
45	0x3cbc0e5c	0.022956066
46	0x3c117d8d	0.008880031
47	0x3d137c3b	0.036007147
48	0xb97fdfd9	-0.00024402085
49	0x3c8c1ec7	0.01710452
50	0xbd0b0f9f	-0.033950444
51	0x3d6e4c26	0.05817809
52	0x3aa3372c	0.0012452356
53	0xbd67a06b	-0.05654947
54	0xbcaec949	-0.021336215
55	0xbd7957c9	-0.060874734
56	0xbc7f4788	-0.015581019
57	0x3d1492bd	0.036272753
58	0x3d0d5004	0.034500137
59	0xbc8f9ee2	-0.017531816
60	0xbd237237	-0.039903846
61	0x3b80ce2f	0.003930829
62	0x3cbbac72	0.022909377
63	0xbb8c8332	-0.0042881006
64	0xbc009c6d	-0.007849795
65	0x3c9a96e7	0.018870784
66	0x3d3fbdd4	0.046811894
67	0x3d2f5330	0.042803943
68	0xbd3396de	-0.04384505
69	0xbd19008b	-0.037354033
70	0xbb9e062e	-0.004822514
71	0xbba4eff1	-0.005033486
72	0x3d282fc0	0.041061163
73	0x3d47764f	0.048696812
74	0xbba766dd	-0.005108698
75	0xbcd39035	-0.0258256
76	0x3d28a906	0.04117682
77	0x3ca3b39b	0.019983103
78	0x3d383c94	0.044979647
79	0x3d3e84f1	0.0465135
80	0xbd05f9b2	-0.03270883
81	0x3c10f10b	0.008846532
82	0xbd3f750d	-0.046742488
83	0xbd117639	-0.035513137
84	0xbd6d9a02	-0.0580082
85	0xbd132e1d	-0.03593265
86	0x3d5668e7	0.052346136
87	0x3d2277c7	0.03966501
88	0x3d54bd93	0.051938605
89	0xbd5b0a54	-0.053476647
90	0x3caaf5e4	0.020869203
91	0x3b703498	0.0036652442
92	0xbcf7bcd5	-0.03024141
93	0xbd0ac017	-0.033874597
94	0xbd65c070	-0.056091726
95	0x38093ba3	3.2718886e-05
96	0xbcb6ce3b	-0.022315135
97	0xbb9d32ee	-0.004797331
98	0x3ba043c0	0.004890889
99	0x3d63a222	0.055574544
100	0xbd80303a	-0.062591985
101	0xbcdbde63	-0.02683944
102	0x3c45683a	0.012048775
103	0x3c53641d	0.012902287
104	0xbb80f69b	-0.0039356477
105	0x3b816fda	0.0039501013
106	0xbd388d9b	-0.04505692
107	0xbc7d8f6c	-0.015476089
108	0x3cba175c	0.022716217
109	0xbcff718f	-0.031182079
110	0xbd75454f	-0.05988055
111	0x3ced590a	0.028973121
112	0x3d4c5ef3	0.049895238
113	0xbd0e38c0	-0.03472209
114	0x3c26aafa	0.0101726
115	0x3bb5f756	0.0055531664
116	0xbd33046e	-0.043705396
117	0x3d075732	0.03304214
118	0xbd793b3c	-0.060847506
119	0x3d53a6c4	0.051672712
120	0xbd09376d	-0.033500124
121	0x3c1e9754	0.009679634
122	0x3c8206cc	0.015872382
123	0x3c391583	0.011296633
124	0xbb4a40f8	-0.0030861478
125	0x3d6b8e3a	0.057508685
126	0x3c916a36	0.01775084
127	0xbd17ba2f	-0.037042793

bn1.weight f4 [512]
0	0x3f800440	1.0001297
1	0x3f7f2056	0.99658716
2	0x3f800ffb	1.0004877
3	0x3f7fc7da	0.99914324
4	0x3f7ff575	0.9998391
5	0x3f80265e	1.0011709
6	0x3f7f849b	0.99811715
7	0x3f7fbcca	0.99897444
8	0x3f7ff250	0.99979115
9	0x3f7fd6e5	0.9993728
10	0x3f7e8fa8	0.9943795
11	0x3f7ff132	0.9997741
12	0x3f8011fb	1.0005487
13	0x3f8015e4	1.000668
14	0x3f7f9880	0.9984207
15	0x3f7fed5c	0.99971557
16	0x3f7fe179	0.9995342
17	0x3f80191a	1.000766
18	0x3f8021b0	1.0010281
19	0x3f7fd1a3	0.99929255
20	0x3f7ff2ee	0.99980056
21	0x3f7fb7ae	0.9988965
22	0x3f7fefc6	0.9997524
23	0x3f80037c	1.0001063
24	0x3f8042a7	1.0020341
25	0x3f7ff448	0.9998212
26	0x3f7fe856	0.9996389
27	0x3f804074	1.001967
28	0x3f80210c	1.0010085
29	0x3f7fdb3b	0.99943894
30	0x3f801da4	1.0009046
31	0x3f8021b1	1.0010282
32	0x3f801582	1.0006564
33	0x3f801e51	1.0009252
34	0x3f7fa7c0	0.9986534
35	0x3f7fd0a8	0.9992776
36	0x3f801134	1.000525
37	0x3f7fffea	0.9999987
38	0x3f7fb7af	0.99889654
39	0x3f800dd7	1.0004224
40	0x3f802989	1.0012676
41	0x3f7f9c89	0.9984823
42	0x3f80007d	1.0000149
43	0x3f7febaa	0.9996897
44	0x3f7f392b	0.99696606
45	0x3f801623	1.0006756
46	0x3f801d65	1.000897
47	0x3f7fd850	0.9993944
48	0x3f7fb0c7	0.99879116
49	0x3f7f62ac	0.99759936
50	0x3f802f25	1.0014387
51	0x3f800f97	1.0004758
52	0x3f8010ac	1.0005088
53	0x3f8024ce	1.0011232
54	0x3f7f7c51	0.99799067
55	0x3f800f9b	1.0004762
56	0x3f7fcf99	0.99926144
57	0x3f7fdfe8	0.9995103
58	0x3f802344	1.0010762
59	0x3f803949	1.0017482
60	0x3f800c86	1.0003822
61	0x3f7f8acf	0.9982118
62	0x3f803202	1.0015261
63	0x3f7fd7a7	0.99938434
64	0x3f7fab58	0.99870825
65	0x3f800df3	1.0004257
66	0x3f8017d9	1.0007278
67	0x3f800564	1.0001645
68	0x3f7fb81c	0.99890304
69	0x3f7ffadd	0.9999216
70	0x3f7fa8c1	0.99866873
71	0x3f801c6b	1.0008672
72	0x3f803194	1.001513
73	0x3f801cc5	1.000878
74	0x3f8034a4	1.0016065
75	0x3f7fe86b	0.99964017
76	0x3f7ff0a7	0.9997658
77	0x3f7fa41d	0.9985979
78	0x3f7fea2a	0.9996668
79	0x3f80250c	1.0011306
80	0x3f8007c8	1.0002375
81	0x3f802c84	1.0013585
82	0x3f802f5b	1.0014452
83	0x3f80700d	1.0034195
84	0x3f7fb311	0.9988261
85	0x3f7fe340	0.9995613
86	0x3f7fddbf	0.9994773
87	0x3f802dc2	1.0013964
88	0x3f7fbceb	0.9989764
89	0x3f7fa2fb	0.99858063
90	0x3f801f62	1.0009577
91	0x3f802243	1.0010456
92	0x3f803c5f	1.0018424
93	0x3f7ffedc	0.9999826
94	0x3f803ac1	1.001793
95	0x3f800207	1.0000619
96	0x3f7fd7eb	0.9993884
97	0x3f804ca9	1.0023395
98	0x3f7ffb54	0.9999287
99	0x3f801e3c	1.0009227
100	0x3f801658	1.0006819
101	0x3f802556	1.0011394
102	0x3f800fce	1.0004823
103	0x3f800046	1.0000083
104	0x3f7fab8a	0.9987112
105	0x3f8030c1	1.0014879
106	0x3f8000c2	1.0000231
107	0x3f801627	1.000676
108	0x3f7fcfb9	0.99926335
109	0x3f7fa041	0.99853903
110	0x3f7fc26d	0.99906045
111	0x3f80078c	1.0002303
112	0x3f7fb5b3	0.99886626
113	0x3f7f9eec	0.9985187
114	0x3f7ff132	0.9997741
115	0x3f80397f	1.0017546
116	0x3f7f8b1c	0.9982164
117	0x3f7ff2f5	0.999801
118	0x3f8011e6	1.0005462
119	0x3f8006bc	1.0002055
120	0x3f7fdd66	0.999472
121	0x3f800914	1.000277
122	0x3f800af1	1.0003339
123	0x3f8007f7	1.0002431
124	0x3f7fb842	0.9989053
125	0x3f7f9606	0.9983829
126	0x3f7f471d	0.99717885
127	0x3f7ff26f	0.999793
128	0x3f7fa854	0.99866223
129	0x3f7fd158	0.9992881
130	0x3f7fef23	0.9997427
131	0x3f7ffde8	0.99996805
132	0x3f800f92	1.0004752
133	0x3f8032da	1.0015519
134	0x3f800686	1.0001991
135	0x3f7fbbbd	0.9989584
136	0x3f7f6fd5	0.9978002
137	0x3f7f97a7	0.9984078
138	0x3f7fdd7d	0.9994734
139	0x3f7f980e	0.9984139
140	0x3f7fdb8e	0.9994439
141	0x3f804998	1.0022459
142	0x3f800a6a	1.0003178
143	0x3f802ea8	1.0014238
144	0x3f800a9e	1.000324
145	0x3f7f72d3	0.9978458
146	0x3f803a99	1.0017883
147	0x3f802568	1.0011415
148	0x3f800817	1.0002469
149	0x3f801a15	1.000796
150	0x3f7ff2b4	0.9997971
151	0x3f8039c6	1.0017631
152	0x3f800177	1.0000447
153	0x3f802519	1.0011321
154	0x3f801069	1.0005008
155	0x3f7ff56c	0.9998386
156	0x3f8013c6	1.0006034
157	0x3f7f16b0	0.99643993
158	0x3f7f9ac6	0.9984554
159	0x3f7fe7a9	0.9996286
160	0x3f7ff506	0.9998325
161	0x3f801bc5	1.0008475
162	0x3f7fe9d5	0.99966174
163	0x3f7f0797	0.99620956
164	0x3f800dae	1.0004175
165	0x3f8016b0	1.0006924
166	0x3f7fea93	0.99967307
167	0x3f802e59	1.0014144
168	0x3f8035ca	1.0016415
169	0x3f800644	1.0001912
170	0x3f7fdd64	0.9994719
171	0x3f801d1f	1.0008887
172	0x3f801f49	1.0009547
173	0x3f800400	1.0001221
174	0x3f7fa0f5	0.99854976
175	0x3f7fc871	0.99915224
176	0x3f7ff18f	0.99977964
177	0x3f801b17	1.0008267
178	0x3f7fe57d	0.99959546
179	0x3f80085f	1.0002555
180	0x3f800a53	1.0003151
181	0x3f800d5d	1.0004078
182	0x3f7fbc58	0.99896765
183	0x3f7f892f	0.998187
184	0x3f801f07	1.0009469
185	0x3f80061f	1.0001868
186	0x3f801302	1.0005801
187	0x3f800feb	1.0004858
188	0x3f804922	1.0022318
189	0x3f7ff873	0.9998848
190	0x3f7fd8a7	0.9993996
191	0x3f80069d	1.0002018
192	0x3f7ff9b6	0.99990404
193	0x3f7f41e2	0.99709904
194	0x3f8014a1	1.0006295
195	0x3f7fc36b	0.9990756
196	0x3f80020c	1.0000625
197	0x3f800cc8	1.00039
198	0x3f7feb82	0.9996873
199	0x3f801bda	1.00085
200	0x3f800305	1.0000921
201	0x3f80277c	1.001205
202	0x3f7fe17f	0.99953455
203	0x3f801546	1.0006492
204	0x3f7fecfb	0.9997098
205	0x3f8009c1	1.0002977
206	0x3f7fe9bc	0.99966025
207	0x3f800529	1.0001575
208	0x3f801d6f	1.0008982
209	0x3f7ff138	0.99977446
210	0x3f7fd461	0.9993344
211	0x3f7fb4f6	0.998855
212	0x3f7f9c87	0.99848217
213	0x3f8045bf	1.0021285
214	0x3f800352	1.0001013
215	0x3f80054f	1.000162
216	0x3f7f2a94	0.99674344
217	0x3f7fd3de	0.9993266
218	0x3f7fe149	0.9995313
219	0x3f800f03	1.0004581
220	0x3f801e26	1.00092
221	0x3f801f58	1.0009565
222	0x3f7ffd98	0.9999633
223	0x3f801703	1.0007023
224	0x3f7faca4	0.99872804
225	0x3f7fa254	0.9985707
226	0x3f7ff171	0.99977785
227	0x3f801312	1.000582
228	0x3f7fa0f8	0.99854994
229	0x3f800ab7	1.000327
230	0x3f7ff785	0.9998706
231	0x3f7f5924	0.9974539
232	0x3f80188e	1.0007493
233	0x3f8018f8	1.000762
234	0x3f7ffc02	0.9999391
235	0x3f7ff205	0.9997867
236	0x3f7fe775	0.9996255
237	0x3f7ff9aa	0.9999033
238	0x3f7fdea4	0.999491
239	0x3f7fb2c9	0.9988218
240	0x3f802876	1.0012348
241	0x3f80047b	1.0001367
242	0x3f7fd02e	0.9992703
243	0x3f7fc64a	0.9991194
244	0x3f803f23	1.0019268
245	0x3f800569	1.0001651
246	0x3f7fdc8a	0.9994589
247	0x3f7fd6ba	0.9993702
248	0x3f801a22	1.0007975
249	0x3f80227b	1.0010523
250	0x3f7fee21	0.9997273
251	0x3f80390d	1.001741
252	0x3f801a56	1.0008037
253	0x3f800783	1.0002292
254	0x3f80142a	1.0006154
255	0x3f801cce	1.000879
