data/rl4wound_paper_res/ctr/models_map524/agent_ctr_True_ep_1029.pth (torch, 950255 bytes, 21 tensors)

fc1.weight f4 [512, 5]
-0.005314934 0.24112973 -0.36528778 -0.32538983 -0.17310958 0.1168734 -0.008536107 0.35539868
-0.03968827 0.11862957 -0.13453877 -0.08956859 -0.4264055 -0.29661298 -0.18165936 0.01757681
0.17782067 0.2663882 -0.30484983 -0.19581774 0.1629174 0.36806476 -0.092989266 0.33630553
-0.070184305 0.04568837 0.40695143 -0.41394964 -0.27730504 -0.11615196 -0.17469384 0.3837189
-0.28754434 -0.20867345 -0.30988577 -0.41859666 -0.25773123 0.38300952 0.20064895 0.21754439
0.024149444 -0.2272624 0.07302373 -0.41931397 -0.3246038 -0.23309834 0.28095517 0.26521012
-0.19518876 -0.013183775 0.283506 0.4460448 0.17696731 0.06148621 0.2960374 -0.2623359
0.08363855 -0.3464698 -0.3099239 -0.23177734 0.19893838 0.17839058 -0.26251507 0.13716589
0.24779487 -0.055745155 0.017168159 0.102523476 0.27417365 0.4324811 -0.34317482 -0.1643603
0.17503466 0.37335923 0.38726825 0.39517152 0.08835356 -0.38960263 0.041049752 -0.2789683
-0.41588506 0.3988638 0.3383881 -0.44777513 0.08192023 -0.076180175 -0.07042269 -0.20337382
0.17072085 -0.26656047 0.16249289 0.2278375 0.31893033 0.16791502 -0.44189754 -0.2900695
0.22146316 0.0936399 -0.34840587 -0.25852555 0.42101315 0.29803547 -0.19619305 -0.11044833
-0.4288229 -0.011394156 -0.3351286 -0.34746656 -0.024819192 0.06479812 -0.18240657 0.26631758
-0.2739577 0.40280065 0.31020483 -0.37584776 -0.11147609 0.02018583 0.066614546 0.10777643
0.17853115 0.02958591 -0.22059219 0.20795478 -0.43297833 -0.26342443 -0.10995875 -0.2191511
-0.15917312 -0.36597937 -0.091906525 0.09526923 -0.2925985 -0.02391282 0.31969228 -0.04579065
0.015415309 -0.040147208 0.08803251 0.28661767 0.42145568 0.2867641 0.42458412 -0.030873263
-0.4040145 -0.21355034 0.30066866 -0.0006733922 -0.22085111 -0.34248444 -0.4167604 -0.37681898
-0.092459366 0.24163595 0.24518903 -0.43278745 0.27804634 -0.34806022 -0.09428837 -0.18298118
-0.08617951 -0.092125595 -0.40044755 -0.38397345 -0.07245177 0.008933761 -0.20003068 0.16457471
-0.40664795 -0.03344381 0.3941408 -0.17960443 0.40292838 0.16133626 -0.4051353 0.28391957
-0.05191453 -0.1984128 0.35611132 -0.36335933 0.046950858 -0.09103214 0.31927022 0.12557475
0.21459758 0.1584237 -0.10434098 -0.096866846 -0.37262753 0.24117981 0.3564058 0.30639404
-0.31645182 0.018314095 -0.31545284 -0.24565907 -0.2592176 0.15184045 -0.2671595 -0.0108027505
0.017409798 0.29279494 -0.33855966 -0.30551973 -0.26090235 0.31425664 -0.16303062 0.37411034
0.16333653 0.05644629 -0.0031299747 -0.08410523 0.054656554 -0.10477754 -0.0059959725 0.05640946
-0.3546996 -0.23249282 0.3635404 -0.3602528 -0.027689716 0.44464114 0.15749136 0.009811177
-0.38801396 0.22149462 -0.32184872 -0.12529114 -0.14847627 -0.06245355 0.004638594 0.37334976
0.054177042 0.39807522 0.2738385 -0.2845585 0.20041911 -0.3159328 -0.18854198 0.13065943
0.14922985 0.33489913 -0.14406039 0.000113543596 0.23018469 -0.43094242 0.32443786 -0.3717769
0.004262335 -0.07520353 -0.23397914 0.057359777 0.36967734 -0.13103007 -0.26786122 -0.16644494
00000000: e628 aebb b6ea 763e 0007 bbbe 7f99 a6be
00000010: a343 31be 525b ef3d 07db 0bbc d1f6 b53e
00000020: 2b90 22bd 0ff4 f23d 88c4 09be bd6f b7bd
00000030: d251 dabe a8dd 97be e904 3abe 3efd 8f3c
00000040: 9f16 363e 0964 883e 4715 9cbe 7284 48be
00000050: d2d3 263e fc72 bc3e 2871 bebd 3d30 ac3e
00000060: cabc 8fbd ba23 3b3d f05b d03e 35f1 d3be
00000070: edfa 8dbe 14e1 edbd f1e2 32be ce76 c43e
00000080: 0339 93be 7eae 55be 59a9 9ebe 4d52 d6be
00000090: 59f5 83be d319 c43e eb76 4d3e f5c3 5e3e
000000a0: 0ed5 c53c 79b7 68be 778d 953d 52b0 d6be
000000b0: 7832 a6be 55b1 6ebe 5bd9 8f3e 9fc9 873e
000000c0: 90df 47be c300 58bc b327 913e fc5f e43e
000000d0: eb36 353e f7d8 7b3d 3792 973e e450 86be
000000e0: b04a ab3d 7d64 b1be 58ae 9ebe 0a57 6dbe
000000f0: 81b6 4b3e 05ac 363e 6068 86be 3775 0c3e
00000100: f0bd 7d3e 0855 64bd 3da4 8c3c d4f7 d13d
00000110: 7d60 8c3e 2a6e dd3e 9cb4 afbe 114e 28be
00000120: 493c 333e f128 bf3e 0648 c63e ec53 ca3e
00000130: b6f2 b43d ff79 c7be c923 283d efd4 8ebe
00000140: e3ee d4be e037 cc3e 3441 ad3e c842 e5be
00000150: cbc5 a73d 5a04 9cbd c539 90bd 3a41 50be
00000160: 72d1 2e3e 9d7a 88be 8964 263e 3c4e 693e
00000170: d64a a33e eaf1 2b3e 6540 e2be fd83 94be
00000180: 3dc7 623e 47c6 bf3d 4162 b2be 765d 84be
00000190: 098f d73e 1b98 983e d5e6 48be bc32 e2bd
000001a0: ad8e dbbe 8eae 3abc fa95 abbe 23e7 b1be
000001b0: 9e51 cbbc e0b4 843d cac8 3abe c75a 883e
000001c0: 2f44 8cbe e33b ce3e 2bd3 9e3e 1e6f c0be
000001d0: 944d e4bd c15c a53c 356d 883d e4b9 dc3d
000001e0: dfd0 363e 265e f23c ebe2 61be 19f2 543e
000001f0: 56af ddbe 91df 86be 0e32 e1bd 2569 60be
00000200: 47fe 22be a661 bbbe 7d39 bcbd 841c c33d
00000210: 78cf 95be d1e4 c3bc b5ae a33e fa8e 3bbd
00000220: 7e90 7c3c 6671 24bd 634a b43d 8dbf 923e
00000230: 0ac9 d73e bed2 923e 1763 d93e ede9 fcbc
00000240: fdda cebe f1ac 5abe 3ef1 993e 9686 30ba
00000250: cb26 62be 1f5a afbe 9f61 d5be 6bee c0be
00000260: 565b bdbd 6a6f 773e d512 7b3e 5196 ddbe
00000270: 175c 8e3e f334 b2be 431a c1bd 6b5f 3bbe
00000280: e27e b0bd 58ac bcbd 7607 cdbe 2b98 c4be
00000290: 9861 94bd e95e 123c d8d4 4cbe 4686 283e
000002a0: 2934 d0be 60fc 08bd d3cc c93e 39ea 37be
000002b0: a14c ce3e 5535 253e e56d cfbe e85d 913e
000002c0: 55a4 54bd ba2c 4bbe 3954 b63e 3c0a babe
000002d0: 8b4f 403d 0f6f babd 6377 a33e ab96 003e
000002e0: 78bf 5b3e d339 223e b9b0 d5bd 2062 c6bd
000002f0: 09c9 bebe d7f7 763e d27a b63e aedf 9c3e
00000300: f905 a2be 7107 963c 0983 a1be 0d8e 7bbe
00000310: 2bb8 84be 107c 1b3e 21c9 88be 05fe 30bc
00000320: fe9e 8e3c 38e9 953e b157 adbe 156d 9cbe
00000330: fe94 85be 3fe6 a03e 80f1 26be 648b bf3e
00000340: b141 273e 3a34 673d 4320 4dbb 5d3f acbd
00000350: 8ddf 5f3d 9b95 d6bd dd79 c4bb 9b0d 673d
00000360: 309b b5be 9912 6ebe f821 ba3e 0e73 b8be
00000370: 8bd5 e2bc 01a8 e33e 6a45 213e 0fbf 203c
00000380: c4a9 c6be 7ccf 623e 5bc9 a4be 524c 00be
00000390: 2a0a 18be 4bcf 7fbd 59ff 973b b327 bf3e
000003a0: bfe8 5d3d 84d0 cb3e 8f34 8c3e a7b1 91be
000003b0: ab3a 4d3e f2c1 a1be 2611 41be 96cb 053e
000003c0: b6cf 183e e677 ab3e 9184 13be 411e ee38
000003d0: 89b5 6b3e 7ca4 dcbe b81c a63e 8b59 bebe
000003e0: 0fab 8b3b 4f04 9abd 3a98 6fbe 16f2 6a3d
000003f0: 5946 bd3e bf2c 06be 1b25 89be 8b70 2abe

fc1.bias f4 [512]
-0.29449743 -0.31448334 0.2972085 -0.14579952 -0.028922008 0.13384014 -0.2764151 0.04151758
0.265011 -0.26228425 0.1298661 -0.015750786 0.24557135 0.296888 0.1157132 0.012085866
-0.38527387 0.17849979 0.2726467 -0.1630119 -0.44061536 0.36701983 -0.10476106 0.08698918
-0.12705421 0.28998697 0.4367061 0.2803263 -0.13922155 0.31589594 0.2162909 0.04451223
-0.360327 -0.19064526 -0.44349223 0.2987269 0.44186932 0.2598295 0.13932638 0.10572241
0.42965168 -0.22648023 -0.15055864 -0.39883757 -0.042856548 0.0272102 0.12260181 -0.31166637
-0.04948586 -0.37069386 -0.36206132 0.05877703 -0.43642277 0.120008975 -0.41382253 -0.31064135
-0.09227983 -0.4249388 0.3613217 0.36624712 -0.2298025 0.098919325 0.23182906 0.14197937
-0.057850003 -0.41822273 0.3271764 -0.39343664 -0.08042013 0.026347822 -0.1499808 -0.15746306
-0.387711 0.022129172 -0.04917701 0.39003465 -0.14674203 0.33925495 0.026659261 -0.20468928
-0.10691507 -0.054071084 0.005644985 -0.07926999 0.13265987 0.37171715 0.0709016 0.16184807
0.27851093 0.09553485 0.20614034 0.23440082 0.413658 -0.40864572 0.15351205 -0.020323547
-0.07979601 -0.16601054 0.26374307 0.4091142 -0.3648011 0.24056524 0.3123103 0.078208074
0.008148537 0.3437387 0.010230148 -0.11083243 -0.033722535 0.14057228 0.11077884 -0.018564245
0.13744356 0.12029266 -0.35757414 0.11118953 0.27422696 0.050237197 -0.04040504 0.34264332
-0.3903338 -0.20401767 -0.20137642 0.38609374 -0.43356988 0.050025586 -0.4377961 -0.015636457
0.16837683 -0.102383934 0.43408474 0.0025168522 -0.22765271 0.11546336 0.22733824 -0.00096324563
0.38261443 -0.2818457 0.19103509 0.24859136 0.22256202 0.0012208382 0.121932484 -0.34749448
-0.3452641 -0.027298734 -0.058706813 0.33227047 0.3303666 0.30510473 -0.20694086 -0.34961593
-0.41812837 0.16742383 -0.39936078 -0.44764912 -0.2231806 -0.3811912 -0.1804628 -0.2818919
-0.23070258 0.42549074 -0.08494957 0.3706053 0.008883952 -0.061340865 -0.13008682 -0.31811553
-0.3587236 0.30997375 -0.14013019 -0.43792963 0.40984592 0.009016173 -0.30095127 -0.3523368
-0.37320602 -0.39141506 0.40501526 0.30801505 0.036429822 -0.3831408 -0.11715366 -0.417864
0.15818818 -0.1201442 -0.095542245 -0.13960065 0.20930468 0.24731992 0.09681733 -0.06266401
-0.044219494 -0.007262829 -0.33502308 0.4314025 -0.19318743 0.2602648 -0.2510414 0.0077405
0.15279111 -0.41017565 0.20845327 -0.34605867 0.062331814 -0.08860208 0.25830668 0.43604752
0.09269216 -0.01289259 -0.21950847 0.16696075 -0.21341777 0.18326584 -0.19331619 0.30117574
0.34302607 0.27930602 0.0118985865 0.20484917 -0.41084284 0.36278397 -0.11552892 0.16376165
-0.07754968 -0.14615153 -0.20881788 0.2881119 -0.2449264 -0.08112924 0.22094122 0.04557414
-0.37438488 -0.4442106 -0.21783349 0.4087692 -0.31793535 0.2502922 0.32008934 -0.18675636
-0.19886148 -0.3215579 0.06920126 -0.063335255 0.021736128 0.194241 0.1911244 -0.14393455
0.03134992 0.11063851 0.010687658 0.0894829 -0.18029568 0.36686778 -0.048026845 -0.059715025
00000000: 5ec8 96be f603 a1be b62b 983e 784c 15be
00000010: d9ed ecbc 640d 093e 4886 8dbe 570e 2a3d
00000020: 86af 873e 1f4a 86be 9efb 043e cb07 81bc
00000030: 0e77 7b3e b401 983e 0bfb ec3d cc03 463c
00000040: 9e42 c5be a6c8 363e 5998 8b3e 97ec 26be
00000050: 5698 e1be 06ea bb3e f78c d6bd 6227 b23d
00000060: 801a 02be 2c79 943e f197 df3e ee86 8f3e
00000070: 1890 0ebe 1dbd a13e 5d7b 5d3e 7552 363d
00000080: c87c b8be 8338 43be 6a11 e3be bbf2 983e
00000090: b23c e23e 5f08 853e 93ab 0e3e fe84 d83d
000000a0: 4efb db3e 6fea 67be 0b2c 1abe 7034 ccbe
000000b0: 598a 2fbd ede7 de3c a816 fb3d bc92 9fbe
000000c0: afb1 4abd 96cb bdbe 1a60 b9be 2fc0 703d
000000d0: ce72 dfbe 44c7 f53d 8ce0 d3be 620c 9fbe
000000e0: 35fd bcbd 9491 d9be 28ff b83e be84 bb3e
000000f0: 5951 6bbe 3796 ca3d 9964 6d3e 0a63 113e
00000100: 20f4 6cbd 4a21 d6be aa83 a73e 8770 c9be
00000110: 4fb3 a4bd 63d7 d73c 9194 19be ff3d 21be
00000120: 0e82 c6be 3d48 b53c d56d 49bd 9fb2 c73e
00000130: 8b43 16be d3b2 ad3e 8664 da3c 119a 51be
00000140: 4af6 dabd a479 5dbd 91f9 b83b 4e58 a2bd
00000150: fdd7 073e b651 be3e dc34 913d 80bb 253e
00000160: fc98 8e3e c7a7 c33d 7416 533e c506 703e
00000170: fbca d33e 033a d1be 4332 1d3e 917d a6bc
00000180: 176c a3bd abfe 29be 5509 873e 6b77 d13e
00000190: 36c7 babe bc56 763e 23e7 9f3e 8e2b a03d
000001a0: 7181 053c 85fe af3e 5a9c 273c 1dfc e2bd
000001b0: a420 0abd 2ef2 0f3e 04e0 e23d 0b14 98bc
000001c0: 01be 0c3e 005c f63d f513 b7be 56b7 e33d
000001d0: 7a67 8c3e 85c5 4d3d c17f 25bd f26e af3e
000001e0: d5d9 c7be 02ea 50be 9f35 4ebe 14ae c53e
000001f0: dffc ddbe a1e7 4c3d cf26 e0be 0718 80bc
00000200: fa6a 2c3e abae d1bd 5b40 de3e c6f1 243b
00000210: cb1d 69be 0e78 ec3d 5bcb 683e 5282 7cba
00000220: 0ae6 c33e 144e 90be b49e 433e bc8e 7e3e
00000230: 4ce7 633e 8804 a03a bdb7 f93d ccea b1be
00000240: 75c6 b0be 98a1 dfbc 8e76 70bd 5b1f aa3e
00000250: d025 a93e b036 9c3e 4ee8 53be dc00 b3be
00000260: ec14 d6be 2771 2b3e 0479 ccbe 4432 e5be
00000270: 7589 64be 7e2b c3be 3ecb 38be 2354 90be
00000280: 4c3d 6cbe ecd9 d93e 0afa adbd fabf bd3e
00000290: ff8d 113c 8f40 7bbd 7b35 05be 0ae0 a2be
000002a0: 9faa b7be e1b4 9e3e 4a7e 0fbe 5038 e0be
000002b0: 53d7 d13e 92b8 133c 4916 9abe 7d65 b4be
000002c0: dc14 bfbe 8e67 c8be 295e cf3e 26b4 9d3e
000002d0: 7037 153d 082b c4be 42ee efbd 45f2 d5be
000002e0: 15fc 213e 2a0e f6bd a7ab c3bd 79f3 0ebe
000002f0: f753 563e 6f41 7d3e 2a48 c63d fd55 80bd
00000300: 801f 35bd 07fd edbb 2588 abbe cae0 dc3e
00000310: edd2 45be 6e41 853e 8088 80be 05a4 fd3b
00000320: 4675 1c3e 8b02 d2be c674 553e 9a2e b1be
00000330: a54f 7f3d 0275 b5bd c640 843e 9f41 df3e
00000340: 63d5 bd3d 713b 53bc d4c6 60be c2f7 2a3e
00000350: 308a 5abe 0aaa 3b3e aef4 45be b533 9a3e
00000360: 1da1 af3e 3301 8f3e 4af2 423c fbc3 513e
00000370: fe59 d2be d2be b93e 6d9a ecbd 22b1 273e
00000380: 5ed2 9ebd bfa8 15be 5bd4 55be 6783 933e
00000390: fccd 7abe 1627 a6bd 6a3e 623e f3ab 3a3d
000003a0: 60af bfbe 926f e3be be0f 5fbe 324a d13e
000003b0: 6cc8 a2be 4d26 803e c0e2 a33e 0f3d 3fbe
000003c0: 58a2 4bbe 3da3 a4be 64b9 8d3d eab5 81bd
000003d0: f70f b23c 1de7 463e 1db6 433e 9463 13be
000003e0: c668 003d 7196 e23d 491b 2f3c d042 b73d
000003f0: 6e9f 38be 18d6 bb3e ccb7 44bd be97 74bd

fc2.weight f4 [256, 512]
0.03995519 0.034527812 -0.039982922 -0.018431585 0.023466032 -0.026497668 0.0076035317 -0.017670756
0.007351196 0.02232581 0.012690382 0.030903215 -0.006859212 0.023874864 0.015441199 -0.014953088
-0.03218171 0.04148417 -0.01128706 0.032399483 0.02666069 -0.0032361532 -0.037498772 0.004745009
-0.020633483 0.011352718 -0.019231481 0.032219112 -0.037975933 -0.012227893 0.0077829883 0.0034116048
0.03494829 -0.01556097 -0.033631425 0.030057577 0.013431945 0.027540632 -0.02710334 -0.025524082
-0.019030116 0.0044304226 0.014893217 -0.024414042 -0.0019076088 -0.009347867 0.040355273 -0.017303128
0.041294497 -0.02796775 -0.016678296 -0.032062773 0.03416357 -0.028897464 0.017795434 -0.017472463
0.043343157 0.0050189947 -0.036821403 0.007254522 0.004130816 -0.041027527 0.009342557 0.042670794
0.010979612 0.00058388733 -0.0075659007 0.013084108 -0.018039336 0.04195146 0.03761341 0.018848347
-0.017606309 -0.04285788 -0.026412861 0.04438294 -0.039373267 -0.04368457 -0.004488435 0.01248189
-0.04492318 -0.040878527 0.0018371139 -0.016900092 0.031321526 0.011188693 -0.036714632 -0.03920496
0.032066412 -0.0062555373 -0.01755171 0.012447979 -0.009751183 0.019754391 0.010288328 -0.018631183
-0.035784822 0.026208218 -0.028271774 -0.005900466 0.007056036 -0.025436185 0.022698106 -0.029655157
0.0093950145 0.004939724 0.01489576 -0.044943284 0.0011880554 0.01938453 -0.02734339 0.011767735
0.0018993057 0.036403928 -0.010771581 -0.0014358724 -0.020346805 -0.009698133 0.011801922 -0.041547943
0.034078036 0.03054926 0.019330662 0.033273954 -0.014912357 0.008893567 0.00047821386 -0.032052938
-0.015212698 -0.01738364 -0.010195636 -0.038548745 -0.03183547 -0.005351302 -0.005887112 -0.039161146
0.007454031 0.022722827 0.038281888 0.036292452 -0.031256177 -0.014483625 -0.022533683 0.008351267
0.010330764 0.009297577 0.026218778 0.022726575 -0.022841383 0.029152824 0.03141889 0.007063376
-0.03949501 -0.026147202 0.013031012 0.016161973 0.043188535 0.020885972 0.017659377 -0.0027229693
0.029045446 -0.017310698 0.016666995 -0.020228973 -0.00036578748 0.025182651 0.019353522 -0.0114810495
-0.0015397603 -0.023320561 0.019018458 0.031060949 0.01355362 -0.044360578 -0.032883957 0.028833041
-0.007317033 0.025424568 0.03454155 -0.013250406 -0.025061883 -0.040694226 0.015064791 0.02130504
-0.009305489 -0.043614484 -0.030160334 -0.0025504087 0.020596426 -0.015040462 -0.03004078 -0.03200029
0.039553165 0.014431745 -0.034156073 -0.028795576 -0.03756035 0.005249583 -0.019600725 -0.0011460754
-0.008609659 -0.0400781 -0.040899232 -0.035724625 -0.019448688 0.0071536847 -0.02229745 -0.0032894516
-0.006606655 0.038979728 -0.018446444 0.043404292 -0.03202344 -0.038404074 0.012409098 -0.024294427
0.022695746 -0.024612337 0.035429645 0.04156613 0.0045209373 0.008054518 0.042827133 0.025038576
-0.03794297 -0.0007581638 -0.03806334 0.03560318 -0.009582413 0.0005719814 -0.02885425 -0.023042383
0.00531364 0.0379321 -0.023457171 0.0056338045 0.039003093 0.04135334 -0.006866312 0.042065434
0.014862588 0.041653868 0.0008938595 -0.037611023 -0.013101879 0.014864777 0.022102654 -0.04209728
0.03350865 -0.038228642 0.02448858 0.04217274 0.011338401 -0.0071788286 0.023052316 -0.012056351
00000000: 0ea8 233d 096d 0d3d 22c5 23bd d6fd 96bc
00000010: d63b c03c a311 d9bc 0c27 f93b 43c2 90bc
00000020: 4de2 f03b 9ee4 b63c 52eb 4f3c bd28 fd3c
00000030: 3ec3 e0bb 3895 c33c 15fd 7c3c ccfd 74bc
00000040: f8d0 03bd 4eeb 293d 5ced 38bc 52b5 043d
00000050: 8567 da3c a415 54bb 5098 19bd 057c 9b3b
00000060: 8d07 a9bc c000 3a3c 578b 9dbc 30f8 033d
00000070: a78c 1bbd 8057 48bc 7008 ff3b 3b95 5f3b
00000080: f025 0f3d 70f3 7ebc 1bc1 09bd 4f3b f63c
00000090: a911 5c3c e49c e13c d307 debc e117 d1bc
000000a0: 0ce5 9bbc 142d 913b ae02 743c f5ff c7bc
000000b0: bb08 faba cc27 19bc 924b 253d 4abf 8dbc
000000c0: 6b24 293d 9f1c e5bc eca0 88bc 4154 03bd
000000d0: 19ef 0b3d 60ba ecbc bbc7 913c 6922 8fbc
000000e0: 9888 313d 6176 a43b 0ad2 16bd 57b7 ed3b
000000f0: cc5b 873b 7b0c 28bd 8611 193c 92c7 2e3d
00000100: d5e3 333c 0410 193a 60eb f7bb ba5e 563c
00000110: 3bc7 93bc 4bd5 2b3d 8510 1a3d d967 9a3c
00000120: 1b3b 90bc bf8b 2fbd c95f d8bc e3ca 353d
00000130: dd45 21bd 97ee 32bd b913 93bb d780 4c3c
00000140: 5e01 38bd 3e70 27bd 50cb f03a 1072 8abc
00000150: 004b 003d c850 373c 1562 16bd 6195 20bd
00000160: 1258 033d 40fb ccbb 9bc8 8fbc 9cf2 4b3c
00000170: 6dc3 1fbc f6d3 a13c 6090 283c 6ca0 98bc
00000180: 1b93 12bd 9eb2 d63c 359a e7bc b258 c1bb
00000190: 5236 e73b 8c5f d0bc 61f1 b93c 5fef f2bc
000001a0: 8ced 193c 69dd a13b 590d 743c 7316 38bd
000001b0: 86b8 9b3a 4ecc 9e3c 3fff dfbc 75cd 403c
000001c0: 20f2 f83a 491c 153d 497b 30bc e233 bcba
000001d0: 58ae a6bc ebe4 1ebc d95c 413c 2d2e 2abd
000001e0: 6995 0b3d 7142 fa3c 565b 9e3c 454a 083d
000001f0: f552 74bc 53b6 113c c7b8 fa39 f149 03bd
00000200: ae3e 79bc 2368 8ebc 990b 27bc 4ae5 1dbd
00000210: e965 02bd fa59 afbb ade8 c0bb 7067 20bd
00000220: f240 f43b 3925 ba3c 78cd 1c3d 65a7 143d
00000230: 7a06 00bd ba4c 6dbc 8f98 b8bc c1d3 083c
00000240: 5d42 293c dd54 183c c3c8 d63c 152d ba3c
00000250: da1d bbbc e7d1 ee3c 18b1 003d e473 e73b
00000260: 85c5 21bd a832 d6bc 0780 553c 1d66 843c
00000270: 76e6 303d 0f19 ab3c 66aa 903c d873 32bb
00000280: b7f0 ed3c 2acf 8dbc 3989 883c 3bb7 a5bc
00000290: 2ac7 bfb9 d94b ce3c 478b 9e3c 031b 3cbc
000002a0: c8d1 c9ba c30a bfbc 99cc 9b3c 8873 fe3c
000002b0: 0110 5e3c 70b3 35bd 54b1 06bd 4533 ec3c
000002c0: b9c3 efbb 2f47 d03c 717b 0d3d 3b18 59bc
000002d0: 944e cdbc fdae 26bd 50d2 763c e887 ae3c
000002e0: 0d76 18bc 1aa5 32bd ce12 f7bc c224 27bb
000002f0: d6b9 a83c 456c 76bc 1518 f6bc bc12 03bd
00000300: 8002 223d 2073 6c3c 3de7 0bbd b3e4 ebbc
00000310: e2d8 19bd b204 ac3b b391 a0bc e937 96ba
00000320: 870f 0dbc ef28 24bd f485 27bd fc53 12bd
00000330: db52 9fbc 7569 ea3b 24a9 b6bc d793 57bb
00000340: a47c d8bb 35a9 1f3d ff1c 97bc b3c8 313d
00000350: 032b 03bd 974d 1dbd 884f 4b3c 1b05 c7bc
00000360: 6eec b93c d09f c9bc ad1e 113d 3f41 2a3d
00000370: 5f24 943b 19f7 033c 816b 2f3d b31d cd3c
00000380: 166a 1bbd 83bf 46ba 4ee8 1bbd a4d4 113d
00000390: 8eff 1cbc 06f1 153a c05f ecbc 61c3 bcbc
000003a0: 0b1e ae3b b15e 1b3d 4129 c0bc c79b b83b
000003b0: b5c1 1f3d 1f62 293d cdfe e0bb ce4c 2c3d
000003c0: 3682 733c 3f9d 2a3d e551 6a3a 040e 1abd
000003d0: 43a9 56bc 658b 733c a010 b53c 336e 2cbd
000003e0: 5e40 093d a395 1cbd 469c c83c 53bd 2c3d
000003f0: b3c4 393c 613c ebbb 36d8 bc3c 0088 45bc

fc2.bias f4 [256]
-0.01300366 0.033136446 -0.02998871 -0.03798469 -0.022530928 0.025436494 -0.032298658 0.032326803
0.03198513 0.032663967 0.010754178 0.013702193 0.014699298 0.03282679 -0.013886194 0.042902283
-0.046015702 -0.03868285 -0.031752575 0.034974582 -0.0064782994 -0.0337441 -0.027691802 -0.0016409325
0.013370621 0.03992513 0.0202359 0.004642089 -0.0022214178 0.027382337 -0.011035338 -0.005250439
0.0388095 -0.031566344 0.023192123 -0.029029854 -0.039137945 0.017182391 -0.037239313 0.035433814
-0.016907955 -0.03775945 -0.043094367 0.036464103 -0.043929312 0.017888675 -0.023910964 0.013784913
0.029692804 -0.010934536 0.028551899 -0.015275899 0.0062285806 -0.029775029 0.026034169 0.00760833
0.003682399 0.030181382 -0.04023436 0.017194886 -0.0065301363 -0.016798642 -0.006714507 0.0018785335
0.03605289 -0.041697107 0.01898927 0.019763838 -0.040265027 -0.009625122 -0.015508973 0.03321836
-0.03272698 0.026943073 0.016410694 0.038135882 0.035623383 -0.0025763966 -0.022315752 0.042884782
-0.017079672 -0.0038540368 0.015840776 0.025765957 0.028508686 -0.020480538 0.026990546 -0.017633466
0.0019391258 -0.044137236 -0.0026929458 -0.010838033 -0.0011126194 0.036088634 -0.013662492 0.014819277
-0.025934901 0.028314488 -0.016660132 0.018358326 0.024017494 0.023232961 0.034167178 -0.03417366
-0.0022085472 -0.0061314055 -0.041053504 -0.0045804675 0.048588715 -0.013853692 0.03754376 -0.010973792
-0.026220405 0.029797329 -0.014774937 0.035468508 -0.043316964 -9.505494e-05 -0.021925125 -0.04255385
0.016391408 -0.044622988 0.03999193 0.019513031 -0.0248327 -0.019089023 -0.0029404385 0.03644379
-0.013093579 0.036353588 -0.02991683 0.004800164 0.04581316 0.020791555 -0.007493296 0.019698588
0.0034012005 0.012125091 0.021779433 0.041350823 -0.023863306 0.03435301 0.0055220015 0.03702941
0.009063717 0.000980588 0.021113448 0.017821888 0.030970514 -0.026512036 0.035030745 0.031361703
0.042921 -0.0407959 -0.045210525 -0.02814117 -0.021490319 0.028389852 0.011078131 -0.016828062
0.008041282 -0.01540636 -0.025338054 0.042524826 0.010734331 0.037475068 0.037780147 -0.024171919
-0.03740557 -0.036441043 0.024206543 -0.02694285 0.006551133 0.0010496695 -0.030821413 -0.00018551004
-0.012561346 -0.01297404 -0.03887821 -0.018622508 -0.011941334 -0.034944408 -0.037931915 -0.028546095
-0.0052026124 -0.043053556 0.015595606 -0.030447938 -0.025066443 -0.023356654 0.014645078 0.028729962
0.005549232 0.024301127 0.009933408 2.4222929e-05 0.020291194 -0.039940592 -0.027536422 0.04513014
0.007905722 -0.03964367 0.0066080485 -0.037727673 -0.01719539 -0.011261196 -0.027980471 -0.03991698
-0.008138041 -0.007267392 -0.029684065 -0.002767284 -0.036262017 0.03664168 -0.008242483 0.04130991
0.009059632 -0.041501366 0.0455178 0.028741522 -0.011105842 0.022725832 -0.027014092 -0.02722437
-0.02456568 0.027194522 -0.0069981427 -0.0018837007 -0.038461845 0.019614536 0.0048871874 -0.043387916
0.009921303 0.00018870822 0.011509552 -0.031825483 -0.027147733 -0.0031159832 0.0019552438 0.033129167
0.034374587 0.007975556 -0.0025934353 -0.004163186 0.03161393 -0.039044496 0.025919195 -0.028808134
-0.023777924 -0.02236972 -0.035876777 0.008697356 -0.012497838 -0.008043615 -0.029294567 0.034372903
00000000: 4e0d 55bc 15ba 073d e2aa f5bc d695 1bbd
00000010: c892 b8bc 3260 d03c 994b 04bd 1c69 043d
00000020: d702 033d a7ca 053d 4b32 303c 2a7f 603c
00000030: 53d5 703c 6275 063d eb82 63bc 4eba 2f3d
00000040: f67a 3cbd e871 1ebd fd0e 02bd 8241 0f3d
00000050: ea47 d4bb 4137 0abd ebd9 e2bc 8f14 d7ba
00000060: 7310 5b3c 8888 233d c2c5 a53c aa1c 983b
00000070: 3595 11bb ec50 e03c 90cd 34bc e00b acbb
00000080: b6f6 1e3d b64b 01bd 68fd bd3c 04d0 edbc
00000090: 1c4f 20bd 16c2 8c3c 4088 18bd 0c23 113d
000000a0: 8d82 8abc a7a9 1abd b883 30bd 625b 153d
000000b0: 39ef 33bd 458b 923c ede0 c3bc 1eda 613c
000000c0: 533e f33c c526 33bc ace5 e93c c447 7abc
000000d0: 1f19 cc3b c3ea f3bc 9c45 d53c 4c4f f93b
000000e0: 6754 713b f23e f73c c9cc 24bd 4adc 8c3c
000000f0: c1fa d5bb 4e9d 89bc 5e05 dcbb 2039 f63a
00000100: 32ac 133d 96ca 2abd 638f 9b3c c6e7 a13c
00000110: f1ec 24bd b0b2 1dbc 5919 7ebc fa0f 083d
00000120: ba0c 06bd b8b7 dc3c b86f 863c 5f34 1c3d
00000130: d3e9 113d c3d8 28bb 86cf b6bc f4a7 2f3d
00000140: abea 8bbc 0294 7cbb 84c4 813c 2113 d33c
00000150: 0c8b e93c cdc6 a7bc 471b dd3c 0f74 90bc
00000160: 442a fe3a 3fc9 34bd 227c 30bb 0192 31bc
00000170: 50d5 91ba add1 133d a5d8 5fbc 8ecc 723c
00000180: 6e75 d4bc c9f3 e73c d47a 88bc 3364 963c
00000190: 56c0 c43c 0d53 be3c e2f2 0b3d aef9 0bbd
000001a0: 46bd 10bb f5e9 c8bb b827 28bd bf17 96bb
000001b0: f604 473d 99fa 62bc 7cc7 193d 6bcb 33bc
000001c0: 2dcc d6bc 8719 f43c 9412 72bc 6d47 113d
000001d0: 216d 31bd 3b58 c7b8 529c b3bc f24c 2ebd
000001e0: 4647 863c 98c6 36bd 94ce 233d cbd9 9f3c
000001f0: f26d cbbc 9560 9cbc 5fb4 40bb 1546 153d
00000200: 7386 56bc 80e7 143d 2414 f5bc b24a 9d3b
00000210: 94a6 3b3d 0d53 aa3c 538a f5bb ef5e a13c
00000220: ade6 5e3b 51a8 463c c86a b23c 7b5f 293d
00000230: fb7c c3bc beb5 0c3d e8f1 b43b 27ac 173d
00000240: fc7f 143c 1387 803a 1cf6 ac3c 35ff 913c
00000250: e0b5 fd3c c52f d9bc 667c 0f3d 2175 003d
00000260: eecd 2f3d 9a19 27bd ac2e 39bd 5088 e6bc
00000270: 770c b0bc d691 e83c 0d81 353c 01db 89bc
00000280: 95bf 033c f56a 7cbc c091 cfbc 832e 2e3d
00000290: 0cdf 2f3c 757f 193d 5bbf 1a3d 3004 c6bc
000002a0: 9536 19bd 3443 15bd cd4c c63c 40b7 dcbc
000002b0: e3aa d63b 1095 893a 307d fcbc 7985 42b9
000002c0: 1bce 4dbc 1191 54bc c23e 1fbd 3b8e 98bc
000002d0: 96a5 43bc de21 0fbd 7f5e 1bbd 80d9 e9bc
000002e0: ad7a aabb ed58 30bd b684 7f3c f46d f9bc
000002f0: 2458 cdbc 7456 bfbc e9f1 6f3c 195b eb3c
00000300: 55d6 b53b 2813 c73c bcbf 223c 5832 cb37
00000310: b839 a63c bf98 23bd 1094 e1bc 62da 383d
00000320: 0087 013c 6761 22bd 5488 d83b 5588 1abd
00000330: 59dd 8cbc e180 38bc 4d37 e5bc fd7f 23bd
00000340: 6b55 05bc 4d23 eebb ff2b f3bc 525b 35bb
00000350: 7b87 14bd 9615 163d 7b0b 07bc 9534 293d
00000360: da6e 143c 56fd 29bd df70 3a3d 5773 eb3c
00000370: 47f5 35bc 862b ba3c a84c ddbc a405 dfbc
00000380: f73d c9bc 0cc7 de3c ad50 e5bb 82e6 f6ba
00000390: 2b8a 1dbd aaae a03c b324 a03b 87b7 31bd
000003a0: f68c 223c fadf 4539 8f92 3c3c 705b 02bd
000003b0: ec64 debc 8635 4cbb 8c23 003b 73b2 073d
000003c0: 5ecc 0c3d e8ab 023c a0f6 29bb 566b 88bb
000003d0: 9c7d 013d 1fed 1fbd 7e54 d43c 09ff ebbc
000003e0: ecc9 c2bc b440 b7bc 87f3 12bd 5b7f 0e3c
000003f0: bbc3 4cbc 5ec9 03bc 29fb efbc 9aca 0c3d

fc3.weight f4 [128, 256]
-0.01660116 -0.035643578 0.027490927 0.051292304 -0.018786345 -0.05795122 0.02774522 0.043298416
0.033140387 0.046278097 0.042229038 -0.04793875 -0.046299405 0.031046296 0.00033214063 0.03975198
0.046219215 -0.010534091 -0.05969899 0.009557449 0.027664827 0.024694173 0.0038548016 -0.01761263
0.045511235 0.03996938 0.055972848 -0.033894766 -0.021327754 0.027650176 0.05107596 0.06454816
-0.04950424 0.01957005 0.020505136 -0.038083225 -0.00987721 0.023312217 -0.01577706 0.042993296
-0.009467698 -0.008213757 0.01804444 -0.023040064 -0.03734188 0.049701855 0.011343608 -0.052042194
0.050154142 0.03385881 -0.010997496 -0.028991349 -0.023323178 -0.025095245 0.05158253 0.010713285
0.0034362148 -0.02413132 0.06041693 -0.05326718 -0.05079448 -0.037142973 0.050983313 0.025186239
-0.05894299 -0.046017412 -0.009830917 0.04346804 0.0027725312 0.065167114 -0.049315732 0.025204733
-0.015870994 0.014569129 -0.014866079 -0.04178354 -0.05599003 -0.046337552 -0.035170402 -0.055999007
0.014574859 -0.014802561 0.0041260864 -0.023178315 -0.05096012 -0.046817563 -0.024176624 -0.060204864
0.03406743 0.037021548 -0.03780222 0.018605318 -0.04073814 -0.023139266 -0.017800989 -0.042026687
0.02593507 0.016306901 0.0074972343 0.008112976 -0.056134105 0.014265626 0.045151804 -0.03425645
-0.055111066 -0.00021086729 0.029306058 0.013372133 0.033027705 -0.007043828 -0.0065298346 -0.057349324
-0.06349179 -0.053010225 -0.051693052 0.009644942 -0.013852508 -0.025766766 -0.057176303 0.050140683
-0.003235021 0.033490103 -0.052382626 -0.038476236 0.037026018 0.04119302 -0.043681964 0.048091345
0.03424694 0.051306885 -0.049413007 -0.06278078 -0.054921497 0.0026627765 0.01916132 -0.016614094
-0.015404198 0.016734129 -0.033493835 -0.041140128 -0.05385392 0.012695189 -0.04293561 0.018754283
-0.00725482 -0.040428925 0.055125043 0.03471965 0.048212066 -0.05196735 -0.038078435 -0.032391652
0.0056053093 0.03035848 -0.05807821 0.018942434 0.06180973 0.044139482 -0.014351406 0.0017727824
-0.00636697 0.054119445 0.051627222 -0.00744353 -0.045829855 -0.023081 0.03755129 0.044439998
0.035949074 -0.025828512 -0.0024264278 0.008493192 0.026661389 -0.049300317 0.015325509 -0.023240583
-0.012573676 0.033676602 0.024878792 0.055593494 0.030617036 -0.04421438 -0.0027173795 -0.057474874
-0.0066909716 -0.006182247 0.0052348524 0.015391065 0.015965262 -0.057028696 -0.016299283 -0.012610413
0.039014064 -0.061852552 0.0031403934 -0.033408575 -0.013982237 -0.035777237 0.0012676982 0.03042434
-0.035319887 -0.020163419 0.062233873 -0.020992344 0.018894516 -0.048523802 0.040848058 -0.00037906866
-0.019155638 -0.018165378 0.056619797 0.04990756 -0.035143297 -0.059811346 0.023337953 -0.0043564574
0.0070468322 0.029912405 -0.049606908 0.028288051 -0.032909073 0.011695863 -0.0058349106 -0.004935258
0.042824555 -0.012340263 0.01490357 0.0064403135 0.0593137 -0.04824822 0.061694514 0.01635596
-0.00035490532 -0.006329062 -0.00807116 0.0012336131 -0.018977093 0.0070638936 0.0632671 -0.011963188
0.02595595 -0.0014366714 -0.01926952 -0.0174898 0.0077960473 -0.0056814575 0.009259173 -0.050801627
-0.0034423275 -0.052441288 -0.055627797 -0.008370428 0.008789988 0.056142688 -0.005475049 0.01543201
00000000: 28ff 87bc 00ff 11bd a734 e13c e117 523d
00000010: d2e5 99bc 425e 6dbd f249 e33c ae59 313d
00000020: 37be 073d 1a8e 3d3d 5bf8 2c3d 6c5b 44bd
00000030: 72a4 3dbd cd54 fe3c 2923 ae39 f9d2 223d
00000040: 5c50 3d3d 2e97 2cbc ee86 74bd d996 1c3c
00000050: 59a1 e23c 6f4b ca3c d7a0 7c3b 5d48 90bc
00000060: fd69 3a3d efb6 233d c943 653d 3dd5 0abd
00000070: 8bb7 aebc 9f82 e23c 0735 513d d331 843d
00000080: f5c4 4abd 5f51 a03c 63fa a73c 28fd 1bbd
00000090: 05d4 21bc 43f9 be3c e53e 81bc bd19 303d
000000a0: 671e 1bbc fe92 06bc efd1 933c 84be bcbc
000000b0: cdf3 18bd 2c94 4b3d 8ada 393c 322a 55bd
000000c0: 6e6e 4d3d 89af 0a3d d72e 34bc 447f edbc
000000d0: 4010 bfbc 8b94 cdbc 3448 533d c686 2f3c
000000e0: 1e32 613b 0caf c5bc be77 773d b02e 5abd
000000f0: df0d 50bd 3b23 18bd e1d3 503d 5f53 ce3c
00000100: 346e 71bd c17c 3cbd db11 21bc 8b0b 323d
00000110: 5bb3 353b 5676 853d 4bff 49bd 287a ce3c
00000120: e303 82bc 5bb3 6e3c db90 73bc 3825 2bbd
00000130: cd55 65bd 72cc 3dbd d70e 10bd 375f 65bd
00000140: 64cb 6e3c 7186 72bc 1f34 873b 73e0 bdbc
00000150: 8fbb 50bd c6c3 3fbd 0e0e c6bc 6099 76bd
00000160: 4a8a 0b3d e8a3 173d 80d6 1abd 2e6a 983c
00000170: 09dd 26bd 8f8e bdbc 61d3 91bc 2d24 2cbd
00000180: c975 d43c 0d96 853c 5cab f53b 4aec 043c
00000190: e0ec 65bd 5fba 693c 19f1 383d 7e50 0cbd
000001a0: 24bc 61bd 421c 5db9 4213 f03c ca16 5b3c
000001b0: 0f48 073d e9cf e6bb 39f8 d5bb 20e7 6abd
000001c0: fc07 82bd 4021 59bd 18bc 53bd d205 1e3c
000001d0: a1f5 62bc d314 d3bc b331 6abd 5160 4d3d
000001e0: a502 54bb eb2c 093d 2a8f 56bd 4299 1dbd
000001f0: 98a8 173d 03ba 283d dceb 32bd 6efb 443d
00000200: 8546 0c3d 2b27 523d 4b65 4abd 3693 80bd
00000210: 5df5 60bd fa81 2e3b 33f8 9c3c 481a 88bc
00000220: e461 7cbc 0316 893c d530 09bd 8d82 28bd
00000230: ee95 5cbd 7bff 4f3c 40dd 2fbd 95a2 993c
00000240: d7b9 edbb cd98 25bd ccca 613d 3136 0e3d
00000250: 047a 453d b7db 54bd 22f8 1bbd 1cad 04bd
00000260: beac b73b 59b2 f83c 6be3 6dbd 2a2d 9b3c
00000270: 332c 7d3d 9acb 343d 2922 6bbc b55c e83a
00000280: 04a2 d0bb 5aac 5d3d 1177 533d dbe8 f3bb
00000290: 16b8 3bbd 5e14 bdbc 62cf 193d b706 363d
000002a0: 563f 133d 5196 d3bc b404 1fbb 0727 0b3c
000002b0: fc68 da3c 21ef 49bd d817 7b3c 0963 bebc
000002c0: d201 4ebc 7af0 093d 9cce cb3c 01b6 633d
000002d0: 94d0 fa3c 231a 35bd 1016 32bb c66a 6bbd
000002e0: f03f dbbb 7294 cabb 2089 ab3b ce2a 7c3c
000002f0: 95c9 823c ec96 69bd 1386 85bc e89b 4ebc
00000300: 36cd 1f3d 1a59 7dbd 0fcf 4d3b 6ed7 08bd
00000310: c115 65bc 278b 12bd e528 a63a 773c f93c
00000320: 96ab 10bd c12d a5bc f2e8 7e3d 23f8 abbc
00000330: acc8 9a3c e5c0 46bd 4b50 273d bcbd c6b9
00000340: 49ec 9cbc 8fcf 94bc 29ea 673d df6b 4c3d
00000350: 6bf2 0fbd befc 74bd 3c2f bf3c 9dc0 8ebb
00000360: 1de9 e63b dc0a f53c 9d30 4bbd 58bc e73c
00000370: aacb 06bd 01a0 3f3c c732 bfbb f2b7 a1bb
00000380: cd68 2f3d d12e 4abc 1a2e 743c 4409 d33b
00000390: ecf2 723d ed9f 45bd 63b3 7c3d effc 853c
000003a0: 9612 bab9 0564 cfbb e63c 04bc 30b1 a13a
000003b0: d975 9bbc 3c78 e73b 2e92 813d 3f01 44bc
000003c0: 93a1 d43c b14e bcba 1ddb 9dbc c546 8fbc
000003d0: fc75 ff3b 852b babb c9b3 173c 5e15 50bd
000003e0: ac98 61bb adcc 56bd f9d9 63bd 1f24 09bc
000003f0: e203 103c e0f5 653d 0a68 b3bb 8bd6 7c3c

fc3.bias f4 [128]
0.024987493 -0.034964412 0.052786056 -0.04793977 0.01659453 0.007732582 0.010312601 -0.021702286
0.062469993 0.008984305 -0.004210831 -0.010401361 0.029191187 0.0044889115 -0.046850987 0.042952728
-0.03165388 0.0046837917 -0.046560086 0.00599171 0.058699396 -0.03925818 -0.052574087 -0.0033332154
-0.031382743 -0.041853394 0.038059834 -0.057846777 -0.02243225 0.055666078 0.012369786 0.032357093
-0.049226318 0.030062113 0.011486567 0.0024351538 0.038724888 -0.02498935 0.012430031 0.03866036
0.009786019 0.05437764 0.0426512 0.044400144 -0.024460599 0.022898678 0.0087731425 0.035833262
-0.00031063784 0.01712246 -0.03394537 0.058081668 0.0011890447 -0.056592274 -0.021342129 -0.06082034
-0.015711762 0.036281027 0.03443668 -0.017561805 -0.039953265 0.0039787046 0.02292923 -0.004349549
-0.007813282 0.018845616 0.046775717 0.042755727 -0.0438902 -0.037347063 -0.0049788444 -0.0049205003
0.04103979 0.048672725 -0.005087576 -0.025763422 0.041139435 0.019883858 0.04505987 0.04644694
-0.03279426 0.008828136 -0.046748675 -0.035577673 -0.058063142 -0.036067292 0.05227457 0.03965146
0.052475672 -0.053571735 0.020794172 0.003696386 -0.030277727 -0.033912506 -0.056132264 2.8570204e-05
-0.02228254 -0.0048099468 0.004875298 0.055438392 -0.0626116 -0.026836397 0.012003276 0.012906801
-0.003906179 0.0039827274 -0.045074496 -0.015471114 0.022633577 -0.031208733 -0.05989448 0.029032907
0.04987739 -0.034684382 0.010132868 0.0055386354 -0.043845084 0.03302693 -0.06082849 0.05124342
-0.033506893 0.009624139 0.01589193 0.011248076 -0.0031491339 0.05750464 0.017724182 -0.037020203
00000000: 92b2 cc3c d836 0fbd 3136 583d 7e5c 44bd
00000010: 40f1 873c 9961 fd3b 2ff6 283c fec8 b1bc
00000020: 89e0 7f3d e832 133c 03fb 89bb 786a 2abc
00000030: 5b22 ef3c b817 933b d2e6 3fbd 33ef 2f3d
00000040: 80a7 01bd 7e7a 993b cab5 3ebd 1b56 c43b
00000050: c76e 703d 2fcd 20bd ed57 57bd 1372 5abb
00000060: 318b 00bd 776e 2bbd a1e4 1b3d bef0 6cbd
00000070: d7c3 b7bc 1d02 643d a5aa 4a3c df88 043d
00000080: 89a1 49bd d244 f63c 2732 3c3c 1a97 1f3b
00000090: fd9d 1e3d 77b6 ccbc 54a7 4b3c 535a 1e3d
000000a0: 8a55 203c 17bb 5e3d 06b3 2e3d eddc 353d
000000b0: 9861 c8bc 0296 bb3c 3abd 0f3c e6c5 123d
000000c0: 1bdd a2b9 6744 8c3c 4d0a 0bbd 0be7 6d3d
000000d0: b8d9 9b3a 4dcd 67bd b0d5 aebc c01e 79bd
000000e0: f4b5 80bc 6a9b 143d 7a0d 0d3d c6dd 8fbc
000000f0: 09a6 23bd cb5f 823b 15d6 bb3c a986 8ebb
00000100: 4803 00bc 1f62 9a3c e597 3f3d a120 2f3d
00000110: 36c6 33bd 3cf9 18bd 9325 a3bb 263c a1bb
00000120: 5719 283d 0d5d 473d aeb5 a6bb d00d d3bc
00000130: d381 283d 79e3 a23c b390 383d 263f 3e3d
00000140: 4653 06bd e3a3 103c 8a7b 3fbd e5b9 11bd
00000150: 9ed3 6dbd 4cbb 13bd dc1d 563d 9269 223d
00000160: bbf0 563d 096e 5bbd 8a58 aa3c 113f 723b
00000170: ff08 f8bc d7e7 0abd f2ea 65bd 0caa ef37
00000180: e089 b6bc c29c 9dbb f7c0 9f3b 5e13 633d
00000190: 833a 80bd 01d8 dbbc 63a9 443c 0c77 533c
000001a0: cffe 7fbb 8a81 823b 09a0 38bd 8e7a 7dbc
000001b0: 0d6a b93c 75a9 ffbc ea53 75bd 6bd6 ed3c
000001c0: 3c4c 4c3d 3611 0ebd 5404 263c 717d b53b
000001d0: e796 33bd 3f47 073d 4b27 79bd 9fe4 513d
000001e0: 863e 09bd 91ae 1d3c cb2f 823c da49 383c
000001f0: b361 4ebb fc89 6b3d 4e32 913c 7fa2 17bd

bn1.weight f4 [512]
1.000133 0.99663454 1.0005205 0.99911755 0.9998345 1.0011592 0.99809664 0.9989649
0.99978626 0.9993903 0.99444324 0.99978083 1.0005336 1.0006499 0.99842644 0.99973804
0.9995377 1.0007876 1.0010481 0.9993058 0.9997956 0.998888 0.9997719 1.0001111
1.0020386 0.9998209 0.99967825 1.0019225 1.0010358 0.99942875 1.0008804 1.0010386
1.0006303 1.0009322 0.99868244 0.9992725 1.0005116 0.9999758 0.9989048 1.0004349
1.0012468 0.9985161 1.0000024 0.9997091 0.9970499 1.0006483 1.0008639 0.99942684
0.9987647 0.99761343 1.001438 1.0004591 1.0005083 1.0011433 0.99803215 1.0004922
0.9992831 0.9995028 1.0011045 1.0017548 1.000427 0.9982394 1.001558 0.9994052
0.9987545 1.0004247 1.0007511 1.0001343 0.9988808 0.99991745 0.99868256 1.0008367
1.001501 1.000896 1.0015821 0.99965084 0.99980646 0.99856985 0.9996562 1.0011462
1.0002047 1.0013537 1.0014333 1.0034083 0.99884415 0.9995411 0.99946487 1.001391
0.99898714 0.99860483 1.0010024 1.0010552 1.0018479 1.000037 1.0017916 1.0000557
0.99941355 1.0023395 0.99992627 1.0008965 1.000663 1.001111 1.0004646 1.0000476
0.9987201 1.0014766 1.0000373 1.0006986 0.99926764 0.9985234 0.99904805 1.0002066
0.99889344 0.9985488 0.9997665 1.0017587 0.99825376 0.9998146 1.0005349 1.0002419
0.99949455 1.000277 1.0003393 1.0002136 0.99891394 0.99839795 0.99720645 0.9998003
0.99867624 0.9992795 0.99972796 0.9999595 1.0004798 1.0015327 1.0001665 0.9989662
0.9977955 0.99841964 0.99945796 0.99840677 0.99945724 1.0022539 1.0003507 1.0013679
1.0003176 0.99785155 1.0016271 1.0011663 1.000263 1.0007824 0.9998097 1.0017567
1.0000284 1.0011178 1.00049 0.9998831 1.0006062 0.99643224 0.9984419 0.999613
0.999805 1.0008644 0.99964356 0.99628454 1.0004052 1.0006713 0.99965954 1.0014182
1.0016526 1.0001792 0.9994938 1.0009061 1.000932 1.0001699 0.9985496 0.9992252
0.9997772 1.0008842 0.9995953 1.0002663 1.0003158 1.0004001 0.9989384 0.9982176
1.0009309 1.0002108 1.0005363 1.0004903 1.0022177 0.9999009 0.99937904 1.0001817
0.99987847 0.99713445 1.0006458 0.9990803 1.0000283 1.0003943 0.99971014 1.0008569
1.0001007 1.0011338 0.9995271 1.0006055 0.9996874 1.000293 0.99964166 1.0001769
1.0008835 0.999782 0.99931514 0.99889886 0.99847573 1.0021224 1.000112 1.0001372
0.99680984 0.99930644 0.9995356 1.0004392 1.0009271 1.0009279 0.9999812 1.0006815
0.99872816 0.99858207 0.9997954 1.0006107 0.998567 1.0003455 0.9998795 0.9974392
1.0007632 1.000729 0.999912 0.9998049 0.9996297 0.99991333 0.9994878 0.9988253
1.0012261 1.0001198 0.9992936 0.999149 1.001916 1.0001642 0.99947184 0.99937767
1.0008123 1.0010208 0.99969757 1.0017066 1.0008199 1.0002238 1.0006107 1.0008901
00000000: 5c04 803f 7123 7f3f 0e11 803f 2bc6 7f3f
00000010: 27f5 7f3f fc25 803f 4383 7f3f 2abc 7f3f
00000020: fef1 7f3f 0bd8 7f3f d593 7e3f a3f1 7f3f
00000030: 7c11 803f 4c15 803f e098 7f3f d5ee 7f3f
00000040: b4e1 7f3f cf19 803f 5822 803f 81d2 7f3f
00000050: 9bf2 7f3f 20b7 7f3f 0df1 7f3f a403 803f
00000060: cd42 803f 43f4 7f3f eaea 7f3f ff3e 803f
00000070: f121 803f 90da 7f3f d91c 803f 0822 803f
00000080: a714 803f 8c1e 803f a7a9 7f3f 53d0 7f3f
00000090: c410 803f 6afe 7f3f 3ab8 7f3f 400e 803f
000000a0: db28 803f c09e 7f3f 1400 803f f0ec 7f3f
000000b0: aa3e 7f3f 3e15 803f 4f1c 803f 70da 7f3f
000000c0: 0baf 7f3f 9863 7f3f 1f2f 803f 0b0f 803f
000000d0: a810 803f 7725 803f 097f 7f3f 2110 803f
000000e0: 04d1 7f3f 6adf 7f3f 3124 803f 8039 803f
000000f0: fe0d 803f 9e8c 7f3f 0d33 803f 05d9 7f3f
00000100: 60ae 7f3f eb0d 803f 9d18 803f 6704 803f
00000110: a7b6 7f3f 97fa 7f3f a9a9 7f3f 6b1b 803f
00000120: 2f31 803f 5c1d 803f d833 803f 1ee9 7f3f
00000130: 51f3 7f3f 46a2 7f3f 78e9 7f3f 8f25 803f
00000140: b506 803f 5c2c 803f f72e 803f af6f 803f
00000150: 40b4 7f3f ede1 7f3f eedc 7f3f 952d 803f
00000160: 9fbd 7f3f 91a4 7f3f d920 803f 9422 803f
00000170: 8d3c 803f 3601 803f b53a 803f d301 803f
00000180: 91d9 7f3f a94c 803f 2bfb 7f3f 601d 803f
00000190: ba15 803f 6824 803f 390f 803f 8f01 803f
000001a0: 1fac 7f3f 6330 803f 3901 803f e416 803f
000001b0: 01d0 7f3f 3b9f 7f3f 9dc1 7f3f c506 803f
000001c0: 7bb7 7f3f e5a0 7f3f b3f0 7f3f a139 803f
000001d0: 8f8d 7f3f daf3 7f3f 8711 803f ed07 803f
000001e0: e0de 7f3f 1409 803f 1e0b 803f 0007 803f
000001f0: d3b8 7f3f 0297 7f3f ec48 7f3f eaf2 7f3f
00000200: 3fa9 7f3f c8d0 7f3f 2cee 7f3f 59fd 7f3f
00000210: b90f 803f 3932 803f 7505 803f 40bc 7f3f
00000220: 876f 7f3f 6e98 7f3f 7adc 7f3f 9697 7f3f
00000230: 6edc 7f3f db49 803f 7e0b 803f d32c 803f
00000240: 680a 803f 3373 7f3f 5135 803f 3826 803f
00000250: 9e08 803f a319 803f 87f3 7f3f 9039 803f
00000260: ee00 803f a124 803f 0e10 803f 57f8 7f3f
00000270: dd13 803f 2f16 7f3f e399 7f3f a3e6 7f3f
00000280: 38f3 7f3f 531c 803f a4e8 7f3f 810c 7f3f
00000290: 470d 803f ff15 803f b0e9 7f3f 792e 803f
000002a0: 2736 803f df05 803f d3de 7f3f b11d 803f
000002b0: 8a1e 803f 9105 803f f2a0 7f3f 39cd 7f3f
000002c0: 66f1 7f3f f91c 803f 7ae5 7f3f ba08 803f
000002d0: 590a 803f 1c0d 803f 6dba 7f3f 308b 7f3f
000002e0: 811e 803f e806 803f 9311 803f 1110 803f
000002f0: ab48 803f 81f9 7f3f 4ed7 7f3f f405 803f
00000300: 09f8 7f3f 3444 7f3f 2915 803f bac3 7f3f
00000310: ed00 803f ec0c 803f 01ed 7f3f 141c 803f
00000320: 4d03 803f 2725 803f 02e1 7f3f d713 803f
00000330: 83eb 7f3f 9a09 803f 84e8 7f3f cc05 803f
00000340: f31c 803f b7f1 7f3f 1ed3 7f3f d6b7 7f3f
00000350: 1b9c 7f3f 8c45 803f ac03 803f 7f04 803f
00000360: ee2e 7f3f 8cd2 7f3f 91e1 7f3f 640e 803f
00000370: 611e 803f 681e 803f c5fe 7f3f 5516 803f
00000380: a6ac 7f3f 13a3 7f3f 97f2 7f3f 0314 803f
00000390: 16a2 7f3f 520b 803f 1af8 7f3f 2d58 7f3f
000003a0: 0219 803f e317 803f 3cfa 7f3f 37f3 7f3f
000003b0: bbe7 7f3f 52fa 7f3f 6fde 7f3f 04b3 7f3f
000003c0: 2d28 803f ed03 803f b5d1 7f3f 3bc8 7f3f
000003d0: c93e 803f 6105 803f 63dd 7f3f 37d7 7f3f
000003e0: 9e1a 803f 7321 803f 2eec 7f3f ec37 803f
000003f0: de1a 803f 5507 803f 0314 803f 2b1d 803f

bn1.bias f4 [512]
0.0025341916 -0.002022663 -0.0017531668 0.0017546285 -0.0009597351 0.00040455558 -0.003577306 0.002607671
0.0028565666 -0.0018065447 -0.0021403804 0.0023199846 -0.0042111347 -0.0040472522 0.00040929005 0.0011142028
0.001959842 0.0034087114 0.0040091136 0.00282073 -0.0028096007 0.0021376167 -0.0016657696 0.00025576857
0.00064436445 0.0027436365 -0.0017858652 -0.0028779437 0.0052044634 -0.000261367 -0.0023368546 0.005452838
-0.00014667773 -0.0005876068 0.0034326932 0.0019995372 -0.003564985 0.0019960115 -0.0019415508 0.00021479807
0.00018651743 -0.004983809 0.0034590424 -0.0025852872 0.0013014153 0.0052671614 -0.0014567538 -0.000466909
-0.0011140864 0.003318528 0.0006380084 0.0026198651 -0.0012427147 0.0013073361 -0.0014608682 -0.002479425
-0.00019641012 0.0053608613 0.002513588 0.0020756023 0.0010004471 0.0019224588 0.00018131986 0.0021345431
-0.0036647446 0.0016430311 0.0016344993 -0.0009481975 -0.0030768705 -0.004921398 -3.7706104e-05 0.002083186
-0.0019591365 -0.00038754445 0.0035544073 0.0007796611 -0.0005225873 -0.0017431668 0.00032528146 -0.0036588362
-0.0021767109 -0.0029868504 0.003433236 -0.00449964 0.0018035441 -0.0026136667 0.0025023115 -0.0012188008
0.0005253216 -0.0026285772 0.003921801 0.0025163349 -0.00364277 -0.00035101137 0.00068091054 0.00048092054
0.00040610335 -0.004539559 0.0018819796 0.0009320118 0.0014311849 -0.003125211 -0.003545581 0.0050288225
-0.0033504376 0.0019336382 0.004550955 -0.0061993897 0.0015383046 -0.0013315585 -0.0036138056 -0.004819603
0.0014500978 -0.00048880756 -0.0043927836 -0.0011876876 -0.0025973148 0.0014112691 -0.0037754572 0.002275995
-0.0019075496 0.001807442 -0.0027512999 -0.0016698261 0.0014458816 -0.0010649937 -0.002938159 0.0036957413
-0.0019962417 0.0016775904 0.00017123978 -0.0011563068 -0.0016822503 -0.00095642515 -0.0051996307 0.005228205
-0.0004888747 0.0027345342 1.7209142e-05 -0.0015933036 0.0017282782 2.9510353e-05 -0.0039798897 -0.0021208753
0.004623807 -0.0051349495 0.0024494417 0.00397371 -0.0001287204 0.0019374681 -0.0019430404 0.0020519749
0.00014403094 -0.0018108414 0.0014475654 0.00047614778 0.0022092792 -0.00031884655 -0.0002506665 -0.0013043787
0.0006641539 0.000797191 -0.002121092 -0.0036529072 0.004406669 0.0007223985 0.0028572145 -0.0011443956
0.0027344157 0.0034202817 -0.00031467882 0.00040994026 -0.0040458445 -0.0013666385 -0.0035721853 -0.0053612916
-0.0020214452 -0.0030193469 -0.0006810928 0.004126709 0.0010270001 0.0019901132 -0.0012787005 0.0054809405
0.0025082065 -0.004212316 -0.003457063 0.0032586404 0.0013787696 0.003968094 -0.0020591936 -0.003054362
0.0013552296 0.0016118139 0.004317216 -0.0033817803 0.0038707752 -0.0011950715 -0.0020323503 -0.0023819287
-0.0011389886 -0.0016757834 0.0014005597 0.003597134 -0.0001176228 -0.0028451274 0.004968121 -0.0019041919
0.0015683742 -0.00091047125 -0.0027827423 0.0054067494 0.0031487227 0.00073249225 -0.003165525 -0.0011549359
-0.0024841332 0.0022546812 -0.0026753577 0.0015221125 -0.001995567 -0.0031100148 -0.0027800028 0.0011285051
-0.0017466093 -0.0036886388 -0.0036206907 0.0036095083 4.127923e-05 0.0024824492 -0.0037168302 0.0020757013
-0.0008980751 -0.0011436633 -0.0020160212 -0.0024408281 -0.003433738 0.0030386995 -0.004320762 0.0005418708
-0.0005256846 -0.00086194446 0.001986477 -0.0021479677 -0.0022399777 -0.0015543895 -0.0013970217 0.0051144906
0.00048322225 -0.0031333687 0.002140165 -0.004827315 -0.002346584 0.00386459 -0.003952395 -0.00469032
00000000: ae14 263b a78e 04bb 84ca e5ba 90fb e53a
00000010: bb96 7bba 881a d439 3c71 6abb 76e5 2a3b
00000020: 3c35 3b3b 95c9 ecba a045 0cbb e20a 183b
00000030: 8ffd 89bb d09e 84bb fb95 d639 710a 923a
00000040: b170 003b b064 5f3b e25e 833b ffdb 383b
00000050: 4721 38bb 4217 0c3b f455 daba ad18 8639
00000060: 91ea 283a 95ce 333b b113 eaba e29b 3cbb
00000070: 348a aa3b 1608 89b9 ea25 19bb b8ad b23b
00000080: 81cd 19b9 a009 1aba 09f7 603b ab0a 033b
00000090: 86a2 69bb 84cf 023b a27b feba 6b3b 6139
000000a0: e493 4339 384f a3bb 1ab1 623b ec6d 29bb
000000b0: 4094 aa3a 2798 ac3b 8cf0 beba 77cb f4b9
000000c0: 8906 92ba a97b 593b 0540 273a 0bb2 2b3b
000000d0: 96e2 a2ba ec5a ab3a 9a7a bfba d97d 22bb
000000e0: 71f3 4db9 2aaa af3b 02bb 243b d406 083b
000000f0: 6f21 833a 03fb fb3a ae20 3e39 b1e3 0b3b
00000100: 362c 70bb fa5a d73a b23c d63a 7590 78ba
00000110: 52a5 49bb ae43 a1bb 9f26 1eb8 1086 083b
00000120: db64 00bb 562f cbb9 0ff1 683b 2c62 4c3a
00000130: 3dfe 08ba f97a e4ba 8a8a aa39 16c9 6fbb
00000140: 26a7 0ebb 09bf 43bb 2400 613b b771 93bb
00000150: e664 ec3a 0d4a 2bbb d2fd 233b 2bc0 9fba
00000160: bcb5 093a 3544 2cbb 7482 803b 18e9 243b
00000170: 8abb 6ebb f307 b8b9 227f 323a 1024 fc39
00000180: 45ea d439 95c0 94bb c2ac f63a 4152 743a
00000190: 9996 bb3a 57d0 4cbb fa5c 68bb d2c8 a43b
000001a0: 0493 5bbb 2272 fd3a 2d20 953b 4024 cbbb
000001b0: f0a0 c93a b087 aeba 99d5 6cbb c3ed 9dbb
000001c0: 3511 be3a 5223 00ba 57f1 8fbb 2fac 9bba
000001d0: b637 2abb 55fa b83a a96d 77bb dc28 153b
000001e0: be06 faba b1e7 ec3a 274f 34bb 11de daba
000001f0: bc83 bd3a 4297 8bba 218e 40bb 4034 723b
00000200: 61d3 02bb 98e2 db3a d48e 3339 388f 97ba
00000210: f47e dcba 9bb8 7aba aa61 aabb 5d51 ab3b
00000220: d327 00ba df35 333b 5a5c 9037 66d6 d0ba
00000230: 6587 e23a 008d f737 bc69 82bb 62fe 0abb
00000240: 4e83 973b 1443 a8bb d086 203b e535 823b
00000250: 1ff9 06b9 a4f2 fd3a 9ead feba 6d7a 063b
00000260: 0307 1739 c159 edba 3cbc bd3a 79a3 f939
00000270: 8ec9 103b dc2a a7b9 e36b 83b9 b0f7 aaba
00000280: 9d1a 2e3a 95fa 503a 0502 0bbb 9d65 6fbb
00000290: d265 903b 585f 3d3a 1b40 3b3b 8bff 95ba
000002a0: e233 333b ce26 603b 7afb a4b9 40ed d639
000002b0: 0193 84bb c720 b3ba 531b 6abb c6ad afbb
000002c0: 397a 04bb 3ce0 45bb 5d8b 32ba 5839 873b
000002d0: 689c 863a 8f6c 023b 129a a7ba 7699 b33b
000002e0: b960 243b 7807 8abb e58f 62bb ea8e 553b
000002f0: d5b7 b43a c906 823b 89f3 06bb b12b 48bb
00000300: f6a1 b13a 8043 d33a 6f77 8d3b dca0 5dbb
00000310: d5ac 7d3b f2a3 9cba 2e31 05bb 221a 1cbb
00000320: 1e4a 95ba f6a5 dbba fc92 b73a e5bd 6b3b
00000330: 43ac f6b8 5175 3abb 9fcb a23b 1496 f9ba
00000340: e891 cd3a b1ac 6eba ab5e 36bb 1a2b b13b
00000350: cd5a 4e3b b904 403a b274 4fbb 3861 97ba
00000360: d7cc 22bb 46c3 133b 0e55 2fbb 9f81 c73a
00000370: 0fc8 02bb 64d1 4bbb b530 36bb 59ea 933a
00000380: 7cee e4ba 17bd 71bb 1c49 6dbb 808d 6c3b
00000390: 3c23 2d38 96b0 223b 1096 73bb 7d08 083b
000003a0: cd6c 6bba f9e6 95ba 391f 04bb 4df6 1fbb
000003b0: 9008 61bb eb24 473b 2e95 8dbb 550c 0e3a
000003c0: 19ce 09ba 1df4 61ba 8e2f 023b ebc4 0cbb
000003d0: 97cc 12bb a8bc cbba 451c b7ba 7597 a73b
000003e0: fe58 fd39 3459 4dbb 0342 0c3b 742e 9ebb
000003f0: 26c9 19bb 1045 7d3b 1883 81bb 42b1 99bb
