data/rl4wound_paper_res/ctr/models_map524/agent_ctr_True_ep_1019.pth (torch, 950255 bytes, 21 tensors)

fc1.weight f4 [512, 5]
0	0xbbae963c	-0.005327968
1	0x3e76f4d0	0.24116826
2	0xbebb0928	-0.36530423
3	0xbea69b5a	-0.325404
4	0xbe3148ec	-0.17312974
5	0x3def54e4	0.116861135
6	0xbc0bd10b	-0.008533726
7	0x3eb5f886	0.3554117
8	0xbd228b8b	-0.03968386
9	0x3df2dc7d	0.11858461
10	0xbe09c566	-0.13454208
11	0xbdb774bf	-0.089578144
12	0xbeda5218	-0.42640758
13	0xbe97dc7f	-0.29660413
14	0xbe3a0c19	-0.18168677
15	0x3c8fd3be	0.017557021
16	0x3e361b79	0.17783917
17	0x3e88653d	0.2663974
18	0xbe9c145b	-0.3048428
19	0xbe488585	-0.19582184
20	0x3e26d419	0.16291846
21	0x3ebc728a	0.36806136
22	0xbdbe71b0	-0.09299028
23	0x3eac3068	0.3363068
24	0xbd8fbba7	-0.07018214
25	0x3d3b2243	0.04568697
26	0x3ed05ebe	0.40697283
27	0xbed3f187	-0.41395208
28	0xbe8dfb2c	-0.2773069
29	0xbdede281	-0.11615468
30	0xbe32dd2c	-0.17467183
31	0x3ec47315	0.3836905
32	0xbe933aee	-0.28755897
33	0xbe55b29d	-0.20868917
34	0xbe9eaa81	-0.3098946
35	0xbed6548c	-0.4186138
36	0xbe83f389	-0.2577174
37	0x3ec41b97	0.383023
38	0x3e4d7366	0.20063552
39	0x3e5ec2c8	0.2175399
40	0x3cc5c499	0.024141597
41	0xbe68b8b3	-0.22726707
42	0x3d9593b4	0.07303563
43	0xbed6afd1	-0.41931012
44	0xbea62ec2	-0.32457548
45	0xbe6eb54d	-0.23311348
46	0x3e8fd678	0.28093314
47	0x3e87cbda	0.26522714
48	0xbe47dbd8	-0.19517457
49	0xbc5815a9	-0.013188758
50	0x3e912b4b	0.28353342
51	0x3ee45d49	0.4460242
52	0x3e353594	0.1769622
53	0x3d7bd53e	0.06148266
54	0x3e9797a8	0.29607892
55	0xbe864fdd	-0.26232806
56	0x3dab5f4c	0.08367786
57	0xbeb1675b	-0.34649166
58	0xbe9eb031	-0.30993798
59	0xbe6d584b	-0.23178212
60	0x3e4bb5e3	0.19893603
61	0x3e36a84b	0.17837636
62	0xbe866603	-0.26249704
63	0x3e0c786a	0.1371781
64	0x3e7dbc3e	0.2477884
65	0xbd645231	-0.055742446
66	0x3c8caa4c	0.017171048
67	0x3dd1f328	0.102514565
68	0x3e8c64c3	0.27420625
69	0x3edd6a7c	0.43245304
70	0xbeafb25e	-0.3431577
71	0xbe2847b6	-0.16433606
72	0x3e33373d	0.1750154
73	0x3ebf2aa9	0.37337235
74	0x3ec648cf	0.38727424
75	0x3eca565a	0.39519006
76	0x3db4f8e8	0.088365376
77	0xbec77c74	-0.38962138
78	0x3d280cea	0.04102794
79	0xbe8ed3d0	-0.27895975
80	0xbed4ef4b	-0.41588816
81	0x3ecc38bc	0.39887035
82	0x3ead40ab	0.338384
83	0xbee5435a	-0.44777948
84	0x3da7ce1a	0.08193608
85	0xbd9bfdc6	-0.07616763
86	0xbd904583	-0.07044508
87	0xbe5042c3	-0.20337968
88	0x3e2ed0f6	0.170719
89	0xbe887a4f	-0.26655814
90	0x3e266e60	0.16253042
91	0x3e69485b	0.22781508
92	0x3ea34932	0.3189178
93	0x3e2bf1f0	0.1679151
94	0xbee240eb	-0.44190153
95	0xbe94858e	-0.29008144
96	0x3e62cdf8	0.22148883
97	0x3dbfc965	0.09364585
98	0xbeb260f3	-0.3483959
99	0xbe845f44	-0.25853932
100	0x3ed78b9c	0.420987
101	0x3e989a00	0.29804993
102	0xbe48e1e9	-0.19617428
103	0xbde23d56	-0.11046855
104	0xbedb8d96	-0.4288146
105	0xbc3a298a	-0.011362443
106	0xbeab964f	-0.33513114
107	0xbeb1e67e	-0.34746164
108	0xbccb6245	-0.024827132
109	0x3d84ae92	0.06478609
110	0xbe3ad069	-0.18243565
111	0x3e885855	0.26629892
112	0xbe8c412b	-0.2739347
113	0x3ece3d5d	0.4028119
114	0x3e9ed35c	0.3102063
115	0xbec06eca	-0.37584525
116	0xbde458f9	-0.11149783
117	0x3ca57cf4	0.020201184
118	0x3d886e23	0.06661632
119	0x3ddcb169	0.10776026
120	0x3e36d072	0.17852953
121	0x3cf2480b	0.029575368
122	0xbe61e20d	-0.22058888
123	0x3e54f433	0.2079628
124	0xbeddad78	-0.4329641
125	0xbe86e0d7	-0.26343414
126	0xbde12aef	-0.10994517
127	0xbe606850	-0.21914792
128	0xbe22f983	-0.15915494
129	0xbebb630b	-0.36599
130	0xbdbc41d7	-0.091922455
131	0x3dc31e83	0.09527304
132	0xbe95ce38	-0.29258895
133	0xbcc3c3ff	-0.02389717
134	0x3ea3afee	0.3197016
135	0xbd3ba08e	-0.045807414
136	0x3c7c2d8e	0.01539172
137	0xbd2444ee	-0.0401048
138	0x3db46414	0.08808151
139	0x3e92b942	0.28656965
140	0x3ed7ccf7	0.42148563
141	0x3e92d23b	0.28676018
142	0x3ed9602e	0.42456192
143	0xbcfce830	-0.030872434
144	0xbeced994	-0.40400374
145	0xbe5aab86	-0.21354493
146	0x3e99f0d7	0.3006656
147	0xba2fbf74	-0.0006704249
148	0xbe622831	-0.22085644
149	0xbeaf58bf	-0.34247395
150	0xbed5663a	-0.41679555
151	0xbec0ec61	-0.37680343
152	0xbdbd47cd	-0.092422105
153	0x3e77725e	0.24164721
154	0x3e7b0c01	0.24516298
155	0xbedd97c2	-0.43279845
156	0x3e8e5d79	0.2780569
157	0xbeb232e1	-0.34804443
158	0xbdc113a4	-0.09427574
159	0xbe3b626c	-0.18299264
160	0xbdb089e1	-0.08620048
161	0xbdbc8b8d	-0.09206305
162	0xbecd05e2	-0.4004355
163	0xbec4987a	-0.3839758
164	0xbd9460c6	-0.072450206
165	0x3c12bc31	0.008956001
166	0xbe4cd2c8	-0.20002282
167	0x3e2880f9	0.16455449
168	0xbed03676	-0.4066655
169	0xbd08fa25	-0.03344168
170	0x3ec9d000	0.39416504
171	0xbe37f569	-0.1796471
172	0x3ece4c24	0.40292466
173	0x3e253165	0.16132124
174	0xbecf6cec	-0.40512788
175	0x3e91618d	0.28394738
176	0xbd547ca5	-0.051876683
177	0xbe4b3407	-0.19844066
178	0x3eb6509f	0.35608384
179	0xbeba095c	-0.36335266
180	0x3d406880	0.04697466
181	0xbdba7cd9	-0.09105844
182	0x3ea3778d	0.31927148
183	0x3e009654	0.12557346
184	0x3e5bbbba	0.21458331
185	0x3e223ca9	0.15843453
186	0xbdd5b0f3	-0.10434141
187	0xbdc66768	-0.09687692
188	0xbebec9d5	-0.3726336
189	0x3e76fdf3	0.24120311
190	0x3eb6773e	0.3563785
191	0x3e9ce102	0.30640417
192	0xbea2063f	-0.3164539
193	0x3c961188	0.018318906
194	0xbea181e9	-0.31544426
195	0xbe7b8e34	-0.24565965
196	0xbe84b80e	-0.25921673
197	0x3e1b7ba8	0.1518389
198	0xbe88c976	-0.26716202
199	0xbc30c8d8	-0.010790072
200	0x3c8eb004	0.017417915
201	0x3e95e6d4	0.2927767
202	0xbead5896	-0.33856648
203	0xbe9c6eef	-0.30553386
204	0xbe85948a	-0.2608989
205	0x3ea0e312	0.3142324
206	0xbe26f893	-0.16305761
207	0x3ebf8f64	0.37414086
208	0x3e273eac	0.16332501
209	0x3d674388	0.056460887
210	0xbb4d3166	-0.0031309961
211	0xbdac4248	-0.0841108
212	0x3d5fd6e8	0.05464831
213	0xbdd698e0	-0.10478377
214	0xbbc3f4f5	-0.005980129
215	0x3d67173d	0.056418646
216	0xbeb59909	-0.3546832
217	0xbe6e143b	-0.23249905
218	0x3eba22ac	0.36354578
219	0xbeb8725e	-0.36024755
220	0xbce2bd6b	-0.027678212
221	0x3ee3a9fc	0.44465625
222	0x3e214214	0.15747863
223	0x3c2074eb	0.0097935
224	0xbec6a7e1	-0.38799956
225	0x3e62d438	0.22151268
226	0xbea4cb2c	-0.32186258
227	0xbe004f92	-0.12530354
228	0xbe180257	-0.14844643
229	0xbd7fd94a	-0.062463082
230	0x3b97c65d	0.004631801
231	0x3ebf2ab0	0.37337255
232	0x3d5de237	0.054170813
233	0x3ecbcf66	0.3980667
234	0x3e8c334a	0.2738288
235	0xbe91ad36	-0.28452462
236	0x3e4d4a1c	0.20047802
237	0xbea1c5b6	-0.31596154
238	0xbe411ac3	-0.18857865
239	0x3e05c47b	0.13063233
240	0x3e18ce4f	0.1492245
241	0x3eab79af	0.33491275
242	0xbe1383bc	-0.14405721
243	0x38b509f9	8.63261e-05
244	0x3e6bb399	0.2301773
245	0xbedca511	-0.43094686
246	0x3ea61b98	0.32442927
247	0xbebe595d	-0.37177554
248	0x3b8bda59	0.0042679724
249	0xbd9a041c	-0.07520315
250	0xbe6f9428	-0.23396361
251	0x3d6b0834	0.05738087
252	0x3ebd444e	0.36966175
253	0xbe0630ea	-0.13104597
254	0xbe8922c6	-0.26784343
255	0xbe2a69b2	-0.16641882

fc1.bias f4 [512]
0	0xbe96c7e7	-0.29449388
1	0xbea10417	-0.31448433
2	0x3e982afd	0.29720297
3	0xbe1544b0	-0.14576983
4	0xbcece914	-0.028919734
5	0x3e090858	0.13382089
6	0xbe8d8444	-0.27639973
7	0x3d2a1482	0.041523464
8	0x3e87b080	0.26501846
9	0xbe864b71	-0.26229432
10	0x3e050795	0.12991174
11	0xbc810a49	-0.015751975
12	0x3e7b7038	0.24554527
13	0x3e980232	0.29689175
14	0x3ded014c	0.11572513
15	0x3c45fa14	0.012083549
16	0xbec5414e	-0.38526386
17	0x3e36c7de	0.17849681
18	0x3e8b9651	0.2726312
19	0xbe26eb08	-0.16300595
20	0xbee19b02	-0.44063574
21	0x3ebbe44a	0.36697608
22	0xbdd6888a	-0.104752615
23	0x3db229ed	0.08699403
24	0xbe021ae5	-0.12705572
25	0x3e9476c7	0.2899687
26	0x3edf92a3	0.43666562
27	0x3e8f88b2	0.28033978
28	0xbe0e9739	-0.13924874
29	0x3ea1be98	0.31590724
30	0x3e5d80e4	0.21631199
31	0x3d365474	0.044514135
32	0xbeb87b0d	-0.3603138
33	0xbe433e31	-0.19066693
34	0xbee30f9f	-0.44347855
35	0x3e98f061	0.29870895
36	0x3ee23b65	0.4418594
37	0x3e850794	0.25982344
38	0x3e0eb223	0.13935141
39	0x3dd8868c	0.10572538
40	0x3edbfa62	0.42964464
41	0xbe67e62c	-0.22646397
42	0xbe1a28a2	-0.15054563
43	0xbecc34a8	-0.39883924
44	0xbd2fb292	-0.042894907
45	0x3cde9be2	0.02717394
46	0x3dfb17d2	0.12260403
47	0xbe9f9592	-0.311688
48	0xbd4ac154	-0.04950078
49	0xbebdcadf	-0.3706884
50	0xbeb95fde	-0.36205953
51	0x3d70d9e8	0.05880156
52	0xbedf717a	-0.43641263
53	0x3df5a82b	0.11994966
54	0xbed3e30b	-0.41384158
55	0xbe9f0e01	-0.31065372
56	0xbdbceb59	-0.092245765
57	0xbed994c3	-0.4249631
58	0x3eb9003f	0.36133
59	0x3ebb8604	0.36625683
60	0xbe6b5b8b	-0.2298414
61	0x3dca7547	0.0988565
62	0x3e6d6399	0.23182525
63	0x3e116316	0.14197955
64	0xbd6cf712	-0.057852812
65	0xbed62525	-0.41825214
66	0x3ea7851f	0.3271875
67	0xbec9717c	-0.39344394
68	0xbda4b977	-0.08043187
69	0x3cd7df21	0.026351513
70	0xbe198c31	-0.14994885
71	0xbe213942	-0.15744498
72	0xbec67d7a	-0.38767606
73	0x3cb56890	0.022144586
74	0xbd495de5	-0.04916181
75	0x3ec7b451	0.39004758
76	0xbe16461c	-0.14675182
77	0x3eadbbaf	0.33932254
78	0x3cdab518	0.02669768
79	0xbe519bdd	-0.20469613
80	0xbddaef6e	-0.10690199
81	0xbd5d8671	-0.05408329
82	0x3bb89048	0.005632434
83	0xbda24d86	-0.07924943
84	0x3e07d7cd	0.13265915
85	0x3ebe4a47	0.37166044
86	0x3d91205e	0.07086252
87	0x3e25be8b	0.16185968
88	0x3e8e996b	0.27851424
89	0x3dc398b6	0.09550612
90	0x3e531b1e	0.20615813
91	0x3e700459	0.23439158
92	0x3ed3d17a	0.41370755
93	0xbed13d6b	-0.4086717
94	0x3e1d31fe	0.15351102
95	0xbca66346	-0.02031101
96	0xbda38106	-0.07983594
97	0xbe2a09b4	-0.16605264
98	0x3e870c96	0.2637679
99	0x3ed1755d	0.40909854
100	0xbebacd53	-0.36484775
101	0x3e765953	0.24057512
102	0x3e9fe22d	0.31227246
103	0x3da02d1a	0.078211024
104	0x3c04b9d4	0.0081009455
105	0x3eb00169	0.34376076
106	0x3c27de9e	0.010245947
107	0xbde30b5d	-0.11086152
108	0xbd0a2372	-0.03372521
109	0x3e0ff557	0.14058433
110	0x3de2ef42	0.11080791
111	0xbc9851a2	-0.018593613
112	0x3e0cbf6d	0.13744898
113	0x3df65791	0.12028421
114	0xbeb71baf	-0.35763308
115	0x3de3c0a1	0.111207254
116	0x3e8c64df	0.2742071
117	0x3d4dbb87	0.050227668
118	0xbd258a25	-0.040414948
119	0x3eaf70c6	0.34265727
120	0xbec7d6d2	-0.39031082
121	0xbe50e78a	-0.20400825
122	0xbe4e331b	-0.20136683
123	0x3ec5b0a8	0.3861134
124	0xbeddfe44	-0.43358052
125	0x3d4cc361	0.049991015
126	0xbee024b5	-0.43778005
127	0xbc7fef58	-0.015621029
128	0x3e2c54fc	0.16829294
129	0xbdd1aa05	-0.10237507
130	0x3ede3dde	0.43406576
131	0x3b216d09	0.002463164
132	0xbe691e60	-0.22765493
133	0x3dec8a93	0.115498684
134	0x3e68cce2	0.22734407
135	0xba7ef882	-0.00097263616
136	0x3ec3e15c	0.38257873
137	0xbe90504e	-0.28186268
138	0x3e439f64	0.19103771
139	0x3e7e983a	0.24862757
140	0x3e63e937	0.22256933
141	0x3aa40e71	0.0012516511
142	0x3df9e5ee	0.12202059
143	0xbeb1ebbd	-0.34750167
144	0xbeb0cb0a	-0.34529907
145	0xbcdf8d99	-0.027289199
146	0xbd7078f6	-0.058709107
147	0x3eaa2285	0.3322946
148	0x3ea92043	0.33032426
149	0x3e9c36ef	0.3051066
150	0xbe53e5b8	-0.206931
151	0xbeb30015	-0.34961
152	0xbed614dc	-0.4181279
153	0x3e2b7329	0.16743149
154	0xbecc7a6f	-0.3993716
155	0xbee52f5e	-0.447627
156	0xbe649267	-0.22321473
157	0xbec32b5c	-0.38119018
158	0xbe38c417	-0.18043552
159	0xbe9054d0	-0.28189707
160	0xbe6c3305	-0.23066337
161	0x3ed9da53	0.4254938
162	0xbdadf546	-0.08494048
163	0x3ebdbe86	0.3705942
164	0x3c11607d	0.008873102
165	0xbd7b2a5f	-0.061319705
166	0xbe052bd0	-0.13004994
167	0xbea2e296	-0.31813496
168	0xbeb7a89c	-0.35870826
169	0x3e9eb347	0.30996153
170	0xbe0f7897	-0.14010845
171	0xbee038f9	-0.43793467
172	0x3ed1d771	0.4098468
173	0x3c135839	0.008993202
174	0xbe9a15d8	-0.3009479
175	0xbeb46bc7	-0.35238478
176	0xbebf152b	-0.37320837
177	0xbec86865	-0.39142147
178	0x3ecf5ca8	0.4050038
179	0x3e9db93b	0.30805382
180	0x3d153e7b	0.03643654
181	0xbec42657	-0.383105
182	0xbdeff266	-0.11716156
183	0xbed5f260	-0.4178648
184	0x3e2206e0	0.15822935
185	0xbdf603e7	-0.12012463
186	0xbdc3a749	-0.095533915
187	0xbe0ef516	-0.1396068
188	0x3e5657db	0.20931952
189	0x3e7d3471	0.24727036
190	0x3dc64c0b	0.09682473
191	0xbd803fba	-0.06262155
192	0xbd3510e8	-0.044205576
193	0xbbede656	-0.007260124
194	0xbeab87ce	-0.33502048
195	0x3edce594	0.43143904
196	0xbe45ce96	-0.19317088
197	0x3e85411c	0.26026237
198	0xbe808a00	-0.25105286
199	0x3bfdbc49	0.0077433926
200	0x3e1c9409	0.15290846
201	0xbed200a0	-0.41016102
202	0x3e55616a	0.20837942
203	0xbeb126b6	-0.34599847
204	0x3d7f6101	0.06234837
205	0xbdb57b32	-0.08861388
206	0x3e843d96	0.25828236
207	0x3edf42b1	0.4360557
208	0x3dbdf0a8	0.09274417
209	0xbc5373be	-0.012906013
210	0xbe60bec4	-0.21947771
211	0x3e2af6a5	0.1669565
212	0xbe5a8947	-0.2134143
213	0x3e3bb34b	0.18330114
214	0xbe45f600	-0.19332123
215	0x3e9a351f	0.30118653
216	0x3eaf9fd5	0.3430163
217	0x3e8efafc	0.2792586
218	0x3c42a9f3	0.011881339
219	0x3e51c93b	0.2048692
220	0xbed25327	-0.41079065
221	0x3eb9be35	0.3627793
222	0xbdec90b9	-0.11551041
223	0x3e27b364	0.16377026
224	0xbd9ecf32	-0.07754363
225	0xbe15a6b3	-0.14614372
226	0xbe55d922	-0.20883611
227	0x3e938255	0.28810373
228	0xbe7acba0	-0.2449174
229	0xbda61dc6	-0.081111476
230	0x3e624c56	0.22099432
231	0x3d3ac5ad	0.045598675
232	0xbebfafc0	-0.37438774
233	0xbee36ec6	-0.4442045
234	0xbe5f0be1	-0.21781875
235	0x3ed14d5c	0.40879333
236	0xbea2ca66	-0.31795043
237	0x3e8024cc	0.25028074
238	0x3ea3e22d	0.32008496
239	0xbe3f3931	-0.1867416
240	0xbe4ba087	-0.19885455
241	0xbea4a43d	-0.32156554
242	0x3d8db2da	0.06918879
243	0xbd81ce47	-0.063381724
244	0x3cb21104	0.02173663
245	0x3e46e11c	0.1942181
246	0x3e43b22f	0.1911094
247	0xbe135a39	-0.14389886
248	0x3d0059b7	0.03133556
249	0x3de28828	0.11061126
250	0x3c2eea88	0.010676034
251	0x3db74c08	0.08950049
252	0xbe38a4ff	-0.18031691
253	0x3ebbd72e	0.36687607
254	0xbd44a0ba	-0.048004843
255	0xbd745a21	-0.059656266

fc2.weight f4 [256, 512]
0	0x3d23a813	0.03995521
1	0x3d0d61a8	0.03451696
2	0xbd23c330	-0.039981067
3	0xbc972190	-0.018448621
4	0x3cc04cb3	0.023474073
5	0xbcd911c3	-0.026497727
6	0x3bf9167b	0.007601557
7	0xbc90c4d0	-0.017671973
8	0x3bf0d0e8	0.0073491223
9	0x3cb6b9bf	0.022305368
10	0x3c4fd079	0.012683981
11	0x3cfd27fb	0.030902853
12	0xbbe071c6	-0.0068495004
13	0x3cc3b68b	0.023890754
14	0x3c7d273b	0.015451248
15	0xbc74e283	-0.014946583
16	0xbd03dc07	-0.032192256
17	0x3d29f56a	0.04149381
18	0xbc3907c9	-0.01129336
19	0x3d04a96c	0.032388136
20	0x3cda6739	0.026660549
21	0xbb5363ec	-0.0032255603
22	0xbd198a76	-0.037485562
23	0x3b9baa25	0.0047505074
24	0xbca8f8da	-0.020626474
25	0x3c3a00b9	0.011352711
26	0xbc9d7b7d	-0.019223923
27	0x3d0405d1	0.03223211
28	0xbd1ba224	-0.037996426
29	0xbc48a255	-0.012245734
30	0x3bffc5db	0.0078055686
31	0x3b5faa50	0.0034128614
32	0x3d0f276d	0.03494971
33	0xbc7eff76	-0.015563836
34	0xbd09c637	-0.033636298
35	0x3cf64f12	0.030067
36	0x3c5c0438	0.01342874
37	0x3ce19ef9	0.027541624
38	0xbcddff26	-0.027099203
39	0xbcd1271c	-0.025531344
40	0xbc9be6ba	-0.019030917
41	0x3b911216	0.004427205
42	0x3c73dad0	0.014883712
43	0xbcc7e90a	-0.024403114
44	0xbafcad60	-0.0019277744
45	0xbc1918cd	-0.009344292
46	0x3d25565d	0.040365566
47	0xbc8dbd35	-0.017302135
48	0x3d292819	0.041298006
49	0xbce51079	-0.027961956
50	0xbc88b6fd	-0.016688818
51	0xbd03596d	-0.032067705
52	0x3d0bf373	0.03416772
53	0xbceca9d7	-0.02888958
54	0x3c91e9d5	0.017811695
55	0xbc8f1c46	-0.017469537
56	0x3d319bdf	0.04336154
57	0x3ba43e4d	0.0050123096
58	0xbd16d8de	-0.036827914
59	0x3bee00bf	0.0072632725
60	0x3b87cc52	0.00414423
61	0xbd280e59	-0.041029308
62	0x3c18f379	0.009335392
63	0x3d2ed975	0.042687852
64	0x3c3410e7	0.010990358
65	0x3a199ed9	0.0005860157
66	0xbbf7fd74	-0.0075680558
67	0x3c565fd8	0.013084374
68	0xbc93cc93	-0.018041885
69	0x3d2bd05d	0.041946758
70	0x3d1a18e4	0.037621394
71	0x3c9a6007	0.018844618
72	0xbc901603	-0.017588621
73	0xbd2f8b04	-0.042857185
74	0xbcd86355	-0.026414553
75	0x3d35c9ed	0.044382025
76	0xbd213b7d	-0.039363373
77	0xbd32fb45	-0.04369666
78	0xbb930885	-0.0044870996
79	0x3c4c8185	0.012482052
80	0xbd37f29d	-0.04490911
81	0xbd277f33	-0.04089279
82	0x3aefec56	0.0018304687
83	0xbc8a4eed	-0.016883338
84	0x3d006326	0.031344555
85	0x3c37600a	0.011192331
86	0xbd16697f	-0.036721703
87	0xbd208c99	-0.039196584
88	0x3d035cc6	0.032070898
89	0xbbcd3959	-0.00626294
90	0xbc8fd5e5	-0.017558048
91	0x3c4be0cd	0.012443733
92	0xbc1fde62	-0.00975761
93	0x3ca1d5e2	0.019755308
94	0x3c2830c2	0.010265531
95	0xbc98a919	-0.01863532
96	0xbd1280f8	-0.035767525
97	0x3cd66b72	0.02617428
98	0xbce7a284	-0.028275736
99	0xbbc0979e	-0.005877449
100	0x3be76801	0.007061959
101	0xbcd0781d	-0.0254479
102	0x3cb9ed08	0.022696033
103	0xbcf2dab9	-0.02964531
104	0x3c19d219	0.00938847
105	0x3ba1b1ef	0.0049345414
106	0x3c740df3	0.014895904
107	0xbd3811ef	-0.044938978
108	0x3a9b4f14	0.0011849129
109	0x3c9ed4a3	0.019388502
110	0xbce00b14	-0.027349032
111	0x3c410e54	0.011783201
112	0x3af9d751	0.0019061362
113	0x3d152c6d	0.03641932
114	0xbc307c72	-0.010771858
115	0xbaba879a	-0.0014231086
116	0xbca68180	-0.020325422
117	0xbc1ebb2a	-0.009688178
118	0x3c41b0e3	0.011821958
119	0xbd2a2822	-0.04154218
120	0x3d0ba361	0.034091357
121	0x3cfa3e5b	0.030547312
122	0x3c9e500a	0.019325275
123	0x3d0853ec	0.03328316
124	0xbc7467af	-0.014917298
125	0x3c11a76d	0.008890015
126	0x39f97cfb	0.000475861
127	0xbd034715	-0.03205021
128	0xbc795540	-0.015218079
129	0xbc8e71bf	-0.017388223
130	0xbc2730cd	-0.010204506
131	0xbd1df0c2	-0.038559683
132	0xbd0270e2	-0.031845935
133	0xbbaf8b29	-0.0053571654
134	0xbbc052d3	-0.0058692484
135	0xbd205cce	-0.039151005
136	0x3bf46295	0.007458041
137	0x3cba3eb6	0.022734981
138	0x3d1cd224	0.038286343
139	0x3d14b08d	0.036301184
140	0xbcfffb1b	-0.031247666
141	0xbc6d73e8	-0.014492966
142	0xbcb89252	-0.022530708
143	0x3c0915aa	0.0083669815
144	0x3c294a03	0.010332587
145	0x3c187504	0.009305242
146	0x3cd6c080	0.026214838
147	0x3cba3faf	0.022735445
148	0xbcbb3156	-0.022850674
149	0x3ceed613	0.029154813
150	0x3d00b1ee	0.031419687
151	0x3be72b03	0.007054688
152	0xbd21b975	-0.039483506
153	0xbcd64906	-0.026157867
154	0x3c55a256	0.013039192
155	0x3c847570	0.01616928
156	0x3d30e297	0.043184843
157	0x3cab39cb	0.020901581
158	0x3c909b8b	0.017652294
159	0xbb319de5	-0.002710217
160	0x3ceddfef	0.029037444
161	0xbc8dc6a5	-0.017306635
162	0x3c887a06	0.016659748
163	0xbca5c75e	-0.020236667
164	0xb9c5875b	-0.00037675616
165	0x3cce6ad4	0.025197424
166	0x3c9e7b96	0.01934604
167	0xbc3c132d	-0.011479181
168	0xbac8bb53	-0.0015314616
169	0xbcbf1eed	-0.023330176
170	0x3c9bcc33	0.019018268
171	0x3cfe8271	0.031068059
172	0x3c5e0c2f	0.0135527095
173	0xbd35ac3b	-0.044353705
174	0xbd06a7ef	-0.032874998
175	0x3cec035b	0.028810194
176	0xbbef2840	-0.0072984993
177	0x3cd0574c	0.025432251
178	0x3d0d7c03	0.034542095
179	0xbc589d56	-0.013221106
180	0xbccd543a	-0.025064576
181	0xbd26a664	-0.040686026
182	0x3c76ee32	0.015071439
183	0x3caead28	0.021322802
184	0xbc1825fd	-0.009286401
185	0xbd32964c	-0.043600366
186	0xbcf6f0d5	-0.030144135
187	0xbb269d32	-0.0025423286
188	0x3ca8dcb2	0.020613048
189	0xbc761a35	-0.015020897
190	0xbcf61342	-0.03003848
191	0xbd030763	-0.031989466
192	0x3d21f0fe	0.03953647
193	0x3c6c988d	0.014440668
194	0xbd0beb5a	-0.034159996
195	0xbcebf22e	-0.028802004
196	0xbd19dbbd	-0.037563074
197	0x3bac1fe6	0.005252826
198	0xbca09826	-0.0196038
199	0xba956603	-0.00113982
200	0xbc0d0fe7	-0.008609748
201	0xbd242298	-0.040072054
202	0xbd279162	-0.040910132
203	0xbd1255a5	-0.03572621
204	0xbc9f2de0	-0.019431055
205	0x3bea5407	0.00715113
206	0xbcb6ade7	-0.02229972
207	0xbb576fdd	-0.0032873072
208	0xbbd89437	-0.0066094655
209	0x3d1fa6c8	0.038977414
210	0xbc971e57	-0.018447084
211	0x3d31c9f1	0.043405477
212	0xbd03295d	-0.03202187
213	0xbd1d3dbd	-0.038388956
214	0x3c4b4c30	0.012408301
215	0xbcc6e947	-0.024281157
216	0x3cb9e760	0.022693336
217	0xbcc9b09d	-0.024620349
218	0x3d11271a	0.03543768
219	0x3d2a4a7c	0.04157494
220	0x3b9418d3	0.004519561
221	0x3c043eff	0.00807166
222	0x3d2f726b	0.042833727
223	0x3ccd1b09	0.025037305
224	0xbd1b5ad1	-0.037928406
225	0xba43b6e1	-0.0007465911
226	0xbd1be3a3	-0.03805889
227	0x3d11d766	0.03560581
228	0xbc1cfc13	-0.009581584
229	0x3a183072	0.0005805559
230	0xbcec4be6	-0.028844785
231	0xbcbcd004	-0.023048408
232	0x3baeb1dd	0.0053312615
233	0x3d1b4e61	0.037916545
234	0xbcc02b8b	-0.023458263
235	0x3bb80095	0.0056153038
236	0x3d1fb6f9	0.038992856
237	0x3d2960e3	0.041352164
238	0xbbe0e81a	-0.006863606
239	0x3d2c5599	0.04207382
240	0x3c735ee5	0.014854168
241	0x3d2a965d	0.041647304
242	0x3a67db50	0.0008844631
243	0xbd1a1c70	-0.037624776
244	0xbc569ae2	-0.01309845
245	0x3c738d2c	0.014865201
246	0x3cb511f3	0.022103285
247	0xbd2c6e68	-0.04209748
248	0x3d0934e5	0.03349771
249	0xbd1c8743	-0.038214933
250	0x3cc896fd	0.02448606
251	0x3d2cc7e2	0.04218281
252	0x3c399627	0.011327303
253	0xbbeb300a	-0.0071773576
254	0x3cbcd884	0.023052461
255	0xbc45765b	-0.012052144

fc2.bias f4 [256]
0	0xbc550f46	-0.01300413
1	0x3d079a86	0.03310635
2	0xbcf60749	-0.03003277
3	0xbd1b8762	-0.037970908
4	0xbcb8a05f	-0.022537408
5	0x3cd06d6b	0.0254428
6	0xbd04739f	-0.032336827
7	0x3d04816e	0.032349996
8	0x3d032d75	0.032025773
9	0x3d05e45d	0.032688487
10	0x3c3001f3	0.010742652
11	0x3c61caa2	0.013781222
12	0x3c712d44	0.014720265
13	0x3d067b90	0.032832682
14	0xbc640f24	-0.013919625
15	0x3d2fd706	0.04292967
16	0xbd3c6d23	-0.04600252
17	0xbd1ea018	-0.038726896
18	0xbd0237db	-0.03179155
19	0x3d0f4036	0.034973346
20	0xbbd46778	-0.006482061
21	0xbd0a1fb2	-0.033721633
22	0xbce2d3ab	-0.027688822
23	0xbada20f1	-0.0016641897
24	0x3c5b85cf	0.013398602
25	0x3d239df1	0.039945547
26	0x3ca600ac	0.020263992
27	0x3b981b8f	0.004641957
28	0xbb138b32	-0.0022513387
29	0x3ce0564a	0.027384896
30	0xbc356ee6	-0.0110738035
31	0xbbaccfe6	-0.005273807
32	0x3d1f15a0	0.038838983
33	0xbd012138	-0.03152582
34	0x3cbe1f3d	0.023208255
35	0xbcedeac6	-0.029042613
36	0xbd2067b7	-0.03916141
37	0x3c8cb03b	0.017173877
38	0xbd189d81	-0.037259582
39	0x3d1120a0	0.035431504
40	0xbc8a79fa	-0.016903866
41	0xbd1ac308	-0.037783653
42	0xbd307319	-0.043078516
43	0x3d1579a9	0.036492977
44	0xbd340215	-0.043947298
45	0x3c92b6d1	0.01790944
46	0xbcc40101	-0.02392626
47	0x3c6104a3	0.013734016
48	0x3cf38284	0.02972532
49	0xbc32bfbf	-0.010909974
50	0x3cea1520	0.028574526
51	0xbc7aa723	-0.015298638
52	0x3bcc01ba	0.0062257918
53	0xbcf36fc7	-0.029716386
54	0x3cd55b7e	0.026044603
55	0x3bf9aa44	0.007619174
56	0x3b6f41a3	0.0036507628
57	0x3cf719a2	0.03016359
58	0xbd24dfba	-0.040252425
59	0x3c8c9ca9	0.017164545
60	0xbbd743bd	-0.0065693543
61	0xbc89d58f	-0.016825465
62	0xbbda4449	-0.0066609723
63	0x3af10f9f	0.0018391496
64	0x3d13baff	0.036067005
65	0xbd2aadcc	-0.041669652
66	0x3c9b9736	0.018993001
67	0x3ca1f4a1	0.019769968
68	0xbd24e5f4	-0.040258363
69	0xbc1dbfba	-0.009628231
70	0xbc7dce97	-0.015491149
71	0x3d07fe77	0.03320166
72	0xbd062163	-0.032746684
73	0x3cdcfae3	0.0269751
74	0x3c866bb2	0.016408775
75	0x3d1c206f	0.03811687
76	0x3d11b479	0.035572503
77	0xbb27bf08	-0.0025596041
78	0xbcb6d23b	-0.022317043
79	0x3d2f7916	0.042840086
80	0xbc8bfdb2	-0.017088745
81	0xbb7ce4cb	-0.003858852
82	0x3c81ef6b	0.015861234
83	0x3cd2fca7	0.02575524
84	0x3ce9da5e	0.028546508
85	0xbca7dfb8	-0.02049242
86	0x3cdca2ff	0.026933191
87	0xbc909551	-0.017649325
88	0x3afbbb8a	0.0019205671
89	0xbd34b294	-0.044115618
90	0xbb2dd74e	-0.0026526037
91	0xbc3171ca	-0.010830352
92	0xba93d2cc	-0.0011278032
93	0x3d13e64f	0.03610831
94	0xbc5faf66	-0.013652658
95	0x3c734241	0.014847339
96	0xbcd41d77	-0.025892956
97	0x3ce82ebc	0.028342597
98	0xbc888cf1	-0.016668769
99	0x3c962526	0.01832826
100	0x3cc49f2d	0.024001682
101	0x3cbe2874	0.023212649
102	0x3d0bf983	0.0341735
103	0xbd0c038a	-0.034183063
104	0xbb11953d	-0.0022214197
105	0xbbc831af	-0.0061094384
106	0xbd282c7f	-0.04105806
107	0xbb96dbc0	-0.004603833
108	0x3d46c73d	0.048529852
109	0xbc638a4e	-0.013887955
110	0x3d19a91f	0.037514802
111	0xbc33c3bf	-0.0109719625
112	0xbcd72e70	-0.02626726
113	0x3cf40f3b	0.029792419
114	0xbc728442	-0.0148020405
115	0x3d11803d	0.03552269
116	0xbd317822	-0.04332746
117	0xb9025c19	-0.00012432075
118	0xbcb35a05	-0.02189351
119	0xbd2e3e0a	-0.042539634
120	0x3c85f6b3	0.016352987
121	0xbd36a283	-0.044588577
122	0x3d23d70d	0.04000001
123	0x3c9fda78	0.019513354
124	0xbccb87a1	-0.024844946
125	0xbc9c1da2	-0.019057099
126	0xbb3f9df0	-0.0029238425
127	0x3d153ac1	0.036432985
128	0xbc56cc69	-0.013110259
129	0x3d14f291	0.03636414
130	0xbcf58299	-0.0299695
131	0x3b9d5dba	0.004802433
132	0x3d3b883f	0.04578423
133	0x3ca9c23f	0.020722507
134	0xbbf5528e	-0.007486648
135	0x3ca168ff	0.019703386
136	0x3b61e653	0.003446956
137	0x3c469134	0.01211958
138	0x3cb2642b	0.02177628
139	0x3d2962d4	0.041354015
140	0xbcc37c8b	-0.023863098
141	0x3d0c8b18	0.034312338
142	0x3bb542cb	0.005531644
143	0x3d17b65f	0.037039157
144	0x3c144073	0.009048569
145	0x3a871761	0.001030665
146	0x3cacd5f5	0.021098116
147	0x3c9239bb	0.017849794
148	0x3cfd9b1e	0.030957755
149	0xbcd911f8	-0.026497826
150	0x3d0f21c2	0.034944303
151	0x3d008382	0.031375416
152	0x3d2fccf3	0.042920064
153	0xbd272b41	-0.040812735
154	0xbd391fb7	-0.04519626
155	0xbce6841d	-0.028139168
156	0xbcafa389	-0.021440284
157	0x3ce8a1d7	0.028397484
158	0x3c34c948	0.011034317
159	0xbc894e96	-0.016761106
160	0x3c03e52a	0.008050242
161	0xbc7c7e21	-0.015410931
162	0xbccfa357	-0.025346441
163	0x3d2e3b0d	0.042536784
164	0x3c2f9e67	0.010718918
165	0x3d194b7c	0.037425503
166	0x3d1a891a	0.037728406
167	0xbcc57618	-0.024104163
168	0xbd190f83	-0.03736831
169	0xbd155052	-0.036453553
170	0x3cc61055	0.02417771
171	0xbcdd037a	-0.026979197
172	0x3bd78b22	0.006577865
173	0x3a89be3a	0.0010508962
174	0xbcfc70f9	-0.030815588
175	0xb912baee	-0.00013993282
176	0xbc4dbdaa	-0.0125574265
177	0xbc54660f	-0.012963786
178	0xbd1f6e24	-0.038923398
179	0xbc989da0	-0.018629849
180	0xbc4333ae	-0.011914177
181	0xbd0f4b45	-0.034983892
182	0xbd1b60f5	-0.037934262
183	0xbce9ed9d	-0.028555686
184	0xbbab77bf	-0.0052327807
185	0xbd3021de	-0.04300105
186	0x3c7fccb8	0.015612774
187	0xbcf92fd0	-0.030418307
188	0xbcccf26e	-0.025017943
189	0xbcbf5baa	-0.023359139
190	0x3c6f79a6	0.014616406
191	0x3ceac7de	0.028659757
192	0x3bb60854	0.005555192
193	0x3cc6f881	0.024288418
194	0x3c231a8b	0.009955059
195	0x3729bc58	1.0117037e-05
196	0x3ca60842	0.02026761
197	0xbd2389a7	-0.039926197
198	0xbce1d2b4	-0.027566291
199	0x3d38ca64	0.04511489
200	0x3c00f0e6	0.007869935
201	0xbd2272a9	-0.03966013
202	0x3bd8cf5d	0.0066165165
203	0xbd1a7b22	-0.037715085
204	0xbc8cc02e	-0.017181482
205	0xbc384256	-0.0112462845
206	0xbce516c3	-0.027964955
207	0xbd239758	-0.039939255
208	0xbc05f04d	-0.008174968
209	0xbbeda450	-0.0072522536
210	0xbcf2c05f	-0.029632745
211	0xbb32dd1c	-0.0027292436
212	0xbd14b1be	-0.03630232
213	0x3d1605c9	0.03662661
214	0xbc074f4f	-0.008258655
215	0x3d29472b	0.041327637
216	0x3c147cf9	0.009062999
217	0xbd2a0178	-0.041505307
218	0x3d3a820d	0.045534182
219	0x3ceb86c8	0.028750792
220	0xbc3742f4	-0.011185396
221	0x3cb9e261	0.022690954
222	0xbcdd2173	-0.026993489
223	0xbcdf2865	-0.027240941
224	0xbcc98c32	-0.024602983
225	0x3cdf257d	0.027239555
226	0xbbe5f450	-0.0070176497
227	0xbaf99e57	-0.0019044381
228	0xbd1d9516	-0.038472258
229	0x3ca05534	0.019571878
230	0x3ba0fb9d	0.004912807
231	0xbd31bcb9	-0.04339287
232	0x3c223dfb	0.009902473
233	0x397adc5c	0.00023923948
234	0x3c3cda34	0.011526633
235	0xbd023df0	-0.03179735
236	0xbcde5dc5	-0.027144322
237	0xbb4ade92	-0.0030955416
238	0x3b01d693	0.0019811734
239	0x3d079c3f	0.033107992
240	0x3d0cabea	0.034343638
241	0x3c0252a4	0.007954273
242	0xbb2aa233	-0.002603662
243	0xbb886dc9	-0.004163478
244	0x3d01867d	0.0316224
245	0xbd201e20	-0.03909123
246	0x3cd46f63	0.02593202
247	0xbcebeb47	-0.028798712
248	0xbcc280de	-0.02374309
249	0xbcb7557b	-0.022379627
250	0xbd131536	-0.0359089
251	0x3c0edc37	0.0087194955
252	0xbc4ddf6a	-0.012565473
253	0xbc0390ba	-0.008030111
254	0xbcefb7b6	-0.029262405
255	0x3d0cd03a	0.034378268

fc3.weight f4 [128, 256]
0	0xbc87b70e	-0.01656678
1	0xbd1211a1	-0.035661343
2	0x3ce156c8	0.0275072
3	0x3d51f946	0.051263116
4	0xbc99e68d	-0.018786693
5	0xbd6d7d97	-0.0579811
6	0x3ce3aa43	0.027791148
7	0x3d3154c4	0.04329373
8	0x3d07bbd6	0.03313812
9	0x3d3db624	0.04631628
10	0x3d2d11f3	0.042253446
11	0xbd4472aa	-0.047960915
12	0xbd3d8e53	-0.04627831
13	0x3cfe333f	0.031030295
14	0x39c90e25	0.00038348246
15	0x3d22b162	0.039719947
16	0x3d3d69ec	0.046243593
17	0xbc2c2e27	-0.01050905
18	0xbd748537	-0.059697356
19	0x3c1cc355	0.009568055
20	0x3ce2c5b9	0.027682172
21	0x3cca887b	0.024723282
22	0x3b7a40c9	0.0038185588
23	0xbc8ffe62	-0.017577354
24	0x3d3a7939	0.045525763
25	0x3d23c0ca	0.03997878
26	0x3d655e01	0.055997852
27	0xbd0b01b7	-0.033937182
28	0xbcaebfd0	-0.021331698
29	0x3ce2b4dc	0.027674131
30	0x3d5159de	0.051111095
31	0x3d844387	0.06458192
32	0xbd4ad886	-0.0495229
33	0x3ca06ce5	0.019583175
34	0x3ca7c333	0.02047882
35	0xbd1be70e	-0.038062148
36	0xbc2244fd	-0.009904143
37	0x3cbebacd	0.023282433
38	0xbc8117fb	-0.015758505
39	0x3d30270f	0.043006
40	0xbc1b540b	-0.009480487
41	0xbc06be80	-0.00822413
42	0x3c93d80f	0.01804736
43	0xbcbc83a3	-0.023011988
44	0xbd1928e8	-0.037392527
45	0x3d4b40fd	0.049622525
46	0x3c39600e	0.011314405
47	0xbd552933	-0.052041244
48	0x3d4d7d19	0.05016813
49	0x3d0abb59	0.033870075
50	0xbc34b946	-0.011030501
51	0xbced9695	-0.029002467
52	0xbcbf1026	-0.02332313
53	0xbccd55fa	-0.02506541
54	0x3d535134	0.051591113
55	0x3c2fe6e1	0.010736198
56	0x3b61011b	0.0034332934
57	0xbcc5ece7	-0.024160815
58	0x3d776f3f	0.060408827
59	0xbd5a5c08	-0.053310424
60	0xbd503897	-0.05083522
61	0xbd17e234	-0.03708096
62	0x3d50ea73	0.05100484
63	0x3cceaf3a	0.025230039
64	0xbd714a55	-0.05890878
65	0xbd3c7e29	-0.046018753
66	0xbc20b19d	-0.009807971
67	0x3d321d50	0.043484986
68	0x3b379e67	0.0028018
69	0x3d856956	0.06514232
70	0xbd4a14b2	-0.049336143
71	0x3cce0196	0.02514724
72	0xbc820485	-0.015871296
73	0x3c6dd6e8	0.01451657
74	0xbc731dbc	-0.014838632
75	0xbd2b2cf7	-0.04179093
76	0xbd653a4a	-0.055963792
77	0xbd3db068	-0.046310812
78	0xbd0fea16	-0.03513535
79	0xbd655d0f	-0.05599695
80	0x3c6e3031	0.014537857
81	0xbc72396c	-0.014784198
82	0x3b87cb4b	0.0041441075
83	0xbcbd9bb7	-0.02314554
84	0xbd509f30	-0.050933063
85	0xbd3fe840	-0.04685235
86	0xbcc5ec2e	-0.02416047
87	0xbd76a841	-0.060219053
88	0x3d0b74fb	0.03404711
89	0x3d1789e3	0.036996733
90	0xbd1ae053	-0.03781159
91	0x3c984ad7	0.018590374
92	0xbd270799	-0.04077873
93	0xbcbd5c21	-0.02311522
94	0xbc9181ed	-0.017762149
95	0xbd2c0a5c	-0.042002067
96	0x3cd43790	0.0259054
97	0x3c8580e3	0.01629681
98	0x3bf650a4	0.0075169373
99	0x3c052841	0.008127273
100	0xbd660255	-0.056154568
101	0x3c6a4507	0.014298684
102	0x3d38e43b	0.045139533
103	0xbd0c736f	-0.034289774
104	0xbd6194c1	-0.055073503
105	0xb97c6c55	-0.0002407295
106	0x3cefde60	0.029280841
107	0x3c5bc224	0.013412986
108	0x3d073f60	0.033019423
109	0xbbe5e8e4	-0.007016288
110	0xbbd56830	-0.0065126643
111	0xbd6ad077	-0.057327714
112	0xbd81ffda	-0.06347628
113	0xbd594d36	-0.05305215
114	0xbd53d64e	-0.05171805
115	0x3c1dbb5f	0.009627192
116	0xbc639016	-0.013889333
117	0xbcd36426	-0.02580459
118	0xbd6a0a5a	-0.05713878
119	0x3d4d4262	0.050112136
120	0xbb5339a6	-0.0032230406
121	0x3d094618	0.033514112
122	0xbd56902e	-0.052383594
123	0xbd1da9ba	-0.038491942
124	0x3d1799fc	0.037012085
125	0x3d28bb93	0.04119451
126	0xbd32e9d0	-0.043680012
127	0x3d45099c	0.048104867
128	0x3d0c6167	0.034272578
129	0x3d51f6a5	0.05126061
130	0xbd4a6633	-0.04941387
131	0xbd80a6b1	-0.06281794
132	0xbd60cf16	-0.054884993
133	0x3b2edb1b	0.002668089
134	0x3c9cd83e	0.019146081
135	0xbc87cb06	-0.016576301
136	0xbc7d113c	-0.0154460035
137	0x3c89420d	0.016755128
138	0xbd094611	-0.033514086
139	0xbd285f82	-0.04110671
140	0xbd5cb9c9	-0.053888116
141	0x3c4f5bec	0.012656193
142	0xbd2ff7d5	-0.04296096
143	0x3c99a43a	0.018755067
144	0xbbed0a05	-0.0072338604
145	0xbd25b6bd	-0.040457476
146	0x3d61bdc5	0.05511262
147	0x3d0e5af4	0.03475471
148	0x3d4579ba	0.04821179
149	0xbd54f996	-0.051995836
150	0xbd1c0aec	-0.038096353
151	0xbd04a0d8	-0.032379955
152	0x3bb6a9d3	0.005574444
153	0x3cf83db4	0.03030286
154	0xbd6df3f8	-0.058093995
155	0x3c9b455d	0.018953973
156	0x3d7d0466	0.061771773
157	0x3d34ba44	0.04412295
158	0xbc6a820d	-0.014313233
159	0x3ae6d936	0.0017612341
160	0xbbd08191	-0.006363102
161	0x3d5da913	0.05411632
162	0x3d535870	0.051598012
163	0xbbf2bc40	-0.007407695
164	0xbd3bf6f2	-0.045889802
165	0xbcbcba9d	-0.023038203
166	0x3d19efaf	0.037582096
167	0x3d35e5c4	0.044408575
168	0x3d133a23	0.035944115
169	0xbcd3e033	-0.025863742
170	0xbb1d24f4	-0.0023978325
171	0x3c0b3f0a	0.008498916
172	0x3cda4c59	0.026647734
173	0xbd4a0878	-0.049324483
174	0x3c7b3da2	0.015334519
175	0xbcbe7a86	-0.023251783
176	0xbc4d4693	-0.012529033
177	0x3d09aa8a	0.033609904
178	0x3ccc0161	0.024903001
179	0x3d6399fb	0.05556677
180	0x3cfb04bf	0.030641912
181	0xbd353899	-0.04424343
182	0xbb33ccd1	-0.0027435313
183	0xbd6b9203	-0.057512295
184	0xbbdc4d2a	-0.006723066
185	0xbbca8cd3	-0.0061813383
186	0x3bac0292	0.00524933
187	0x3c7c188c	0.015386712
188	0x3c82d200	0.015969276
189	0xbd69a64a	-0.05704335
190	0xbc854106	-0.016266357
191	0xbc4e45fe	-0.01258993
192	0x3d1fbcab	0.038998287
193	0xbd7d743b	-0.061878424
194	0x3b4f6f0c	0.0031651882
195	0xbd08c482	-0.03339053
196	0xbc655e29	-0.0139995
197	0xbd126864	-0.035744086
198	0x3aa2f375	0.0012432175
199	0x3cf95bd0	0.030439287
200	0xbd108acb	-0.035288613
201	0xbca57d56	-0.020201366
202	0x3d7eb79d	0.062186826
203	0xbcabce9f	-0.020972548
204	0x3c9a76de	0.018855508
205	0xbd46c080	-0.048523426
206	0x3d274925	0.04084124
207	0xb9de8c4b	-0.00042447666
208	0xbc9cb370	-0.019128531
209	0xbc950ec7	-0.018195523
210	0x3d680489	0.05664495
211	0x3d4c6bcc	0.04990749
212	0xbd1022fe	-0.03518962
213	0xbd74fe20	-0.059812665
214	0x3cbef158	0.023308441
215	0xbb8f387b	-0.0043707467
216	0x3be645fb	0.0070273853
217	0x3cf4af35	0.029868701
218	0xbd4b5aab	-0.049647015
219	0x3ce81b89	0.028333442
220	0xbd06d420	-0.032917142
221	0x3c402647	0.011727876
222	0xbbbf1298	-0.005831074
223	0xbba090b0	-0.0049000606
224	0x3d2f4ce2	0.04279793
225	0xbc49fb71	-0.012328015
226	0x3c737c35	0.014861156
227	0x3bd1d956	0.0064040823
228	0x3d72e440	0.059299707
229	0xbd45a2df	-0.04825103
230	0x3d7c8e07	0.061658885
231	0x3c86102a	0.01636513
232	0xb9a48d8b	-0.00031385975
233	0xbbcec5ad	-0.006310186
234	0xbc045878	-0.008077733
235	0x3aa6a6f1	0.0012714547
236	0xbc9b9b06	-0.01899482
237	0x3be7009a	0.0070496323
238	0x3d818a67	0.06325226
239	0xbc446c4b	-0.01198871
240	0x3cd4bb40	0.025968194
241	0xbabf31cf	-0.0014586988
242	0xbc9dddfd	-0.019270891
243	0xbc8f64bd	-0.01750409
244	0x3bff5ff6	0.007793422
245	0xbbb9352e	-0.0056520915
246	0x3c180a00	0.009279728
247	0xbd502693	-0.050818037
248	0xbb62a65f	-0.0034584028
249	0xbd56c5f4	-0.052434877
250	0xbd640032	-0.05566425
251	0xbc0967e2	-0.008386584
252	0x3c0f7236	0.008755257
253	0x3d65dc5b	0.05611835
254	0xbbb209da	-0.0054333033
255	0x3c7c746d	0.015408617

fc3.bias f4 [128]
0	0x3cccc942	0.024998311
1	0xbd0f51ee	-0.034990244
2	0x3d57f4ae	0.05272358
3	0xbd442edd	-0.047896255
4	0x3c876292	0.016526494
5	0x3bfd8514	0.0077368114
6	0x3c287b4e	0.010283304
7	0xbcb1d539	-0.021708118
8	0x3d7fbc88	0.062435657
9	0x3c12d2b6	0.00896137
10	0xbb894139	-0.0041886833
11	0xbc2c7603	-0.010526183
12	0x3cee3e62	0.02908248
13	0x3b919a3b	0.0044434345
14	0xbd3fe968	-0.046853453
15	0x3d2ffae2	0.04296387
16	0xbd01cb0b	-0.031687777
17	0x3b98eed2	0.0046671415
18	0xbd3ec8f9	-0.04657838
19	0x3bc4c15b	0.006004495
20	0x3d7053e3	0.05867375
21	0xbd207935	-0.039178092
22	0xbd57646d	-0.052586008
23	0xbb5ed94e	-0.0034004035
24	0xbd008f1a	-0.031386472
25	0xbd2b9a11	-0.041894976
26	0x3d1c2dd5	0.038129646
27	0xbd6ce4f1	-0.057835523
28	0xbcb7e801	-0.022449495
29	0x3d641073	0.05567975
30	0x3c4acbec	0.01237772
31	0x3d041fde	0.032256953
32	0xbd49ce97	-0.049269285
33	0x3cf6ec56	0.03014199
34	0x3c3c2dfc	0.011485573
35	0x3b227757	0.002479037
36	0x3d1ea7be	0.03873419
37	0xbccca0df	-0.024979053
38	0x3c4b9b1a	0.012427116
39	0x3d1e4a42	0.038645037
40	0x3c1fb6d5	0.00974818
41	0x3d5e9678	0.054342717
42	0x3d2e6d14	0.042584494
43	0x3d35edac	0.044416115
44	0xbcc8a7a2	-0.024493996
45	0x3cbb3d5f	0.022856412
46	0x3c0edff9	0.008720391
47	0x3d12767c	0.035757527
48	0xb9b2e508	-0.00034121447
49	0x3c8c6868	0.017139629
50	0xbd0af9cf	-0.033929642
51	0x3d6db90f	0.058037814
52	0x3a9519b0	0.0011375453
53	0xbd67cb5a	-0.056590416
54	0xbcaef484	-0.021356829
55	0xbd790474	-0.060795262
56	0xbc80d567	-0.015726758
57	0x3d147c4c	0.03625135
58	0x3d0cf498	0.03441295
59	0xbc902399	-0.0175951
60	0xbd23b702	-0.03996945
61	0x3b8312b6	0.0040000333
62	0x3cbbc00a	0.02291872
63	0xbb8f7dcf	-0.004379011
64	0xbbff44d9	-0.0077901897
65	0x3c9a6215	0.018845597
66	0x3d3f81a7	0.046754505
67	0x3d2f1cf0	0.042752206
68	0xbd33ca96	-0.043894373
69	0xbd18f467	-0.037342455
70	0xbba51c96	-0.005038808
71	0xbba02151	-0.004886784
72	0x3d281e82	0.04104472
73	0x3d474505	0.048649807
74	0xbba628ef	-0.0050707976
75	0xbcd2e59a	-0.025744248
76	0x3d2885fe	0.04114341
77	0x3ca2896b	0.019840917
78	0x3d38a9e7	0.045083907
79	0x3d3e0bd4	0.046398
80	0xbd06767f	-0.03282785
81	0x3c104db1	0.008807586
82	0xbd3f7923	-0.046746384
83	0xbd11e906	-0.03562262
84	0xbd6dcda6	-0.05805745
85	0xbd13f2b5	-0.036120135
86	0x3d55f6a4	0.052237168
87	0x3d227496	0.039661966
88	0x3d579b29	0.052638207
89	0xbd5b7cb9	-0.05358574
90	0x3caa4fb3	0.020789957
91	0x3b734884	0.003712208
92	0xbcf82f29	-0.030295925
93	0xbd0afaeb	-0.0339307
94	0xbd65e66f	-0.05612796
95	0x3825342f	3.9387665e-05
96	0xbcb661a5	-0.022263357
97	0xbb9d867c	-0.0048072916
98	0x3b9ff310	0.00488127
99	0x3d62e074	0.055389836
100	0xbd8038ca	-0.06260832
101	0xbcdbbdb9	-0.026823865
102	0x3c43ee73	0.011958706
103	0x3c53ecf4	0.012934912
104	0xbb7e2efb	-0.0038785327
105	0x3b832506	0.0040022163
106	0xbd38a6ba	-0.045080878
107	0xbc7d4470	-0.015458211
108	0x3cb91a99	0.02259569
109	0xbcffa6fe	-0.031207558
110	0xbd754e05	-0.05988886
111	0x3cedd8af	0.029033987
112	0x3d4c56bc	0.049887404
113	0xbd0e071d	-0.034674753
114	0x3c2637cb	0.010145138
115	0x3bb5b38a	0.0055450844
116	0xbd33b066	-0.0438694
117	0x3d074fee	0.03303521
118	0xbd791af7	-0.06081673
119	0x3d516165	0.051118273
120	0xbd092169	-0.033479128
121	0x3c1d5ace	0.009604169
122	0x3c8252f6	0.0159087
123	0x3c37e5fb	0.011224265
124	0xbb5140ee	-0.003192957
125	0x3d6b783a	0.057487704
126	0x3c916931	0.017750354
127	0xbd1788ae	-0.036995582

bn1.weight f4 [512]
0	0x3f80043c	1.0001292
1	0x3f7f23bd	0.9966391
2	0x3f801097	1.0005063
3	0x3f7fc813	0.99914664
4	0x3f7ff619	0.9998489
5	0x3f802674	1.0011735
6	0x3f7f844d	0.9981125
7	0x3f7fbc36	0.9989656
8	0x3f7ff278	0.9997935
9	0x3f7fd756	0.9993795
10	0x3f7e965d	0.99448186
11	0x3f7ff19c	0.9997804
12	0x3f801260	1.0005608
13	0x3f801617	1.0006741
14	0x3f7f99a1	0.99843794
15	0x3f7fed6d	0.9997166
16	0x3f7fe273	0.9995491
17	0x3f80195a	1.0007737
18	0x3f80226f	1.0010508
19	0x3f7fd2f8	0.9993129
20	0x3f7ff3bb	0.9998128
21	0x3f7fb64c	0.9988754
22	0x3f7fee7d	0.9997328
23	0x3f80035c	1.0001025
24	0x3f80433b	1.0020517
25	0x3f7ff4ce	0.9998292
26	0x3f7fea6c	0.99967074
27	0x3f803fc6	1.0019462
28	0x3f8022a1	1.0010568
29	0x3f7fdb52	0.9994403
30	0x3f801d3c	1.0008922
31	0x3f802214	1.00104
32	0x3f8014f2	1.0006392
33	0x3f801df8	1.0009146
34	0x3f7fa7da	0.99865496
35	0x3f7fd1db	0.9992959
36	0x3f801128	1.0005236
37	0x3f7fff60	0.99999046
38	0x3f7fb7c5	0.99889785
39	0x3f800e4d	1.0004364
40	0x3f802958	1.0012617
41	0x3f7f9d18	0.9984908
42	0x3f80006a	1.0000126
43	0x3f7feba5	0.9996894
44	0x3f7f4168	0.99709177
45	0x3f8015bc	1.0006633
46	0x3f801d27	1.0008897
47	0x3f7fd924	0.99940705
48	0x3f7fae1c	0.99875045
49	0x3f7f640d	0.9976204
50	0x3f802f45	1.0014426
51	0x3f800ff2	1.0004866
52	0x3f80110c	1.0005202
53	0x3f80247c	1.0011134
54	0x3f7f7dce	0.9980134
55	0x3f800fbd	1.0004803
56	0x3f7fcfbf	0.9992637
57	0x3f7fdf15	0.9994977
58	0x3f802486	1.0011146
59	0x3f803949	1.0017482
60	0x3f800cd9	1.0003921
61	0x3f7f8aa1	0.99820906
62	0x3f80324e	1.0015352
63	0x3f7fd7fe	0.9993895
64	0x3f7fab7e	0.9987105
65	0x3f800e72	1.0004408
66	0x3f801817	1.0007352
67	0x3f800564	1.0001645
68	0x3f7fb71f	0.99888796
69	0x3f7ffa88	0.99991655
70	0x3f7fa977	0.9986796
71	0x3f801c27	1.0008591
72	0x3f803162	1.001507
73	0x3f801d32	1.000891
74	0x3f803453	1.0015968
75	0x3f7fe884	0.99964166
76	0x3f7ff21d	0.9997881
77	0x3f7fa35e	0.99858654
78	0x3f7fe9fb	0.999664
79	0x3f80255d	1.0011402
80	0x3f800759	1.0002242
81	0x3f802c63	1.0013546
82	0x3f802f5d	1.0014454
83	0x3f806fbf	1.0034102
84	0x3f7fb2f6	0.9988245
85	0x3f7fe25d	0.9995478
86	0x3f7fdbef	0.9994497
87	0x3f802d2d	1.0013787
88	0x3f7fbcf3	0.9989769
89	0x3f7fa3ff	0.99859613
90	0x3f801f56	1.0009563
91	0x3f802281	1.001053
92	0x3f803bf4	1.0018296
93	0x3f800022	1.000004
94	0x3f803b41	1.0018083
95	0x3f800244	1.0000691
96	0x3f7fd85c	0.99939513
97	0x3f804c6a	1.002332
98	0x3f7ffc81	0.99994665
99	0x3f801df0	1.0009136
100	0x3f8015b3	1.0006622
101	0x3f802578	1.0011435
102	0x3f800f70	1.0004711
103	0x3f7ffff2	0.99999917
104	0x3f7fac40	0.9987221
105	0x3f803060	1.0014763
106	0x3f800104	1.000031
107	0x3f8015ee	1.0006692
108	0x3f7fcfd5	0.999265
109	0x3f7f9fae	0.99853027
110	0x3f7fc343	0.9990732
111	0x3f80072f	1.0002192
112	0x3f7fb68f	0.9988794
113	0x3f7f9f91	0.99852854
114	0x3f7ff16d	0.9997776
115	0x3f803968	1.0017519
116	0x3f7f8d22	0.99824727
117	0x3f7ff2d5	0.9997991
118	0x3f8011df	1.0005454
119	0x3f80071e	1.0002172
120	0x3f7fdbfe	0.99945056
121	0x3f80095d	1.0002857
122	0x3f800b8e	1.0003526
123	0x3f80078b	1.0002302
124	0x3f7fb831	0.9989043
125	0x3f7f96cc	0.9983947
126	0x3f7f488d	0.9972008
127	0x3f7ff3b7	0.99981254
128	0x3f7faab3	0.9986984
129	0x3f7fd159	0.99928814
130	0x3f7fef3b	0.9997441
131	0x3f7ffd9c	0.9999635
132	0x3f800f9b	1.0004762
133	0x3f8031dc	1.0015216
134	0x3f80062c	1.0001884
135	0x3f7fbbba	0.99895823
136	0x3f7f6ded	0.9977711
137	0x3f7f9709	0.99839836
138	0x3f7fdd13	0.9994671
139	0x3f7f98bf	0.9984245
140	0x3f7fdb9e	0.99944484
141	0x3f804919	1.0022308
142	0x3f800a14	1.0003076
143	0x3f802ec7	1.0014275
144	0x3f800b08	1.0003366
145	0x3f7f7642	0.9978982
146	0x3f8034f6	1.0016162
147	0x3f8025ce	1.0011537
148	0x3f8007f3	1.0002426
149	0x3f8019e9	1.0007907
150	0x3f7ff321	0.9998036
151	0x3f803994	1.0017571
152	0x3f800121	1.0000345
153	0x3f802491	1.0011159
154	0x3f801008	1.0004892
155	0x3f7ff6a9	0.9998575
156	0x3f801353	1.0005897
157	0x3f7f161e	0.99643123
158	0x3f7f9ac1	0.9984551
159	0x3f7fe5cf	0.99960035
160	0x3f7ff587	0.9998402
161	0x3f801c9d	1.0008732
162	0x3f7fe926	0.9996513
163	0x3f7f0d19	0.9962936
164	0x3f800da9	1.0004169
165	0x3f8015b4	1.0006623
166	0x3f7feb66	0.99968565
167	0x3f802ddc	1.0013995
168	0x3f8035c7	1.0016412
169	0x3f80066e	1.0001962
170	0x3f7fdea7	0.99949116
171	0x3f801d77	1.0008992
172	0x3f801e49	1.0009242
173	0x3f8004ec	1.0001502
174	0x3f7fa088	0.99854326
175	0x3f7fc9e1	0.9991742
176	0x3f7ff148	0.9997754
177	0x3f801cba	1.0008767
178	0x3f7fe67b	0.9996106
179	0x3f8007f5	1.0002428
180	0x3f800ad7	1.0003308
181	0x3f800e31	1.0004331
182	0x3f7fbbd0	0.99895954
183	0x3f7f8a58	0.9982047
184	0x3f801e7e	1.0009305
185	0x3f80068e	1.0002
186	0x3f80124d	1.0005585
187	0x3f800f84	1.0004735
188	0x3f804863	1.0022091
189	0x3f7ff8ee	0.9998921
190	0x3f7fd777	0.9993815
191	0x3f8005c1	1.0001756
192	0x3f7ff8fa	0.99989283
193	0x3f7f4401	0.9971314
194	0x3f8014e2	1.0006373
195	0x3f7fc443	0.99908847
196	0x3f800139	1.0000373
197	0x3f800ce2	1.0003932
198	0x3f7fec57	0.9997
199	0x3f801c96	1.0008724
200	0x3f800359	1.0001022
201	0x3f802603	1.00116
202	0x3f7fe039	0.9995151
203	0x3f8014e8	1.000638
204	0x3f7fedf9	0.9997249
205	0x3f800933	1.0002807
206	0x3f7fe926	0.9996513
207	0x3f800537	1.0001591
208	0x3f801ce7	1.000882
209	0x3f7ff1af	0.99978155
210	0x3f7fd3d3	0.99932593
211	0x3f7fb517	0.99885696
212	0x3f7f9eaf	0.99851507
213	0x3f804579	1.0021201
214	0x3f8003b4	1.000113
215	0x3f8004fc	1.0001521
216	0x3f7f30a1	0.99683577
217	0x3f7fd3a4	0.9993231
218	0x3f7fe1ff	0.9995422
219	0x3f800f76	1.0004718
220	0x3f801e5e	1.0009267
221	0x3f801e97	1.0009335
222	0x3f7ffdfe	0.99996936
223	0x3f80167c	1.0006862
224	0x3f7fad06	0.9987339
225	0x3f7fa598	0.9986205
226	0x3f7ff10b	0.9997718
227	0x3f801385	1.0005957
228	0x3f7fa283	0.9985735
229	0x3f8009c1	1.0002977
230	0x3f7ff736	0.9998659
231	0x3f7f5727	0.9974236
232	0x3f801870	1.0007458
233	0x3f8017f7	1.0007313
234	0x3f7ffb11	0.9999247
235	0x3f7ff262	0.9997922
236	0x3f7fe6e9	0.99961716
237	0x3f7ffa9e	0.99991786
238	0x3f7fdea0	0.99949074
239	0x3f7fb252	0.9988147
240	0x3f802836	1.0012271
241	0x3f8003b2	1.0001128
242	0x3f7fd114	0.999284
243	0x3f7fc52c	0.99910235
244	0x3f803eba	1.0019143
245	0x3f800556	1.0001628
246	0x3f7fdce9	0.9994646
247	0x3f7fd724	0.99937654
248	0x3f801a1b	1.0007967
249	0x3f80221d	1.001041
250	0x3f7fed44	0.99971414
251	0x3f8038b5	1.0017306
252	0x3f801a2a	1.0007985
253	0x3f800762	1.0002253
254	0x3f80149f	1.0006293
255	0x3f801d1a	1.0008881
