data/rl4wound_paper_res/ctr/models_map524/agent_ctr_True_ep_1044.pth (torch, 950255 bytes, 21 tensors)

fc1.weight f4 [512, 5]
0	0xbbaf588d	-0.0053511322
1	0x3e76f481	0.24116708
2	0xbebb0145	-0.36524406
3	0xbea693e1	-0.32534698
4	0xbe313b35	-0.17307742
5	0x3def5c37	0.116875105
6	0xbc0c0630	-0.008546397
7	0x3eb5f656	0.35539502
8	0xbd228d49	-0.03968552
9	0x3df3045b	0.11866065
10	0xbe09ca46	-0.13456067
11	0xbdb76844	-0.08955434
12	0xbeda4bad	-0.4263586
13	0xbe97db98	-0.29659724
14	0xbe39fcfb	-0.1816291
15	0x3c901a99	0.017590808
16	0x3e3612fa	0.17780676
17	0x3e8862af	0.2663779
18	0xbe9c1682	-0.30485922
19	0xbe487faa	-0.1957995
20	0x3e26d450	0.16291928
21	0x3ebc74f0	0.36807966
22	0xbdbe77dd	-0.09300206
23	0x3eac2eae	0.33629364
24	0xbd8fbbcc	-0.07018241
25	0x3d3b263e	0.045690767
26	0x3ed057f1	0.40692094
27	0xbed3f0dc	-0.413947
28	0xbe8df9c2	-0.27729613
29	0xbdeddeb4	-0.11614743
30	0xbe32dc89	-0.1746694
31	0x3ec477d7	0.3837268
32	0xbe933a0f	-0.28755233
33	0xbe55b2bf	-0.20868967
34	0xbe9ea804	-0.3098756
35	0xbed650a8	-0.4185841
36	0xbe83f3d7	-0.25771973
37	0x3ec4173a	0.3829897
38	0x3e4d7c38	0.20066917
39	0x3e5ec38d	0.21754284
40	0x3cc6245c	0.02418726
41	0xbe68c287	-0.22730456
42	0x3d958149	0.0730005
43	0xbed6b046	-0.4193136
44	0xbea636ac	-0.32463586
45	0xbe6eab23	-0.23307471
46	0x3e8fdc50	0.28097773
47	0x3e87c6e8	0.2651894
48	0xbe47e4ba	-0.19520846
49	0xbc5811d4	-0.013187844
50	0x3e9126bc	0.28349864
51	0x3ee4657c	0.44608676
52	0x3e353030	0.17694163
53	0x3d7bce63	0.061476123
54	0x3e978a5f	0.29597756
55	0xbe86540f	-0.26236007
56	0x3dab5984	0.08366683
57	0xbeb161d5	-0.34644952
58	0xbe9eac9d	-0.30991068
59	0xbe6d5220	-0.2317586
60	0x3e4bb05c	0.19891495
61	0x3e36a901	0.17837907
62	0xbe8666c4	-0.2625028
63	0x3e0c7936	0.13718113
64	0x3e7dbc0b	0.24778764
65	0xbd645045	-0.055740613
66	0x3c8c6dd3	0.017142212
67	0x3dd1f973	0.10252657
68	0x3e8c5c45	0.27414146
69	0x3edd7213	0.43251094
70	0xbeafb398	-0.34316707
71	0xbe285f49	-0.16442598
72	0x3e334102	0.17505267
73	0x3ebf28e1	0.37335876
74	0x3ec6476c	0.38726366
75	0x3eca52ba	0.3951624
76	0x3db4f4d2	0.08835758
77	0xbec77870	-0.38959074
78	0x3d282d0f	0.041058596
79	0xbe8ed5aa	-0.27897388
80	0xbed4ebdf	-0.41586205
81	0x3ecc35ae	0.39884704
82	0x3ead40c2	0.3383847
83	0xbee54330	-0.44777822
84	0x3da7c751	0.081923135
85	0xbd9c2bf9	-0.076255746
86	0xbd9028c5	-0.07039026
87	0xbe503586	-0.20332918
88	0x3e2ed5a2	0.17073682
89	0xbe887a63	-0.26655874
90	0x3e265a3c	0.16245359
91	0x3e695542	0.2278643
92	0x3ea34c48	0.31894135
93	0x3e2bf4c0	0.16792583
94	0xbee23e25	-0.44188038
95	0xbe94839b	-0.29006657
96	0x3e62c1b0	0.22144198
97	0x3dbfc3f2	0.093635455
98	0xbeb2634d	-0.34841385
99	0xbe845a33	-0.25850067
100	0x3ed7933b	0.42104515
101	0x3e989082	0.2979775
102	0xbe48e905	-0.1962014
103	0xbde2298a	-0.11043079
104	0xbedb908e	-0.42883724
105	0xbc3babef	-0.011454566
106	0xbeab9612	-0.33512932
107	0xbeb1e6f4	-0.34746516
108	0xbccb3d49	-0.024809496
109	0x3d84b939	0.06480641
110	0xbe3ac198	-0.18237913
111	0x3e885d3e	0.26633638
112	0xbe8c47c6	-0.2739851
113	0x3ece39e8	0.40278554
114	0x3e9ed321	0.31020454
115	0xbec070ec	-0.37586153
116	0xbde43697	-0.11143225
117	0x3ca53b74	0.020169951
118	0x3d88682d	0.06660495
119	0x3ddcc5ab	0.1077989
120	0x3e36cbaf	0.17851137
121	0x3cf25416	0.02958111
122	0xbe61de5b	-0.22057478
123	0x3e54f516	0.20796618
124	0xbeddafeb	-0.43298277
125	0xbe86dfb7	-0.26342556
126	0xbde12ec1	-0.10995246
127	0xbe6068b5	-0.21914943
128	0xbe2303e9	-0.1591946
129	0xbebb5e66	-0.36595458
130	0xbdbc2ab6	-0.09187834
131	0x3dc31528	0.095255196
132	0xbe95d17f	-0.29261395
133	0xbcc425ec	-0.023943864
134	0x3ea3acaa	0.3196767
135	0xbd3bb2ac	-0.04582469
136	0x3c7cea08	0.015436657
137	0xbd2472a8	-0.040148407
138	0x3db436aa	0.08799489
139	0x3e92c411	0.28665212
140	0x3ed7c9af	0.4214606
141	0x3e92d77e	0.28680032
142	0x3ed95e8b	0.42454943
143	0xbcfd21a3	-0.030899828
144	0xbecedb84	-0.40401852
145	0xbe5aac01	-0.21354677
146	0x3e99f18b	0.30067095
147	0xba327a8b	-0.00068084215
148	0xbe622625	-0.22084863
149	0xbeaf5c4b	-0.342501
150	0xbed55d58	-0.41672778
151	0xbec0f565	-0.3768722
152	0xbdbd626d	-0.09247289
153	0x3e776a40	0.24161625
154	0x3e7b17d8	0.24520814
155	0xbedd9368	-0.43276525
156	0x3e8e5a4a	0.2780326
157	0xbeb2376c	-0.3480791
158	0xbdc12c76	-0.094323084
159	0xbe3b5f67	-0.18298112
160	0xbdb06513	-0.086130284
161	0xbdbcf1af	-0.09225785
162	0xbecd08a5	-0.40045658
163	0xbec494aa	-0.38394672
164	0xbd946304	-0.07245448
165	0x3c12b12d	0.008953375
166	0xbe4cde3d	-0.20006652
167	0x3e28836d	0.16456385
168	0xbed034ad	-0.40665188
169	0xbd090021	-0.03344739
170	0x3ec9cbb1	0.39413217
171	0xbe37dfcb	-0.17956464
172	0x3ece4d54	0.40293372
173	0x3e2535e4	0.16133839
174	0xbecf6f15	-0.40514436
175	0x3e916124	0.28394425
176	0xbd54b19c	-0.051927194
177	0xbe4b2ebd	-0.19842048
178	0x3eb6519e	0.35609144
179	0xbeba0a22	-0.36335856
180	0x3d403974	0.04692979
181	0xbdba611f	-0.09100556
182	0x3ea3757d	0.31925574
183	0x3e009a04	0.12558752
184	0x3e5bc2f9	0.21461095
185	0x3e2241f0	0.15845466
186	0xbdd5c33e	-0.1043763
187	0xbdc66bba	-0.09688516
188	0xbebecaa9	-0.37263992
189	0x3e76f01a	0.24115029
190	0x3eb6813a	0.35645467
191	0x3e9cdc02	0.30636603
192	0xbea20551	-0.3164468
193	0x3c96124d	0.018319273
194	0xbea18519	-0.31546858
195	0xbe7b880b	-0.24563615
196	0xbe84b9ac	-0.25922906
197	0x3e1b7836	0.15182576
198	0xbe88ca76	-0.26716965
199	0xbc314781	-0.0108202705
200	0x3c8e765b	0.01739042
201	0x3e95f156	0.29285687
202	0xbead570b	-0.3385547
203	0xbe9c6ac9	-0.3055022
204	0xbe859576	-0.26090592
205	0x3ea0e709	0.31426266
206	0xbe26faa4	-0.1630655
207	0x3ebf8c63	0.37411794
208	0x3e273c9a	0.16331711
209	0x3d671717	0.056418505
210	0xbb4cd4d5	-0.0031254787
211	0xbdac23ec	-0.08405289
212	0x3d5fc505	0.05463125
213	0xbdd6aa01	-0.104816444
214	0xbbc4d849	-0.0060072285
215	0x3d66fd28	0.056393772
216	0xbeb599fc	-0.35469043
217	0xbe6e14b7	-0.2325009
218	0x3eba2171	0.3635364
219	0xbeb87276	-0.36024827
220	0xbce2ad2b	-0.027670464
221	0x3ee3a9b4	0.4446541
222	0x3e213d38	0.1574601
223	0x3c20c01d	0.009811428
224	0xbec6aa62	-0.38801867
225	0x3e62d023	0.2214971
226	0xbea4c5ce	-0.32182163
227	0xbe005154	-0.12531024
228	0xbe181233	-0.14850692
229	0xbd7fb42e	-0.062427692
230	0x3b9831ff	0.004644632
231	0x3ebf24e2	0.37332827
232	0x3d5ded3f	0.054181334
233	0x3ecbd25a	0.39808923
234	0x3e8c34a4	0.27383912
235	0xbe91b413	-0.28457698
236	0x3e4d2250	0.2003262
237	0xbea1bd3b	-0.31589684
238	0xbe411033	-0.18853836
239	0x3e05cf1a	0.13067284
240	0x3e18cefb	0.14922707
241	0x3eab7703	0.33489236
242	0xbe13803e	-0.1440439
243	0x390a9be2	0.00013218776
244	0x3e6bb86b	0.23019569
245	0xbedca621	-0.43095496
246	0x3ea61ab4	0.32442248
247	0xbebe5857	-0.37176773
248	0x3b8c4ce3	0.0042816265
249	0xbd9a07ab	-0.07520994
250	0xbe6f9b54	-0.23399097
251	0x3d6ae272	0.05734486
252	0x3ebd4799	0.36968687
253	0xbe0629e1	-0.13101913
254	0xbe892752	-0.26787812
255	0xbe2a6d5c	-0.1664328

fc1.bias f4 [512]
0	0xbe96ca89	-0.29451397
1	0xbea103da	-0.3144825
2	0x3e982fe3	0.29724035
3	0xbe154d8a	-0.1458036
4	0xbced0de2	-0.028937284
5	0x3e091339	0.13386239
6	0xbe8d84e4	-0.2764045
7	0x3d2a10d4	0.041519955
8	0x3e87a9e8	0.26496816
9	0xbe864a11	-0.26228383
10	0x3e04f3d7	0.12983643
11	0xbc810980	-0.0157516
12	0x3e7b7a66	0.2455841
13	0x3e980342	0.29689986
14	0x3decdf22	0.11565997
15	0x3c45ee46	0.012080735
16	0xbec54069	-0.38525704
17	0x3e36c742	0.17849448
18	0x3e8b99a8	0.27265668
19	0xbe26e6ab	-0.1629893
20	0xbee1963a	-0.44059926
21	0x3ebbf49e	0.36710066
22	0xbdd69113	-0.104768895
23	0x3db227a3	0.08698966
24	0xbe021236	-0.1270226
25	0x3e947ba0	0.29000568
26	0x3edf9a57	0.4367244
27	0x3e8f896c	0.28034532
28	0xbe0e8a36	-0.13919911
29	0x3ea1bb97	0.31588432
30	0x3e5d76ee	0.216274
31	0x3d364cf0	0.044506967
32	0xbeb87e1f	-0.36033723
33	0xbe43380a	-0.19064346
34	0xbee3111c	-0.4434899
35	0x3e98f2a6	0.29872626
36	0x3ee23e37	0.4418809
37	0x3e850415	0.25979677
38	0x3e0ea3d7	0.13929687
39	0x3dd8859b	0.10572358
40	0x3edbfbdd	0.42965594
41	0xbe67d593	-0.22640066
42	0xbe1a3050	-0.15057492
43	0xbecc3647	-0.3988516
44	0xbd2f71b3	-0.04283304
45	0x3cdf1f0c	0.027236484
46	0x3dfb1fc3	0.122619174
47	0xbe9f9261	-0.31166366
48	0xbd4a8ecd	-0.04945259
49	0xbebdcbeb	-0.3706964
50	0xbeb960fb	-0.36206803
51	0x3d70be2b	0.05877511
52	0xbedf7738	-0.43645644
53	0x3df5ccf8	0.12001985
54	0xbed3e0a8	-0.41382337
55	0xbe9f0c32	-0.31063992
56	0xbdbcfaad	-0.092275
57	0xbed98a40	-0.4248829
58	0x3eb8fd9c	0.3613099
59	0x3ebb8227	0.36622736
60	0xbe6b4860	-0.22976828
61	0x3dcabb97	0.09899061
62	0x3e6d6f9b	0.23187105
63	0x3e1167c5	0.14199741
64	0xbd6cf712	-0.057852812
65	0xbed61ea3	-0.4182025
66	0x3ea78344	0.32717335
67	0xbec97206	-0.39344805
68	0xbda4adf6	-0.08040993
69	0x3cd7dcb9	0.026350366
70	0xbe199e5b	-0.15001814
71	0xbe214062	-0.15747216
72	0xbec67f53	-0.38769016
73	0x3cb51348	0.02210392
74	0xbd496f91	-0.049178664
75	0x3ec7b7be	0.39007372
76	0xbe16452b	-0.14674823
77	0x3ead9bf5	0.33908048
78	0x3cda67bc	0.026660793
79	0xbe519230	-0.20465922
80	0xbddaf40d	-0.1069108
81	0xbd5d8241	-0.054079298
82	0x3bb8eeb8	0.005643692
83	0xbda267ae	-0.079299316
84	0x3e07dc60	0.1326766
85	0x3ebe5a2a	0.37178165
86	0x3d914dcb	0.07094916
87	0x3e25bb93	0.16184835
88	0x3e8e9515	0.27848116
89	0x3dc3bbf0	0.095573306
90	0x3e531206	0.20612344
91	0x3e700d23	0.23442511
92	0x3ed3bd69	0.41355446
93	0xbed13ef8	-0.40868354
94	0x3e1d35db	0.15352575
95	0xbca691c5	-0.02033318
96	0xbda377f2	-0.07981862
97	0xbe29f152	-0.16595963
98	0x3e870422	0.2637034
99	0x3ed17729	0.40911224
100	0xbebac80d	-0.36480752
101	0x3e764fd7	0.24053894
102	0x3e9feb5b	0.3123425
103	0x3da0250b	0.078195654
104	0x3c064ca5	0.008196984
105	0x3eaff92b	0.34369788
106	0x3c273a36	0.01020675
107	0xbde30618	-0.11085147
108	0xbd0a1ec9	-0.033720765
109	0x3e0fe6e7	0.14052926
110	0x3de2e592	0.11078943
111	0xbc979dd6	-0.01850788
112	0x3e0cba39	0.13742913
113	0x3df65e18	0.12029666
114	0xbeb7081d	-0.35748377
115	0x3de3b76f	0.111189716
116	0x3e8c7594	0.27433455
117	0x3d4dd899	0.05025539
118	0xbd254dbb	-0.040357333
119	0x3eaf6f66	0.34264678
120	0xbec7d935	-0.39032903
121	0xbe50e8b7	-0.20401274
122	0xbe4e3591	-0.20137621
123	0x3ec5abbb	0.38607582
124	0xbeddfcfe	-0.4335708
125	0x3d4cd23c	0.050005183
126	0xbee02795	-0.437802
127	0xbc801147	-0.015633238
128	0x3e2c857b	0.16847794
129	0xbdd1bcba	-0.10241075
130	0x3ede4110	0.43409014
131	0x3b2a8c85	0.0026023698
132	0xbe691af4	-0.22764188
133	0x3dec67a2	0.11543204
134	0x3e68c10a	0.22729889
135	0xba802dde	-0.0009779294
136	0x3ec3e4ba	0.38260442
137	0xbe90461f	-0.28178498
138	0x3e43a3e2	0.19105485
139	0x3e7e8278	0.24854457
140	0x3e63e384	0.22254759
141	0x3a9b8f29	0.0011868227
142	0x3df98f0c	0.12185487
143	0xbeb1e6ef	-0.347465
144	0xbeb0bce4	-0.34519112
145	0xbcdfc3e8	-0.027315095
146	0xbd7076c1	-0.058707003
147	0x3eaa1f92	0.3322721
148	0x3ea92dc9	0.33042744
149	0x3e9c3550	0.30509424
150	0xbe53e575	-0.20693
151	0xbeb30058	-0.349612
152	0xbed618f7	-0.41815922
153	0x3e2b7154	0.1674245
154	0xbecc76e5	-0.3993446
155	0xbee53319	-0.44765547
156	0xbe64810c	-0.22314852
157	0xbec32946	-0.38117427
158	0xbe38d88c	-0.18051356
159	0xbe9052e9	-0.28188255
160	0xbe6c3cc3	-0.23070054
161	0x3ed9d9d1	0.42548993
162	0xbdadfa80	-0.08495045
163	0x3ebdc01d	0.37060633
164	0x3c110f14	0.008853693
165	0xbd7b590a	-0.06136421
166	0xbe05420a	-0.13013473
167	0xbea2ded0	-0.31810617
168	0xbeb7a878	-0.3587072
169	0x3e9eb60c	0.30998266
170	0xbe0f8421	-0.14015247
171	0xbee037fe	-0.4379272
172	0x3ed1d90f	0.40985915
173	0x3c1361da	0.008995498
174	0xbe9a1770	-0.30096006
175	0xbeb46683	-0.3523446
176	0xbebf1494	-0.37320387
177	0xbec8693a	-0.39142781
178	0x3ecf5d22	0.40500742
179	0x3e9db1b1	0.3079963
180	0x3d150824	0.036384717
181	0xbec42e0c	-0.3831638
182	0xbdefe4b3	-0.11713543
183	0xbed5f273	-0.41786537
184	0x3e21ee2c	0.15813512
185	0xbdf6112a	-0.120149925
186	0xbdc39928	-0.095506966
187	0xbe0eef19	-0.13958396
188	0x3e564fe4	0.20928913
189	0x3e7d558e	0.24739668
190	0x3dc63de3	0.09679773
191	0xbd807afc	-0.062734574
192	0xbd351ff8	-0.04421994
193	0xbbeea102	-0.007282377
194	0xbeab86cc	-0.3350128
195	0x3edce2e4	0.43141854
196	0xbe45d05a	-0.19317761
197	0x3e854235	0.26027074
198	0xbe8089ce	-0.25105137
199	0x3bff639d	0.0077938573
200	0x3e1c5057	0.15265022
201	0xbed1fd25	-0.41013446
202	0x3e558587	0.20851718
203	0xbeb132ba	-0.34609014
204	0x3d7f1596	0.062276445
205	0xbdb56e25	-0.08858899
206	0x3e8441f7	0.25831577
207	0x3edf417e	0.43604654
208	0x3dbdb862	0.09263684
209	0xbc532a44	-0.012888495
210	0xbe60c4b8	-0.21950042
211	0x3e2afc2c	0.16697758
212	0xbe5a90eb	-0.21344344
213	0x3e3ba428	0.1832434
214	0xbe45f127	-0.19330274
215	0x3e9a31dd	0.30116168
216	0x3eaf9f2d	0.3430113
217	0x3e8f03f8	0.27932715
218	0x3c4453dd	0.011982885
219	0x3e51babe	0.20481393
220	0xbed25e3c	-0.4108752
221	0x3eb9bdb1	0.36277536
222	0xbdec92c8	-0.11551434
223	0x3e27a7f2	0.1637266
224	0xbd9ecf46	-0.07754378
225	0xbe159cbb	-0.14610569
226	0xbe55d4f3	-0.20882015
227	0x3e9381ed	0.28810063
228	0xbe7ad327	-0.2449461
229	0xbda6365f	-0.08115839
230	0x3e622f48	0.22088349
231	0x3d3a9657	0.04555353
232	0xbebfae13	-0.37437496
233	0xbee36d48	-0.44419312
234	0xbe5f0bf3	-0.21781902
235	0x3ed147aa	0.40874988
236	0xbea2c742	-0.31792647
237	0x3e8030f6	0.25037354
238	0x3ea3e455	0.3201014
239	0xbe3f452b	-0.18678729
240	0xbe4ba442	-0.19886878
241	0xbea4a325	-0.3215572
242	0x3d8db7cf	0.06919824
243	0xbd81b2e7	-0.06332951
244	0x3cb1fa10	0.021725684
245	0x3e46f032	0.19427565
246	0x3e43b9af	0.19113801
247	0xbe136332	-0.14393309
248	0x3d006f39	0.03135607
249	0x3de2ab08	0.11067778
250	0x3c2f153f	0.010686218
251	0x3db74474	0.08948603
252	0xbe389c8d	-0.1802847
253	0x3ebbd4e0	0.36685848
254	0xbd4506df	-0.048102256
255	0xbd74efda	-0.059799053

fc2.weight f4 [256, 512]
0	0x3d23b464	0.039966956
1	0x3d0d62bf	0.034518
2	0xbd23bd5e	-0.039975516
3	0xbc96f12d	-0.018425548
4	0x3cc06f82	0.023490671
5	0xbcd8f685	-0.026484737
6	0x3bf9ad1a	0.0076195123
7	0xbc90d06d	-0.01767751
8	0x3bf0eb08	0.0073522367
9	0x3cb6df57	0.022323294
10	0x3c5050ca	0.012714574
11	0x3cfd3f65	0.030914018
12	0xbbe07848	-0.006850276
13	0x3cc3a79f	0.023883639
14	0x3c7d005e	0.015441982
15	0xbc74cffc	-0.014942165
16	0xbd03c402	-0.03216935
17	0x3d29f9c6	0.041497968
18	0xbc38c091	-0.01127638
19	0x3d04c32b	0.03241269
20	0x3cda844e	0.026674416
21	0xbb5466ef	-0.0032409986
22	0xbd198879	-0.037483666
23	0x3b9b15aa	0.004732807
24	0xbca8df83	-0.020614391
25	0x3c39ebed	0.011347753
26	0xbc9d8b4f	-0.019231467
27	0x3d03f918	0.032219976
28	0xbd1b7e71	-0.03796238
29	0xbc481058	-0.012210928
30	0x3bfeb3cc	0.0077728983
31	0x3b606af9	0.0034243448
32	0x3d0f2e76	0.034956418
33	0xbc7f03c3	-0.015564862
34	0xbd09bd18	-0.0336276
35	0x3cf660cf	0.030075459
36	0x3c5bfe3a	0.013427312
37	0x3ce1a4f7	0.027544482
38	0xbcdde794	-0.027087964
39	0xbcd14784	-0.025546797
40	0xbc9bc9b4	-0.019017078
41	0x3b912b93	0.0044302433
42	0x3c73a7b0	0.014871523
43	0xbcc7e21f	-0.024399815
44	0xbaf64f9f	-0.001879204
45	0xbc195320	-0.009358197
46	0x3d25653b	0.040379744
47	0xbc8db074	-0.017296053
48	0x3d292cd0	0.041302502
49	0xbce5053d	-0.0279566
50	0xbc88afe6	-0.016685437
51	0xbd0366f0	-0.03208059
52	0x3d0c0062	0.034180053
53	0xbcecab70	-0.028890342
54	0x3c91d117	0.017799897
55	0xbc8f0f18	-0.017463252
56	0x3d3192e6	0.043352984
57	0x3ba410c3	0.005006881
58	0xbd16d310	-0.03682238
59	0x3bee4f4e	0.0072726374
60	0x3b879870	0.004138045
61	0xbd28088a	-0.04102377
62	0x3c18bc07	0.009322173
63	0x3d2ecfd9	0.042678688
64	0x3c33e5f6	0.01098012
65	0x3a20582e	0.00061166554
66	0xbbf7f903	-0.0075675263
67	0x3c56afda	0.01310345
68	0xbc93c31e	-0.018037375
69	0x3d2bdae7	0.04195681
70	0x3d1a2730	0.03763503
71	0x3c9a5372	0.018838618
72	0xbc902942	-0.017597798
73	0xbd2f8004	-0.042846695
74	0xbcd83e30	-0.02639684
75	0x3d35d897	0.04439601
76	0xbd213666	-0.03935852
77	0xbd32f20f	-0.043687876
78	0xbb92e2b6	-0.0044825925
79	0x3c4c9f42	0.012489142
80	0xbd37f100	-0.04490757
81	0xbd2776a6	-0.040884636
82	0x3af07212	0.0018344542
83	0xbc8a924e	-0.016915467
84	0x3d0046de	0.031317584
85	0x3c37466b	0.011186223
86	0xbd1661ec	-0.03671448
87	0xbd2082c6	-0.039187215
88	0x3d035a30	0.03206843
89	0xbbccce5a	-0.006250185
90	0xbc8fb032	-0.017540071
91	0x3c4c0571	0.012452469
92	0xbc2006b3	-0.009767222
93	0x3ca1e6c9	0.019763367
94	0x3c28d64f	0.010305001
95	0xbc98d325	-0.018655369
96	0xbd128995	-0.03577574
97	0x3cd709aa	0.026249725
98	0xbce7ab29	-0.028279858
99	0xbbc13873	-0.005896622
100	0x3be7a9cc	0.007069802
101	0xbcd07f10	-0.025451213
102	0x3cb9fe8c	0.022704385
103	0xbcf2dcfa	-0.029646385
104	0x3c19e299	0.009392404
105	0x3ba2d1fc	0.0049688797
106	0x3c744228	0.014908351
107	0xbd381612	-0.044942923
108	0x3a9c24e6	0.0011912852
109	0x3c9eb4f3	0.019373393
110	0xbce028b8	-0.027363166
111	0x3c4108a0	0.0117818415
112	0x3af970b0	0.0019030776
113	0x3d152ab4	0.036417678
114	0xbc305166	-0.010761594
115	0xbabbcb3f	-0.001432754
116	0xbca6b0c1	-0.020347955
117	0xbc1eb450	-0.009686545
118	0x3c417d43	0.01180965
119	0xbd2a2f9d	-0.041549314
120	0x3d0ba543	0.034093153
121	0x3cfa58d3	0.030559933
122	0x3c9e2f77	0.019309742
123	0x3d086456	0.033298813
124	0xbc741096	-0.0148965325
125	0x3c11f4f5	0.0089085
126	0x3a003922	0.0004891326
127	0xbd0345a6	-0.032048844
128	0xbc7938a3	-0.015211257
129	0xbc8e80fa	-0.017395485
130	0xbc27585e	-0.0102139395
131	0xbd1df4a9	-0.038563404
132	0xbd0277d1	-0.031852547
133	0xbbafe200	-0.0053675175
134	0xbbc0f9b2	-0.005889141
135	0xbd2054a6	-0.039143227
136	0x3bf404bd	0.007446854
137	0x3cba3a74	0.02273295
138	0x3d1cd354	0.038287476
139	0x3d14b2d9	0.036303375
140	0xbcffeb6a	-0.031240184
141	0xbc6d9695	-0.014501234
142	0xbcb89073	-0.022529816
143	0x3c0904af	0.008362933
144	0x3c2935a9	0.010327735
145	0x3c18a6df	0.009317129
146	0x3cd70f35	0.026252368
147	0x3cba4c0d	0.022741342
148	0xbcbb38bc	-0.022854201
149	0x3ceeebb1	0.02916512
150	0x3d00b638	0.031423777
151	0x3be70262	0.0070498446
152	0xbd21b5b1	-0.039479915
153	0xbcd65359	-0.02616279
154	0x3c556c34	0.013026286
155	0x3c849276	0.01618312
156	0x3d30ed45	0.043195028
157	0x3cab1584	0.020884283
158	0x3c90b180	0.017662764
159	0xbb333742	-0.0027346169
160	0x3cedc93f	0.029026626
161	0xbc8db0e2	-0.017296258
162	0x3c8866c0	0.016650558
163	0xbca5d108	-0.020241275
164	0xb9c67c7f	-0.0003785826
165	0x3cce6536	0.025194746
166	0x3c9e863d	0.01935112
167	0xbc3c0a61	-0.011477084
168	0xbac6eeaa	-0.0015177329
169	0xbcbf0db7	-0.02332197
170	0x3c9bdf50	0.019027382
171	0x3cfe975d	0.031078035
172	0x3c5e2874	0.013559449
173	0xbd35b83b	-0.04436515
174	0xbd06ad52	-0.032880135
175	0x3cec3ccb	0.028837582
176	0xbbef7813	-0.007308015
177	0x3cd04dca	0.025427718
178	0x3d0d8f27	0.03456035
179	0xbc595045	-0.013263767
180	0xbccd0edd	-0.025031501
181	0xbd26c35a	-0.040713646
182	0x3c76ee7a	0.015071506
183	0x3cae92ad	0.021310175
184	0xbc186ddf	-0.009303539
185	0xbd329675	-0.04360052
186	0xbcf70b78	-0.030156836
187	0xbb25c962	-0.0025297035
188	0x3ca8be00	0.020598412
189	0xbc765d45	-0.015036886
190	0xbcf61115	-0.030037442
191	0xbd0305c5	-0.031987924
192	0x3d2201fd	0.039552677
193	0x3c6c9973	0.014440882
194	0xbd0bdf50	-0.034148514
195	0xbcebe1fd	-0.028794283
196	0xbd19f7f9	-0.03759
197	0x3bab0352	0.0052189017
198	0xbca08934	-0.019596674
199	0xba9479e2	-0.0011327828
200	0xbc0d2f59	-0.008617246
201	0xbd242a45	-0.040079374
202	0xbd278841	-0.040901426
203	0xbd124935	-0.035714347
204	0xbc9f41a7	-0.019440485
205	0x3be98e54	0.0071275625
206	0xbcb6a0cf	-0.022293476
207	0xbb57bc1d	-0.003291852
208	0xbbd82677	-0.0065963822
209	0x3d1fb34a	0.038989343
210	0xbc971357	-0.01844184
211	0x3d31de41	0.04342485
212	0xbd031968	-0.03200665
213	0xbd1d4a2e	-0.03840082
214	0x3c4b27b8	0.012399606
215	0xbcc703f0	-0.02429387
216	0x3cb9bf1e	0.02267414
217	0xbcc967a3	-0.02458555
218	0x3d113558	0.035451263
219	0x3d2a4645	0.04157092
220	0x3b9455cd	0.00452683
221	0x3c0403a8	0.008057512
222	0x3d2f6f70	0.042830884
223	0x3ccd35c2	0.025050048
224	0xbd1b6f93	-0.037948202
225	0xba43b6f3	-0.0007465921
226	0xbd1bd725	-0.038046975
227	0x3d11df44	0.035613313
228	0xbc1ce2b1	-0.009575532
229	0x3a1a0c2e	0.00058764487
230	0xbcec6873	-0.028858399
231	0xbcbcdf26	-0.023055624
232	0x3bae850f	0.0053259204
233	0x3d1b5c09	0.03792957
234	0xbcc00cce	-0.023443606
235	0x3bb8bd3c	0.005637793
236	0x3d1fb46a	0.038990416
237	0x3d29669f	0.041357633
238	0xbbe05b7d	-0.0068468438
239	0x3d2c62ac	0.04208629
240	0x3c73be81	0.014876963
241	0x3d2a955b	0.041646343
242	0x3a65f9f1	0.0008772901
243	0xbd1a1517	-0.03761777
244	0xbc566efb	-0.013087983
245	0x3c739a14	0.014868278
246	0x3cb522c0	0.022111297
247	0xbd2c6349	-0.042086873
248	0x3d094d6c	0.0335211
249	0xbd1c8ebe	-0.038222067
250	0x3cc8b2b1	0.02449927
251	0x3d2cc8b7	0.042183604
252	0x3c3986ee	0.011323674
253	0xbbeae199	-0.0071680066
254	0x3cbcf2a2	0.023064915
255	0xbc451867	-0.012029744

fc2.bias f4 [256]
0	0xbc557a22	-0.013029607
1	0x3d07f55e	0.033192985
2	0xbcf532a4	-0.029931374
3	0xbd1b96c9	-0.037985597
4	0xbcb82396	-0.022477906
5	0x3cd07bfe	0.02544975
6	0xbd040917	-0.03223523
7	0x3d04914d	0.032365132
8	0x3d02e4f9	0.031956647
9	0x3d0594db	0.032612663
10	0x3c310b63	0.010805937
11	0x3c5eadd6	0.01359125
12	0x3c706060	0.014671415
13	0x3d064c82	0.032787807
14	0xbc637b8f	-0.013884439
15	0x3d2fa8c0	0.042885542
16	0xbd3c9d5a	-0.0460485
17	0xbd1e89e3	-0.038705718
18	0xbd020b22	-0.0317489
19	0x3d0f3a8e	0.03496795
20	0xbbd364eb	-0.0064512393
21	0xbd0a5262	-0.033769973
22	0xbce2cf60	-0.027686775
23	0xbad32d8d	-0.0016111598
24	0x3c5a9bc5	0.013342802
25	0x3d238016	0.039917074
26	0x3ca567bc	0.020191066
27	0x3b983875	0.004645402
28	0xbb0d1aa4	-0.0021530772
29	0x3ce020c0	0.027359366
30	0xbc33e565	-0.010979985
31	0xbbaa4b9f	-0.005197003
32	0x3d1ebe69	0.038755808
33	0xbd016e15	-0.031599123
34	0x3cbd6c8c	0.023123048
35	0xbced6d6d	-0.028982842
36	0xbd2049f2	-0.03913302
37	0x3c8cc4f6	0.017183762
38	0xbd1873c0	-0.037219763
39	0x3d113eac	0.03546016
40	0xbc8a8899	-0.016910838
41	0xbd1a8862	-0.03772772
42	0xbd3096b3	-0.043112468
43	0x3d152856	0.03641542
44	0xbd33ffb7	-0.04394504
45	0x3c92244b	0.017839571
46	0xbcc3c1fc	-0.02389621
47	0x3c624c41	0.013812126
48	0x3cf343d4	0.029695429
49	0xbc33f497	-0.010983608
50	0x3ce9a4ce	0.028520968
51	0xbc7a0d67	-0.015261984
52	0x3bcbf387	0.006224099
53	0xbcf475dc	-0.029841356
54	0x3cd53ff1	0.026031466
55	0x3bf8b270	0.007589631
56	0x3b73f3c9	0.0037224165
57	0x3cf74378	0.030183539
58	0xbd24c2be	-0.040224783
59	0x3c8c8150	0.017151505
60	0xbbd41418	-0.006472122
61	0xbc89426f	-0.01675531
62	0xbbdc0a9d	-0.0067151324
63	0x3afd3466	0.0019317984
64	0x3d137fdf	0.03601062
65	0xbd2aee5b	-0.04173122
66	0x3c9b96cf	0.01899281
67	0x3ca18f7c	0.019721739
68	0xbd24ff0b	-0.04028229
69	0xbc1e0193	-0.00964393
70	0xbc7ded45	-0.015498464
71	0x3d083503	0.03325368
72	0xbd0604c1	-0.032719377
73	0x3cdc5d05	0.026899824
74	0x3c867fd6	0.016418379
75	0x3d1c3fbb	0.038146716
76	0x3d12469a	0.035711862
77	0xbb2a2372	-0.0025961068
78	0xbcb6bee1	-0.022307815
79	0x3d2fd805	0.04293062
80	0xbc8c0250	-0.017090946
81	0xbb7cfd18	-0.0038603004
82	0x3c81acf8	0.015829548
83	0x3cd3214e	0.025772717
84	0x3ce9932b	0.028512558
85	0xbca7c1ad	-0.020478094
86	0x3cdda585	0.027056465
87	0xbc90417e	-0.017609354
88	0x3afcd9c5	0.0019290975
89	0xbd34d694	-0.04414995
90	0xbb31863d	-0.002708807
91	0xbc31c303	-0.010849717
92	0xba90bf66	-0.0011043369
93	0x3d13c1d6	0.03607353
94	0xbc6055f5	-0.013692369
95	0x3c723bdc	0.014784779
96	0xbcd4a738	-0.025958642
97	0x3ce7d026	0.028297495
98	0xbc887a59	-0.016659902
99	0x3c969956	0.018383663
100	0x3cc4e001	0.024032595
101	0x3cbe61c5	0.02323998
102	0x3d0bf082	0.034164913
103	0xbd0bebba	-0.034160353
104	0xbb0fa228	-0.002191672
105	0xbbc938df	-0.0061408128
106	0xbd27da90	-0.04097992
107	0xbb94cf7a	-0.0045413347
108	0x3d475160	0.04866159
109	0xbc6217e7	-0.013799644
110	0x3d19f36b	0.037585657
111	0xbc3465f8	-0.011010639
112	0xbcd67662	-0.026179496
113	0x3cf43237	0.0298091
114	0xbc71d1da	-0.014759505
115	0x3d10e30e	0.035372786
116	0xbd3163eb	-0.04330818
117	0xb883aae9	-6.278401e-05
118	0xbcb3ffdf	-0.021972595
119	0xbd2e7829	-0.042595062
120	0x3c86cbc5	0.016454587
121	0xbd36dad4	-0.044642285
122	0x3d23d049	0.039993558
123	0x3c9fb31a	0.019494582
124	0xbccb98df	-0.024853168
125	0xbc9c8ab3	-0.019109106
126	0xbb411ffb	-0.0029468525
127	0x3d155c84	0.036465183
128	0xbc5648c5	-0.013078873
129	0x3d14fc13	0.03637321
130	0xbcf4ca40	-0.029881597
131	0x3b9d5309	0.0048011583
132	0x3d3bbdc0	0.045835257
133	0x3caa6c9a	0.020803738
134	0xbbf57891	-0.0074911793
135	0x3ca18eb0	0.019721359
136	0x3b5d5fc6	0.003377901
137	0x3c4643cd	0.012101126
138	0x3cb2a211	0.021805795
139	0x3d295d56	0.041348778
140	0xbcc3633d	-0.023851031
141	0x3d0cebf8	0.034404725
142	0x3bb40a0c	0.0054943617
143	0x3d17b7fc	0.037040696
144	0x3c15035f	0.009095042
145	0x3a6dc801	0.00090706354
146	0x3cacf8ad	0.021114672
147	0x3c918623	0.017764157
148	0x3cfdc7d5	0.030979076
149	0xbcd964ee	-0.026537385
150	0x3d0fe694	0.035132006
151	0x3d0075f0	0.031362474
152	0x3d2fb23f	0.042894598
153	0xbd271634	-0.04079266
154	0xbd39572c	-0.04524915
155	0xbce65559	-0.028116869
156	0xbcb0b977	-0.021572812
157	0x3ce85f15	0.028365651
158	0x3c36773a	0.011136824
159	0xbc8a4609	-0.016879098
160	0x3c047d5b	0.008086528
161	0xbc7ca6f7	-0.015420667
162	0xbccfa154	-0.025345482
163	0x3d2e03f2	0.04248423
164	0x3c30dc93	0.0107947765
165	0x3d19c53b	0.03754161
166	0x3d1af1e7	0.037828352
167	0xbcc6d3ee	-0.024270978
168	0xbd1954b5	-0.0374343
169	0xbd1557f7	-0.036460843
170	0x3cc6a3db	0.024248054
171	0xbcdc65c6	-0.026903998
172	0x3bd63aff	0.0065377946
173	0x3a836ac3	0.0010026324
174	0xbcfc7654	-0.030818142
175	0xb95dbc64	-0.00021146383
176	0xbc4db4fa	-0.012555355
177	0xbc551a2f	-0.013006731
178	0xbd1ef2f3	-0.038805913
179	0xbc982884	-0.018574007
180	0xbc4463f9	-0.011986726
181	0xbd0f0a94	-0.034922197
182	0xbd1b601b	-0.03793345
183	0xbce98640	-0.028506398
184	0xbba8c120	-0.0051499754
185	0xbd309632	-0.043111987
186	0x3c7fb245	0.015606468
187	0xbcfa2cbe	-0.030538913
188	0xbccdfae4	-0.025144048
189	0xbcbf3341	-0.02333987
190	0x3c70247f	0.014657139
191	0x3cec49fa	0.028843869
192	0x3bb51039	0.0055256155
193	0x3cc75213	0.024331128
194	0x3c22dae2	0.009939881
195	0x3898e3d2	7.29036e-05
196	0x3ca67f2d	0.020324314
197	0xbd23b83a	-0.039970614
198	0xbce16000	-0.027511597
199	0x3d38fd3a	0.04516337
200	0x3c01fc6a	0.007933715
201	0xbd222ba4	-0.0395924
202	0x3bd8b990	0.0066139176
203	0xbd1a95a3	-0.03774036
204	0xbc8cd398	-0.01719074
205	0xbc3881df	-0.011261432
206	0xbce4fcd0	-0.027952582
207	0xbd235ede	-0.039885394
208	0xbc049180	-0.0080913305
209	0xbbedacfc	-0.0072532874
210	0xbcf32999	-0.029682921
211	0xbb37ae32	-0.0028027412
212	0xbd1452f6	-0.03621193
213	0x3d1635c3	0.036672365
214	0xbc062b0c	-0.008188974
215	0x3d292a3c	0.041300043
216	0x3c13cde8	0.00902126
217	0xbd2a1678	-0.041525334
218	0x3d3a7829	0.04552475
219	0x3ceb305c	0.028709583
220	0xbc348517	-0.011018059
221	0x3cba89aa	0.022770721
222	0xbcdd6c5c	-0.027029209
223	0xbcdf2d5e	-0.027243312
224	0xbcc8e154	-0.024521507
225	0x3cdea0bd	0.027176255
226	0xbbe4ee63	-0.0069864257
227	0xbaf646e8	-0.0018789442
228	0xbd1d7f1c	-0.0384513
229	0x3ca12882	0.019672636
230	0x3b9f56f8	0.0048626624
231	0xbd31c141	-0.043397192
232	0x3c230921	0.009950907
233	0x393e4684	0.00018146081
234	0x3c3c2e1c	0.011485603
235	0xbd02a7d3	-0.03189833
236	0xbcde9204	-0.027169235
237	0xbb4e3d16	-0.0031469516
238	0x3afb9613	0.0019194506
239	0x3d07cd5c	0.03315483
240	0x3d0cea0f	0.034402903
241	0x3c02ac54	0.007975657
242	0xbb2b6d3b	-0.0026157636
243	0xbb86d928	-0.0041152425
244	0x3d018cbf	0.031628367
245	0xbd1fb6be	-0.038992636
246	0x3cd417ec	0.025890313
247	0xbcebfcce	-0.02880707
248	0xbcc2f36b	-0.023797711
249	0xbcb7574c	-0.022380494
250	0xbd12ada9	-0.035810146
251	0x3c0df6d3	0.0086648045
252	0xbc4b18d5	-0.012396057
253	0xbc040bbd	-0.008059439
254	0xbcf0a4b2	-0.029375408
255	0x3d0cbad4	0.03435786

fc3.weight f4 [128, 256]
0	0xbc88468b	-0.0166352
1	0xbd11ddb5	-0.035611827
2	0x3ce0f524	0.027460642
3	0x3d523cc5	0.051327486
4	0xbc99f71e	-0.018794592
5	0xbd6d39ef	-0.057916578
6	0x3ce2c79c	0.027683072
7	0x3d316637	0.04331037
8	0x3d07c6d3	0.033148598
9	0x3d3d4df5	0.046216924
10	0x3d2cd848	0.04219845
11	0xbd443c4b	-0.047909062
12	0xbd3db97d	-0.046319474
13	0x3cfe7ad2	0.031064425
14	0x39870a30	0.00025756797
15	0x3d22ff9f	0.03979456
16	0x3d3d3569	0.046193514
17	0xbc2d05c9	-0.010560461
18	0xbd747eda	-0.059691288
19	0x3c1c8353	0.0095527945
20	0x3ce27c84	0.027647264
21	0x3cc9fa1a	0.02465539
22	0x3b7f57a8	0.003896216
23	0xbc90a9ef	-0.017659156
24	0x3d3a56d8	0.045492977
25	0x3d23abe5	0.039958853
26	0x3d652ad8	0.055949062
27	0xbd0a9e73	-0.033842515
28	0xbcae9e93	-0.021315848
29	0x3ce251ba	0.02762686
30	0x3d50fac2	0.05102039
31	0x3d841e1e	0.06451057
32	0xbd4aae40	-0.049482584
33	0x3ca037c6	0.019557845
34	0x3ca84173	0.020539021
35	0xbd1c164f	-0.038107213
36	0xbc215f05	-0.009849315
37	0x3cbf4b88	0.023351446
38	0xbc816802	-0.015796665
39	0x3d3011cf	0.042985734
40	0xbc1ae216	-0.009453317
41	0xbc0646b2	-0.008195566
42	0x3c93d64d	0.018046523
43	0xbcbd0039	-0.023071395
44	0xbd18ad60	-0.03727472
45	0x3d4c098f	0.049813803
46	0x3c3a6cb0	0.011378452
47	0xbd552fe0	-0.05204761
48	0x3d4d6142	0.05014158
49	0x3d0a9ef3	0.033842992
50	0xbc339726	-0.01096133
51	0xbced5d7a	-0.028975237
52	0xbcbef2ac	-0.023309074
53	0xbccddf71	-0.02513096
54	0x3d532ec2	0.051558264
55	0x3c2f0f50	0.010684803
56	0x3b612dba	0.003435953
57	0xbcc56393	-0.024095332
58	0x3d777fbf	0.060424563
59	0xbd59ed7b	-0.053204995
60	0xbd4fd4d5	-0.05074008
61	0xbd188455	-0.037235577
62	0x3d50bc68	0.05096093
63	0x3ccde832	0.025135133
64	0xbd719dd7	-0.05898842
65	0xbd3c72e1	-0.046007995
66	0xbc217c96	-0.009856364
67	0x3d31fbf9	0.04345319
68	0x3b337219	0.002738124
69	0x3d85868c	0.065198034
70	0xbd49e49f	-0.049290296
71	0x3ccf1de7	0.025282813
72	0xbc8204bd	-0.0158714
73	0x3c6fb696	0.014630934
74	0xbc742bbd	-0.014903006
75	0xbd2b1dab	-0.04177634
76	0xbd6579e1	-0.056024436
77	0xbd3def9e	-0.046371095
78	0xbd1031a7	-0.035203602
79	0xbd6556d8	-0.055991024
80	0x3c6f842a	0.014618913
81	0xbc72f050	-0.014827803
82	0x3b86c687	0.004113022
83	0xbcbe35cc	-0.023219012
84	0xbd50ddca	-0.050992765
85	0xbd3f9638	-0.04677412
86	0xbcc63888	-0.024196878
87	0xbd768958	-0.060189575
88	0x3d0ba4a8	0.034092575
89	0x3d17ce13	0.037061762
90	0xbd1ac572	-0.037785955
91	0x3c98909a	0.018623639
92	0xbd26ad68	-0.040692717
93	0xbcbdd367	-0.023172094
94	0xbc9245d3	-0.01785556
95	0xbd2c46bb	-0.04205964
96	0x3cd4b3d6	0.025964659
97	0x3c85a271	0.01631281
98	0x3bf4e730	0.0074738488
99	0x3c04b4a3	0.008099708
100	0xbd65d3b7	-0.05611011
101	0x3c691374	0.014225829
102	0x3d38fefe	0.045165055
103	0xbd0c2a95	-0.034220297
104	0xbd61e995	-0.0551544
105	0xb93a3962	-0.00017759719
106	0x3cf050ef	0.029335467
107	0x3c5a3f46	0.01332075
108	0x3d076d52	0.03306324
109	0xbbe80376	-0.0070804907
110	0xbbd6a3e4	-0.006550299
111	0xbd6afe36	-0.05737134
112	0xbd821113	-0.06350913
113	0xbd58ede5	-0.05296125
114	0xbd53a237	-0.051668372
115	0x3c1e8309	0.009674796
116	0xbc623d11	-0.013808505
117	0xbcd2b594	-0.025721349
118	0xbd6a65ca	-0.05722598
119	0x3d4d83d3	0.050174545
120	0xbb54fa92	-0.0032497984
121	0x3d09091c	0.033455953
122	0xbd568c8c	-0.05238013
123	0xbd1d85e1	-0.038457755
124	0x3d17d606	0.037069343
125	0x3d28b8f1	0.041192
126	0xbd32ed67	-0.043683436
127	0x3d44ed9c	0.048078164
128	0x3d0c2a45	0.03422
129	0x3d525e81	0.051359657
130	0xbd4a674e	-0.049414925
131	0xbd807bc6	-0.06273608
132	0xbd611ef4	-0.05496116
133	0x3b2eb669	0.0026659018
134	0x3c9d1fd7	0.019180221
135	0xbc887010	-0.016654998
136	0xbc7b8baa	-0.015353123
137	0x3c88f568	0.016718581
138	0xbd091199	-0.033464048
139	0xbd28b2fc	-0.041186318
140	0xbd5c6a55	-0.053812344
141	0x3c50c613	0.012742537
142	0xbd2fc355	-0.042910893
143	0x3c99a55c	0.018755607
144	0xbbee7789	-0.0072774333
145	0xbd2572a5	-0.040392537
146	0x3d61d554	0.055135086
147	0x3d0e0975	0.034676988
148	0x3d456ba8	0.048198372
149	0xbd54b8e9	-0.051934157
150	0xbd1bdaaa	-0.03805033
151	0xbd04b6be	-0.03240084
152	0x3bb8cfbf	0.0056399996
153	0x3cf9438d	0.030427719
154	0xbd6dd9bd	-0.05806898
155	0x3c9afa2e	0.018918123
156	0x3d7d620f	0.061861094
157	0x3d34df77	0.044158425
158	0xbc6bff55	-0.014404138
159	0x3ae92d66	0.0017790019
160	0xbbd0f537	-0.006376888
161	0x3d5dacb3	0.054119777
162	0x3d539503	0.05165578
163	0xbbf55d2c	-0.0074879136
164	0xbd3b6032	-0.045746036
165	0xbcbd8827	-0.023136212
166	0x3d19aaac	0.03751628
167	0x3d363065	0.044479746
168	0x3d134924	0.035958424
169	0xbcd34604	-0.025790222
170	0xbb219c73	-0.0024659901
171	0x3c0b3cb2	0.008498358
172	0x3cda895b	0.026676824
173	0xbd49d5d6	-0.049276195
174	0x3c7afd33	0.015319156
175	0xbcbe39e9	-0.023220973
176	0xbc4edead	-0.012626332
177	0x3d0a4f26	0.033766888
178	0x3ccb8b1d	0.024846608
179	0x3d63d8d2	0.055626698
180	0x3cfa8a07	0.030583395
181	0xbd34f816	-0.044181906
182	0xbb303d98	-0.0026892181
183	0xbd6b3b88	-0.05742982
184	0xbbda8546	-0.0066687195
185	0xbbca8082	-0.00617987
186	0x3bab0c44	0.005219968
187	0x3c7c01f8	0.015381329
188	0x3c82cd5c	0.015967064
189	0xbd698586	-0.057012103
190	0xbc85df01	-0.016341688
191	0xbc4f0b8b	-0.012637029
192	0x3d1fe111	0.039033
193	0xbd7d3d9a	-0.061826326
194	0x3b4bf3fd	0.003112077
195	0xbd08ed03	-0.033429157
196	0xbc64ba16	-0.013960382
197	0xbd12c98c	-0.03583674
198	0x3aaa7795	0.0013005609
199	0x3cf917c0	0.030406833
200	0xbd10d6b2	-0.035361
201	0xbca4cec5	-0.020118127
202	0x3d7f271f	0.06229317
203	0xbcac2721	-0.021014752
204	0x3c9b2dc9	0.01894273
205	0xbd46be3f	-0.048521277
206	0x3d275c54	0.040859535
207	0xb9aa3ca9	-0.00032470122
208	0xbc9d3884	-0.019191988
209	0xbc947863	-0.018123811
210	0x3d67ce85	0.056593437
211	0x3d4c6dca	0.04990939
212	0xbd0fabf7	-0.035076108
213	0xbd74fd37	-0.059811797
214	0x3cbf777c	0.023372404
215	0xbb8e2ac3	-0.0043385937
216	0x3be79806	0.007067683
217	0x3cf57d7b	0.02996706
218	0xbd4af64d	-0.049551297
219	0x3ce734f3	0.02822349
220	0xbd06bc3c	-0.032894358
221	0x3c3eee04	0.011653427
222	0xbbbf50a4	-0.0058384705
223	0xbba30a35	-0.004975582
224	0x3d2f8cf3	0.04285903
225	0xbc4a85f0	-0.012361035
226	0x3c7502f5	0.014954318
227	0x3bd45b87	0.0064806375
228	0x3d730472	0.05933041
229	0xbd45a55a	-0.048253395
230	0x3d7ce0fe	0.061738007
231	0x3c85e6cb	0.016345402
232	0xb9d842f5	-0.00041248617
233	0xbbcfcc1e	-0.0063414713
234	0xbc040a9c	-0.00805917
235	0x3a9c5e13	0.0011929892
236	0xbc9b456d	-0.018954003
237	0x3be80c6d	0.0070815594
238	0x3d819fe1	0.063293226
239	0xbc4374f7	-0.011929742
240	0x3cd48426	0.02594192
241	0xbaba0d9a	-0.0014194727
242	0xbc9dddbf	-0.019270776
243	0xbc8f1177	-0.017464383
244	0x3bffb9e4	0.0078041423
245	0xbbbb6a86	-0.0057194857
246	0x3c177c15	0.009245892
247	0xbd4ffe24	-0.050779477
248	0xbb5fef37	-0.0034169683
249	0xbd56d259	-0.052446697
250	0xbd63a963	-0.05558146
251	0xbc08c602	-0.00834799
252	0x3c10cdd2	0.008838134
253	0x3d6612aa	0.056170143
254	0xbbb536a6	-0.0055301962
255	0x3c7d2769	0.015451291

fc3.bias f4 [128]
0	0x3ccc9603	0.024973875
1	0xbd0f2228	-0.034944683
2	0x3d58783e	0.052849047
3	0xbd449d03	-0.0480013
4	0x3c88b989	0.016690033
5	0x3bfd0e3c	0.007722644
6	0x3c298a12	0.01034786
7	0xbcb1bfab	-0.02169784
8	0x3d800592	0.062510625
9	0x3c13b7cb	0.009015988
10	0xbb8aacdb	-0.0042320318
11	0xbc280c11	-0.010256783
12	0x3cf061df	0.029343544
13	0x3b952ced	0.0045524747
14	0xbd3fe8ca	-0.046852864
15	0x3d2fd5c0	0.042928457
16	0xbd017ce6	-0.031613253
17	0x3b99e793	0.0046967953
18	0xbd3e9b63	-0.046534907
19	0x3bc3d964	0.0059768427
20	0x3d707aa0	0.058710694
21	0xbd215be9	-0.039394293
22	0xbd5745c8	-0.052556783
23	0xbb55f97d	-0.0032649927
24	0xbd008c3e	-0.031383745
25	0xbd2b3388	-0.04179719
26	0x3d1b7cd8	0.037960857
27	0xbd6cf5ef	-0.057851728
28	0xbcb77320	-0.022393763
29	0x3d63f093	0.05564935
30	0x3c4a57bf	0.012350022
31	0x3d04fc40	0.032467127
32	0xbd496d72	-0.04917664
33	0x3cf56565	0.029955575
34	0x3c3c2849	0.011484214
35	0x3b1b9e6d	0.0023745552
36	0x3d1e93f2	0.03871531
37	0xbcccd578	-0.025004134
38	0x3c4bb3cd	0.012433005
39	0x3d1e6061	0.038666133
40	0x3c20f37c	0.009823676
41	0x3d5ee672	0.05441899
42	0x3d2f01f9	0.04272649
43	0x3d35cc45	0.04438426
44	0xbcc83126	-0.024437498
45	0x3cbc070c	0.022952579
46	0x3c107d80	0.008818984
47	0x3d1329df	0.035928603
48	0xb991a9c7	-0.0002778305
49	0x3c8c12c2	0.017098788
50	0xbd0b18d6	-0.033959232
51	0x3d6e1a81	0.058130745
52	0x3aa1697d	0.0012314763
53	0xbd67c8dc	-0.05658804
54	0xbcaedc12	-0.021345172
55	0xbd793f90	-0.060851634
56	0xbc808034	-0.015686132
57	0x3d14ac86	0.036297344
58	0x3d0d2f63	0.03446902
59	0xbc8fb730	-0.017543405
60	0xbd238a8b	-0.039927047
61	0x3b816aa4	0.00394948
62	0x3cbbcfec	0.022926293
63	0xbb8d7902	-0.004317404
64	0xbc00801e	-0.0078430455
65	0x3c9a6658	0.01884763
66	0x3d3fadc6	0.046796583
67	0x3d2f2c55	0.042766888
68	0xbd33b98c	-0.043878123
69	0xbd18ffa2	-0.037353165
70	0xbba04b93	-0.0048918216
71	0xbba2ce6d	-0.0049684555
72	0x3d281476	0.041035138
73	0x3d476ce3	0.048687827
74	0xbba77232	-0.0051100487
75	0xbcd3488d	-0.02579143
76	0x3d288061	0.041138057
77	0x3ca340b8	0.019928321
78	0x3d386d46	0.045026086
79	0x3d3e86d4	0.0465153
80	0xbd061e1b	-0.032743555
81	0x3c10fda5	0.008849536
82	0xbd3f7fec	-0.046752855
83	0xbd118d1b	-0.03553496
84	0xbd6dd6a2	-0.058066018
85	0xbd137141	-0.03599668
86	0x3d564536	0.0523121
87	0x3d226003	0.039642345
88	0x3d560528	0.05225101
89	0xbd5b54b8	-0.05354759
90	0x3caa8550	0.020815521
91	0x3b70fb1c	0.0036770767
92	0xbcf7e1f9	-0.03025912
93	0xbd0ad026	-0.033889912
94	0xbd65e700	-0.056128502
95	0x379d21d6	1.8731615e-05
96	0xbcb6c2e1	-0.022309722
97	0xbb9d9c0c	-0.004809862
98	0x3b9f9b7e	0.004870831
99	0x3d6356e3	0.055502784
100	0xbd803e46	-0.06261878
101	0xbcdbfc2d	-0.026853645
102	0x3c455279	0.012043589
103	0x3c5308b4	0.012880493
104	0xbb80f614	-0.003935585
105	0x3b818f6a	0.003953864
106	0xbd389a59	-0.045069072
107	0xbc7e2747	-0.015512294
108	0x3cb9e8be	0.022693988
109	0xbcffa30b	-0.031205675
110	0xbd755d71	-0.059903566
111	0x3cedca83	0.02902723
112	0x3d4c436c	0.049868986
113	0xbd0e2353	-0.034701657
114	0x3c2602ad	0.010132474
115	0x3bb548db	0.0055323667
116	0xbd33713e	-0.043809168
117	0x3d0744fd	0.033024777
118	0xbd7939aa	-0.06084601
119	0x3d529e74	0.051420644
120	0xbd095287	-0.03352597
121	0x3c1e1bd2	0.009650188
122	0x3c81efc9	0.015861409
123	0x3c38e097	0.011284015
124	0xbb4b6a33	-0.0031038641
125	0x3d6b9438	0.0575144
126	0x3c9133eb	0.017724952
127	0xbd17bfce	-0.037048154

bn1.weight f4 [512]
0	0x3f80040a	1.0001233
1	0x3f7f2376	0.99663484
2	0x3f80103d	1.0004956
3	0x3f7fc5eb	0.99911374
4	0x3f7ff432	0.9998199
5	0x3f802639	1.0011665
6	0x3f7f83f5	0.99810725
7	0x3f7fbc0d	0.9989632
8	0x3f7ff231	0.9997893
9	0x3f7fd839	0.99939305
10	0x3f7e9107	0.99440044
11	0x3f7ff197	0.9997801
12	0x3f801137	1.0005254
13	0x3f801539	1.0006477
14	0x3f7f9996	0.9984373
15	0x3f7fec70	0.9997015
16	0x3f7fe2db	0.9995553
17	0x3f8019c5	1.0007864
18	0x3f802280	1.0010529
19	0x3f7fd403	0.9993288
20	0x3f7ff3f1	0.999816
21	0x3f7fb71d	0.99888784
22	0x3f7fef1e	0.9997424
23	0x3f80040a	1.0001233
24	0x3f80426f	1.0020274
25	0x3f7ff3cc	0.9998138
26	0x3f7fe924	0.9996512
27	0x3f803f6f	1.0019358
28	0x3f802190	1.0010242
29	0x3f7fdb81	0.9994431
30	0x3f801cb9	1.0008765
31	0x3f8021dc	1.0010333
32	0x3f801487	1.0006264
33	0x3f801e6b	1.0009283
34	0x3f7fa937	0.99867576
35	0x3f7fd051	0.9992724
36	0x3f80108b	1.0005049
37	0x3f7ffee1	0.9999829
38	0x3f7fb8ee	0.99891555
39	0x3f800e5a	1.000438
40	0x3f802899	1.001239
41	0x3f7f9edf	0.99851793
42	0x3f7fff44	0.9999888
43	0x3f7feccf	0.99970716
44	0x3f7f3a91	0.9969874
45	0x3f8015a1	1.0006601
46	0x3f801c7f	1.0008696
47	0x3f7fda8d	0.9994286
48	0x3f7fadfc	0.99874854
49	0x3f7f637b	0.9976117
50	0x3f802eb0	1.0014248
51	0x3f800ef6	1.0004566
52	0x3f800fba	1.0004799
53	0x3f802551	1.0011388
54	0x3f7f7ef3	0.99803084
55	0x3f801037	1.0004948
56	0x3f7fd0c4	0.99927926
57	0x3f7fe17a	0.99953425
58	0x3f80239c	1.0010867
59	0x3f8039b0	1.0017605
60	0x3f800d92	1.0004141
61	0x3f7f8c21	0.99823195
62	0x3f80336d	1.0015694
63	0x3f7fd944	0.99940896
64	0x3f7fadac	0.9987438
65	0x3f800e1a	1.0004303
66	0x3f8018c5	1.0007559
67	0x3f800477	1.0001363
68	0x3f7fb687	0.9988789
69	0x3f7ff97e	0.9999007
70	0x3f7fa8b8	0.9986682
71	0x3f801bad	1.0008446
72	0x3f8030de	1.0014913
73	0x3f801da7	1.0009049
74	0x3f8033c6	1.00158
75	0x3f7fe8ec	0.99964786
76	0x3f7ff1e6	0.9997848
77	0x3f7fa412	0.99859726
78	0x3f7fe92e	0.9996518
79	0x3f802507	1.00113
80	0x3f800707	1.0002145
81	0x3f802cb7	1.0013646
82	0x3f802f24	1.0014386
83	0x3f806f54	1.0033975
84	0x3f7fb370	0.99883175
85	0x3f7fe16d	0.9995335
86	0x3f7fde15	0.99948245
87	0x3f802e35	1.0014101
88	0x3f7fbdba	0.99898875
89	0x3f7fa304	0.9985812
90	0x3f802010	1.0009785
91	0x3f8021d1	1.001032
92	0x3f803d86	1.0018775
93	0x3f800017	1.0000027
94	0x3f803a55	1.0017802
95	0x3f80018b	1.0000471
96	0x3f7fd97a	0.9994122
97	0x3f804c86	1.0023353
98	0x3f7ffa86	0.99991643
99	0x3f801dc8	1.0009089
100	0x3f8016c4	1.0006948
101	0x3f80248e	1.0011156
102	0x3f800f3b	1.0004648
103	0x3f8001fa	1.0000603
104	0x3f7fabdb	0.99871606
105	0x3f8030a6	1.0014846
106	0x3f800121	1.0000345
107	0x3f801639	1.0006782
108	0x3f7fd008	0.99926805
109	0x3f7fa101	0.9985505
110	0x3f7fc27d	0.9990614
111	0x3f8006dd	1.0002095
112	0x3f7fb7bd	0.9988974
113	0x3f7fa137	0.9985537
114	0x3f7fefb5	0.9997514
115	0x3f803974	1.0017533
116	0x3f7f8c82	0.9982377
117	0x3f7ff3e3	0.99981517
118	0x3f8011aa	1.0005391
119	0x3f80072b	1.0002187
120	0x3f7fe0c3	0.99952334
121	0x3f80094e	1.000284
122	0x3f800b10	1.0003376
123	0x3f800749	1.0002223
124	0x3f7fb8c9	0.99891335
125	0x3f7f9604	0.9983828
126	0x3f7f4a1a	0.99722445
127	0x3f7ff365	0.99980766
128	0x3f7fa9b2	0.9986831
129	0x3f7fd0b7	0.9992785
130	0x3f7feef8	0.9997401
131	0x3f7ffd65	0.99996024
132	0x3f801026	1.0004928
133	0x3f80334a	1.0015652
134	0x3f800624	1.0001874
135	0x3f7fbae9	0.9989458
136	0x3f7f703a	0.9978062
137	0x3f7f97ac	0.9984081
138	0x3f7fdcbd	0.99946195
139	0x3f7f9667	0.9983887
140	0x3f7fdd3b	0.99946946
141	0x3f804a32	1.0022643
142	0x3f800b02	1.0003359
143	0x3f802cd5	1.0013682
144	0x3f8009e3	1.0003017
145	0x3f7f71f2	0.9978324
146	0x3f803558	1.0016279
147	0x3f802602	1.0011599
148	0x3f800840	1.0002518
149	0x3f8019aa	1.0007832
150	0x3f7ff381	0.9998093
151	0x3f8039d6	1.001765
152	0x3f8000de	1.0000265
153	0x3f8024c8	1.0011225
154	0x3f800fce	1.0004823
155	0x3f7ff848	0.9998822
156	0x3f801432	1.0006163
157	0x3f7f1772	0.9964515
158	0x3f7f99dd	0.9984415
159	0x3f7fe77a	0.9996258
160	0x3f7ff3c4	0.9998133
161	0x3f801bc9	1.0008479
162	0x3f7fe8a5	0.9996436
163	0x3f7f0a90	0.9962549
164	0x3f800dad	1.0004174
165	0x3f801676	1.0006855
166	0x3f7feab3	0.999675
167	0x3f802eae	1.0014246
168	0x3f8035d6	1.001643
169	0x3f800589	1.0001689
170	0x3f7fde55	0.99948627
171	0x3f801dbc	1.0009074
172	0x3f801eaf	1.0009364
173	0x3f8004be	1.0001447
174	0x3f7fa0a4	0.99854493
175	0x3f7fccb9	0.99921757
176	0x3f7ff15b	0.99977654
177	0x3f801c73	1.0008682
178	0x3f7fe3d0	0.9995699
179	0x3f800858	1.0002546
180	0x3f800ad0	1.00033
181	0x3f800cd0	1.000391
182	0x3f7fb9ac	0.9989269
183	0x3f7f8a84	0.99820733
184	0x3f801f08	1.000947
185	0x3f800680	1.0001984
186	0x3f801196	1.0005367
187	0x3f801091	1.0005056
188	0x3f8048f5	1.0022265
189	0x3f7ff98b	0.9999015
190	0x3f7fd64a	0.99936354
191	0x3f80066d	1.0001961
192	0x3f7ff7ff	0.99987787
193	0x3f7f44b0	0.99714184
194	0x3f801546	1.0006492
195	0x3f7fc319	0.9990707
196	0x3f800168	1.0000429
197	0x3f800d33	1.0004028
198	0x3f7fec54	0.99969983
199	0x3f801c28	1.0008593
200	0x3f8002cf	1.0000857
201	0x3f802631	1.0011655
202	0x3f7fe0bb	0.99952286
203	0x3f801496	1.0006282
204	0x3f7fec26	0.9996971
205	0x3f800a1d	1.0003086
206	0x3f7fe7b6	0.9996294
207	0x3f80057b	1.0001673
208	0x3f801d3f	1.0008925
209	0x3f7ff159	0.9997764
210	0x3f7fd2ea	0.99931204
211	0x3f7fb75a	0.9988915
212	0x3f7f9ac8	0.9984555
213	0x3f8045b1	1.0021268
214	0x3f8003f9	1.0001212
215	0x3f800515	1.0001551
216	0x3f7f2c7c	0.9967725
217	0x3f7fd24a	0.9993025
218	0x3f7fe166	0.99953306
219	0x3f800e75	1.0004412
220	0x3f801e4a	1.0009243
221	0x3f801ee5	1.0009428
222	0x3f7fff98	0.9999938
223	0x3f801534	1.0006471
224	0x3f7fad3b	0.99873704
225	0x3f7fa27c	0.99857306
226	0x3f7ff250	0.99979115
227	0x3f8013e4	1.000607
228	0x3f7fa0de	0.9985484
229	0x3f800b9d	1.0003544
230	0x3f7ff9a5	0.999903
231	0x3f7f59dc	0.9974649
232	0x3f80193f	1.0007704
233	0x3f80189b	1.0007509
234	0x3f7ffb58	0.99992895
235	0x3f7ff377	0.9998087
236	0x3f7fe828	0.9996362
237	0x3f7ffa8b	0.99991673
238	0x3f7fde53	0.99948615
239	0x3f7fb303	0.99882525
240	0x3f802885	1.0012366
241	0x3f8003fb	1.0001215
242	0x3f7fd155	0.9992879
243	0x3f7fc898	0.99915457
244	0x3f803e70	1.0019054
245	0x3f800518	1.0001554
246	0x3f7fdd3d	0.9994696
247	0x3f7fd65b	0.99936455
248	0x3f801adf	1.00082
249	0x3f802198	1.0010252
250	0x3f7fecbc	0.99970603
251	0x3f803886	1.001725
252	0x3f801b46	1.0008323
253	0x3f80074f	1.000223
254	0x3f801434	1.0006166
255	0x3f801d1d	1.0008885
