data/rl4wound_paper_res/ctr/models_map524/agent_ctr_True_ep_1034.pth (torch, 950255 bytes, 21 tensors)

fc1.weight f4 [512, 5]
00000000: dfcd aebb 0eee 763e cb03 bbbe 8e96 a6be
00000010: 7c3f 31be 6b58 ef3d 7de9 0bbc 10f7 b53e
00000020: 278d 22bd 44f9 f23d 56c5 09be 816b b7bd
00000030: 7450 dabe d1dd 97be 1c01 3abe 5808 903c
00000040: 2f15 363e 7063 883e f715 9cbe b081 48be
00000050: 27d4 263e 6e73 bc3e d572 bebd d62f ac3e
00000060: ecbb 8fbd 4d27 3b3d 865a d03e 97f1 d3be
00000070: f1fa 8dbe bbde edbd acde 32be 7076 c43e
00000080: f539 93be 40b1 55be eda8 9ebe 7751 d6be
00000090: a6f4 83be 5318 c43e c579 4d3e fbc3 5e3e
000000a0: c3eb c53c 19ba 68be 0e8a 953d 41b0 d6be
000000b0: 1534 a6be 0db0 6ebe 19db 8f3e cbc8 873e
000000c0: 9fe0 47be 7c16 58bc ca26 913e 3661 e43e
000000d0: 7736 353e ebd9 7b3d 5e8f 973e a250 86be
000000e0: 844c ab3d d964 b1be 0aaf 9ebe 0955 6dbe
000000f0: 1db3 4b3e 67aa 363e 5967 86be 8f77 0c3e
00000100: bcbc 7d3e 5548 64bd 4e97 8c3c 64f3 d13d
00000110: 845f 8c3e 716f dd3e 44b4 afbe 7753 28be
00000120: 133d 333e fa28 bf3e 0648 c63e 6453 ca3e
00000130: 68f8 b43d d37a c7be 551e 283d 72d4 8ebe
00000140: 0bee d4be 3e37 cc3e f740 ad3e 0b43 e5be
00000150: d9c5 a73d 1e0c 9cbd b736 90bd eb3e 50be
00000160: 2bd3 2e3e 1d7a 88be 285f 263e a54f 693e
00000170: 5b4c a33e 74f3 2b3e 143f e2be 2c84 94be
00000180: 45c5 623e 2dc6 bf3d 8562 b2be f75b 84be
00000190: ca91 d73e 0694 983e bbe9 48be 582c e2bd
000001a0: 908f dbbe 8ef7 3abc d796 abbe 64e6 b1be
000001b0: 143d cbbc 8db7 843d 64c4 3abe 255b 883e
000001c0: d745 8cbe 7a3b ce3e e7d2 9e3e 1570 c0be
000001d0: 7845 e4bd 1358 a53c dd69 883d 08bf dc3d
000001e0: aacf 363e 3056 f23c 6ce1 61be 10f3 543e
000001f0: 64af ddbe 51df 86be 4631 e1bd e769 60be
00000200: cf00 23be 5960 bbbe 2532 bcbd f919 c33d
00000210: 24d0 95be 5502 c4bc f9ad a33e 6aa4 3bbd
00000220: efa3 7c3c f769 24bd d044 b43d c5c0 923e
00000230: eac8 d73e 2bd4 923e 2762 d93e 4c03 fdbc
00000240: 9fda cebe 46ad 5abe cef1 993e 51eb 30ba
00000250: 1b26 62be ea5a afbe 1061 d5be d8ef c0be
00000260: 745b bdbd 966d 773e fd13 7b3e 0e96 ddbe
00000270: 125b 8e3e 0a35 b2be ff1d c1bd a85e 3bbe
00000280: b778 b0bd 95c3 bcbd 4907 cdbe 6c96 c4be
00000290: c861 94bd cfa6 123c adda 4cbe 6483 283e
000002a0: d534 d0be e2fd 08bd 61cd c93e 51e7 37be
000002b0: 5d4c ce3e c634 253e 4f6e cfbe 9960 913e
000002c0: 58a9 54bd a32f 4bbe ce51 b63e 080a babe
000002d0: a94d 403d 7b70 babd f276 a33e 0797 003e
000002e0: 71c0 5b3e db3e 223e b1b9 d5bd ee68 c6bd
000002f0: 45ca bebe 7ef4 763e 0e7c b63e c3de 9c3e
00000300: 8905 a2be e20d 963c f383 a1be f18c 7bbe
00000310: bdb8 84be d97b 1b3e 1fc9 88be cf1f 31bc
00000320: d78f 8e3c 42eb 953e 2857 adbe f76b 9cbe
00000330: e794 85be 84e6 a03e bdf2 26be 5d8b bf3e
00000340: 4241 273e 1129 673d 77ed 4cbb da35 acbd
00000350: 66d5 5f3d e79c d6bd b595 c4bb 9b08 673d
00000360: 769a b5be d314 6ebe 8221 ba3e 8a72 b8be
00000370: efce e2bc 0ca8 e33e ee43 213e 79d0 203c
00000380: 4aaa c6be c4d0 623e 24c8 a4be 294f 00be
00000390: 0b0c 18be dec4 7fbd 6115 983b e026 bf3e
000003a0: 4ee8 5d3d 2dd1 cb3e 7534 8c3e ffb2 91be
000003b0: 0632 4d3e 47c0 a1be 330f 41be 49cd 053e
000003c0: eacb 183e a678 ab3e 9a80 13be fa42 f438
000003d0: 2cb7 6b3e 82a4 dcbe 681c a63e a459 bebe
000003e0: a9d6 8b3b 4105 9abd 9298 6fbe f4ed 6a3d
000003f0: 8b46 bd3e 572c 06be 8b25 89be fd6e 2abe
-0.0053346003 0.24114248 -0.3652633 -0.3253674 -0.17309374 0.11686786 -0.008539555 0.35540056
-0.039685395 0.1186395 -0.13454184 -0.089560516 -0.42639506 -0.2966142 -0.18164486 0.017582104
0.17781518 0.26638365 -0.30485508 -0.19580722 0.16291867 0.36806816 -0.09299246 0.33630246
-0.07018265 0.045691777 0.40694064 -0.41395256 -0.27730516 -0.11614748 -0.17467755 0.3837161
-0.28755155 -0.20868397 -0.30988255 -0.41859028 -0.2577259 0.38299808 0.20065983 0.21754448
0.024160272 -0.2272724 0.073017225 -0.41931346 -0.3246161 -0.23309346 0.28096846 0.2652038
-0.1951928 -0.013188954 0.28349906 0.44605416 0.17696558 0.06148712 0.29601568 -0.26233393
0.083642036 -0.34647253 -0.3099292 -0.2317697 0.19892545 0.17838441 -0.26250723 0.13717483
0.24779028 -0.055733044 0.017161991 0.10251501 0.27416623 0.43249086 -0.3431722 -0.1643809
0.17503767 0.3733595 0.38726825 0.39516747 0.08836442 -0.38960895 0.041044552 -0.27896458
-0.41587862 0.39885896 0.33838627 -0.44777712 0.08192033 -0.07619499 -0.07041686 -0.20336501
0.17072742 -0.26655665 0.16247237 0.22784288 0.31894192 0.16792089 -0.4418875 -0.2900709
0.22145565 0.09363971 -0.3484079 -0.25851414 0.42103416 0.29800433 -0.19620411 -0.11043614
-0.42882967 -0.011411561 -0.3351352 -0.34746087 -0.024809398 0.06480322 -0.1823898 0.26632038
-0.27397034 0.40279752 0.3102028 -0.37585512 -0.111460626 0.020183599 0.06660817 0.10778624
0.17852655 0.029582113 -0.22058648 0.20795846 -0.43297875 -0.26342252 -0.10995726 -0.21915399
-0.15918277 -0.36596945 -0.09189252 0.09526438 -0.2926036 -0.023926893 0.31968668 -0.045811094
0.015419944 -0.04014012 0.088021874 0.28662696 0.42145473 0.28677496 0.42457697 -0.030885361
-0.4040117 -0.21355161 0.30067295 -0.0006748932 -0.22084849 -0.3424905 -0.41675615 -0.37682986
-0.09245959 0.24162897 0.24519344 -0.43278545 0.27803856 -0.3480609 -0.094295494 -0.18297827
-0.086167745 -0.09216992 -0.4004462 -0.38396013 -0.07245213 0.008950903 -0.20005293 0.16456372
-0.40665308 -0.033445247 0.39414504 -0.17959334 0.40292636 0.16133413 -0.40513846 0.2839401
-0.05191931 -0.1984239 0.35609287 -0.36335778 0.046949062 -0.09103485 0.31926686 0.12557612
0.2146013 0.1584429 -0.104358084 -0.096879825 -0.37263694 0.24116704 0.3564152 0.30638704
-0.31644848 0.018317167 -0.31545982 -0.24565484 -0.25922194 0.15183963 -0.26715943 -0.010810806
0.017402573 0.2928105 -0.33855557 -0.3055112 -0.26090166 0.3142587 -0.16303535 0.37411013
0.16333488 0.05643565 -0.003126947 -0.08408709 0.054646872 -0.104791455 -0.005999292 0.05640469
-0.35469407 -0.23250131 0.3635369 -0.36024886 -0.027686564 0.44464147 0.1574857 0.009815329
-0.38801795 0.2214995 -0.32183945 -0.12530197 -0.14848344 -0.062443607 0.0046412204 0.37334347
0.05417662 0.39808026 0.27383772 -0.28456876 0.20038614 -0.31592008 -0.18853454 0.13066591
0.14921537 0.33490485 -0.14404526 0.00011647302 0.23019093 -0.4309426 0.32443547 -0.37177765
0.004267533 -0.07520533 -0.23398045 0.057355836 0.36967883 -0.13102852 -0.26786456 -0.16643901

fc1.bias f4 [512]
00000000: 60c8 96be 2104 a1be 9b2c 983e 594b 15be
00000010: caf4 ecbc de0e 093e 5485 8dbe b60d 2a3d
00000020: f1ad 873e 754a 86be d2f7 043e a909 81bc
00000030: 1779 7b3e f601 983e bdf1 ec3d 180f 463c
00000040: 7b41 c5be 69c8 363e db98 8b3e 4de8 26be
00000050: 8b98 e1be 63ec bb3e 8893 d6bd 1a29 b23d
00000060: 9717 02be bb79 943e 3399 df3e 0787 8f3e
00000070: bc8e 0ebe 60bc a13e c67b 5d3e 2257 363d
00000080: c27c b8be ec37 43be 9711 e3be dff2 983e
00000090: 1a3e e23e c105 853e bea9 0e3e f382 d83d
000000a0: e2fb db3e 92e5 67be 562e 1abe 9d35 ccbe
000000b0: 147a 2fbd 68f6 de3c 4b16 fb3d 4b92 9fbe
000000c0: 5c9b 4abd 5ecd bdbe 6261 b9be 8dc3 703d
000000d0: 6e72 dfbe f7c9 f53d 1fe1 d3be 080d 9fbe
000000e0: d2fd bcbd 0d90 d9be e8fe b83e 4d83 bb3e
000000f0: c04d 6bbe b099 ca3d 6467 6d3e 5b63 113e
00000100: 0bf5 6cbd 1520 d6be d483 a73e 8871 c9be
00000110: fbb5 a4bd abe1 d73c 8d96 19be e33c 21be
00000120: 3681 c6be 5e1c b53c 016f 49bd 85b3 c73e
00000130: 1d42 16be baac ad3e ac68 da3c 5a98 51be
00000140: 77f6 dabd 7779 5dbd 055e b93b e35b a2bd
00000150: e2d8 073e aa54 be3e 5539 913d d1ba 253e
00000160: 4698 8e3e b3af c33d 6614 533e 8f08 703e
00000170: 41c6 d33e 213b d1be ea31 1d3e 5295 a6bc
00000180: fd6f a3bd 2ff9 29be 4407 873e fb76 d13e
00000190: 72c7 babe fc54 763e 85e9 9f3e 4c2a a03d
000001a0: d7a7 053c b4fc af3e ee72 273c ae07 e3bd
000001b0: c718 0abd f3ed 0f3e ede3 e23d eedc 97bc
000001c0: aabc 0c3e 155e f63d 5b11 b7be cab7 e33d
000001d0: bc6c 8c3e f9c4 4d3d c26b 25bd d06e af3e
000001e0: a5d8 c7be cee9 50be 4437 4ebe a1ad c53e
000001f0: 27fe ddbe 5ceb 4c3d c826 e0be 4f0d 80bc
00000200: 4373 2c3e d6ae d1bd 5840 de3e c679 263b
00000210: 3a1c 69be 406d ec3d fcc4 683e 5cf5 7cba
00000220: 30e6 c33e 014d 90be 9ba0 433e 1d8a 7e3e
00000230: 3ce6 633e 4486 9e3a 84a9 f93d 96ea b1be
00000240: 72c3 b0be 58b5 dfbc a871 70bd 891e aa3e
00000250: ca28 a93e 9636 9c3e bfe6 53be bbff b2be
00000260: f215 d6be 0571 2b3e ac78 ccbe 2132 e5be
00000270: 9188 64be ad2b c3be 9bd0 38be 8753 90be
00000280: 603e 6cbe 5ed9 d93e 84f9 adbd 84c0 bd3e
00000290: a68a 113c e541 7bbd c53b 05be d4df a2be
000002a0: adaa b7be 47b4 9e3e fa80 0fbe b838 e0be
000002b0: 72d7 d13e 339a 133c ba16 9abe 2466 b4be
000002c0: 8114 bfbe be67 c8be ae5d cf3e d5b2 9d3e
000002d0: 122e 153d f02b c4be c3ec efbd d4f1 d5be
000002e0: e7f5 213e 2a0e f6bd 22a7 c3bd 9ff2 0ebe
000002f0: 4951 563e 0948 7d3e ad45 c63d 3761 80bd
00000300: d221 35bd 8524 eebb 9986 abbe 13e1 dc3e
00000310: e8cf 45be 8f41 853e 6b89 80be 5d1b fe3b
00000320: 2f67 1c3e e701 d2be 387c 553e 2c30 b1be
00000330: a03d 7f3d 6b71 b5bd 6442 843e 4d42 df3e
00000340: 2dcc bd3d 6d40 53bc 4ec9 60be f7f8 2a3e
00000350: 508d 5abe 06a8 3b3e 3cf5 45be 8734 9a3e
00000360: 6ca0 af3e b702 8f3e 1c8a 433c b6c0 513e
00000370: df5a d2be 92be b93e 5297 ecbd 2dad 273e
00000380: 6ecd 9ebd cfa2 15be 34d4 55be 8083 933e
00000390: 58d0 7abe 3d2d a6bd 9c39 623e d5a3 3a3d
000003a0: 1aaf bfbe 136e e3be de0d 5fbe cf49 d13e
000003b0: 5ac7 a2be c228 803e 2ae3 a33e d93c 3fbe
000003c0: daa0 4bbe bea3 a4be 7eb7 8d3d 02b8 81bd
000003d0: 8e05 b23c caeb 463e b8b5 433e 5c65 13be
000003e0: c56a 003d b09a e23d 0038 2f3c b940 b73d
000003f0: b39d 38be cfd5 bb3e c7cf 44bd 53b2 74bd
-0.2944975 -0.31448463 0.2972153 -0.14579524 -0.028925318 0.13384578 -0.27640784 0.041516982
0.26499894 -0.2622868 0.12985161 -0.015751677 0.24557911 0.29688996 0.115695454 0.01208856
-0.3852652 0.17849888 0.27265057 -0.16299553 -0.44061694 0.36703786 -0.10477358 0.08699246
-0.12704311 0.28999123 0.4367157 0.28032705 -0.13921636 0.3158903 0.21629247 0.04451669
-0.36032683 -0.19064301 -0.44349357 0.29872796 0.44188005 0.25980952 0.13931939 0.105718516
0.4296561 -0.22646168 -0.15056738 -0.39884654 -0.042841032 0.027217105 0.122601114 -0.311663
-0.04946457 -0.37070745 -0.3620711 0.05878024 -0.4364199 0.12001412 -0.4138269 -0.3106463
-0.092281 -0.42492715 0.36131978 0.36623612 -0.22978878 0.09892595 0.23183972 0.14198057
-0.05785088 -0.41821352 0.32717764 -0.3934443 -0.080425225 0.026352724 -0.14998837 -0.15745883
-0.38770455 0.022108253 -0.049178127 0.3900415 -0.14673658 0.33920842 0.02666124 -0.20468274
-0.10691541 -0.054070916 0.00565696 -0.07927682 0.13266328 0.3717397 0.07091013 0.16184546
0.2785055 0.09554996 0.2061325 0.23440765 0.41362193 -0.40865424 0.15351072 -0.020334873
-0.079803444 -0.16598962 0.2637273 0.40911087 -0.3648029 0.24055856 0.3123285 0.078205675
0.008157692 0.34372485 0.0102202725 -0.11085449 -0.033715036 0.14055614 0.1107863 -0.018537965
0.13743845 0.120296635 -0.3575543 0.11119039 0.27426708 0.050236676 -0.04038597 0.3426423
-0.39032474 -0.2040169 -0.2013827 0.3860903 -0.43357965 0.050029144 -0.43779588 -0.015631346
0.16840844 -0.102384254 0.43408465 0.0025402172 -0.22764674 0.11544275 0.22731394 -0.00096495985
0.38261557 -0.2818375 0.19104235 0.24857374 0.22255796 0.0012094458 0.12190536 -0.34749287
-0.34524113 -0.027308151 -0.05870214 0.3322642 0.33038932 0.30510396 -0.20693491 -0.34960732
-0.41813618 0.16742332 -0.39935815 -0.44764808 -0.22317721 -0.3811926 -0.18048327 -0.28188726
-0.23070669 0.4254865 -0.08494857 0.3706094 0.008883154 -0.06134214 -0.13011082 -0.31811392
-0.35872403 0.30996916 -0.14014044 -0.43793273 0.40984684 0.009008932 -0.30095464 -0.35234177
-0.3732033 -0.3914165 0.4050116 0.308005 0.03642089 -0.38314772 -0.117150806 -0.41786063
0.1581646 -0.1201442 -0.095533624 -0.1395974 0.20929445 0.2473451 0.09681258 -0.06268542
-0.044221707 -0.007267537 -0.33501127 0.43140468 -0.19317591 0.2602658 -0.25104842 0.007754727
0.15273736 -0.41017076 0.20848167 -0.34607065 0.06231463 -0.088595234 0.25831902 0.4360527
0.09267459 -0.012893778 -0.21951792 0.16696535 -0.21342969 0.18325815 -0.1933183 0.301182
0.3430208 0.2793176 0.011934783 0.2048367 -0.41084954 0.36278206 -0.115522996 0.16374655
-0.07754026 -0.14612888 -0.2088173 0.28811264 -0.2449354 -0.08114097 0.22092289 0.0455664
-0.3743828 -0.44419917 -0.21782634 0.40876624 -0.31792718 0.25031096 0.3200925 -0.18675555
-0.19885579 -0.32156175 0.06919764 -0.06333925 0.021731164 0.19425884 0.19112289 -0.14394134
0.031351823 0.110646605 0.010694504 0.08947892 -0.18028907 0.3668656 -0.048049714 -0.059740376

fc2.weight f4 [256, 512]
00000000: 25ae 233d e465 0d3d 0bc1 23bd 0304 97bc
00000010: 7659 c03c 6504 d9bc 1d5e f93b 44c9 90bc
00000020: 71de f03b 2dd2 b63c 0716 503c 4d32 fd3c
00000030: 248c e0bb 24a7 c33c 610a 7d3c a1de 74bc
00000040: 3ad0 03bd 21f5 293d d5db 38bc a0b6 043d
00000050: eb76 da3c 4b0f 54bb 8a8d 19bd de4d 9b3b
00000060: 38ef a8bc 1bed 393c d988 9dbc 96fb 033d
00000070: fa89 1bbd 3855 48bc 3c0f ff3b 93e3 5f3b
00000080: 852a 0f3d 3401 7fbc 40bf 09bd 3d54 f63c
00000090: 7308 5c3c 72a1 e13c c0f5 ddbc 3d35 d1bc
000000a0: aad8 9bbc a831 913b a4cb 733c b1e9 c7bc
000000b0: eef0 f8ba d733 19bc b45a 253d 7ab9 8dbc
000000c0: 1c29 293d 7211 e5bc 92ae 88bc b05e 03bd
000000d0: c2f8 0b3d bcad ecbc 08d4 913c cb1a 8fbc
000000e0: fa92 313d 6849 a43b 50d5 16bd 080d ee3b
000000f0: 0c8e 873b 3e0b 28bd 03db 183c b0d2 2e3d
00000100: e3ed 333c 89fb 1c3a 8ff3 f7bb 138a 563c
00000110: 71c5 93bc d1d6 2b3d a71c 1a3d e75b 9a3c
00000120: 5b28 90bc 4f85 2fbd 9052 d8bc f7d0 353d
00000130: d239 21bd f6f2 32bd 3df8 92bb 6490 4c3c
00000140: 2ff5 37bd cc79 27bd 866c f03a ec7a 8abc
00000150: d350 003d 114a 373c 0a64 16bd 498a 20bd
00000160: 9d5a 033d 1de4 ccbb 28be 8fbc 65f7 4b3c
00000170: 36f5 1fbc adde a13c 5d98 283c 14bd 98bc
00000180: f289 12bd 85d0 d63c 97a7 e7bc 1214 c1bb
00000190: 1274 e73b e277 d0bc 22f4 b93c 31de f2bc
000001a0: 79e0 193c eb37 a23b 8029 743c 4215 38bd
000001b0: 9ca2 9b3a c7c3 9e3c 5b17 e0bc d0fc 403c
000001c0: 036c f93a 8728 153d ed64 30bc a28e bbba
000001d0: d2a3 a6bc adc2 1ebc a683 413c d22b 2abd
000001e0: 08a1 0b3d 644a fa3c 2943 9e3c 575a 083d
000001f0: c93b 74bc 76cd 113c d3c8 fd39 3747 03bd
00000200: 7142 79bc f474 8ebc 143b 27bc ccf0 1dbd
00000210: 1973 02bd 66a3 afbb 2cd8 c0bb 365a 20bd
00000220: 7c39 f43b 4136 ba3c c3d2 1c3d f9ad 143d
00000230: 4cf9 ffbc e87e 6dbc 0493 b8bc 7bfe 083c
00000240: 0f43 293c f583 183c e8e6 d63c b042 ba3c
00000250: 3231 bbbc aedf ee3c 2cb4 003d ff2b e73b
00000260: e6ba 21bd 6e4b d6bc 1988 553c 307f 843c
00000270: 4de7 303d 9f1d ab3c f6aa 903c 0ba9 32bb
00000280: 10d9 ed3c f3bd 8dbc e270 883c a3c5 a5bc
00000290: f790 c3b9 605f ce3c df87 9e3c 3410 3cbc
000002a0: 093b c8ba ad11 bfbc 21d5 9b3c 0189 fe3c
000002b0: ef19 5e3c 2cb5 35bd 14ad 06bd 2828 ec3c
000002c0: ea72 efbb fa4d d03c e684 0d3d e306 59bc
000002d0: 762e cdbc c5b5 26bd 62e7 763c a796 ae3c
000002e0: 495b 18bc d99a 32bd 5a05 f7bc ef56 26bb
000002f0: fbc7 a83c f44d 76bc 7914 f6bc 5e09 03bd
00000300: 2bfa 213d 4b8c 6c3c ace3 0bbd 4bea ebbc
00000310: 1de9 19bd ca86 ab3b e290 a0bc fc36 95ba
00000320: e920 0dbc f626 24bd 228b 27bd ff4e 12bd
00000330: ed3e 9fbc cff1 e93b 93a5 b6bc fc9f 57bb
00000340: 4962 d8bb 10ad 1f3d 4717 97bc b7d3 313d
00000350: 0522 03bd 9d48 1dbd d238 4b3c e9fc c6bc
00000360: 47d7 b93c 6686 c9bc 6e2b 113d 5c45 2a3d
00000370: 973f 943b 8b12 043c dd6f 2f3d d626 cd3c
00000380: 6068 1bbd 7c61 44ba d3de 1bbd cbda 113d
00000390: dcf1 1cbc 1564 183a ed5d ecbc 7ad4 bcbc
000003a0: e476 ae3b 3956 1b3d 971c c0bc 757e b83b
000003b0: 6fb6 1f3d 4664 293d 83a6 e0bb ef58 2c3d
000003c0: 0394 733c 1198 2a3d 8703 673a 2318 1abd
000003d0: 5484 56bc ba97 733c 8519 b53c ec68 2cbd
000003e0: 2241 093d 638e 1cbd 78a5 c83c 31c5 2c3d
000003f0: 1692 393c 3003 ebbb ece4 bc3c e74f 45bc
0.039961 0.034521 -0.039979022 -0.01843453 0.023480158 -0.026491353 0.007610096 -0.017674096
0.007350736 0.022317016 0.012700564 0.030907774 -0.0068526436 0.02388341 0.015444369 -0.014945657
-0.032181002 0.04149354 -0.011282881 0.032400727 0.026668033 -0.0032357748 -0.037488498 0.004739507
-0.02062188 0.011348034 -0.019230293 0.032222353 -0.03797338 -0.012227349 0.0077837985 0.0034162744
0.03495266 -0.015564252 -0.033629656 0.030069465 0.013429749 0.027542803 -0.027094722 -0.025538081
-0.019024212 0.0044309683 0.014880095 -0.024403425 -0.0018992701 -0.0093507385 0.040369704 -0.017300356
0.04129897 -0.02796242 -0.016684804 -0.032072723 0.03417278 -0.028891437 0.0178013 -0.01746883
0.04335306 0.0050136335 -0.036824524 0.007264737 0.0041368064 -0.041026346 0.00932956 0.042681396
0.01098201 0.00059884094 -0.0075668762 0.013094443 -0.018038483 0.04195291 0.03762498 0.01884265
-0.017597368 -0.042851742 -0.026406556 0.044388738 -0.039361782 -0.043688737 -0.0044851587 0.012485597
-0.04491156 -0.04088764 0.0018342889 -0.016904317 0.03132708 0.011187092 -0.0367165 -0.03919438
0.032068837 -0.006252779 -0.017546728 0.01244912 -0.009763053 0.0197595 0.0102902325 -0.018644847
-0.035776086 0.026222477 -0.028278155 -0.005892285 0.007063397 -0.02544779 0.02269942 -0.029646965
0.009391897 0.0049505136 0.0149024725 -0.044942148 0.0011874023 0.019380463 -0.027354887 0.011779025
0.0019029382 0.036415603 -0.01076625 -0.0014309476 -0.020341787 -0.009689969 0.011811173 -0.041545697
0.03408912 0.03055305 0.019319134 0.03328928 -0.014906832 0.008899083 0.00048405546 -0.032050338
-0.015213595 -0.017389752 -0.010206956 -0.03855972 -0.031848047 -0.005360055 -0.0058851447 -0.03914853
0.0074531417 0.022730948 0.038286936 0.036298726 -0.031246804 -0.014495589 -0.02253104 0.008361454
0.010330929 0.009308805 0.026233152 0.022736877 -0.022850607 0.029159393 0.031421825 0.0070548053
-0.03948488 -0.026159015 0.0130329365 0.016173929 0.043189336 0.020888148 0.017659646 -0.0027261402
0.029034168 -0.017302489 0.01665539 -0.020235842 -0.00037301306 0.025191963 0.019351898 -0.0114784725
-0.0015276383 -0.023323858 0.019022526 0.031071188 0.013555988 -0.044362232 -0.032879904 0.028827742
-0.0073074 0.025427807 0.03455057 -0.013246271 -0.025046568 -0.040700693 0.015069814 0.021312071
-0.009299108 -0.043604705 -0.030153919 -0.0025381406 0.02060317 -0.015033234 -0.030039059 -0.031991355
0.03954522 0.014437745 -0.03415267 -0.028798243 -0.03757583 0.005234574 -0.019600336 -0.0011384184
-0.008613803 -0.04007622 -0.04090417 -0.035719868 -0.019439185 0.0071394215 -0.022295749 -0.0032901755
-0.0066035134 0.038983405 -0.018443717 0.043414798 -0.032014865 -0.038399328 0.012403684 -0.024290519
0.02268566 -0.024600219 0.03544181 0.041570053 0.004524182 0.008061062 0.04283129 0.025042932
-0.037941337 -0.0007491333 -0.0380543 0.035609048 -0.009579148 0.0005813253 -0.028853381 -0.023050535
0.0053242315 0.037924025 -0.023451133 0.005630309 0.03899234 0.041355394 -0.0068557872 0.042077
0.014866832 0.041648928 0.00088124763 -0.037620675 -0.013093073 0.014867717 0.022106895 -0.04209225
0.03350938 -0.038221728 0.024492964 0.042180244 0.0113263335 -0.007172011 0.023058377 -0.012042976

fc2.bias f4 [256]
00000000: 6f40 55bc d9cf 073d 4c7f f5bc 3c97 1bbd
00000010: 9a61 b8bc 0c6b d03c dc36 04bd e679 043d
00000020: 44f4 023d 5cbc 053d a17c 303c 5bc4 5f3c
00000030: eb9d 703c 6b6c 063d 9f7f 63bc 94b1 2f3d
00000040: 6b84 3cbd 7b7c 1ebd 5d0b 02bd 8e3c 0f3d
00000050: 2eb1 d3bb 0840 0abd 5dce e2bc 37b9 d5ba
00000060: e8d2 5a3c 3e87 233d 45ab a53c ee22 983b
00000070: 7302 10bb e73c e03c 119f 34bc 2c5a abbb
00000080: d4e5 1e3d 1256 01bd 89d7 bd3c 07a6 edbc
00000090: 9850 20bd 8db4 8c3c d07f 18bd d92d 113d
000000a0: 698c 8abc 64a5 1abd fa8a 30bd d842 153d
000000b0: f9f5 33bd bb5a 923c dcc7 c3bc b0f2 613c
000000c0: f139 f33c 8d7b 33bc 56ca e93c 333f 7abc
000000d0: 3f14 cc3b 661d f4bc a258 d53c 61d8 f83b
000000e0: 4416 723b 4238 f73c 40cb 24bd 70ca 8c3c
000000f0: c92f d5bb 9374 89bc d039 dcbb fca2 f83a
00000100: 449c 133d ecd8 2abd c186 9b3c 8dcf a13c
00000110: 85f6 24bd 89c6 1dbc 0b28 7ebc 131b 083d
00000120: c206 06bd 6a9e dc3c 9c72 863c 3937 1c3d
00000130: 6d0a 123d e695 28bb 3ebc b6bc 58b3 2f3d
00000140: c1ed 8bbc cabd 7cbb bab6 813c a523 d33c
00000150: 1e9d e93c a9ba a7bc 6e65 dd3c d16a 90bc
00000160: c43c fe3a 9fc9 34bd cbb8 30bb cca4 31bc
00000170: 4f1e 91ba 35cc 133d cf0a 60bc 5384 723c
00000180: ca7b d4bc 5fe3 e73c 6e7f 88bc 7b72 963c
00000190: fcc5 c43c 8c64 be3c 4dfd 0b3d 07f6 0bbd
000001a0: 0b23 10bb 2c38 c9bb 9500 28bd 3887 95bb
000001b0: 651e 473d 3fb1 62bc c9e1 193d 2428 34bc
000001c0: 4da2 d6bc b613 f43c eaf8 71bc d921 113d
000001d0: 3b6c 31bd 9ce0 b0b8 49be b3bc f369 2ebd
000001e0: b379 863c 4fcb 36bd a6db 233d 48cd 9f3c
000001f0: 417d cbbc 7868 9cbc 73ff 40bb 4956 153d
00000200: 0472 56bc 0ff3 143d 68f7 f4bc a533 9d3b
00000210: 56b3 3b3d d45d aa3c 1ca2 f5bb fe72 a13c
00000220: ce17 5e3b 656b 463c 1389 b23c 815a 293d
00000230: be7a c3bc 5fd0 0c3d efa5 b43b fead 173d
00000240: 47a8 143c 6c82 793a b2f9 ac3c 4dd1 913c
00000250: 27b5 fd3c ac46 d9bc e09c 0f3d ce7b 003d
00000260: 41c2 2f3d df1b 27bd 053c 39bd 9b76 e6bc
00000270: ab43 b0bc 618c e83c a5d7 353c bdfd 89bc
00000280: 7912 043c 7099 7cbc d686 cfbc d91f 2e3d
00000290: 402b 303c a2a2 193d d2d6 1a3d 8b3b c6bc
000002a0: 723b 19bd d84b 15bd 7c66 c63c aa96 dcbc
000002b0: 7993 d63b acf7 873a ba79 fcbc b869 49b9
000002c0: d9c8 4dbc 37c5 54bc a120 1fbd f173 98bc
000002d0: 85ee 43bc 3016 0fbd cb59 1bbd 4db6 e9bc
000002e0: d7e0 a9bb ee74 30bd 738d 7f3c 98ac f9bc
000002f0: 3393 cdbc 2638 bfbc 6420 703c bfa7 eb3c
00000300: 566e b53b b627 c73c 20bd 223c c059 5038
00000310: a152 a63c 6da7 23bd fe7e e1bc 2ce2 383d
00000320: 1ba5 013c 395a 22bd 7ea6 d83b d88c 1abd
00000330: 59f0 8cbc c777 38bc a625 e5bc b675 23bd
00000340: e008 05bc f9fa edbb 092d f3bc 50c2 35bb
00000350: 437e 14bd 901e 163d f4d8 06bc c72d 293d
00000360: f12d 143c 520a 2abd 7075 3a3d ec4f eb3c
00000370: 6d6b 35bc 5250 ba3c 6857 ddbc 7a0d dfbc
00000380: 3d21 c9bc f3ac de3c a720 e5bb b2fa f6ba
00000390: 788e 1dbd fce2 a03c efd5 9f3b e3bc 31bd
000003a0: 35c2 223c 9607 4439 d28b 3c3c 5873 02bd
000003b0: 8f76 debc a2a5 4cbb 37f2 fe3a bcba 073d
000003c0: edd6 0c3d 5095 023c 8581 2abb 49df 87bb
000003d0: c37d 013d 5ee3 1fbd aa36 d43c f2ff ebbc
000003e0: cccc c2bc 1f57 b7bc 5cd7 12bd 3c66 0e3c
000003f0: af41 4cbc e1d8 03bc e732 f0bc 41c6 0c3d
-0.01301585 0.033157203 -0.029967926 -0.037986025 -0.022507478 0.025441669 -0.03227888 0.032342814
0.03197123 0.032650337 0.010771901 0.013657655 0.014686088 0.03281824 -0.013885408 0.04289396
-0.04602472 -0.038692933 -0.031749118 0.03496986 -0.0064603304 -0.03375247 -0.027686292 -0.0016305809
0.013355948 0.0399239 0.02022327 0.004642836 -0.0021974116 0.02737279 -0.0110242525 -0.005229255
0.0387934 -0.031576224 0.023174064 -0.029009832 -0.03913936 0.017175937 -0.037231266 0.035444114
-0.016912656 -0.037755385 -0.04310129 0.0364407 -0.04393575 0.01786553 -0.023899011 0.013790771
0.029690715 -0.01095475 0.028538864 -0.015273857 0.0062279995 -0.029799175 0.02604324 0.0075941538
0.003693954 0.030178193 -0.040232897 0.017186373 -0.0065059406 -0.01677922 -0.006720759 0.0018969472
0.0360377 -0.04171078 0.018985154 0.019752288 -0.04027416 -0.009629854 -0.015512477 0.033228945
-0.03272129 0.026931006 0.016412072 0.038138602 0.035654474 -0.0025724112 -0.022306558 0.042895645
-0.017081143 -0.0038565272 0.015834201 0.025773833 0.028517302 -0.020474749 0.027025905 -0.017629059
0.0019396772 -0.044137593 -0.0026965614 -0.010842513 -0.0011071655 0.03608342 -0.013674452 0.014802056
-0.025937933 0.028306661 -0.016662326 0.018365135 0.024020188 0.023241304 0.034177113 -0.034170177
-0.0021993543 -0.0061407294 -0.04101618 -0.0045632385 0.04861297 -0.013836204 0.03756884 -0.010995898
-0.026200438 0.029794555 -0.014768818 0.03543267 -0.043316107 -8.434171e-05 -0.021941321 -0.04258151
0.016415453 -0.044627484 0.040004395 0.019507065 -0.02484 -0.019092783 -0.0029449135 0.03645924
-0.013088707 0.03636461 -0.029903129 0.0047974163 0.045825325 0.020796694 -0.0074961316 0.019708153
0.00338887 0.012110566 0.021793878 0.041346077 -0.023862239 0.034378406 0.005512945 0.037031166
0.009073324 0.00095180306 0.021115158 0.017799998 0.03097017 -0.026522957 0.035061717 0.03136807
0.042909864 -0.040798064 -0.045223255 -0.028132727 -0.021516642 0.02838725 0.011098777 -0.016844625
0.008061045 -0.015417442 -0.02533285 0.04251084 0.010752499 0.037508614 0.037802525 -0.024198314
-0.037410207 -0.036449283 0.02421879 -0.026927311 0.006548342 0.0010373495 -0.030819762 -0.00019208237
-0.012560093 -0.012986473 -0.038849477 -0.018609973 -0.011958723 -0.03493327 -0.03792743 -0.02852931
-0.0051842737 -0.043080263 0.015597689 -0.030477807 -0.025094604 -0.023342203 0.01465616 0.028766511
0.0055368347 0.024310928 0.009932786 4.967465e-05 0.020303072 -0.03995459 -0.027526375 0.04513757
0.007912899 -0.039636824 0.0066116443 -0.037731975 -0.01720445 -0.011259026 -0.027972054 -0.03990718
-0.008119792 -0.0072625843 -0.02968456 -0.0027734227 -0.036253225 0.03665024 -0.008230437 0.041303422
0.009044156 -0.04151375 0.045522153 0.028724633 -0.011072976 0.022743378 -0.027019218 -0.027228106
-0.024551982 0.027182078 -0.006992418 -0.0018843024 -0.038465947 0.019639485 0.004877798 -0.043393027
0.009933998 0.00018694843 0.011507945 -0.03184828 -0.027156143 -0.0031226655 0.0019450848 0.03313707
0.034384657 0.007970169 -0.002601714 -0.0041464907 0.031614076 -0.039035194 0.025904972 -0.028808568
-0.023779295 -0.02238041 -0.035849914 0.008691367 -0.012466832 -0.008047313 -0.029321147 0.034368757

fc3.weight f4 [128, 256]
00000000: 380c 88bc 0ef4 11bd 411f e13c 3e21 523d
00000010: 27f1 99bc a255 6dbd 3222 e33c 5b5e 313d
00000020: 42c2 073d 0b7b 3d3d 54ef 2c3d e352 44bd
00000030: 54a8 3dbd 375b fe3c 62c1 a339 72df 223d
00000040: f84a 3d3d efac 2cbc a881 74bd 1a9b 1c3c
00000050: 989a e23c 4b35 ca3c 1da5 7d3b c163 90bc
00000060: 7266 3a3d b4b2 233d f43f 653d 39c7 0abd
00000070: 20a8 aebc 9f79 e23c d023 513d f12d 843d
00000080: 67bf 4abd c34c a03c b80c a83c fc02 1cbd
00000090: a1bd 21bc f30f bf3c d948 81bc 6719 303d
000000a0: c911 1bbc a678 06bc 0ad6 933c 92cd bcbc
000000b0: 97df 18bd 53b7 4b3d 4500 3a3c 402c 55bd
000000c0: 7d6c 4d3d 17ac 0a3d de0c 34bc bf75 edbc
000000d0: fb00 bfbc fcac cdbc 5340 533d e368 2f3c
000000e0: ae1e 613b 0a9c c5bc e277 773d 731b 5abd
000000f0: 94fd 4fbd 9a3f 18bd 19cf 503d 753b ce3c
00000100: c87a 71bd 8577 3cbd 3429 21bc 5609 323d
00000110: 9c27 353b 937a 853d 35f8 49bd 73ac ce3c
00000120: dd02 82bc 42f6 6e3c 36ba 73bc 4823 2bbd
00000130: 775f 65bd 65d5 3dbd 2415 10bd 005a 65bd
00000140: c9f9 6e3c dca2 72bc 912a 873b 89f5 bdbc
00000150: 23c4 50bd aab7 3fbd 4817 c6bc e195 76bd
00000160: 8a90 0b3d f8b0 173d 4dd1 1abd 1374 983c
00000170: f4d1 26bd 96a2 bdbc 92f1 91bc be2c 2cbd
00000180: be82 d43c 5c96 853c 027b f53b cde4 043c
00000190: a9e6 65bd 9e93 693c faf3 383d 5c47 0cbd
000001a0: 3ec8 61bd 60f9 54b9 6b21 f03c ccde 5a3c
000001b0: 6b55 073d 1221 e7bb b620 d6bb a6eb 6abd
000001c0: f909 82bd 4e14 59bd f1b6 53bd c42d 1e3c
000001d0: f9c7 62bc 8dfd d2bc 5541 6abd a168 4d3d
000001e0: 9039 54bb 9b24 093d ef8a 56bd 7694 1dbd
000001f0: 56b8 173d c8ba 283d 47eb 32bd f5f8 443d
00000200: 1a40 0c3d 7d35 523d e065 4abd 778d 80bd
00000210: 90fe 60bd a6c7 2e3b 9002 9d3c 562d 88bc
00000220: 0f25 7cbc fc12 893c 3c27 09bd 5491 28bd
00000230: 428a 5cbd 7831 503c f9d6 2fbd 63a4 993c
00000240: 72e4 edbb a28e 25bd d9cb 613d 982a 0e3d
00000250: f572 453d f4d2 54bd 7def 1bbd 82ad 04bd
00000260: 51eb b73b dfd8 f83c f2e2 6dbd 0d1c 9b3c
00000270: 6c3b 7d3d 8dd0 343d f85e 6bbc 5c26 e83a
00000280: 0bc1 d0bb 98ab 5d3d 887c 533d 925e f4bb
00000290: bd9f 3bbd 6e37 bdbc 32c7 193d cd12 363d
000002a0: 6842 133d d085 d3bc d5b8 1fbb 7338 0b3c
000002b0: 9970 da3c a6e9 49bd b316 7b3c 7155 bebc
000002c0: f533 4ebc 390e 0a3d 02bd cb3c 28c0 633d
000002d0: 0fbe fa3c 1f10 35bd 90b1 31bb d55c 6bbd
000002e0: fd0f dbbb f672 cabb 6f75 ab3b d80f 7c3c
000002f0: fad1 823c fd92 69bd 759e 85bc 24b8 4ebc
00000300: 6fd4 1f3d df53 7dbd 9c63 4d3b c8db 08bd
00000310: 2efd 64bc dd9f 12bd 864a a73a c833 f93c
00000320: a7b6 10bd 1816 a5bc 71f9 7e3d ee03 acbc
00000330: bce2 9a3c 63bf 46bd cf52 273d f094 bfb9
00000340: 8800 9dbc 78b4 94bc 47e5 673d 026d 4c3d
00000350: d2da 0fbd 7cfd 74bd fb42 bf3c 9994 8ebb
00000360: df0f e73b 0829 f53c 231f 4bbd 6d90 e73c
00000370: abc4 06bd 2669 3f3c 4e32 bfbb b607 a2bb
00000380: 9272 2f3d 0446 4abc c161 743c 7754 d33b
00000390: fef7 723d 11a5 45bd 88bf 7c3d 8ef8 853c
000003a0: 6cfe c2b9 e168 cfbb fa2a 04bc 4a1c a03a
000003b0: 9f68 9bbc 029e e73b d796 813d 4cd9 43bc
000003c0: 2a9b d43c 3d1b bcba cde1 9dbc 8236 8fbc
000003d0: e992 ff3b c581 babb 12b3 173c 5110 50bd
000003e0: ad15 61bb 71cf 56bd 9acd 63bd ae04 09bc
000003f0: 623c 103c 73fc 653d acf0 b3bb 3ae1 7c3c
-0.016607389 -0.03563314 0.027480723 0.051301233 -0.018791748 -0.057942994 0.027726267 0.043302875
0.033144243 0.04625992 0.04222043 -0.04793061 -0.04630311 0.031049354 0.00031233864 0.039763875
0.046214074 -0.010539277 -0.059693962 0.0095584635 0.027661607 0.024683615 0.0038703152 -0.017625691
0.045507856 0.039965346 0.055969194 -0.0338814 -0.021320403 0.027645884 0.051059544 0.06454075
-0.04949894 0.019567853 0.020513877 -0.038088784 -0.009871871 0.023323035 -0.015781807 0.042992976
-0.0094646895 -0.008207476 0.018046398 -0.023047242 -0.037322607 0.04973538 0.011352603 -0.052044153
0.05015229 0.033855524 -0.010989396 -0.02898681 -0.023315897 -0.0251069 0.051575016 0.010706159
0.0034350562 -0.024122257 0.060417064 -0.053248834 -0.05077894 -0.03717003 0.050978754 0.025174836
-0.058954984 -0.04601242 -0.009836484 0.043465935 0.0027642017 0.0651752 -0.049308974 0.025228715
-0.015870506 0.01458508 -0.014875939 -0.041781694 -0.055999245 -0.046346087 -0.03517641 -0.055994034
0.014585921 -0.0148093365 0.0041249474 -0.02318837 -0.0509683 -0.046806015 -0.024181023 -0.06020153
0.03407339 0.037034005 -0.03779726 0.018610036 -0.04072757 -0.023148816 -0.017815385 -0.042034857
0.025941249 0.016307048 0.0074914703 0.008111191 -0.056128178 0.014256386 0.04515455 -0.03424774
-0.055122606 -0.00020310795 0.02931281 0.013358783 0.033040445 -0.007053503 -0.006534661 -0.057353638
-0.063495584 -0.05299788 -0.05168814 0.009654466 -0.0138416225 -0.025755668 -0.05719121 0.05014861
-0.0032382943 0.033482175 -0.05237859 -0.03847166 0.03704103 0.041193753 -0.04368141 0.048088986
0.03424082 0.05132054 -0.04941356 -0.06276982 -0.05493027 0.0026669293 0.019166261 -0.01662318
-0.015389695 0.016732685 -0.033484682 -0.04115422 -0.05384279 0.012707107 -0.042929623 0.018755144
-0.007259899 -0.04041923 0.055126045 0.03470859 0.048205335 -0.051958993 -0.03807019 -0.032392032
0.0056127687 0.03037685 -0.05807776 0.018934274 0.061824247 0.044144202 -0.014365904 0.0017711627
-0.0063706688 0.054118723 0.051632434 -0.0074575627 -0.045806635 -0.02309772 0.037543483 0.044451524
0.035952 -0.025820643 -0.0024371643 0.008497345 0.026665019 -0.04929509 0.015325236 -0.023234101
-0.01258563 0.03370497 0.0248704 0.055603176 0.030608205 -0.044204827 -0.0027113892 -0.05746158
-0.0066852556 -0.006178255 0.005232505 0.015384637 0.015969265 -0.057024945 -0.01631091 -0.012617145
0.03902095 -0.061847564 0.003133989 -0.033412725 -0.013976378 -0.03579699 0.0012763299 0.030420199
-0.03533044 -0.020152137 0.062249605 -0.020997968 0.018906944 -0.048522364 0.040850457 -0.00036541326
-0.019165292 -0.01815246 0.05661514 0.049908645 -0.035120793 -0.059812054 0.023347368 -0.0043512103
0.0070514525 0.029926792 -0.04959024 0.02826711 -0.0329024 0.011682784 -0.005834854 -0.004944767
0.042833872 -0.012345795 0.0149158845 0.006449278 0.059318535 -0.048253123 0.061706096 0.016353872
-0.00037192123 -0.006329641 -0.008066887 0.0012215462 -0.018970786 0.0070683965 0.063275985 -0.011953663
0.025952894 -0.0014351379 -0.01927271 -0.017482046 0.0077994955 -0.0056917393 0.009259002 -0.05079681
-0.0034345195 -0.052443925 -0.055616 -0.008362932 0.008803459 0.056148957 -0.005491337 0.015434558

fc3.bias f4 [128]
00000000: c2ab cc3c fa30 0fbd 614d 583d 0371 44bd
00000010: a43e 883c 8756 fd3b 622e 293c 08c8 b1bc
00000020: 7bef 7f3d d562 133c b327 8abb cc9a 29bc
00000030: 1a89 ef3c dfc6 933b 53e4 3fbd d3e9 2f3d
00000040: 6499 01bd 7a9b 993b f6ad 3ebd 1c31 c43b
00000050: a871 703d e8f9 20bd 594f 57bd 00df 58bb
00000060: 178d 00bd 0a5c 2bbd 24c4 1b3d 14f2 6cbd
00000070: ebaa b7bc 7a01 643d 369f 4a3c 7fad 043d
00000080: 8789 49bd ccf9 f53c d83b 3c3c 4259 1e3b
00000090: 489b 1e3d f0bd ccbc eab3 4b3c e15b 1e3d
000000a0: fe82 203c 52c7 5e3d a4cd 2e3d 57d8 353d
000000b0: 9d50 c8bc fab1 bb3c 1a02 103c c3e4 123d
000000c0: f333 9db9 e338 8c3c 4d0d 0bbd 14f8 6d3d
000000d0: dca2 9d3a 15ca 67bd b8d6 aebc b027 79bd
000000e0: 7a9a 80bc 95a3 143d b519 0d3d 58cf 8fbc
000000f0: 209e 23bd d61a 823b 54cf bb3c 0029 8ebb
00000100: 2921 00bc cb66 9a3c 3f9f 3f3d 0325 2f3d
00000110: 2ec1 33bd 4afb 18bd 974c a2bb 64c5 a1bb
00000120: e019 283d 9a62 473d 7be0 a6bb 9021 d3bc
00000130: 6d84 283d 7103 a33c 8a84 383d a151 3e3d
00000140: 4b43 06bd a1ba 103c 3d7b 3fbd d5a9 11bd
00000150: 5fd0 6dbd c1a3 13bd 762b 563d 5168 223d
00000160: 969f 563d df60 5bbd 576c aa3c a5e5 713b
00000170: 7cfd f7bc a1e0 0abd 03e7 65bd 4795 dd37
00000180: d99b b6bc 1c91 9dbb 4ac6 9f3b a029 633d
00000190: f939 80bd e2dd dbbc 69da 443c 2e59 533c
000001a0: a540 80bb 9f46 823b 809f 38bd 8092 7dbc
000001b0: da8b b93c a4a3 ffbc 4a55 75bd 00cd ed3c
000001c0: 934b 4c3d 3414 0ebd 8312 263c 3b73 b53b
000001d0: 7e86 33bd 6047 073d 8a2b 79bd e924 523d
000001e0: c145 09bd 8ed5 1d3c 0a22 823c f375 383c
000001f0: 476e 4dbb 088c 6b3d 3c34 913c 10a9 17bd
0.024984244 -0.034958817 0.05280817 -0.04795934 0.016631432 0.007731262 0.010326 -0.021701828
0.062484246 0.008995731 -0.0042161583 -0.010351848 0.02924018 0.0045097913 -0.046848606 0.0429476
-0.031640425 0.0046877237 -0.04655262 0.0059872996 0.05870214 -0.03930083 -0.052565906 -0.0033091903
-0.031384554 -0.041835822 0.03802885 -0.05784805 -0.022420367 0.05566547 0.01236706 0.03239202
-0.049203422 0.030026339 0.011488877 0.0024162089 0.038722306 -0.024992913 0.012433032 0.03866184
0.009796856 0.054389305 0.042676583 0.04439577 -0.024452502 0.022912014 0.008789564 0.035862695
-0.0002998408 0.01711697 -0.03394823 0.058097914 0.0012026685 -0.056589205 -0.02134262 -0.060828865
-0.01569866 0.036288816 0.034448344 -0.017554924 -0.03994572 0.0039704842 0.02292601 -0.0043383837
-0.007820406 0.018847844 0.04678273 0.042759907 -0.043885402 -0.037349023 -0.004952978 -0.004936861
0.0410403 0.04867802 -0.005092678 -0.02577284 0.041141916 0.019899102 0.045048274 0.046464566
-0.03277902 0.008833558 -0.04674839 -0.035562355 -0.058060046 -0.03604484 0.05228754 0.039650265
0.052398287 -0.05355918 0.020803614 0.003691056 -0.030272238 -0.03390563 -0.056128513 2.6414766e-05
-0.02229111 -0.004808558 0.004875933 0.05545962 -0.062610574 -0.0268392 0.012014964 0.01289968
-0.003913956 0.003975704 -0.045073986 -0.015476823 0.022649694 -0.03120596 -0.05989579 0.029028416
0.04987676 -0.034687236 0.0101362495 0.005537418 -0.043829434 0.033027053 -0.060832538 0.05130473
-0.033513788 0.009633435 0.015885372 0.01125859 -0.0031346248 0.05750659 0.017725103 -0.037026465

bn1.weight f4 [512]
00000000: 7004 803f 4d23 7f3f 1611 803f 77c6 7f3f
00000010: 13f5 7f3f 2526 803f bf83 7f3f f2bb 7f3f
00000020: b6f1 7f3f ead7 7f3f 0a93 7e3f 94f1 7f3f
00000030: 5511 803f 0715 803f a898 7f3f 81ee 7f3f
00000040: 4ae2 7f3f 8d19 803f 2922 803f 9dd3 7f3f
00000050: a8f2 7f3f 41b7 7f3f 95f0 7f3f ae03 803f
00000060: 7b42 803f 4ef4 7f3f d4e9 7f3f 3a3f 803f
00000070: 0a22 803f 07db 7f3f e81c 803f 3322 803f
00000080: bd14 803f 8e1e 803f f0a9 7f3f f5cf 7f3f
00000090: 9610 803f e4fd 7f3f 51b8 7f3f 210e 803f
000000a0: c428 803f ea9e 7f3f a0ff 7f3f d9eb 7f3f
000000b0: ae3c 7f3f a415 803f 991c 803f a1da 7f3f
000000c0: e7ae 7f3f 9b62 7f3f b82e 803f 250f 803f
000000d0: 7e10 803f 8b25 803f b77e 7f3f f90f 803f
000000e0: 0dd1 7f3f 98df 7f3f e223 803f 2139 803f
000000f0: e00d 803f ca8b 7f3f 1733 803f 2bd9 7f3f
00000100: 76ae 7f3f ca0d 803f 9a18 803f 4f04 803f
00000110: 24b7 7f3f 72fa 7f3f f6a8 7f3f 551b 803f
00000120: 4831 803f 291d 803f ce33 803f a7e8 7f3f
00000130: b5f2 7f3f cda3 7f3f 94e9 7f3f 0125 803f
00000140: 0c07 803f 792c 803f 322f 803f a46f 803f
00000150: 75b4 7f3f 49e2 7f3f 53dd 7f3f f22d 803f
00000160: d2bd 7f3f aba3 7f3f 9320 803f 4622 803f
00000170: d03c 803f fc00 803f d53a 803f 7001 803f
00000180: 1fd9 7f3f 5e4c 803f f5fa 7f3f 851d 803f
00000190: e815 803f 8924 803f 580f 803f e001 803f
000001a0: 27ac 7f3f 9330 803f 1e01 803f 1616 803f
000001b0: 7cd0 7f3f 7d9f 7f3f 38c2 7f3f e006 803f
000001c0: 74b7 7f3f 7da1 7f3f 5cf0 7f3f a539 803f
000001d0: 4a8d 7f3f 3cf3 7f3f ba11 803f b407 803f
000001e0: 2ee0 7f3f 2009 803f df0a 803f 3707 803f
000001f0: 2bb8 7f3f b196 7f3f 9749 7f3f 63f3 7f3f
00000200: fba8 7f3f 93d0 7f3f 61ee 7f3f 36fe 7f3f
00000210: f30f 803f ae32 803f f005 803f 0abc 7f3f
00000220: e66f 7f3f 2c98 7f3f 8ddc 7f3f 1897 7f3f
00000230: d9dc 7f3f 024a 803f 6e0b 803f a52c 803f
00000240: 560a 803f 4772 7f3f 6b35 803f 3d26 803f
00000250: 3908 803f 6719 803f fdf3 7f3f ea39 803f
00000260: 1f01 803f b924 803f ed0f 803f 90f9 7f3f
00000270: b213 803f 2216 7f3f 2a9a 7f3f 18e7 7f3f
00000280: 17f3 7f3f 101c 803f bce8 7f3f 2a0c 7f3f
00000290: 960d 803f b116 803f 8fea 7f3f 7f2e 803f
000002a0: 0e36 803f 0e06 803f 66de 7f3f 851d 803f
000002b0: e71e 803f 4405 803f cea0 7f3f e4cc 7f3f
000002c0: 64f1 7f3f ee1c 803f a5e4 7f3f d508 803f
000002d0: 350a 803f 050d 803f 1aba 7f3f e68a 7f3f
000002e0: c11e 803f 8f06 803f 8911 803f 3c10 803f
000002f0: 0049 803f 68f9 7f3f 1ad7 7f3f 3806 803f
00000300: e1f7 7f3f 7e44 7f3f 2c15 803f eec3 7f3f
00000310: 6601 803f f50c 803f 85ec 7f3f 321c 803f
00000320: db02 803f 2825 803f c7e0 7f3f 0d14 803f
00000330: 8dea 7f3f dd09 803f 9be8 7f3f 6d05 803f
00000340: 7a1d 803f 94f1 7f3f 4cd3 7f3f ceb7 7f3f
00000350: fc9b 7f3f d045 803f 8803 803f b204 803f
00000360: 552e 7f3f b9d2 7f3f f5e0 7f3f 8b0e 803f
00000370: 611e 803f b51e 803f c2fe 7f3f d815 803f
00000380: 57ad 7f3f 6ca2 7f3f 6ff1 7f3f d613 803f
00000390: 83a1 7f3f 970b 803f 57f8 7f3f 0059 7f3f
000003a0: 0019 803f 5618 803f c7fa 7f3f 09f3 7f3f
000003b0: 39e8 7f3f 1afa 7f3f 72de 7f3f 0bb4 7f3f
000003c0: 9028 803f c903 803f 65d1 7f3f ebc7 7f3f
000003d0: 6a3e 803f 7705 803f 3fdd 7f3f fcd6 7f3f
000003e0: b31a 803f 9a21 803f e1eb 7f3f 9638 803f
000003f0: 1a1b 803f 0f07 803f 4c14 803f 441d 803f
1.0001354 0.9966324 1.0005214 0.9991221 0.9998333 1.0011641 0.99810404 0.99896157
0.99978197 0.99938834 0.99443114 0.99977994 1.0005289 1.0006417 0.9984231 0.99973303
0.99954665 1.0007797 1.0010425 0.9993227 0.9997964 0.99889 0.99976474 1.0001123
1.0020288 0.99982154 0.9996617 1.0019295 1.0010388 0.99943584 1.0008821 1.0010437
1.0006329 1.0009325 0.9986868 0.9992669 1.0005062 0.9999678 0.9989062 1.0004312
1.0012441 0.9985186 0.9999943 0.9996925 0.99701965 1.0006604 1.0008727 0.99942976
0.99876255 0.99759835 1.0014257 1.0004622 1.0005033 1.0011457 0.99802727 1.0004874
0.9992836 0.9995055 1.001095 1.0017434 1.0004234 0.99822676 1.0015591 0.9994075
0.9987558 1.0004208 1.0007508 1.0001315 0.99888825 0.99991524 0.9986719 1.0008341
1.001504 1.0008899 1.001581 0.99964374 0.99979717 0.99859315 0.99965787 1.0011293
1.000215 1.0013572 1.0014403 1.003407 0.9988473 0.9995466 0.9994709 1.0014021
0.9989902 0.9985911 1.0009941 1.001046 1.0018559 1.00003 1.0017954 1.0000439
0.99940675 1.0023305 0.99992305 1.0009009 1.0006685 1.001115 1.0004683 1.0000572
0.9987206 1.0014824 1.0000341 1.000674 0.99927497 0.99852735 0.9990573 1.0002098
0.998893 0.99855787 0.99976134 1.0017592 0.99824965 0.9998052 1.000541 1.0002351
0.99951446 1.0002785 1.0003318 1.0002202 0.99890393 0.9983931 0.99721664 0.99980754
0.9986722 0.99927634 0.9997311 0.9999727 1.0004867 1.0015466 1.0001812 0.998963
0.9978012 0.9984157 0.9994591 0.99839926 0.9994636 1.0022585 1.0003488 1.0013624
1.0003154 0.9978375 1.0016302 1.0011669 1.0002509 1.0007752 0.9998167 1.0017674
1.0000342 1.0011207 1.000486 0.9999018 1.000601 0.99643147 0.9984461 0.99961996
0.999803 1.0008564 0.999645 0.99627936 1.0004146 1.0006925 0.99967283 1.001419
1.0016496 1.0001848 0.9994873 1.0009009 1.0009431 1.0001607 0.99854743 0.99922013
0.9997771 1.0008829 0.9995826 1.0002695 1.0003115 1.0003973 0.99893343 0.9982132
1.0009385 1.0002002 1.0005351 1.0004954 1.0022278 0.9998994 0.99937594 1.0001898
0.9998761 0.99713886 1.0006461 0.9990834 1.0000427 1.0003954 0.99970275 1.0008605
1.0000871 1.0011339 0.9995236 1.0006119 0.9996727 1.000301 0.999643 1.0001656
1.0008996 0.99977994 0.9993179 0.9988984 0.9984739 1.0021305 1.0001078 1.0001433
0.9968007 0.9993091 0.9995263 1.0004438 1.0009271 1.0009371 0.99998105 1.0006666
0.9987387 0.9985721 0.99977773 1.0006053 0.9985582 1.0003537 0.9998831 0.9974518
1.0007629 1.0007427 0.9999203 0.9998022 0.9996372 0.99991 0.999488 0.998841
1.0012379 1.0001155 0.99928886 0.99914426 1.0019047 1.0001668 0.9994697 0.99937415
1.0008148 1.0010254 0.999693 1.0017269 1.0008271 1.0002154 1.0006194 1.0008931

bn1.bias f4 [512]
00000000: 6303 263b 33cc 04bb 6cea e6ba e27b e53a
00000010: e5d2 79ba 76d9 ca39 8289 6abb 7888 2a3b
00000020: 1f3b 3b3b cc6c ecba ea56 0bbb 0c8f 183b
00000030: 8d27 8abb 69da 84bb d7a5 d339 eed1 913a
00000040: 7466 003b 1ef6 5f3b 4867 833b 9d56 393b
00000050: a828 38bb 3487 0d3b cb15 daba b84f 8339
00000060: 8528 2a3a 365d 333b e678 ebba 7816 3ebb
00000070: 2065 ab3b 1586 92b9 8a12 19bb 5aa2 b23b
00000080: 2b89 40b9 5511 1fba 20cf 613b 0e9a 023b
00000090: 31a3 6abb 1657 023b 132d feba 7a7d 6739
000000a0: 2670 3639 9d99 a3bb c1d0 613b 4a0d 2abb
000000b0: 75ca a73a bd37 ad3b 92c6 bfba 1e47 f5b9
000000c0: fe38 92ba 230f 5c3b 45a9 283a 5af8 2b3b
000000d0: 4951 a3ba ab3c ad3a 946d c0ba 7f82 22bb
000000e0: 265b 46b9 89aa af3b 5bbb 243b 5091 083b
000000f0: c56f 813a 6ea8 fa3a 83ad 4239 e43c 0b3b
00000100: 4ee1 70bb 0a60 d73a 4315 d53a 034e 77ba
00000110: c08f 49bb 624a a1bb 42e7 1cb8 a749 083b
00000120: f65e ffba 9b79 cdb9 b01b 693b 13f1 483a
00000130: cae2 0aba e401 e3ba f029 a239 9f48 70bb
00000140: 9ccd 0ebb 02c5 43bb d981 613b 6e91 93bb
00000150: b2db ec3a 943c 2bbb 7905 243b d594 9eba
00000160: 04cf 0c3a 5f33 2dbb 78c3 803b a8d8 243b
00000170: fee7 6fbb 7e4c b6b9 acff 343a bb6c fd39
00000180: 27ae d739 4c7b 95bb c300 f73a 5af6 783a
00000190: b39b b93a 17e5 4cbb 7853 68bb 8e08 a53b
000001a0: 4945 5cbb 7688 fd3a a4fe 953b 49f0 cbbb
000001b0: 73e8 c73a 9f9b b0ba ce50 6dbb 0902 9ebb
000001c0: ff6b bf3a ab8b 03ba c371 90bb 43f7 9cba
000001d0: c9ef 29bb f860 b73a f27f 78bb 6f63 153b
000001e0: 19bc faba 9162 ef3a 7a48 34bb 2873 dbba
000001f0: a321 c03a 1126 8bba 266f 40bb 7fe3 733b
00000200: 1e51 02bb f120 dc3a 06b0 1c39 9cb0 97ba
00000210: 8cf8 ddba c749 78ba d9a3 aabb 92e6 ab3b
00000220: 18a4 feb9 05cb 333b 71ef a737 5b5e d1ba
00000230: 0ef9 e33a b5cb 3338 e6dd 82bb f6a0 0bbb
00000240: 1cd0 973b e6a6 a8bb 69e4 213b 1c2d 833b
00000250: ca91 11b9 adf4 ff3a ad34 ffba 5222 073b
00000260: 5bf0 2739 5d1f eeba 6ea2 bf3a 4b96 f639
00000270: 27dc 103b 8633 b6b9 cbd8 8ab9 e1f5 aaba
00000280: b3e0 2d3a fb02 523a cc21 0cbb f5fe 70bb
00000290: ba40 913b 9f3d 393a d50b 3a3b 728d 96ba
000002a0: 5d99 333b a0d0 603b f9e9 9fb9 d0a4 cf39
000002b0: e9d1 84bb 07b8 b3ba 8be7 6abb cb22 b0bb
000002c0: fd85 03bb 4625 46bb f18c 30ba 3a33 873b
000002d0: b3e6 873a e138 023b 9247 a7ba 193c b43b
000002e0: 076d 243b 0ce3 8abb 7eda 63bb a71a 553b
000002f0: 1289 b33a c26c 823b ca84 07bb fe8a 49bb
00000300: 0349 ae3a 8e7a d23a b9ba 8d3b 2a5b 5ebb
00000310: b99f 7d3b 3520 9dba 30e4 04bb 8634 1cbb
00000320: d6a3 96ba 57a7 ddba 59bb b63a 85ed 6b3b
00000330: 81ef f8b8 ae99 3abb 4f6d a33b edb2 f9ba
00000340: df53 ce3a 2c31 71ba b585 36bb 6281 b13b
00000350: a2c7 4e3b 603b 433a 273b 50bb 3cd5 9aba
00000360: 14d7 23bb 7690 143b 531d 2fbb 65ba c53a
00000370: 3a78 04bb 3c3d 4cbb c251 36bb 8f33 933a
00000380: e883 e4ba 0621 72bb b267 6dbb 68c4 6c3b
00000390: 89af 1e38 64f4 233b 6e0a 74bb 8dbe 083b
000003a0: 6d57 6bba 8190 97ba 35de 02bb 776d 20bb
000003b0: fc51 62bb 9b56 473b 4d91 8dbb 24c0 133a
000003c0: 06d9 0eba a2fe 63ba 4f09 023b 81a2 0dbb
000003d0: db17 12bb 0771 ccba 6cfb b7ba a73e a83b
000003e0: 09a6 fc39 b655 4dbb 71a6 0c3b a8d1 9ebb
000003f0: 0de0 19bb 77d8 7c3b d4f2 81bb 5f4e 9abb
0.0025331608 -0.0020263314 -0.0017617471 0.0017508233 -0.0009530022 0.00038690463 -0.0035787527 0.0026021283
0.0028569174 -0.0018037795 -0.0021261522 0.0023278622 -0.0042161406 -0.004054357 0.00040368616 0.0011125186
0.0019592317 0.0034173797 0.004010115 0.0028280385 -0.0028100405 0.002159548 -0.0016638575 0.00025045662
0.0006491023 0.002736879 -0.0017965108 -0.0029005092 0.005230561 -0.0002794719 -0.0023356997 0.0054514827
-0.00018361646 -0.00060679513 0.0034455732 0.001992825 -0.0035802836 0.0019888333 -0.0019392095 0.0002207662
0.00017398651 -0.0049926774 0.0034456702 -0.0025947862 0.0012801426 0.0052861855 -0.0014631322 -0.00046783028
-0.0011155901 0.0033578358 0.00064339145 0.0026240558 -0.0012460138 0.0013216933 -0.0014681094 -0.002479702
-0.00018916707 0.0053609055 0.0025136087 0.0020838566 0.0009875229 0.0019123682 0.0001856592 0.002124601
-0.0036755386 0.001643182 0.0016256947 -0.0009433927 -0.0030755848 -0.004922197 -3.7408674e-05 0.0020795853
-0.0019483257 -0.0003919125 0.0035569482 0.00076653174 -0.00052980764 -0.0017319289 0.00030930294 -0.003666438
-0.0021790033 -0.0029872064 0.003440967 -0.0045034206 0.0018070845 -0.0026128637 0.0025027676 -0.0012098799
0.0005371424 -0.0026428325 0.0039295517 0.0025153551 -0.0036606784 -0.00034770736 0.0006904553 0.0004833693
0.0004113775 -0.0045618173 0.0018844832 0.00094971585 0.0014160782 -0.0031264478 -0.0035450142 0.00503642
-0.0033610633 0.0019343037 0.0045774747 -0.0062237126 0.001525177 -0.0013474113 -0.0036211493 -0.00482202
0.0014604329 -0.00050180656 -0.0044080927 -0.0011975545 -0.0025930277 0.0013990691 -0.0037918058 0.0022794863
-0.0019129544 0.0018263628 -0.002750902 -0.0016742693 0.0014658462 -0.0010616203 -0.0029363125 0.0037214456
-0.0019884775 0.0016794485 0.00014942893 -0.001157302 -0.0016935035 -0.0009471443 -0.0052075204 0.005245992
-0.00048568915 0.0027434241 2.001945e-05 -0.0015973555 0.001739295 4.2866643e-05 -0.0039937375 -0.0021305657
0.004632963 -0.005146849 0.0024702793 0.00400318 -0.00013882588 0.0019527875 -0.0019470655 0.0020619822
0.000160159 -0.0018167306 0.0014620551 0.00047032753 0.0022103877 -0.00034752133 -0.00026482934 -0.0013043248
0.0006632909 0.00080113084 -0.002138245 -0.003677306 0.004432765 0.0007066372 0.00283884 -0.0011486246
0.0027404644 0.0034304038 -0.00030501166 0.00039604912 -0.0040533436 -0.0013711461 -0.0035843577 -0.0053752414
-0.0020068877 -0.003023462 -0.0006734869 0.0041259797 0.0010368436 0.0019870328 -0.0012762418 0.0055003283
0.00250894 -0.004238492 -0.0034767683 0.0032517107 0.0013697466 0.00398025 -0.0020678514 -0.0030753012
0.0013296906 0.0016058253 0.0043252376 -0.003392885 0.0038699938 -0.0011987748 -0.0020277612 -0.0023835017
-0.0011492919 -0.0016910833 0.0013941332 0.0035999727 -0.000118701726 -0.0028472948 0.004987396 -0.0019050516
0.0015741548 -0.00092007476 -0.0027850692 0.005417035 0.0031552096 0.0007447507 -0.0031773539 -0.0011812816
-0.0025000023 0.0022669113 -0.002672036 0.0015085457 -0.0020213262 -0.0031164428 -0.0027819728 0.0011230576
-0.0017434331 -0.0036945953 -0.0036225137 0.003612781 3.7833615e-05 0.0025017494 -0.0037237662 0.002086553
-0.0008977566 -0.0011563451 -0.0019968871 -0.0024479309 -0.003453373 0.003041661 -0.0043202997 0.0005636236
-0.0005449209 -0.0008697306 0.0019841974 -0.0021611752 -0.002229205 -0.001559765 -0.0014036722 0.005134422
0.0004818889 -0.0031331605 0.0021461511 -0.0048467703 -0.0023479492 0.0038581172 -0.003965715 -0.0047090496
