data/rl4wound_paper_res/ctr/models_map524/agent_ctr_True_ep_1059.pth (torch, 950255 bytes, 21 tensors)

fc1.weight f4 [512, 5]
-0.005390458 0.24122162 -0.3652119 -0.32531542 -0.17302111 0.11683075 -0.008560897 0.3554205
-0.03966264 0.11867005 -0.13458799 -0.08950596 -0.4263254 -0.29659277 -0.18161301 0.017617721
0.17779402 0.2663537 -0.30488846 -0.19574186 0.16294388 0.3680332 -0.0930026 0.33630395
-0.07021185 0.045689795 0.4068438 -0.41392586 -0.27727902 -0.1161273 -0.17464174 0.38373238
-0.28755495 -0.20871697 -0.30985817 -0.4186189 -0.2576536 0.3829926 0.2006635 0.21752349
0.024208328 -0.22730468 0.07297548 -0.4193246 -0.32468668 -0.23310405 0.28099173 0.26521719
-0.19517194 -0.013230507 0.28344584 0.4460752 0.17697379 0.061517786 0.29590797 -0.26236194
0.083670795 -0.34644312 -0.30991757 -0.2317344 0.19888757 0.17836307 -0.2624881 0.13720568
0.24775511 -0.055722542 0.01712197 0.1025088 0.27412963 0.43252733 -0.34318006 -0.16439037
0.17504673 0.37335792 0.3872686 0.39514545 0.08838981 -0.38960278 0.041038584 -0.27898577
-0.41586927 0.39880568 0.33841434 -0.4477479 0.081920944 -0.076236844 -0.07040887 -0.20331942
0.17077109 -0.26652902 0.16244479 0.22786051 0.31893754 0.16796552 -0.44184226 -0.29007003
0.22139306 0.09365105 -0.3484026 -0.25847843 0.42103204 0.29793924 -0.19616441 -0.1104436
-0.4288575 -0.011523648 -0.33516103 -0.3474298 -0.024775032 0.06483513 -0.18237653 0.26631147
-0.27397308 0.4027995 0.31020477 -0.37586603 -0.111440964 0.020189961 0.06658786 0.10785478
0.17852212 0.029550254 -0.22055995 0.20797531 -0.43297163 -0.2634216 -0.109960124 -0.21914947
-0.15924619 -0.36589852 -0.09182057 0.09526019 -0.2926669 -0.023962963 0.31964287 -0.045798536
0.015401753 -0.04015029 0.08799855 0.28665397 0.421502 0.2868385 0.42449328 -0.030950539
-0.40397844 -0.21354486 0.30068326 -0.0006937196 -0.2208466 -0.3425276 -0.41674134 -0.3768555
-0.09248226 0.24161255 0.24520011 -0.43278024 0.27802008 -0.34807006 -0.09429851 -0.1830044
-0.08616088 -0.092334524 -0.40041232 -0.3838875 -0.07245207 0.009002139 -0.20011473 0.16452117
-0.4066861 -0.033466965 0.39411476 -0.17953774 0.40295643 0.16133085 -0.40515405 0.28395605
-0.051945303 -0.19842488 0.35608375 -0.3633504 0.04697515 -0.09106858 0.3192387 0.12557867
0.21463852 0.15848365 -0.104410686 -0.09690341 -0.37265295 0.24112223 0.3564385 0.30636373
-0.31642792 0.018319266 -0.315506 -0.24562062 -0.25919798 0.15179859 -0.26719546 -0.010861956
0.017389107 0.29286703 -0.33854786 -0.30549145 -0.26087645 0.31425908 -0.16304538 0.37411183
0.16334344 0.05637433 -0.003146701 -0.084043376 0.054654326 -0.104801424 -0.006004203 0.05637059
-0.35470974 -0.23248975 0.36354467 -0.36023754 -0.027620494 0.44470116 0.15740383 0.009767496
-0.38798723 0.22148074 -0.32181662 -0.1252958 -0.14853407 -0.062382713 0.0046452526 0.37333688
0.054175027 0.3981021 0.27381244 -0.28458837 0.20024687 -0.31588617 -0.18854113 0.13066514
0.1491964 0.3349016 -0.14400144 0.00013635591 0.23021404 -0.4309448 0.32444355 -0.37177247
0.0042556496 -0.07519699 -0.23397125 0.057366297 0.3696578 -0.13104454 -0.26787063 -0.1664546
00000000: 70a2 b0bb cd02 773e 0efd babe be8f a6be
00000010: 722c 31be f644 ef3d 0143 0cbc adf9 b53e
00000020: 4b75 22bd 4809 f33d 6fd1 09be e74e b7bd
00000030: 5347 dabe 02db 97be c3f8 39be 0a53 903c
00000040: a30f 363e 835f 883e 571a 9cbe 8e70 48be
00000050: c3da 263e d96e bc3e 2678 bebd 0830 ac3e
00000060: 3bcb 8fbd 3925 3b3d d54d d03e 17ee d3be
00000070: 84f7 8dbe 26d4 edbd 49d5 32be 9278 c43e
00000080: 673a 93be e7b9 55be bba5 9ebe 3755 d6be
00000090: 2ceb 83be 9b17 c43e bc7a 4d3e 7abe 5e3e
000000a0: 8b50 c63c 8fc2 68be 2b74 953d b7b1 d6be
000000b0: 553d a6be d4b2 6ebe 26de 8f3e 8cca 873e
000000c0: 27db 47be c5c4 58bc d01f 913e f863 e43e
000000d0: 9e38 353e 13fa 7b3d 4081 973e 4e54 86be
000000e0: 985b ab3d fe60 b1be 84ad 9ebe c84b 6dbe
000000f0: 2fa9 4b3e cfa4 363e d764 86be a57f 0c3e
00000100: 84b3 7d3e 523d 64bd 6043 8c3c 22f0 d13d
00000110: b85a 8c3e 3974 dd3e 4cb5 afbe f355 28be
00000120: 733f 333e c528 bf3e 1248 c63e 8150 ca3e
00000130: b705 b53d 047a c7be 1318 283d 39d7 8ebe
00000140: d1ec d4be 4230 cc3e a544 ad3e 363f e5be
00000150: 2bc6 a73d 1022 9cbd 8732 90bd f732 50be
00000160: 9ede 2e3e 7e76 88be ed57 263e 4454 693e
00000170: c84b a33e 27ff 2b3e 2639 e2be 0f84 94be
00000180: ddb4 623e 1fcc bf3d d361 b2be 4957 84be
00000190: 8391 d73e 7e8b 983e 53df 48be 4130 e2bd
000001a0: 3693 dbbe afcd 3cbc 3a9a abbe 52e2 b1be
000001b0: 02f5 cabc 48c8 843d eac0 3abe fa59 883e
000001c0: 3346 8cbe bc3b ce3e 29d3 9e3e 8371 c0be
000001d0: 293b e4bd 6b65 a53c 375f 883d f8e2 dc3d
000001e0: 81ce 363e 6013 f23c 78da 61be 7bf7 543e
000001f0: 75ae ddbe 32df 86be c632 e1bd b868 60be
00000200: 6f11 23be 0d57 bbbe 6c0c bcbd c617 c33d
00000210: 70d8 95be fa4d c4bc 3ba8 a33e 3f97 3bbd
00000220: a257 7c3c a174 24bd 9538 b43d 4fc4 923e
00000230: 1ccf d73e 7fdc 923e 2f57 d93e fc8b fdbc
00000240: 43d6 cebe 81ab 5abe 28f3 993e bcda 35ba
00000250: 9c25 62be c75f afbe 1f5f d5be 34f3 c0be
00000260: 5767 bdbd 4869 773e bd15 7b3e 5f95 ddbe
00000270: a658 8e3e 3d36 b2be 941f c1bd 8165 3bbe
00000280: 1e75 b0bd e219 bdbd d802 cdbe e78c c4be
00000290: c061 94bd b57d 133c e0ea 4cbe 3d78 283e
000002a0: 2939 d0be a814 09bd 69c9 c93e bed8 37be
000002b0: 4e50 ce3e ea33 253e 5a70 cfbe b062 913e
000002c0: 99c4 54bd e42f 4bbe 9c50 b63e 1009 babe
000002d0: 0469 403d 2a82 babd 4173 a33e b297 003e
000002e0: 33ca 5b3e 8a49 223e 45d5 d5bd 4c75 c6bd
000002f0: 5ecc bebe bfe8 763e 1b7f b63e b5db 9c3e
00000300: d702 a2be 4912 963c 018a a1be f983 7bbe
00000310: 99b5 84be 1771 1b3e d8cd 88be 58f6 31bc
00000320: 9a73 8e3c abf2 953e 2556 adbe 6069 9cbe
00000330: 9991 85be 91e6 a03e 5ef5 26be 968b bf3e
00000340: 8143 273e c5e8 663d e238 4ebb ef1e acbd
00000350: 37dd 5f3d 21a2 d6bd e8be c4bb d9e4 663d
00000360: 849c b5be cb11 6ebe 8722 ba3e 0e71 b8be
00000370: 6044 e2bc dfaf e33e 782e 213e d907 203c
00000380: 43a6 c6be d9cb 623e 26c5 a4be 8b4d 00be
00000390: 5119 18be 0485 7fbd 3437 983b 0326 bf3e
000003a0: a2e6 5d3d 0ad4 cb3e 2531 8c3e 91b5 91be
000003b0: 840d 4d3e d5bb a1be ed10 41be 15cd 053e
000003c0: f1c6 183e 3978 ab3e 1d75 13be c3fa 0e39
000003d0: 3bbd 6b3e cca4 dcbe 771d a63e f658 bebe
000003e0: fa72 8b3b e100 9abd 2996 6fbe ecf8 6a3d
000003f0: ca43 bd3e 8a30 06be 5726 89be 1373 2abe

fc1.bias f4 [512]
-0.29453316 -0.31451684 0.29728132 -0.14578165 -0.028943537 0.13390101 -0.27639842 0.041569367
0.2649468 -0.26229724 0.12983137 -0.01576173 0.24556054 0.2968993 0.11564919 0.012098633
-0.38526806 0.17849025 0.27263138 -0.16302095 -0.4405531 0.36715525 -0.10476533 0.08697789
-0.12693432 0.29002538 0.43672326 0.2803408 -0.13920636 0.3158625 0.21630447 0.04450344
-0.36032495 -0.1906325 -0.44346687 0.2987206 0.4418985 0.25976703 0.13930568 0.10571397
0.4296646 -0.2263555 -0.150563 -0.39884692 -0.042825185 0.02726441 0.122643 -0.31168982
-0.049392853 -0.37070405 -0.36204007 0.058795046 -0.43644604 0.120050564 -0.41384962 -0.31064972
-0.09226821 -0.42486188 0.36128947 0.36627573 -0.22974047 0.09908151 0.23187135 0.14199056
-0.05785528 -0.41811994 0.32719278 -0.39350605 -0.08038053 0.026342288 -0.15000056 -0.15745273
-0.3876901 0.022106672 -0.04916281 0.39008835 -0.14674748 0.33894962 0.026643865 -0.20465909
-0.10689085 -0.05413174 0.0056814696 -0.07930409 0.13267462 0.37179452 0.07095919 0.16185752
0.27848533 0.0956122 0.20612964 0.23446177 0.41348943 -0.4087289 0.15353876 -0.020315135
-0.079858676 -0.16588481 0.26367196 0.40916538 -0.36479738 0.24050531 0.3124025 0.078165576
0.008220778 0.34367678 0.010187017 -0.11085889 -0.03373405 0.14051576 0.110781774 -0.018446362
0.13742375 0.12031685 -0.35744205 0.11118928 0.27435687 0.050281245 -0.040336225 0.3426585
-0.39031193 -0.20401837 -0.20136668 0.3860838 -0.43356943 0.049992908 -0.4378622 -0.015645064
0.16852352 -0.10238877 0.43410376 0.0027135664 -0.22765857 0.11537553 0.2272539 -0.00096883933
0.38258332 -0.28176248 0.19105023 0.24846448 0.22253233 0.0011845353 0.12172001 -0.34746414
-0.34510112 -0.027326941 -0.05871136 0.33228558 0.330486 0.30508524 -0.20694532 -0.34961575
-0.41815278 0.16750437 -0.39930597 -0.44768807 -0.22312729 -0.38118434 -0.18055919 -0.28188026
-0.2306902 0.42550227 -0.08494305 0.37058872 0.008858859 -0.061399236 -0.13009074 -0.31810617
-0.358669 0.30994383 -0.14018393 -0.4378921 0.4098442 0.00897589 -0.30096245 -0.35240763
-0.3732099 -0.39145675 0.4050009 0.3080031 0.036384344 -0.38316238 -0.11712522 -0.41786027
0.1581156 -0.120145105 -0.095499195 -0.1395661 0.20928034 0.2474669 0.09681234 -0.06283495
-0.04420161 -0.0072613433 -0.33502156 0.43136448 -0.19316903 0.26026854 -0.25105897 0.007838469
0.15251137 -0.41007888 0.20856912 -0.34607637 0.06224352 -0.08859853 0.25831684 0.43603143
0.092603795 -0.012877168 -0.21946503 0.16698518 -0.2134749 0.18323082 -0.19330813 0.3011671
0.34299415 0.27937436 0.012071496 0.20478503 -0.4109091 0.36278352 -0.11549187 0.16375919
-0.07754658 -0.14609712 -0.20880882 0.28807178 -0.24494727 -0.081170306 0.22083691 0.04558086
-0.37433416 -0.44419253 -0.21780664 0.40876716 -0.31792796 0.25036582 0.3201293 -0.1867829
-0.1988698 -0.32155034 0.06918246 -0.06337092 0.021745337 0.19424726 0.191123 -0.14393772
0.03133605 0.110702 0.010698631 0.08948879 -0.18030117 0.36685678 -0.048149064 -0.059836704
00000000: 0dcd 96be 5a08 a1be 4235 983e c947 15be
00000010: ff1a edbc 591d 093e 1884 8dbe a444 2a3d
00000020: 1ba7 873e d34b 86be 84f2 043e be1e 81bc
00000030: 3974 7b3e 2f03 983e 7cd9 ec3d 5839 463c
00000040: db41 c5be 26c6 363e 5796 8b3e f7ee 26be
00000050: 2d90 e1be c6fb bb3e 358f d6bd 7721 b23d
00000060: 12fb 01be 357e 943e 319a df3e d488 8f3e
00000070: 1d8c 0ebe bbb8 a13e eb7e 5d3e 3d49 363d
00000080: 837c b8be 2b35 43be 170e e3be e8f1 983e
00000090: 8540 e23e 2f00 853e 26a6 0e3e 9180 d83d
000000a0: 00fd db3e bcc9 67be 302d 1abe aa35 ccbe
000000b0: 7669 2fbd 9d59 df3c 412c fb3d cf95 9fbe
000000c0: 2950 4abd eccc bdbe 515d b9be 13d3 703d
000000d0: db75 dfbe 12dd f53d 19e4 d3be 7b0d 9fbe
000000e0: 1ef7 bcbd 7f87 d9be effa b83e 7e88 bb3e
000000f0: 1641 6bbe 3feb ca3d af6f 6d3e f965 113e
00000100: a8f9 6cbd d113 d6be d085 a73e a079 c9be
00000110: 8c9e a4bd c8cb d73c bf99 19be 4a3b 21be
00000120: 517f c6be 0d19 b53c f15e 49bd a9b9 c73e
00000130: f944 16be ce8a ad3e 3c44 da3c 2792 51be
00000140: 97e9 dabd 3eb9 5dbd 9f2b ba3b 2f6a a2bd
00000150: dbdb 073e da5b be3e 0d53 913d fabd 253e
00000160: a195 8e3e 54d0 c33d a613 533e bf16 703e
00000170: e3b4 d33e ea44 d1be 4439 1d3e ed6b a6bc
00000180: f28c a3bd b5dd 29be 0300 873e 207e d13e
00000190: b9c6 babe 0647 763e 38f3 9f3e 4615 a03d
000001a0: 71b0 063c 67f6 af3e 72e7 263c fc09 e3bd
000001b0: b72c 0abd 5de3 0f3e 8ee1 e23d d31c 97bc
000001c0: d0b8 0c3e ae68 f63d a502 b7be 35b7 e33d
000001d0: 8178 8c3e b5f3 4d3d 9937 25bd ef70 af3e
000001e0: f7d6 c7be 31ea 50be 1133 4ebe c7ac c53e
000001f0: d0fc ddbe 5dc5 4c3d 792f e0be 142a 80bc
00000200: 6e91 2c3e 34b1 d1bd d942 de3e 17d6 313b
00000210: 541f 69be 024a ec3d 3fb5 683e b5f9 7dba
00000220: f6e1 c33e 2c43 90be aca2 433e 796d 7e3e
00000230: 84df 633e 6942 9b3a 5748 f93d d2e6 b1be
00000240: 18b1 b0be c0dc dfbc 537b 70bd 5621 aa3e
00000250: 7635 a93e 2234 9c3e 79e9 53be d600 b3be
00000260: 1f18 d6be 4486 2b3e d571 ccbe 5f37 e5be
00000270: 7b7b 64be 982a c3be 82e4 38be 9c52 90be
00000280: 0d3a 6cbe 6fdb d93e 9ff6 adbd cebd bd3e
00000290: bf24 113c c47d 7bbd 8236 05be d0de a2be
000002a0: 77a3 b7be f5b0 9e3e 608c 0fbe 6533 e0be
000002b0: 19d7 d13e 9d0f 133c c017 9abe c66e b4be
000002c0: 5e15 bfbe 056d c8be 475c cf3e 95b2 9d3e
000002d0: c007 153d dc2d c4be 59df efbd c8f1 d5be
000002e0: 0ee9 213e a30e f6bd 1595 c3bd 6aea 0ebe
000002f0: 964d 563e f767 7d3e 8c45 c63d 9caf 80bd
00000300: bf0c 35bd 90f0 edbb f287 abbe cedb dc3e
00000310: 1ace 45be eb41 853e cd8a 80be ec6c 003c
00000320: f12b 1c3e dcf5 d1be 2593 553e ec30 b1be
00000330: 10f3 7e3d 2573 b5bd 1b42 843e 833f df3e
00000340: 0fa7 bd3d c2fa 52bc 71bb 60be 2afe 2a3e
00000350: 2a99 5abe dca0 3b3e 91f2 45be 9332 9a3e
00000360: ee9c af3e 280a 8f3e 86c7 453c 2bb3 513e
00000370: ad62 d2be c3be b93e 0087 ecbd 7db0 273e
00000380: bed0 9ebd 7c9a 15be fbd1 55be 257e 933e
00000390: 75d3 7abe 9e3c a6bd 1223 623e ffb2 3a3d
000003a0: baa8 bfbe 346d e3be b408 5fbe ee49 d13e
000003b0: 74c7 a2be f32f 803e fde7 a33e 0444 3fbe
000003c0: 86a4 4bbe 3fa2 a4be 89af 8d3d 9dc8 81bd
000003d0: 4723 b23c c1e8 463e bfb5 433e 6964 13be
000003e0: 3b5a 003d bbb7 e23d 5049 2f3c e645 b73d
000003f0: dfa0 38be a7d4 bb3e f437 45bd 5517 75bd

fc2.weight f4 [256, 512]
0.039967697 0.03452542 -0.039975364 -0.018400354 0.023480827 -0.026483398 0.0076260474 -0.01767853
0.0073561147 0.022357702 0.012725342 0.03091872 -0.0068586725 0.023866994 0.015429699 -0.014951794
-0.03214285 0.04148495 -0.011275043 0.032437295 0.026670272 -0.0032492655 -0.03749464 0.0047315517
-0.020626385 0.0113548795 -0.019234149 0.03221086 -0.037948925 -0.012177289 0.007748599 0.0034338231
0.034956012 -0.0155581115 -0.033630524 0.030059425 0.01342562 0.027544316 -0.027093511 -0.025534008
-0.019013673 0.004424563 0.014882296 -0.02441801 -0.0018588282 -0.0093669975 0.04036949 -0.017290488
0.041301683 -0.027953243 -0.016674096 -0.03207768 0.03417368 -0.028903091 0.017782988 -0.017455993
0.04333078 0.0050024795 -0.036813363 0.0072676972 0.004129427 -0.04102252 0.009336343 0.04264591
0.010971965 0.00060255895 -0.0075689373 0.013098026 -0.018039454 0.041962404 0.03763219 0.018842798
-0.01761756 -0.042848866 -0.026389522 0.04439841 -0.039380103 -0.04367622 -0.004484595 0.012489097
-0.04492492 -0.04085661 0.0018388478 -0.016927222 0.03128391 0.011191179 -0.036708426 -0.039196398
0.032059934 -0.0062550143 -0.017540446 0.012457076 -0.009747135 0.019760944 0.01033341 -0.0186472
-0.035793938 0.026272403 -0.028268514 -0.005923061 0.007068863 -0.02543157 0.022714805 -0.029666495
0.009398834 0.004985507 0.0149063375 -0.044945125 0.0012040122 0.019367225 -0.027355911 0.01176171
0.0018934598 0.036395434 -0.010762958 -0.0014464397 -0.020371396 -0.0096972445 0.011786143 -0.04156416
0.034076083 0.030568445 0.019314239 0.033283323 -0.014885149 0.008918392 0.00048674326 -0.032049853
-0.015206721 -0.017396033 -0.010208103 -0.03854695 -0.031833913 -0.005364728 -0.0058989865 -0.039162908
0.00743843 0.022719914 0.038274568 0.036302295 -0.031246038 -0.014487257 -0.022531996 0.008344045
0.010319962 0.0093098255 0.026259433 0.022726916 -0.022841033 0.029163264 0.031419482 0.0070547876
-0.03949101 -0.02614498 0.013005221 0.016174939 0.04320142 0.020872653 0.017666316 -0.0027432651
0.029034182 -0.017299885 0.01666784 -0.02023869 -0.00037803152 0.025181169 0.019345915 -0.0114785
-0.0015215346 -0.023312211 0.019030096 0.031068202 0.013563911 -0.044364613 -0.032887843 0.028870177
-0.007330253 0.025421033 0.03455914 -0.01331321 -0.025035089 -0.04073248 0.015065803 0.021290474
-0.009326516 -0.04361182 -0.030176537 -0.0025400324 0.020570522 -0.015061361 -0.030035961 -0.03200021
0.03958538 0.01443585 -0.034150217 -0.028778786 -0.03758579 0.005220253 -0.019588565 -0.0011372156
-0.008614443 -0.040089168 -0.04088399 -0.03571231 -0.019465316 0.007133618 -0.022291765 -0.0032925883
-0.0065856315 0.03899498 -0.0184468 0.043420438 -0.032010254 -0.038411908 0.012402711 -0.0243108
0.022671543 -0.02458436 0.035443727 0.04156565 0.004522208 0.008035593 0.042817865 0.0250577
-0.037971906 -0.0007628109 -0.03805307 0.035606895 -0.009573535 0.0005797286 -0.02886728 -0.023049043
0.0053065512 0.0379596 -0.023439584 0.0056564487 0.039008677 0.041355494 -0.006853368 0.042080313
0.014888952 0.04164898 0.0008940924 -0.03758714 -0.0130964685 0.014859671 0.02211265 -0.042088896
0.03354675 -0.03823949 0.024504004 0.04217555 0.011345944 -0.007176353 0.023066688 -0.012030366
00000000: 2bb5 233d 876a 0d3d 35bd 23bd 57bc 96bc
00000010: dd5a c03c b6f3 d8bc ece3 f93b 91d2 90bc
00000020: 900b f13b 8027 b73c f47d 503c 4149 fd3c
00000030: b7be e0bb b784 c33c d9cc 7c3c 5ff8 74bc
00000040: 39a8 03bd 1fec 293d f5ba 38bc f8dc 043d
00000050: 9d7b da3c a1f1 54bb fb93 19bd 220b 9b3b
00000060: aaf8 a8bc d109 3a3c ef90 9dbc 89ef 033d
00000070: 5570 1bbd 4183 47bc f6e7 fd3b fe09 613b
00000080: 092e 0f3d 73e7 7ebc 29c0 09bd 2f3f f63c
00000090: 22f7 5b3c 9ea4 e13c 36f3 ddbc b22c d1bc
000000a0: 90c2 9bbc edfb 903b e0d4 733c 4708 c8bc
000000b0: eda3 f3ba 0978 19bc 7a5a 253d c8a4 8dbc
000000c0: f42b 293d 33fe e4bc 1d98 88bc e363 03bd
000000d0: b3f9 0b3d 2dc6 ecbc a1ad 913c dfff 8ebc
000000e0: 9e7b 313d d7eb a33b 9cc9 16bd dd25 ee3b
000000f0: 2550 873b 3b07 28bd 76f7 183c 7aad 2e3d
00000100: c2c3 333c 0cf5 1d3a d904 f8bb 1a99 563c
00000110: 7ac7 93bc c5e0 2b3d 3624 1a3d 365c 9a3c
00000120: b452 90bc 4b82 2fbd d72e d8bc 1bdb 353d
00000130: 084d 21bd d6e5 32bd 82f3 92bb 129f 4c3c
00000140: 3103 38bd 4359 27bd 7e05 f13a f5aa 8abc
00000150: 8f23 003d 355b 373c 935b 16bd 678c 20bd
00000160: 4751 033d ddf6 ccbb fbb0 8fbc c418 4c3c
00000170: 73b2 1fbc b4e1 a13c 774d 293c 03c2 98bc
00000180: aa9c 12bd 3939 d73c 5f93 e7bc 3d16 c2bb
00000190: eca1 e73b de55 d0bc 6614 ba3c 2607 f3bc
000001a0: 91fd 193c 775d a33b b639 743c 6118 38bd
000001b0: f2cf 9d3a 04a8 9e3c 8119 e0bc 30b4 403c
000001c0: f82d f83a 6113 153d 1e57 30bc 7696 bdba
000001d0: eae1 a6bc 31e1 1ebc ab1a 413c 2e3f 2abd
000001e0: 5d93 0b3d ad6a fa3c e538 9e3c 1854 083d
000001f0: d7e0 73bc 721e 123c 9331 ff39 b546 03bd
00000200: 9c25 79bc 2082 8ebc e33f 27bc 68e3 1dbd
00000210: 4764 02bd 9aca afbb 494c c1bb 4969 20bd
00000220: 13be f33b 1d1f ba3c cbc5 1c3d b7b1 143d
00000230: b1f7 ffbc f65b 6dbc 0595 b8bc 76b5 083c
00000240: 0f15 293c 3d88 183c 061e d73c cc2d ba3c
00000250: 1e1d bbbc cce7 ee3c b7b1 003d d92b e73b
00000260: 53c1 21bd ff2d d6bc da13 553c 4e81 843c
00000270: f9f3 303d 20fd aa3c f3b8 903c 5ac8 33bb
00000280: 18d9 ed3c 7db8 8dbc fe8a 883c 9ccb a5bc
00000290: 8832 c6b9 bd48 ce3c 537b 9e3c 5210 3cbc
000002a0: 3b6e c7ba 40f9 bebc 01e5 9b3c be82 fe3c
000002b0: 2b3b 5e3c abb7 35bd 67b5 06bd 2681 ec3c
000002c0: 9e32 f0bb c53f d03c e38d 0d3d a61f 5abc
000002d0: 6316 cdbc 1ad7 26bd 8fd6 763c 5c69 ae3c
000002e0: 3ece 18bc 4fa2 32bd c934 f7bc ac76 26bb
000002f0: 8383 a83c edc3 76bc fa0d f6bc a712 03bd
00000300: 4824 223d 5884 6c3c 19e1 0bbd 7dc1 ebbc
00000310: 8ff3 19bd a80e ab3b 3378 a0bc a00e 95ba
00000320: 9823 0dbc 8a34 24bd f875 27bd 1247 12bd
00000330: ba75 9fbc 20c1 e93b 389d b6bc 77c8 57bb
00000340: 48cc d7bb 33b9 1f3d be1d 97bc a1d9 313d
00000350: 2f1d 03bd ce55 1dbd be34 4b3c 7127 c7bc
00000360: acb9 b93c 2465 c9bc 712d 113d be40 2a3d
00000370: 082f 943b b8a7 033c c961 2f3d ce45 cd3c
00000380: 6e88 1bbd 5ff7 47ba 89dd 1bbd 89d8 113d
00000390: 51da 1cbc eef8 173a 137b ecbc 59d1 bcbc
000003a0: 94e2 ad3b 877b 1b3d 5f04 c0bc bb59 b93b
000003b0: 90c7 1f3d 6164 293d 3892 e0bb 685c 2c3d
000003c0: caf0 733c 1f98 2a3d 8661 6a3a f9f4 19bd
000003d0: 9292 56bc fa75 733c 9725 b53c 6865 2cbd
000003e0: 5168 093d 03a1 1cbd 9fbc c83c 45c0 2c3d
000003f0: 57e4 393c 9d27 ebbb 5af6 bc3c 031b 45bc

fc2.bias f4 [256]
-0.013034992 0.033245757 -0.029863773 -0.037985846 -0.022479441 0.025428481 -0.032193094 0.03239181
0.03195532 0.032596797 0.010811397 0.01345865 0.014671971 0.03281248 -0.013912222 0.042883944
-0.046059348 -0.03865327 -0.03174215 0.035030928 -0.006420003 -0.03378244 -0.027662518 -0.0015808248
0.01333832 0.039928358 0.020195775 0.0046529016 -0.0020669624 0.02735963 -0.010928966 -0.0051791444
0.038770046 -0.03164117 0.023060685 -0.029010458 -0.039118472 0.01713642 -0.037200484 0.035440426
-0.016947724 -0.037697505 -0.043105897 0.03637419 -0.043982908 0.017763473 -0.023912346 0.013804473
0.029641153 -0.011003397 0.02850657 -0.0152859315 0.006246082 -0.02994947 0.026043633 0.007606059
0.0037470646 0.030214442 -0.04019326 0.017067093 -0.006398276 -0.016731065 -0.0067109154 0.0019600296
0.035946507 -0.041697394 0.01899704 0.01971129 -0.040258765 -0.009599447 -0.01548952 0.033266593
-0.032688174 0.026906105 0.016424092 0.038127307 0.035830166 -0.0025857515 -0.022312004 0.042985592
-0.017081613 -0.003863282 0.015817586 0.025763296 0.02853369 -0.020425515 0.027075006 -0.017601743
0.0019277729 -0.0441028 -0.0026890503 -0.010897765 -0.0010893873 0.03606375 -0.013697123 0.014752512
-0.02593119 0.0282485 -0.016611312 0.018421475 0.024034796 0.02323728 0.03415674 -0.03417493
-0.0021449875 -0.0061328686 -0.04096057 -0.0044733314 0.04874321 -0.013772571 0.037627343 -0.010996918
-0.026110254 0.029803902 -0.014794664 0.035300985 -0.043319717 -3.8321617e-05 -0.022018993 -0.042623863
0.0164783 -0.044632558 0.040011216 0.019480081 -0.024859376 -0.019105487 -0.0029416196 0.036461025
-0.013066952 0.036422864 -0.029881377 0.004812276 0.04585964 0.020766938 -0.0075025223 0.019693045
0.00330035 0.012127077 0.021878166 0.04135341 -0.023888653 0.034420364 0.0054697753 0.037059072
0.009046241 0.0008326649 0.021152228 0.017717697 0.030979522 -0.026534623 0.03524015 0.031306576
0.042877927 -0.04076251 -0.045276046 -0.028097551 -0.021653714 0.028372534 0.011202313 -0.016983999
0.008146936 -0.015394542 -0.025314972 0.0424315 0.010869146 0.037589982 0.03785122 -0.024367603
-0.03742004 -0.03649769 0.02427025 -0.02681839 0.0065523153 0.00095634063 -0.030817967 -0.000214711
-0.012554143 -0.013044079 -0.03870971 -0.018560896 -0.012033496 -0.034935504 -0.037950117 -0.028494017
-0.0051096813 -0.04319157 0.01562232 -0.030601876 -0.025135983 -0.02336226 0.014671401 0.028949501
0.005489176 0.024317365 0.009914728 0.00011312989 0.020350019 -0.040010814 -0.027494753 0.045177665
0.007928577 -0.039567184 0.006619031 -0.03774268 -0.01717659 -0.011234671 -0.027946033 -0.039850328
-0.0080474885 -0.0072555067 -0.029671215 -0.0028161367 -0.036178514 0.036682013 -0.0081487205 0.041281816
0.008955029 -0.04151961 0.04552786 0.028697843 -0.010913978 0.022794597 -0.027021116 -0.02719967
-0.024506757 0.027190296 -0.007026575 -0.0018530437 -0.03846974 0.019686935 0.004795429 -0.043371283
0.0099962205 0.00017332552 0.01150609 -0.031931628 -0.027197717 -0.003198641 0.001910935 0.03316283
0.03442923 0.007939761 -0.0026322023 -0.004038402 0.03168391 -0.038932033 0.025888605 -0.028831234
-0.023789825 -0.022399642 -0.035734586 0.008702997 -0.012322692 -0.008023824 -0.02942921 0.034357753
00000000: b890 55bc b42c 083d dfa4 f4bc 0c97 1bbd
00000010: ce26 b8bc 644f d03c e8dc 03bd 46ad 043d
00000020: 95e3 023d 3884 053d 4922 313c ab81 5c3c
00000030: b562 703c 6166 063d 17f0 63bc 13a7 2f3d
00000040: baa8 3cbd e452 1ebd 0f04 02bd 977c 0f3d
00000050: e35e d2bb 755f 0abd 819c e2bc ae33 cfba
00000060: f888 5a3c eb8b 233d 9c71 a53c 5e77 983b
00000070: e075 07bb 4e21 e03c 680f 33bc d0b5 a9bb
00000080: 57cd 1e3d 2c9a 01bd c3e9 bc3c 57a7 edbc
00000090: b13a 20bd ad61 8c3c 895f 18bd fb29 113d
000000a0: f4d5 8abc b368 1abd cf8f 30bd 1afd 143d
000000b0: 6c27 34bd b484 913c d3e3 c3bc 282c 623c
000000c0: 01d2 f23c 9847 34bc 9c86 e93c d871 7abc
000000d0: efab cc3b 9758 f5bc 7559 d53c 3f3c f93b
000000e0: 5091 753b 4784 f73c b0a1 24bd 4ad0 8b3c
000000f0: a1a8 d1bb 960f 89bc 3de7 dbbb d773 003b
00000100: a53c 133d e3ca 2abd ae9f 9b3c 9279 a13c
00000110: 60e6 24bd 0047 1dbc c1c7 7dbc 8d42 083d
00000120: 09e4 05bd 316a dc3c d18b 863c 612b 1c3d
00000130: a7c2 123d b675 29bb aac7 b6bc a911 303d
00000140: bdee 8bbc 1e2f 7dbb e293 813c 8c0d d33c
00000150: 7cbf e93c 6953 a7bc 67cc dd3c 8831 90bc
00000160: 53ad fc3a 23a5 34bd c73a 30bb 8a8c 32bc
00000170: c6c9 8eba 95b7 133d e669 60bc 85b4 713c
00000180: a66d d4bc 6669 e73c 7214 88bc a2e8 963c
00000190: 9fe4 c43c 1c5c be3c f0e7 0b3d 03fb 0bbd
000001a0: eb92 0cbb 3bf6 c8bb 45c6 27bd 0695 92bb
000001b0: f6a6 473d 5aa6 61bc 211f 1a3d 6b2c 34bc
000001c0: 2ce5 d5bc 5027 f43c 5265 72bc c497 103d
000001d0: 0470 31bd 86bb 20b8 2d61 b4bc 5c96 2ebd
000001e0: 80fd 863c a1d0 36bd cde2 233d b194 9f3c
000001f0: e4a5 cbbc 1c83 9cbc 30c8 40bb 2858 153d
00000200: c516 56bc 2430 153d cac9 f4bc 4cb0 9d3b
00000210: 51d7 3b3d 6d1f aa3c b8d7 f5bb 4f53 a13c
00000220: af4a 583b a6b0 463c d739 b33c 3162 293d
00000230: 23b2 c3bc 5efc 0c3d cd3b b33b 41cb 173d
00000240: af36 143c 3247 5a3a 7047 ad3c b424 913c
00000250: c4c8 fd3c 235f d9bc fa57 103d 533b 003d
00000260: c4a0 2f3d 97f6 26bd 6073 39bd d62c e6bc
00000270: 2163 b1bc 846d e83c e889 373c 0722 8bbc
00000280: ba7a 053c 6439 7cbc 5861 cfbc a7cc 2d3d
00000290: 8114 323c f4f7 193d e209 1b3d 919e c7bc
000002a0: c245 19bd 9a7e 15bd 67d2 c63c 3db2 dbbc
000002b0: ceb4 d63b efb2 7a3a f675 fcbc 0c24 61b9
000002c0: e4af 4dbc d5b6 55bc 138e 1ebd 050d 98bc
000002d0: 2428 45bc 8818 0fbd 9571 1bbd 496c e9bc
000002e0: 1d6f a7bb a5e9 30bd c2f4 7f3c c9b0 fabc
000002f0: fae9 cdbc 3662 bfbc 5160 703c 8127 ed3c
00000300: 8cde b33b 3635 c73c 6271 223c 2640 ed38
00000310: 15b5 a63c 61e2 23bd ad3c e1bc 370c 393d
00000320: dde6 013c 3311 22bd 75e4 d83b 1298 1abd
00000330: ecb5 8cbc a011 38bc 14ef e4bc 193a 23bd
00000340: 9dd9 03bc 9abf edbb 0c11 f3bc ef8e 38bb
00000350: ec2f 14bd e13f 163d 3682 05bc 1f17 293d
00000360: 1db8 123c 7710 2abd 6c7b 3a3d bd17 eb3c
00000370: 8bd0 32bc bcbb ba3c 635b ddbc d8d1 debc
00000380: 65c2 c8bc 2fbe de3c 2f3f e6bb d4e1 f2ba
00000390: 7292 1dbd 7f46 a13c f922 9d3b 16a6 31bd
000003a0: 30c7 233c b7be 3539 0a84 3c3c bdca 02bd
000003b0: bfcd debc 4aa0 51bb 5778 fa3a bfd5 073d
000003c0: aa05 0d3d c515 023c 0781 2cbb 9254 84bb
000003d0: fdc6 013d 3277 1fbd 5714 d43c 7b2f ecbc
000003e0: e1e2 c2bc 747f b7bc 6e5e 12bd 0497 0e3c
000003f0: 1ee5 49bc 5b76 03bc 8715 f1bc b7ba 0c3d

fc3.weight f4 [128, 256]
-0.016594667 -0.035573434 0.027419886 0.051320683 -0.01884215 -0.057930693 0.027649246 0.043334804
0.03317459 0.046171177 0.042192925 -0.047901448 -0.046291847 0.03104363 0.00023148172 0.039804786
0.046217415 -0.010536536 -0.059644163 0.009590079 0.027668118 0.024647718 0.003939391 -0.017670415
0.045506477 0.03995311 0.055986658 -0.033848174 -0.021265764 0.02765559 0.050980013 0.064540796
-0.04948851 0.019575583 0.020539405 -0.03809513 -0.009877207 0.023359613 -0.015796904 0.043018013
-0.0094642 -0.008170639 0.018073017 -0.023055041 -0.037254676 0.04988 0.011373788 -0.05205889
0.050164197 0.03384856 -0.010984916 -0.028964307 -0.023246739 -0.025154378 0.05152045 0.010688189
0.003418014 -0.024101725 0.06040407 -0.053167097 -0.050721828 -0.03728742 0.0509823 0.02515456
-0.05899267 -0.0459665 -0.009839797 0.04348174 0.0027491844 0.06519756 -0.049290255 0.025324417
-0.01586722 0.014619916 -0.014909577 -0.041779578 -0.0560289 -0.046367835 -0.03515957 -0.055943698
0.0146094905 -0.014833122 0.0041536964 -0.02321131 -0.050986208 -0.046774633 -0.024189336 -0.06019968
0.034087647 0.03709881 -0.037769396 0.018622054 -0.040715683 -0.02318758 -0.01786936 -0.04206302
0.025933346 0.016287569 0.0074796947 0.008121433 -0.056116566 0.014237989 0.045154933 -0.034238856
-0.055146035 -0.00019500774 0.0293232 0.013321238 0.0331366 -0.0070860847 -0.0065428927 -0.05734833
-0.0634976 -0.052974228 -0.051696684 0.009705969 -0.013819976 -0.025734423 -0.05724832 0.05016115
-0.003247084 0.03345718 -0.052340943 -0.038462866 0.037158437 0.041203 -0.04367233 0.04809569
0.034242883 0.05134919 -0.04941886 -0.06274814 -0.05493271 0.002714347 0.01917969 -0.016629603
-0.015345393 0.016764585 -0.03344395 -0.04121543 -0.053811844 0.012732659 -0.042925477 0.018765824
-0.0072602364 -0.04038951 0.055107195 0.034685224 0.048141148 -0.051942285 -0.038032748 -0.032372806
0.0056171096 0.030427465 -0.058107976 0.018884145 0.06187734 0.04415235 -0.014418434 0.0017424938
-0.0063966466 0.05410357 0.05162049 -0.007513682 -0.04571992 -0.023158498 0.037534997 0.044491082
0.035968136 -0.025821084 -0.002477871 0.008548505 0.026670594 -0.04929887 0.015342238 -0.023198137
-0.0126061365 0.033820238 0.02484369 0.05563458 0.030579843 -0.04418003 -0.0027128041 -0.057431545
-0.0066972766 -0.006143491 0.0052419994 0.015315301 0.016012158 -0.057021942 -0.016348066 -0.012638751
0.039048318 -0.061855122 0.0031257595 -0.03341463 -0.013959368 -0.03591029 0.0013051697 0.030412966
-0.035363577 -0.020128883 0.062294822 -0.02100678 0.018937832 -0.04850727 0.0408619 -0.00033526006
-0.019198904 -0.018096259 0.05662337 0.04991932 -0.03501641 -0.05982228 0.023370499 -0.004332518
0.0070527196 0.029966205 -0.049521454 0.028168267 -0.03285758 0.011631943 -0.0058274628 -0.004959666
0.042864118 -0.0123732025 0.01493924 0.0064554373 0.0593319 -0.048303813 0.06173722 0.016352803
-0.00043957325 -0.006295692 -0.008041623 0.0011918505 -0.018950531 0.00707999 0.06332961 -0.011919423
0.025950225 -0.0014646149 -0.01930259 -0.017439691 0.0078262845 -0.0057237255 0.009299478 -0.05078352
-0.0033946573 -0.052455112 -0.05558337 -0.008328798 0.008854303 0.056156736 -0.005553488 0.015411278
00000000: 8af1 87bc 73b5 11bd ab9f e03c a335 523d
00000010: da5a 9abc bc48 6dbd ac80 e23c d67f 313d
00000020: 14e2 073d fd1d 3d3d 7dd2 2c3d 4f34 44bd
00000030: 859c 3dbd 364f fe3c e7b9 7239 580a 233d
00000040: 794e 3d3d 6fa1 2cbc 704d 74bd b51f 1d3c
00000050: 40a8 e23c 03ea c93c 0216 813b 8cc1 90bc
00000060: 0065 3a3d dfa5 233d 4452 653d 62a4 0abd
00000070: 8a35 aebc fa8d e23c 6bd0 503d f72d 843d
00000080: 77b4 4abd f95c a03c 4142 a83c a409 1cbd
00000090: 02d4 21bc a95c bf3c 8268 81bc a833 303d
000000a0: bb0f 1bbc 25de 05bc dd0d 943c eddd bcbc
000000b0: 5c98 18bd f94e 4c3d 2059 3a3c b43b 55bd
000000c0: f978 4d3d caa4 0a3d 14fa 33bc 8e46 edbc
000000d0: f26f bebc 8e10 cebc 1b07 533d 841d 2f3c
000000e0: c200 603b fb70 c5bc 426a 773d bec5 59bd
000000f0: b1c1 4fbd b2ba 18bd d1d2 503d f010 ce3c
00000100: 4ca2 71bd 5e47 3cbd 1a37 21bc e919 323d
00000110: a92b 343b 4c86 853d 94e4 49bd 2775 cf3c
00000120: f9fb 81bc 5f88 6f3c 4c47 74bc 1021 2bbd
00000130: 8f7e 65bd 33ec 3dbd 7b03 10bd 3825 65bd
00000140: a55c 6f3c 9f06 73bc bb1b 883b a525 bebc
00000150: ead6 50bd c296 3fbd b728 c6bc f193 76bd
00000160: 7d9f 0b3d ecf4 173d 15b4 1abd 478d 983c
00000170: 7dc5 26bd e1f3 bdbc c462 92bc 464a 2cbd
00000180: 2b72 d43c 826d 853c 3a18 f53b c20f 053c
00000190: 7cda 65bd 7446 693c 61f4 383d 0b3e 0cbd
000001a0: cfe0 61bd fe7a 4cb9 3537 f03c 5241 5a3c
000001b0: 3eba 073d 6332 e8bb c365 d6bb 15e6 6abd
000001c0: 080b 82bd 81fb 58bd e7bf 53bd c905 1f3c
000001d0: 2e6d 62bc ffd0 d2bc 377d 6abd c775 4d3d
000001e0: 08cd 54bb 650a 093d 7563 56bd 3d8b 1dbd
000001f0: 7233 183d 7ac4 283d c2e1 32bd fcff 443d
00000200: 4442 0c3d 8753 523d 6e6b 4abd 1982 80bd
00000210: 1f01 61bd 30e3 313b ba1e 9d3c ce3a 88bc
00000220: 3e6b 7bbc e255 893c 86fc 08bd 83d1 28bd
00000230: cf69 5cbd a49c 503c a0d2 2fbd c9ba 993c
00000240: 47e7 edbb 796f 25bd 15b8 613d 1812 0e3d
00000250: a72f 453d 6fc1 54bd 3ac8 1bbd 5999 04bd
00000260: bb0f b83b 0543 f93c a102 6ebd ecb2 9a3c
00000270: 1873 7d3d 18d9 343d 4c3b 6cbc 6464 e43a
00000280: f69a d1bb b49b 5d3d 0270 533d 5535 f6bb
00000290: d044 3bbd e4b6 bdbc 4cbe 193d 483c 363d
000002a0: 5353 133d bd86 d3bc c763 22bb 070f 0c3c
000002b0: 4a7c da3c 9ded 49bd 035e 7b3c 050a bebc
000002c0: f889 4ebc 1787 0a3d ff84 cb3c 16e1 633d
000002d0: 9482 fa3c 1ef6 34bd 4dc9 31bb 573d 6bbd
000002e0: d474 dbbb 564f c9bb 14c5 ab3b 07ed 7a3c
000002f0: ee2b 833c d78f 69bd 61ec 85bc c412 4fbc
00000300: 21f1 1f3d cc5b 7dbd 8bd9 4c3b c7dd 08bd
00000310: d5b5 64bc ab16 13bd 3a12 ab3a 9d24 f93c
00000320: 66d9 10bd 54e5 a4bc db28 7f3d 6916 acbc
00000330: 8323 9b3c 8faf 46bd cf5e 273d d8c5 afb9
00000340: 0547 9dbc 9b3e 94bc e8ed 673d 3378 4c3d
00000350: 5e6d 0fbd 3508 75bd 7d73 bf3c ccf7 8dbb
00000360: 801a e73b b07b f53c 02d7 4abd 23c1 e63c
00000370: ab95 06bd e893 3e3c 4df4 bebb b284 a2bb
00000380: 4992 2f3d f9b8 4abc b7c3 743c 2288 d33b
00000390: 0206 733d 38da 45bd 2be0 7c3d 50f6 853c
000003a0: 8676 e6b9 184c cebb 03c1 03bc de37 9c3a
000003b0: 253e 9bbc 43ff e73b f4b2 813d af49 43bc
000003c0: 9195 d43c 52f8 bfba 7720 9ebc afdd 8ebc
000003d0: d139 003c 178e bbbb d65c 183c 6102 50bd
000003e0: e678 5ebb 2cdb 56bd 63ab 63bd 8375 08bc
000003f0: a311 113c 9b04 663d 09fa b5bb 967f 7c3c

fc3.bias f4 [128]
0.024976365 -0.034947317 0.05290013 -0.048047956 0.016816093 0.007717362 0.01037644 -0.021709232
0.06255686 0.0090528205 -0.0042255167 -0.010116647 0.029450111 0.0046067894 -0.04683382 0.042921066
-0.031582516 0.004706853 -0.046515424 0.005961801 0.05870238 -0.039529447 -0.052520428 -0.003207844
-0.03138373 -0.04177955 0.037878707 -0.057846677 -0.022360707 0.055694222 0.012369463 0.032538995
-0.04907286 0.029869348 0.011506102 0.0023345067 0.03871554 -0.025005182 0.0124464845 0.038663905
0.009840287 0.05443615 0.042767573 0.04438455 -0.024433665 0.0229605 0.008866418 0.035992373
-0.0002524228 0.017100837 -0.033954613 0.05816869 0.0012426878 -0.05656101 -0.021336662 -0.060870867
-0.015612774 0.036278907 0.03449272 -0.01753584 -0.039906748 0.0039332747 0.022916202 -0.004293966
-0.007849764 0.018863648 0.04680977 0.042794976 -0.043853857 -0.03735424 -0.004835514 -0.0050173025
0.04105366 0.048695985 -0.0051108403 -0.025817113 0.04116387 0.01997102 0.044991244 0.04651884
-0.032714218 0.008849228 -0.046746302 -0.03551763 -0.058025353 -0.03594589 0.052340467 0.039657585
0.052015428 -0.053495944 0.020852538 0.003667311 -0.030243037 -0.03387739 -0.05610234 2.7841981e-05
-0.022317054 -0.0048004296 0.0048842644 0.05555936 -0.062601686 -0.026845114 0.012049507 0.0128931925
-0.0039387043 0.003947973 -0.04505841 -0.015492028 0.022715127 -0.031188995 -0.059887435 0.028989812
0.04988694 -0.034720227 0.010160262 0.0055469912 -0.043731082 0.03303696 -0.06084799 0.051609095
-0.0335092 0.009673138 0.015865933 0.011295933 -0.003087919 0.05751233 0.017744528 -0.03704757
00000000: 3c9b cc3c eb24 0fbd cfad 583d efcd 44bd
00000010: e7c1 893c ede1 fc3b f201 2a3c 8fd7 b1bc
00000020: d01d 803d 4852 143c 3476 8abb 4bc0 25bc
00000030: 5c41 f13c 8df4 963b d2d4 3fbd 00ce 2f3d
00000040: ab5c 01bd f23b 9a3b f586 3ebd 365b c33b
00000050: e871 703d a1e9 21bd a91f 57bd b13a 52bb
00000060: 3a8c 00bd 0921 2bbd b426 1b3d a3f0 6cbd
00000070: cd2d b7bc a01f 643d 4aa9 4a3c 9c47 053d
00000080: a000 49bd 90b0 f43c 1784 3c3c 86fe 183b
00000090: 3094 1e3d abd7 ccbc 57ec 4b3c 0b5e 1e3d
000000a0: 2839 213c 71f8 5e3d 0d2d 2f3d 93cc 353d
000000b0: 1c29 c8bc a917 bc3c 7444 113c bd6c 133d
000000c0: 9d57 84b9 0e17 8c3c fe13 0bbd 4b42 6e3d
000000d0: afe1 a23a 85ac 67bd 39ca aebc bb53 79bd
000000e0: b8cc 7fbc 3199 143d 3d48 0d3d 52a7 8fbc
000000f0: 4275 23bd b3e2 803b c2ba bb3c 66b4 8cbb
00000100: 4c9c 00bc f087 9a3c 9abb 3f3d c949 2f3d
00000110: 1aa0 33bd c200 19bd 3b73 9ebb 2f68 a4bb
00000120: e227 283d 7175 473d d678 a7bb 697e d3bc
00000130: 729b 283d 449a a33c bd48 383d 8a8a 3e3d
00000140: 58ff 05bd 5afc 103c 0d79 3fbd ef7a 11bd
00000150: feab 6dbd ff3b 13bd f562 563d fe6f 223d
00000160: 210e 553d 901e 5bbd f1d2 aa3c 4557 703b
00000170: 3fc0 f7bc 05c3 0abd 91cb 65bd 338e e937
00000180: 41d2 b6bc ec4c 9dbb 2e0c a03b 3692 633d
00000190: 5035 80bd 49ea dbbc 4c6b 453c f83d 533c
000001a0: 3f10 81bb ff5d 813b 2b8f 38bd 46d2 7dbc
000001b0: 1315 ba3c 1080 ffbc 874c 75bd 0b7c ed3c
000001c0: 3f56 4c3d cc36 0ebd 3a77 263c 89c3 b53b
000001d0: 5d1f 33bd c351 073d be3b 79bd 0f64 533d
000001e0: f140 09bd 157c 1e3c 46f9 813c 9412 393c
000001f0: af5e 4abb 0d92 6b3d f95c 913c 31bf 17bd

bn1.weight f4 [512]
1.0001118 0.9965996 1.0004728 0.9991373 0.9998451 1.0011694 0.99811345 0.9989633
0.9998014 0.9993815 0.9943836 0.9997709 1.0005422 1.0006621 0.99842715 0.9996981
0.99954414 1.0007771 1.0010396 0.999295 0.9998199 0.9988925 0.9997292 1.000116
1.0020472 0.9998205 0.99964195 1.001973 1.0010194 0.9994465 1.0008938 1.0010306
1.0006473 1.000934 0.9986401 0.99928594 1.000518 1.0000024 0.9989074 1.0004287
1.0012596 0.9984882 1.0000063 0.9996875 0.9969718 1.0006753 1.0008961 0.9994009
0.99877506 0.9976035 1.0014464 1.0004783 1.0005016 1.0011171 0.9980034 1.0004853
0.99925566 0.9995241 1.0010823 1.0017592 1.0003784 0.9982098 1.0015299 0.9993899
0.998712 1.0004367 1.0007328 1.0001638 0.9988906 0.9999077 0.99865854 1.0008776
1.0015017 1.0008905 1.0015961 0.99963367 0.9997641 0.9985986 0.9996554 1.0011278
1.0002292 1.0013723 1.0014461 1.0034053 0.99882615 0.9995503 0.99947876 1.0014008
0.99897563 0.9985803 1.0009544 1.001034 1.0018405 0.99996483 1.0017804 1.0000676
0.9993871 1.0023264 0.9999371 1.0009372 1.0006937 1.0011439 1.000478 1.0000057
0.99871385 1.0014822 1.0000249 1.0006708 0.99925405 0.99855113 0.999054 1.0002223
0.9988723 0.9985215 0.9997699 1.0017568 0.9982145 0.99980366 1.0005451 1.0001901
0.99947226 1.000279 1.0003442 1.0002358 0.9989148 0.99837 0.997175 0.9997977
0.99868023 0.99928343 0.99975157 0.99995863 1.0004765 1.0015639 1.0001997 0.9989459
0.9977999 0.9984071 0.99946696 0.9984122 0.9994505 1.0022506 1.0003062 1.0014293
1.0003164 0.9978589 1.0017575 1.0011473 1.0002546 1.0007955 0.9998029 1.0017648
1.0000356 1.0011238 1.0004938 0.99983335 1.0006126 0.9964442 0.99845284 0.9996279
0.9998302 1.0008469 0.99965304 0.99622923 1.0004168 1.0006865 0.99969006 1.0014191
1.0016488 1.0001842 0.9994804 1.0008961 1.0009496 1.0001218 0.9985504 0.9991518
0.99977577 1.0008359 0.99958324 1.0002496 1.0003257 1.000409 0.99896294 0.9981931
1.0009563 1.000186 1.0005766 1.0004889 1.002218 0.999896 0.9993853 1.0001869
0.99989676 0.99710983 1.0006404 0.9990773 1.0000572 1.0003977 0.9996919 1.0008416
1.0001 1.0012041 0.99952376 1.0006497 0.99972767 1.0003011 0.9996477 1.0001601
1.0008852 0.99977684 0.9993223 0.9988517 0.99847597 1.0021231 1.0001093 1.0001737
0.99675465 0.9993201 0.9995399 1.0004575 1.000921 1.0009543 0.9999697 1.0006831
0.9987351 0.9985787 0.99977124 1.0005924 0.9985502 1.0003203 0.9998763 0.9974631
1.0007577 1.0007546 0.999943 0.999795 0.99963146 0.99991757 0.9994827 0.998813
1.0012321 1.000131 0.99926907 0.99911094 1.0019233 1.0001572 0.9994541 0.99936783
1.0008004 1.0010437 0.9997155 1.0017468 1.0008154 1.000233 1.0006177 1.0008715
00000000: aa03 803f 2721 7f3f 7e0f 803f 76c7 7f3f
00000010: d9f5 7f3f 5226 803f 5d84 7f3f 0fbc 7f3f
00000020: fcf2 7f3f 77d7 7f3f ec8f 7e3f fcf0 7f3f
00000030: c411 803f b215 803f ec98 7f3f 37ec 7f3f
00000040: 20e2 7f3f 7719 803f 1122 803f ccd1 7f3f
00000050: 32f4 7f3f 6bb7 7f3f 41ee 7f3f cd03 803f
00000060: 1543 803f 3cf4 7f3f 89e8 7f3f a740 803f
00000070: 6721 803f badb 7f3f 4a1d 803f c521 803f
00000080: 3615 803f 9b1e 803f e1a6 7f3f 34d1 7f3f
00000090: f910 803f 1400 803f 65b8 7f3f 0c0e 803f
000000a0: 4629 803f ec9c 7f3f 3500 803f 85eb 7f3f
000000b0: 8b39 7f3f 2116 803f 5d1d 803f bdd8 7f3f
000000c0: b9af 7f3f f162 7f3f 652f 803f ac0f 803f
000000d0: 7010 803f 9b24 803f 277d 7f3f e70f 803f
000000e0: 38cf 7f3f d0e0 7f3f 7723 803f a539 803f
000000f0: 660c 803f ad8a 7f3f 2232 803f 04d8 7f3f
00000100: 97ab 7f3f 4f0e 803f 0318 803f 5e05 803f
00000110: 4bb7 7f3f f3f9 7f3f 16a8 7f3f c21c 803f
00000120: 3531 803f 2e1d 803f 4d34 803f fee7 7f3f
00000130: 8af0 7f3f 28a4 7f3f 6be9 7f3f f524 803f
00000140: 8307 803f f82c 803f 632f 803f 966f 803f
00000150: 12b3 7f3f 87e2 7f3f d7dd 7f3f e72d 803f
00000160: debc 7f3f f5a2 7f3f 461f 803f e221 803f
00000170: 4f3c 803f b2fd 7f3f 573a 803f 3702 803f
00000180: d5d7 7f3f 3b4c 803f e1fb 7f3f b61e 803f
00000190: bb16 803f 7c25 803f aa0f 803f 3000 803f
000001a0: b6ab 7f3f 9230 803f d100 803f fb15 803f
000001b0: 1dcf 7f3f 0ca1 7f3f 01c2 7f3f 4907 803f
000001c0: 18b6 7f3f 1b9f 7f3f ecf0 7f3f 9139 803f
000001d0: fc8a 7f3f 22f3 7f3f dd11 803f 3b06 803f
000001e0: 6add 7f3f 2409 803f 470b 803f ba07 803f
000001f0: e1b8 7f3f 2d95 7f3f dc46 7f3f bef2 7f3f
00000200: 82a9 7f3f 0ad1 7f3f b8ef 7f3f 4afd 7f3f
00000210: 9d0f 803f 3f33 803f 8b06 803f ebba 7f3f
00000220: d06f 7f3f 9c97 7f3f 11dd 7f3f f197 7f3f
00000230: fddb 7f3f bf49 803f 090a 803f d62e 803f
00000240: 5e0a 803f ae73 7f3f 9739 803f 9825 803f
00000250: 5808 803f 111a 803f 15f3 7f3f d439 803f
00000260: 2b01 803f d324 803f 2e10 803f 14f5 7f3f
00000270: 1314 803f f816 7f3f 9b9a 7f3f 9de7 7f3f
00000280: dff4 7f3f c01b 803f 43e9 7f3f e108 7f3f
00000290: a80d 803f 7f16 803f b0eb 7f3f 802e 803f
000002a0: 0736 803f 0906 803f f3dd 7f3f 5d1d 803f
000002b0: 1e1f 803f fe03 803f 00a1 7f3f 6ac8 7f3f
000002c0: 4ef1 7f3f 641b 803f b0e4 7f3f 2e08 803f
000002d0: ac0a 803f 670d 803f 09bc 7f3f 9589 7f3f
000002e0: 561f 803f 1806 803f e512 803f 0510 803f
000002f0: ae48 803f 2ff9 7f3f b7d7 7f3f 2006 803f
00000300: 3cf9 7f3f 9742 7f3f fc14 803f 88c3 7f3f
00000310: e001 803f 080d 803f cfeb 7f3f 941b 803f
00000320: 4703 803f 7527 803f cae0 7f3f 4a15 803f
00000330: 27ee 7f3f de09 803f e9e8 7f3f 3f05 803f
00000340: 021d 803f 60f1 7f3f 96d3 7f3f bfb4 7f3f
00000350: 1f9c 7f3f 9245 803f 9503 803f b105 803f
00000360: 502b 7f3f 71d3 7f3f d9e1 7f3f fe0e 803f
00000370: 2e1e 803f 451f 803f 04fe 7f3f 6216 803f
00000380: 1aad 7f3f dba2 7f3f 02f1 7f3f 6913 803f
00000390: fca0 7f3f 7f0a 803f e5f7 7f3f be59 7f3f
000003a0: d418 803f ba18 803f 44fc 7f3f 91f2 7f3f
000003b0: d9e7 7f3f 99fa 7f3f 19de 7f3f 35b2 7f3f
000003c0: 6028 803f 4b04 803f 19d0 7f3f bcc5 7f3f
000003d0: 063f 803f 2705 803f 39dc 7f3f 92d6 7f3f
000003e0: 3a1a 803f 3322 803f 5bed 7f3f 3d39 803f
000003f0: b81a 803f a307 803f 3e14 803f 8f1c 803f

bn1.bias f4 [512]
0.0025313715 -0.0020478533 -0.0017884086 0.0017178375 -0.0008908952 0.00036582738 -0.0035335945 0.002593864
0.0028402093 -0.0017929607 -0.0020701275 0.002415333 -0.00422874 -0.0040561627 0.00042773772 0.0010991585
0.0019685098 0.0034301914 0.0039901785 0.0028967538 -0.0028308828 0.0022534083 -0.0016216754 0.0001800247
0.0007119906 0.0026956745 -0.0018628128 -0.0029917576 0.0052760667 -0.00032759647 -0.0023310923 0.00549054
-0.00028259118 -0.0006515114 0.0035142293 0.00198165 -0.0036576611 0.0019620692 -0.0018953499 0.00027335098
7.785417e-05 -0.0050503053 0.0034280834 -0.0026554905 0.0011793061 0.0054095215 -0.0014922693 -0.00046536795
-0.001126082 0.0035461474 0.0006696294 0.0026293655 -0.001240182 0.0013577996 -0.0015399563 -0.0024714435
-0.00018673262 0.005407852 0.002520175 0.0021095232 0.000932835 0.0018848234 0.00019105298 0.0020603687
-0.003691806 0.001614027 0.0015717335 -0.00092484854 -0.0030507753 -0.0049564946 -3.0169678e-05 0.0020789069
-0.0019011878 -0.0003746052 0.0035445192 0.00071038434 -0.0005539 -0.0017161854 0.00022657975 -0.0037005306
-0.0021871326 -0.0029996024 0.0034974334 -0.0045093857 0.0018076296 -0.0026300752 0.0024974144 -0.0012028232
0.0005894779 -0.002716207 0.004015049 0.0025019548 -0.003696707 -0.00036951175 0.0007265312 0.00046838218
0.00040208016 -0.0046782917 0.0019456039 0.0009767937 0.0013536391 -0.0031516987 -0.0035433138 0.0050589815
-0.0034199073 0.0019253091 0.0046840305 -0.0063146497 0.001461667 -0.001373944 -0.0036839407 -0.0048350026
0.0015723037 -0.00053586916 -0.0044963188 -0.0011899892 -0.002559674 0.0013604229 -0.0038858987 0.0023210258
-0.0019681724 0.0019132581 -0.0027611444 -0.0016648639 0.0015055806 -0.001072352 -0.0029232488 0.003835743
-0.001964224 0.0016270876 9.99774e-05 -0.0012089938 -0.0017006678 -0.00090554473 -0.0052307267 0.005392944
-0.00045200702 0.002797916 -9.8112005e-06 -0.0015718417 0.0017991255 5.0934286e-05 -0.0040726196 -0.0021477048
0.004675186 -0.005149548 0.0025556376 0.004120222 -0.00016457876 0.001969882 -0.0019987004 0.0021710717
0.00024230662 -0.0018368555 0.0015513996 0.00039592443 0.0022124567 -0.00044057262 -0.00030040406 -0.0012895132
0.0006055153 0.00078734243 -0.0022171754 -0.0037484064 0.004477134 0.0006170049 0.0027629004 -0.0011275002
0.0027957708 0.0034885341 -0.0002999741 0.00030911894 -0.0040850327 -0.0013935653 -0.0036713 -0.005419796
-0.0019331631 -0.003040978 -0.0006282751 0.0040984396 0.0010489019 0.0019434744 -0.0012269861 0.005579893
0.0025258784 -0.0043498687 -0.0035503798 0.0031932152 0.0013624523 0.0039852588 -0.0021051674 -0.0031072786
0.0012486815 0.001627793 0.004334386 -0.0034619523 0.0038960746 -0.0011950271 -0.0020435958 -0.0024351222
-0.0012244051 -0.0018030312 0.0013570724 0.003622842 -0.00013023167 -0.0028637368 0.0050319345 -0.0019134501
0.0015916429 -0.0009355534 -0.0027580664 0.0054501216 0.0032190923 0.0007399366 -0.0032419981 -0.0012739889
-0.0025797805 0.0022737838 -0.002678741 0.001465521 -0.0020851744 -0.0031914099 -0.002794761 0.0010856509
-0.0017471293 -0.0037370292 -0.0036465926 0.0036630735 1.895076e-05 0.0025611173 -0.0037172195 0.002110799
-0.00095013314 -0.0012266174 -0.0019605532 -0.0024647668 -0.0035150459 0.0030511213 -0.004318184 0.0006703687
-0.0005847022 -0.00087940774 0.0019786092 -0.0021922854 -0.0022851373 -0.0015197074 -0.0014307502 0.0052561606
0.00050988316 -0.0031176368 0.0021130533 -0.0049318355 -0.0023395435 0.00386372 -0.0040029227 -0.004806212
00000000: 5ee5 253b 4735 06bb 0969 eaba 1029 e13a
00000010: f78a 69ba 85cc bf39 e193 67bb d1fd 293b
00000020: ce22 3a3b c701 ebba faaa 07bb 904a 1e3b
00000030: 3e91 8abb 8fe9 84bb fc41 e039 a411 903a
00000040: 1d02 013b 10cd 603b 0bc0 823b 77d7 3d3b
00000050: 5586 39bb ebad 133b 668e d4ba 03c5 3c39
00000060: e1a4 3a3a eaa9 303b a029 f4ba 5d11 44bb
00000070: dbe2 ac3b 41c1 abb9 3dc5 18bb fde9 b33b
00000080: bf28 94b9 31ca 2aba fc4e 663b 92de 013b
00000090: 5fb5 6fbb 0f96 003b 646d f8ba 8c50 8f39
000000a0: a445 a338 087d a5bb b2a9 603b bd07 2ebb
000000b0: f292 9a3a 5b42 b13b 4098 c3ba a1fc f3b9
000000c0: 0b99 93ba 7b66 683b 118a 2f3a 6f51 2c3b
000000d0: 9a8d a2ba 32f8 b13a 5cd8 c9ba f1f7 21bb
000000e0: a8cd 43b9 5a34 b13b 8529 253b ed3f 0a3b
000000f0: 7f89 743a 2e0c f73a 6555 4839 4007 073b
00000100: 3af2 71bb c28d d33a a002 ce3a 8971 72ba
00000110: 84ef 47bb 176a a2bb e414 fdb7 453e 083b
00000120: 4731 f9ba a966 c4b9 2a4b 683b 1639 3a3a
00000130: 9a33 11ba a0f1 e0ba 0a96 6d39 9a84 72bb
00000140: ff55 0fbb fa94 44bb 3235 653b 78c3 93bb
00000150: fced ec3a 575d 2cbb a9ab 233b 0da8 9dba
00000160: 3187 1a3a 6402 32bb ac90 833b d6f7 233b
00000170: 7444 72bb 07bb c1b9 af74 3e3a 3191 f539
00000180: 49ce d239 5b4c 99bb a203 ff3a c207 803a
00000190: 976c b13a bb8c 4ebb f136 68bb d0c5 a53b
000001a0: 8620 60bb a75a fc3a 7f7c 993b 1feb cebb
000001b0: 6895 bf3a e915 b4ba 456e 71bb f16e 9ebb
000001c0: c215 ce3a 9279 0cba db55 93bb 69f9 9bba
000001d0: 34c0 27bb 3850 b23a 90aa 7ebb 5a1c 183b
000001e0: 74fc 00bb 4ac6 fa3a 51f4 34bb 9037 daba
000001f0: e756 c53a 2a8e 8cba fa93 3fbb 1761 7b3b
00000200: 36ba 00bb 0044 d53a f5aa d138 1a77 9eba
00000210: f1e8 deba 1462 6dba 8466 abbb 4bb7 b03b
00000220: 5bfb ecb9 3e5d 373b c99a 24b7 4106 ceba
00000230: a2d0 eb3a 46a2 5538 9c73 85bb 82c0 0cbb
00000240: 4d32 993b 8abd a8bb 7c7c 273b ed02 873b
00000250: c692 2cb9 2319 013b a1fc 02bb 8a48 0e3b
00000260: b013 7e39 a5c2 f0ba 5558 cb3a 1494 cf39
00000270: ddfe 103b a8fc e6b9 8d7f 9db9 e204 a9ba
00000280: 72bb 1e3a a865 4e3a 084e 11bb d3a7 75bb
00000290: ecb4 923b 7fbe 213a c711 353b a1c8 93ba
000002a0: 4039 373b e49f 643b d845 9db9 3e11 a239
000002b0: bddb 85bb 4ba8 b6ba 319a 70bb 8b98 b1bb
000002c0: 3162 fdba 254b 47bb d4b2 24ba 344c 863b
000002d0: 4f7b 893a 2ebc fe3a d2d2 a0ba 89d7 b63b
000002e0: 3589 253b 5889 8ebb 7dad 68bb 4345 513b
000002f0: 5094 b23a c696 823b d9f6 09bb 7ca3 4bbb
00000300: ccaa a33a ab5b d53a 7707 8e3b ece1 62bb
00000310: 4955 7f3b 75a2 9cba d9ed 05bb 9296 1fbb
00000320: 387c a0ba b053 ecba cbdf b13a 346d 6d3b
00000330: cc8e 08b9 88ad 3bbb ede2 a43b bbcc faba
00000340: ac9e d03a ed3f 75ba adc0 34bb ef96 b23b
00000350: 68f7 523b 4ef8 413a b477 54bb f9fb a6ba
00000360: 8911 29bb c303 153b d18d 2fbb ba16 c03a
00000370: 6ca7 08bb f926 51bb 4f28 37bb 664c 8e3a
00000380: eeff e4ba f2e8 74bb acfb 6ebb 2d10 703b
00000390: 72f8 9e37 6bd8 273b 989c 73bb 5555 0a3b
000003a0: 5b12 79ba 73c6 a0ba a07c 00bb ed87 21bb
000003b0: af5c 66bb 52f5 473b 8e7f 8dbb afbb 2f3a
000003c0: b346 19ba 0e88 66ba 8eab 013b 72ac 0fbb
000003d0: 3ec2 15bb eb30 c7ba 0388 bbba df3b ac3b
000003e0: aea9 053a 4451 4cbb 277b 0a3b 3c9b a1bb
000003f0: 0753 19bb 7736 7d3b f32a 83bb 6e7d 9dbb
