data/rl4wound_paper_res/ctr/models_map524/agent_ctr_True_ep_1054.pth (torch, 950255 bytes, 21 tensors)

fc1.weight f4 [512, 5]
0	0xbbb06d51	-0.0053841253
1	0x3e770099	0.24121322
2	0xbebafdee	-0.36521858
3	0xbea690cd	-0.3253235
4	0xbe312f5d	-0.17303224
5	0x3def4b8e	0.11684333
6	0xbc0c4a5d	-0.008562651
7	0x3eb5f93f	0.35541722
8	0xbd227723	-0.0396644
9	0x3df30470	0.11866081
10	0xbe09d267	-0.13459168
11	0xbdb752be	-0.08951329
12	0xbeda46f2	-0.42632252
13	0xbe97da11	-0.2965856
14	0xbe39faac	-0.1816203
15	0x3c9043d0	0.01761046
16	0x3e360f2f	0.1777923
17	0x3e8860d1	0.26636365
18	0xbe9c18e9	-0.30487755
19	0xbe48738c	-0.19575328
20	0x3e26d8ed	0.16293688
21	0x3ebc714a	0.36805183
22	0xbdbe799d	-0.0930054
23	0x3eac2f2e	0.33629745
24	0xbd8fc6ae	-0.07020317
25	0x3d3b28b5	0.045693118
26	0x3ed04fe4	0.40685952
27	0xbed3ef16	-0.41393346
28	0xbe8df88a	-0.27728683
29	0xbdedd592	-0.11613001
30	0xbe32d611	-0.17464472
31	0x3ec47748	0.38372254
32	0xbe933a6b	-0.28755507
33	0xbe55b8db	-0.20871298
34	0xbe9ea697	-0.30986473
35	0xbed65431	-0.41861108
36	0xbe83ed01	-0.25766757
37	0x3ec41775	0.38299146
38	0x3e4d7b62	0.20066598
39	0x3e5ebeb5	0.21752436
40	0x3cc63a56	0.024197739
41	0xbe68c1ac	-0.2273013
42	0x3d9579e6	0.07298641
43	0xbed6b109	-0.41931942
44	0xbea63b3c	-0.32467067
45	0xbe6eb24a	-0.233102
46	0x3e8fde48	0.28099275
47	0x3e87c9df	0.26521203
48	0xbe47dc7f	-0.19517706
49	0xbc58ac92	-0.013224738
50	0x3e912146	0.28345698
51	0x3ee46317	0.4460685
52	0x3e3537b5	0.17697032
53	0x3d7bf653	0.06151421
54	0x3e97841b	0.29592976
55	0xbe865394	-0.2623564
56	0x3dab5909	0.083665915
57	0xbeb161d3	-0.34644946
58	0xbe9eadf3	-0.30992088
59	0xbe6d4ce2	-0.2317386
60	0x3e4ba9ef	0.19889043
61	0x3e36a516	0.17836413
62	0xbe8664a8	-0.2624867
63	0x3e0c7f11	0.13720347
64	0x3e7db558	0.24776208
65	0xbd643878	-0.055717915
66	0x3c8c4c96	0.017126363
67	0x3dd1ee41	0.102505215
68	0x3e8c5c6c	0.27414262
69	0x3edd72cc	0.43251646
70	0xbeafb458	-0.3431728
71	0xbe285b59	-0.16441096
72	0x3e333ffe	0.1750488
73	0x3ebf2898	0.37335658
74	0x3ec64869	0.3872712
75	0x3eca51b9	0.39515474
76	0x3db5068b	0.088391386
77	0xbec77af4	-0.38960993
78	0x3d281206	0.041032813
79	0xbe8ed630	-0.27897787
80	0xbed4ebf0	-0.41586256
81	0x3ecc319d	0.39881602
82	0x3ead430d	0.33840218
83	0xbee540e3	-0.44776067
84	0x3da7c7e8	0.08192426
85	0xbd9c240b	-0.07624062
86	0xbd9032a2	-0.070409074
87	0xbe50337c	-0.2033214
88	0x3e2edc5c	0.17076248
89	0xbe88776c	-0.26653612
90	0x3e2656e9	0.16244091
91	0x3e6953dc	0.22785896
92	0x3ea34ccd	0.31894532
93	0x3e2bfd33	0.16795807
94	0xbee239c5	-0.441847
95	0xbe948321	-0.29006293
96	0x3e62b7fe	0.221405
97	0x3dbfc6ac	0.093640655
98	0xbeb2632d	-0.3484129
99	0xbe845793	-0.25848064
100	0x3ed79354	0.4210459
101	0x3e988a4e	0.29793018
102	0xbe48e31e	-0.19617888
103	0xbde22ccc	-0.110437006
104	0xbedb928f	-0.42885253
105	0xbc3c71c0	-0.0115017295
106	0xbeab9a7b	-0.33516297
107	0xbeb1e258	-0.34743
108	0xbccaf3c2	-0.024774436
109	0x3d84c45d	0.06482766
110	0xbe3ac0e3	-0.18237643
111	0x3e885b51	0.2663217
112	0xbe8c4713	-0.27397975
113	0x3ece3b01	0.4027939
114	0x3e9ed2e7	0.3102028
115	0xbec0717a	-0.37586576
116	0xbde43a2d	-0.11143909
117	0x3ca55cce	0.020185854
118	0x3d886136	0.066591665
119	0x3ddcda9f	0.10783886
120	0x3e36cd81	0.17851831
121	0x3cf227b0	0.02955994
122	0xbe61dbc2	-0.22056487
123	0x3e54f6f9	0.20797338
124	0xbeddaea2	-0.43297297
125	0xbe86dece	-0.2634186
126	0xbde132f6	-0.10996048
127	0xbe606994	-0.21915275
128	0xbe230f8b	-0.15923898
129	0xbebb58aa	-0.36591083
130	0xbdbc14c4	-0.09183648
131	0x3dc31692	0.09525789
132	0xbe95d690	-0.2926526
133	0xbcc4419e	-0.02395707
134	0x3ea3a97d	0.31965247
135	0xbd3ba6ff	-0.045813557
136	0x3c7c747f	0.015408634
137	0xbd246a7e	-0.04014062
138	0x3db43c26	0.08800535
139	0x3e92c32d	0.28664532
140	0x3ed7ce73	0.42149696
141	0x3e92dca6	0.28683966
142	0x3ed9577e	0.42449564
143	0xbcfd81a2	-0.030945603
144	0xbeced720	-0.40398502
145	0xbe5aac38	-0.21354759
146	0x3e99f38a	0.30068618
147	0xba34ac36	-0.00068921165
148	0xbe622580	-0.22084618
149	0xbeaf5e77	-0.34251758
150	0xbed55fb1	-0.4167457
151	0xbec0f344	-0.37685597
152	0xbdbd6226	-0.09247236
153	0x3e776a82	0.24161723
154	0x3e7b1472	0.24519518
155	0xbedd9523	-0.43277845
156	0x3e8e58f9	0.27802256
157	0xbeb2361f	-0.34806916
158	0xbdc1228f	-0.0943042
159	0xbe3b63f9	-0.18299855
160	0xbdb06ff4	-0.08615103
161	0xbdbd12a4	-0.09232071
162	0xbecd037f	-0.4004173
163	0xbec48de4	-0.38389504
164	0xbd9461cf	-0.07245218
165	0x3c136a22	0.008997472
166	0xbe4ce951	-0.20010878
167	0x3e2879d0	0.16452718
168	0xbed03848	-0.4066794
169	0xbd09110c	-0.033463523
170	0x3ec9c9d4	0.39411795
171	0xbe37db3b	-0.17954724
172	0x3ece4fb9	0.402952
173	0x3e253427	0.16133176
174	0xbecf700b	-0.4051517
175	0x3e9163c0	0.28396416
176	0xbd54c0c4	-0.051941648
177	0xbe4b3116	-0.19842944
178	0x3eb64fb5	0.35607687
179	0xbeba08ed	-0.36334935
180	0x3d406044	0.046966806
181	0xbdba7902	-0.09105112
182	0x3ea37335	0.31923833
183	0x3e0099b9	0.1255864
184	0x3e5bc736	0.21462712
185	0x3e2249cc	0.15848464
186	0xbdd5d30d	-0.10440645
187	0xbdc67643	-0.096905254
188	0xbebecc8d	-0.37265435
189	0x3e76eaaf	0.24112962
190	0x3eb67fa4	0.35644257
191	0x3e9cdb81	0.30636218
192	0xbea2030c	-0.3164295
193	0x3c9619b8	0.01832281
194	0xbea18909	-0.31549862
195	0xbe7b83db	-0.24562018
196	0xbe84b665	-0.25920406
197	0x3e1b71a5	0.1518007
198	0xbe88cd92	-0.26719338
199	0xbc31cdc1	-0.010852278
200	0x3c8e73cc	0.0173892
201	0x3e95f229	0.29286316
202	0xbead5659	-0.3385494
203	0xbe9c69de	-0.3054952
204	0xbe859237	-0.26088116
205	0x3ea0e6f8	0.31426215
206	0xbe26fa1f	-0.16306351
207	0x3ebf8c03	0.37411508
208	0x3e273fd2	0.1633294
209	0x3d66efd5	0.056381065
210	0xbb4d5850	-0.0031333156
211	0xbdac1dba	-0.084041074
212	0x3d5fc9c0	0.054635763
213	0xbdd6aa54	-0.10481706
214	0xbbc4ac23	-0.0060019656
215	0x3d66e6d2	0.05637247
216	0xbeb59bbc	-0.35470378
217	0xbe6e11b8	-0.23248947
218	0x3eba2309	0.36354855
219	0xbeb870d6	-0.36023587
220	0xbce250f6	-0.027626496
221	0x3ee3aee0	0.44469357
222	0x3e21307c	0.15741152
223	0x3c202a66	0.009775734
224	0xbec6a728	-0.38799405
225	0x3e62cf7e	0.22149464
226	0xbea4c638	-0.3218248
227	0xbe005014	-0.12530547
228	0xbe1813e7	-0.14851342
229	0xbd7f900e	-0.06239324
230	0x3b98738c	0.004652446
231	0x3ebf24cd	0.37332764
232	0x3d5de54a	0.054173745
233	0x3ecbd488	0.39810586
234	0x3e8c31ba	0.27381688
235	0xbe91b531	-0.2845855
236	0x3e4d131c	0.20026821
237	0xbea1bba1	-0.31588462
238	0xbe411209	-0.18854536
239	0x3e05cc2b	0.13066165
240	0x3e18c94f	0.14920543
241	0x3eab77cb	0.33489832
242	0xbe1376f0	-0.1440084
243	0x3907000d	0.00012874622
244	0x3e6bbc60	0.23021078
245	0xbedca59e	-0.43095106
246	0x3ea61c18	0.3244331
247	0xbebe5875	-0.37176862
248	0x3b8be1ca	0.0042688595
249	0xbd9a02da	-0.07520075
250	0xbe6f96a8	-0.23397315
251	0x3d6af821	0.05736554
252	0x3ebd4447	0.36966154
253	0xbe062fbd	-0.13104148
254	0xbe892642	-0.26787
255	0xbe2a706f	-0.16644453

fc1.bias f4 [512]
0	0xbe96cb9f	-0.29452226
1	0xbea10695	-0.31450334
2	0x3e98351b	0.29728016
3	0xbe154575	-0.14577277
4	0xbced1039	-0.0289384
5	0x3e0919c5	0.13388737
6	0xbe8d83a5	-0.276395
7	0x3d2a370b	0.0415564
8	0x3e87a891	0.26495793
9	0xbe864c25	-0.2622997
10	0x3e04f265	0.12983091
11	0xbc811791	-0.015758308
12	0x3e7b7682	0.24556926
13	0x3e9803ef	0.296905
14	0x3decd919	0.115648456
15	0x3c4629cb	0.012094925
16	0xbec54163	-0.3852645
17	0x3e36c607	0.17848979
18	0x3e8b972a	0.27263767
19	0xbe26eb83	-0.16300778
20	0xbee1933c	-0.44057643
21	0x3ebbf8c9	0.36713246
22	0xbdd690b8	-0.10476822
23	0x3db2240e	0.08698283
24	0xbe02024b	-0.12696187
25	0x3e947d64	0.29001915
26	0x3edf9a1e	0.4367227
27	0x3e8f88a7	0.28033945
28	0xbe0e8d1f	-0.13921021
29	0x3ea1b937	0.3158662
30	0x3e5d7e23	0.21630149
31	0x3d364e5d	0.044508327
32	0xbeb87b92	-0.36031777
33	0xbe433616	-0.19063601
34	0xbee30ece	-0.44347233
35	0x3e98f1d7	0.2987201
36	0x3ee23fd3	0.4418932
37	0x3e85002a	0.25976688
38	0x3e0ea654	0.13930637
39	0x3dd880d2	0.105714455
40	0x3edbfcc1	0.42966273
41	0xbe67cb8c	-0.2263624
42	0xbe1a2d17	-0.15056263
43	0xbecc354d	-0.39884415
44	0xbd2f6ed0	-0.04283029
45	0x3cdf2f3e	0.027244207
46	0x3dfb283f	0.12263536
47	0xbe9f94d7	-0.31168243
48	0xbd4a5e1e	-0.049406163
49	0xbebdcdce	-0.3707108
50	0xbeb95ebc	-0.3620509
51	0x3d70d827	0.05879989
52	0xbedf7572	-0.4364429
53	0x3df5d1a3	0.12002876
54	0xbed3e44a	-0.41385108
55	0xbe9f0e37	-0.31065533
56	0xbdbcf3be	-0.09226178
57	0xbed9897c	-0.42487705
58	0x3eb8fc35	0.3612992
59	0x3ebb8592	0.36625344
60	0xbe6b4501	-0.22975542
61	0x3dcad8e9	0.099046536
62	0x3e6d6f68	0.2318703
63	0x3e1167b1	0.14199711
64	0xbd6cf920	-0.05785477
65	0xbed616f0	-0.41814375
66	0x3ea785d2	0.32719284
67	0xbec9790b	-0.3935016
68	0xbda4a1bd	-0.08038662
69	0x3cd7e90a	0.026356239
70	0xbe19992c	-0.14999837
71	0xbe213a3f	-0.15744875
72	0xbec67e48	-0.3876822
73	0x3cb5089f	0.022098837
74	0xbd495f25	-0.049163003
75	0x3ec7b9c0	0.39008904
76	0xbe16453d	-0.1467485
77	0x3ead8f98	0.33898616
78	0x3cda55df	0.026652275
79	0xbe51923f	-0.20465945
80	0xbddaef38	-0.106901586
81	0xbd5dabe0	-0.05411899
82	0x3bba34cc	0.0056825634
83	0xbda26701	-0.07929803
84	0x3e07dc68	0.13267672
85	0x3ebe5acc	0.37178648
86	0x3d914adf	0.07094359
87	0x3e25bcb6	0.16185269
88	0x3e8e95da	0.27848703
89	0x3dc3cc60	0.09560466
90	0x3e5312f6	0.20612702
91	0x3e701486	0.23445329
92	0x3ed3b7e0	0.41351223
93	0xbed143aa	-0.40871936
94	0x3e1d382a	0.15353456
95	0xbca67332	-0.020318601
96	0xbda38b2c	-0.07985529
97	0xbe29e3b6	-0.16590771
98	0x3e8700c2	0.26367766
99	0x3ed17c80	0.40915298
100	0xbebac672	-0.36479527
101	0x3e7646d6	0.2405046
102	0x3e9ff0c2	0.3123837
103	0x3da015ee	0.07816683
104	0x3c068879	0.008211249
105	0x3eaff72f	0.34368274
106	0x3c27032d	0.010193628
107	0xbde30db9	-0.11086602
108	0xbd0a20b7	-0.033722606
109	0x3e0fe4c3	0.1405211
110	0x3de2e6c8	0.11079174
111	0xbc974242	-0.018464211
112	0x3e0cba6c	0.1374299
113	0x3df66442	0.120308414
114	0xbeb70578	-0.3574636
115	0x3de3b66a	0.11118777
116	0x3e8c78c0	0.27435875
117	0x3d4de472	0.05026669
118	0xbd253af6	-0.040339433
119	0x3eaf701a	0.34265214
120	0xbec7d794	-0.3903166
121	0xbe50eb7c	-0.2040233
122	0xbe4e34be	-0.20137307
123	0x3ec5acb7	0.38608333
124	0xbeddfe90	-0.43358278
125	0x3d4cc91e	0.049996488
126	0xbee02d3d	-0.43784514
127	0xbc801437	-0.01563464
128	0x3e2c8e12	0.1685107
129	0xbdd1b8c6	-0.10240321
130	0x3ede42e0	0.43410397
131	0x3b2f6b41	0.002676681
132	0xbe691e05	-0.22765358
133	0x3dec54bd	0.115396
134	0x3e68b54d	0.22725411
135	0xba803e98	-0.0009784279
136	0x3ec3e31c	0.38259208
137	0xbe904475	-0.2817723
138	0x3e43a436	0.1910561
139	0x3e7e744c	0.24849051
140	0x3e63e101	0.22253801
141	0x3a9a9eea	0.0011796628
142	0x3df962dd	0.1217706
143	0xbeb1e7b7	-0.34747097
144	0xbeb0b481	-0.34512714
145	0xbcdfd487	-0.02732302
146	0xbd706ed4	-0.058699444
147	0x3eaa2138	0.3322847
148	0x3ea93349	0.3304694
149	0x3e9c3415	0.30508485
150	0xbe53e814	-0.20694
151	0xbeb2fed1	-0.34960034
152	0xbed618b8	-0.41815734
153	0x3e2b807c	0.16748232
154	0xbecc72f6	-0.39931458
155	0xbee53684	-0.44768155
156	0xbe647edf	-0.22314022
157	0xbec329bb	-0.38117775
158	0xbe38e3d0	-0.18055654
159	0xbe90523e	-0.28187746
160	0xbe6c3a77	-0.23069178
161	0x3ed9db5d	0.42550173
162	0xbdadf3d7	-0.084937744
163	0x3ebdbe7e	0.37059397
164	0x3c1145ee	0.00886677
165	0xbd7b740e	-0.061389975
166	0xbe053c19	-0.13011207
167	0xbea2df51	-0.31811002
168	0xbeb7a4b7	-0.35867855
169	0x3e9eb3a4	0.3099643
170	0xbe0f88b6	-0.14016995
171	0xbee03493	-0.4379011
172	0x3ed1d78d	0.40984765
173	0x3c130184	0.008972529
174	0xbe9a1755	-0.30095926
175	0xbeb46d85	-0.35239807
176	0xbebf1541	-0.37320903
177	0xbec86d13	-0.39145717
178	0x3ecf5cbc	0.40500438
179	0x3e9db237	0.3080003
180	0x3d1506cc	0.036383435
181	0xbec42d57	-0.38315842
182	0xbdefde45	-0.117123164
183	0xbed5f281	-0.41786578
184	0x3e21ec5a	0.15812817
185	0xbdf60ad0	-0.12013781
186	0xbdc392de	-0.09549497
187	0xbe0eec32	-0.13957289
188	0x3e564f42	0.20928672
189	0x3e7d6335	0.24744876
190	0x3dc64545	0.09681181
191	0xbd809df3	-0.062801264
192	0xbd351512	-0.044209547
193	0xbbee1976	-0.007266219
194	0xbeab8732	-0.33501583
195	0x3edcde49	0.4313834
196	0xbe45cbba	-0.19315997
197	0x3e8541d2	0.2602678
198	0xbe808bc6	-0.2510664
199	0x3c002055	0.007820209
200	0x3e1c37fd	0.15255733
201	0xbed1f85b	-0.41009793
202	0x3e558e41	0.20855047
203	0xbeb1316e	-0.34608024
204	0x3d7f008b	0.062256377
205	0xbdb57298	-0.08859748
206	0x3e8442f2	0.25832325
207	0x3edf40bb	0.43604073
208	0x3dbdade0	0.0926168
209	0xbc53198e	-0.012884511
210	0xbe60bec2	-0.21947768
211	0x3e2afe03	0.1669846
212	0xbe5a9746	-0.21346769
213	0x3e3ba322	0.18323949
214	0xbe45f4e1	-0.19331695
215	0x3e9a3304	0.30117047
216	0x3eaf9d7c	0.3429984
217	0x3e8f06f8	0.27935004
218	0x3c458670	0.012055978
219	0x3e51b62f	0.20479654
220	0xbed26064	-0.41089165
221	0x3eb9be0f	0.36277816
222	0xbdec8310	-0.11548436
223	0x3e27ad7d	0.16374774
224	0xbd9eca6f	-0.07753455
225	0xbe159938	-0.1460923
226	0xbe55d332	-0.20881346
227	0x3e937fa6	0.28808326
228	0xbe7ad349	-0.24494661
229	0xbda63888	-0.08116251
230	0x3e622844	0.22085673
231	0x3d3aa6fe	0.045569412
232	0xbebfa9c0	-0.37434196
233	0xbee36c80	-0.44418716
234	0xbe5f069f	-0.2177987
235	0x3ed14a37	0.40876934
236	0xbea2c80f	-0.31793258
237	0x3e80306e	0.2503695
238	0x3ea3e739	0.32012346
239	0xbe3f40e9	-0.18677105
240	0xbe4ba2bd	-0.19886298
241	0xbea4a25f	-0.3215513
242	0x3d8dae4c	0.0691801
243	0xbd81cabe	-0.06337498
244	0x3cb20d45	0.021734843
245	0x3e46eb05	0.1942559
246	0x3e43b4b5	0.19111903
247	0xbe136580	-0.14394188
248	0x3d005e89	0.031340156
249	0x3de2b146	0.110689685
250	0x3c2f1bca	0.010687778
251	0x3db74580	0.08948803
252	0xbe389f4b	-0.18029515
253	0x3ebbd52f	0.36686084
254	0xbd452362	-0.048129447
255	0xbd75004c	-0.059814736

fc2.weight f4 [256, 512]
0	0x3d23b861	0.03997076
1	0x3d0d61cc	0.034517094
2	0xbd23ba3e	-0.039972536
3	0xbc96db8f	-0.01841524
4	0x3cc073f8	0.023492798
5	0xbcd8eda2	-0.0264805
6	0x3bf9e2d7	0.0076259184
7	0xbc90d78e	-0.01768091
8	0x3bf104f6	0.0073553277
9	0x3cb6f476	0.022333365
10	0x3c507a57	0.012724481
11	0x3cfd49cb	0.030918976
12	0xbbe077e7	-0.006850231
13	0x3cc39cea	0.023878533
14	0x3c7ce765	0.015436028
15	0xbc74cf61	-0.014942021
16	0xbd03b7b0	-0.0321576
17	0x3d29f86f	0.04149669
18	0xbc38b8b6	-0.011274507
19	0x3d04cf4e	0.032424264
20	0x3cda89b4	0.02667699
21	0xbb548d70	-0.0032432936
22	0xbd1988ba	-0.03748391
23	0x3b9aed52	0.004727998
24	0xbca8de16	-0.020613711
25	0x3c39f290	0.011349335
26	0xbc9d8b84	-0.019231565
27	0x3d03f632	0.032217212
28	0xbd1b7776	-0.037955724
29	0xbc47d074	-0.012195695
30	0x3bfe4e7c	0.007760821
31	0x3b60dadb	0.0034310136
32	0x3d0f3183	0.034959327
33	0xbc7ef720	-0.015561849
34	0xbd09be1b	-0.033628564
35	0x3cf65e29	0.030074196
36	0x3c5bf0dc	0.013424125
37	0x3ce1a918	0.02754645
38	0xbcdde266	-0.027085494
39	0xbcd14979	-0.02554773
40	0xbc9bbf09	-0.019011991
41	0x3b911149	0.0044271094
42	0x3c73a3eb	0.014870624
43	0xbcc7e8c2	-0.02440298
44	0xbaf4bdfa	-0.001867234
45	0xbc195edc	-0.009360995
46	0x3d256675	0.040380914
47	0xbc8da79d	-0.017291838
48	0x3d292f0e	0.04130464
49	0xbce4fc40	-0.027952313
50	0xbc88adaf	-0.016684381
51	0xbd036ade	-0.03208434
52	0x3d0c001e	0.0341798
53	0xbcecb463	-0.028894609
54	0x3c91c82d	0.017795647
55	0xbc8f0493	-0.017458236
56	0x3d318dad	0.043348003
57	0x3ba3fc38	0.005004432
58	0xbd16d175	-0.036820848
59	0x3bee64c4	0.007275196
60	0x3b8791be	0.004137247
61	0xbd2808d4	-0.041024044
62	0x3c18b88e	0.009321345
63	0x3d2ec61d	0.042669404
64	0x3c33ddb7	0.010978154
65	0x3a212d1a	0.0006148383
66	0xbbf80a18	-0.0075695626
67	0x3c56b192	0.0131038595
68	0xbc93c622	-0.018038813
69	0x3d2bdf3b	0.041960936
70	0x3d1a2afd	0.037638653
71	0x3c9a54d9	0.018839287
72	0xbc903305	-0.017602453
73	0xbd2f7d1c	-0.042843923
74	0xbcd83085	-0.026390323
75	0x3d35d9ea	0.044397272
76	0xbd213b9b	-0.039363485
77	0xbd32ee3b	-0.043684226
78	0xbb92d174	-0.004480535
79	0x3c4ca907	0.012491471
80	0xbd37f31a	-0.044909574
81	0xbd276fac	-0.040877983
82	0x3af06c58	0.0018342836
83	0xbc8aa1e2	-0.016922895
84	0x3d0038ab	0.031304043
85	0x3c374ea8	0.011188187
86	0xbd1660fc	-0.036713585
87	0xbd2081a6	-0.039186142
88	0x3d0356bc	0.03206514
89	0xbbccd364	-0.0062507857
90	0xbc8fad4c	-0.01753869
91	0x3c4c161b	0.012456442
92	0xbc1ff8d2	-0.009763913
93	0x3ca1ebdf	0.019765792
94	0x3c290c3e	0.01031786
95	0xbc98da73	-0.018658852
96	0xbd128db5	-0.035779674
97	0x3cd72d0b	0.026266595
98	0xbce7a6f2	-0.028277848
99	0xbbc17c7e	-0.005904733
100	0x3be7aec6	0.007070395
101	0xbcd07ab8	-0.025449142
102	0x3cba0aa1	0.022710146
103	0xbcf2e8b9	-0.029651986
104	0x3c19efb2	0.009395527
105	0x3ba33a64	0.004981326
106	0x3c744ee5	0.014911388
107	0xbd381546	-0.044942163
108	0x3a9ce79a	0.0011970878
109	0x3c9eac78	0.019369349
110	0xbce02ebd	-0.027366037
111	0x3c40f733	0.011777687
112	0x3af904bd	0.0018998605
113	0x3d15266a	0.036413588
114	0xbc304560	-0.010758728
115	0xbabc2ecd	-0.001435721
116	0xbca6bfdf	-0.020355163
117	0xbc1ec14f	-0.009689643
118	0x3c41641b	0.011803652
119	0xbd2a36de	-0.04155623
120	0x3d0ba27b	0.0340905
121	0x3cfa659a	0.030566026
122	0x3c9e2762	0.019305889
123	0x3d08646b	0.03329889
124	0xbc73ef80	-0.014888644
125	0x3c12135b	0.0089157475
126	0x3a00b2c7	0.00049094524
127	0xbd0343c4	-0.03204705
128	0xbc793572	-0.015210496
129	0xbc8e8319	-0.017396497
130	0xbc276322	-0.010216506
131	0xbd1df35d	-0.038562167
132	0xbd027516	-0.031849943
133	0xbbaffa0c	-0.005370384
134	0xbbc12665	-0.0058944696
135	0xbd205790	-0.039146006
136	0x3bf3ec28	0.0074439235
137	0x3cba3805	0.02273179
138	0x3d1ccebc	0.038283095
139	0x3d14b547	0.036305692
140	0xbcffe6a0	-0.0312379
141	0xbc6d97bc	-0.014501508
142	0xbcb88e04	-0.022528656
143	0x3c08ee1d	0.008357552
144	0x3c293168	0.010326721
145	0x3c18b103	0.009319547
146	0x3cd7235e	0.026261982
147	0x3cba4b17	0.022740884
148	0xbcbb37a9	-0.02285369
149	0x3ceef2cd	0.02916851
150	0x3d00b437	0.031421866
151	0x3be6f02e	0.0070476746
152	0xbd21b592	-0.0394798
153	0xbcd64f86	-0.026160967
154	0x3c55427a	0.0130163375
155	0x3c84963e	0.016184922
156	0x3d30ef5d	0.043197025
157	0x3cab0e85	0.020880947
158	0x3c90b2e9	0.017663436
159	0xbb337592	-0.002738331
160	0x3cedc7d8	0.029025957
161	0xbc8daaa8	-0.01729329
162	0x3c886c70	0.01665327
163	0xbca5d71c	-0.020244174
164	0xb9c798db	-0.00038070124
165	0x3cce625e	0.02519339
166	0x3c9e83e6	0.019350003
167	0xbc3c0393	-0.011475462
168	0xbac68119	-0.0015144675
169	0xbcbf0aa5	-0.023320505
170	0x3c9be701	0.01903105
171	0x3cfe97c9	0.031078236
172	0x3c5e365b	0.013562764
173	0xbd35b838	-0.044365138
174	0xbd06adeb	-0.032880705
175	0x3cec553f	0.028849242
176	0xbbefa689	-0.0073135537
177	0x3cd04b74	0.025426604
178	0x3d0d91a4	0.03456272
179	0xbc59a2fc	-0.013283487
180	0xbccd06f2	-0.025027726
181	0xbd26cec1	-0.04072452
182	0x3c76ee86	0.015071517
183	0x3cae88e0	0.021305501
184	0xbc1888f4	-0.009309996
185	0xbd329710	-0.043601096
186	0xbcf715d7	-0.030161781
187	0xbb25abdd	-0.002527944
188	0x3ca8ad16	0.020590346
189	0xbc76794a	-0.015043566
190	0xbcf60c51	-0.03003517
191	0xbd030640	-0.031988382
192	0x3d220cb2	0.03956289
193	0x3c6c9e56	0.014442047
194	0xbd0bdf71	-0.034148637
195	0xbcebd4d8	-0.028788015
196	0xbd19fd14	-0.03759487
197	0x3baac988	0.0052120127
198	0xbca0817e	-0.019592997
199	0xba942183	-0.0011301491
200	0xbc0d29f5	-0.00861596
201	0xbd242bd1	-0.04008085
202	0xbd278196	-0.040895067
203	0xbd124536	-0.035710536
204	0xbc9f4d6e	-0.019446101
205	0x3be961af	0.0071222405
206	0xbcb69a81	-0.02229047
207	0xbb57b37c	-0.0032913378
208	0xbbd7f150	-0.006590046
209	0x3d1fb83b	0.038994055
210	0xbc9716f5	-0.018443564
211	0x3d31e017	0.0434266
212	0xbd03181a	-0.032005407
213	0xbd1d4cba	-0.03840325
214	0x3c4b23df	0.012398689
215	0xbcc7123a	-0.024300683
216	0x3cb9b378	0.022668585
217	0xbcc95778	-0.024577841
218	0x3d113768	0.03545323
219	0x3d2a46b4	0.041571334
220	0x3b9449c6	0.004525396
221	0x3c03ec55	0.008051951
222	0x3d2f6b26	0.042826794
223	0x3ccd4261	0.025056066
224	0xbd1b798e	-0.03795772
225	0xba4462fc	-0.00074915565
226	0xbd1bd6b7	-0.038046565
227	0x3d11de6e	0.035612516
228	0xbc1cd605	-0.009572511
229	0x3a1a42e6	0.00058846024
230	0xbcec6dd6	-0.028860968
231	0xbcbce2f1	-0.023057433
232	0x3bae6284	0.0053218026
233	0x3d1b6555	0.037938435
234	0xbcc00203	-0.02343846
235	0x3bb8f512	0.005644449
236	0x3d1fb8ab	0.038994472
237	0x3d296591	0.041356627
238	0xbbe055f4	-0.006846184
239	0x3d2c650e	0.04208856
240	0x3c73df70	0.014884815
241	0x3d2a933b	0.041644316
242	0x3a668ef8	0.0008795108
243	0xbd1a0c82	-0.037609585
244	0xbc566986	-0.013086682
245	0x3c738d97	0.014865301
246	0x3cb529a4	0.022114582
247	0xbd2c62a9	-0.042086277
248	0x3d0959b2	0.033532806
249	0xbd1c9445	-0.03822734
250	0x3cc8bcae	0.024504032
251	0x3d2cc93b	0.042184096
252	0x3c39951f	0.011327057
253	0xbbeaf584	-0.007170381
254	0x3cbcfb8f	0.023069171
255	0xbc450999	-0.012026214

fc2.bias f4 [256]
0	0xbc55a018	-0.013038658
1	0x3d081de3	0.033231627
2	0xbcf4d1d6	-0.029885214
3	0xbd1b947e	-0.03798341
4	0xbcb8114a	-0.022469182
5	0x3cd0616f	0.025437085
6	0xbd03ecc0	-0.032208204
7	0x3d04af3c	0.03239368
8	0x3d02e8af	0.031960186
9	0x3d0591e5	0.03260984
10	0x3c3143b6	0.010819366
11	0x3c5d307f	0.013500332
12	0x3c7052d5	0.014668186
13	0x3d065af7	0.032801595
14	0xbc6407ae	-0.013917847
15	0x3d2fa904	0.042885795
16	0xbd3ca5cb	-0.04605655
17	0xbd1e7314	-0.038683966
18	0xbd020eff	-0.031752583
19	0x3d0f6864	0.035011664
20	0xbbd257de	-0.006419166
21	0xbd0a5c6e	-0.033779554
22	0xbce2a17b	-0.02766489
23	0xbad078a2	-0.0015905092
24	0x3c5a83df	0.013337105
25	0x3d238f36	0.0399315
26	0x3ca56e25	0.020194123
27	0x3b984d05	0.0046478533
28	0xbb091d55	-0.0020922024
29	0x3ce0156d	0.027353967
30	0xbc336f4a	-0.010951826
31	0xbba9ee3b	-0.00518587
32	0x3d1ecfb9	0.03877232
33	0xbd018578	-0.031621426
34	0x3cbd07f8	0.023075089
35	0xbced831b	-0.02899318
36	0xbd204e0d	-0.039136935
37	0x3c8c76b2	0.017146442
38	0xbd186b46	-0.03721168
39	0x3d1138bb	0.035454493
40	0xbc8aca00	-0.016942024
41	0xbd1a723c	-0.0377066
42	0xbd309056	-0.0431064
43	0x3d1504f1	0.036381666
44	0xbd341fa1	-0.043975476
45	0x3c919d67	0.01777525
46	0xbcc3de53	-0.023909723
47	0x3c620c56	0.013796886
48	0x3cf3006b	0.029663285
49	0xbc342f1d	-0.010997561
50	0x3ce994f8	0.028513417
51	0xbc7a675b	-0.015283431
52	0x3bcc3711	0.0062321504
53	0xbcf5180e	-0.029918697
54	0x3cd5679e	0.026050385
55	0x3bf8bf6c	0.0075911786
56	0x3b74f7a9	0.0037379062
57	0x3cf76518	0.030199572
58	0xbd24afcd	-0.04020672
59	0x3c8c0c22	0.01709563
60	0xbbd279d9	-0.006423217
61	0xbc89117f	-0.016731976
62	0xbbdb8fe7	-0.006700504
63	0x3aff3b3e	0.0019472612
64	0x3d134b21	0.03596032
65	0xbd2ad2f2	-0.04170508
66	0x3c9ba465	0.018999288
67	0x3ca17f94	0.019714154
68	0xbd24eecd	-0.0402668
69	0xbc1d7df7	-0.009612552
70	0xbc7db1ba	-0.015484268
71	0x3d0838d2	0.033257313
72	0xbd05e79d	-0.032691587
73	0x3cdc6415	0.026903192
74	0x3c86869c	0.016421609
75	0x3d1c2bb2	0.03812761
76	0x3d12a117	0.03579816
77	0xbb291a82	-0.0025803153
78	0xbcb6c82a	-0.022312243
79	0x3d2ffaef	0.04296392
80	0xbc8bf70e	-0.017085578
81	0xbb7d56ab	-0.0038656394
82	0x3c819ed2	0.015822802
83	0x3cd313ae	0.02576622
84	0x3ce9c559	0.028536486
85	0xbca780af	-0.020447103
86	0x3cddcc62	0.027074996
87	0xbc903ef6	-0.017608147
88	0x3afb82e2	0.0019188786
89	0xbd34add4	-0.044111088
90	0xbb2ff31d	-0.0026847788
91	0xbc324cdb	-0.010882582
92	0xba8ed2b6	-0.0010896537
93	0x3d13b807	0.036064174
94	0xbc606c1f	-0.013697653
95	0x3c71de4d	0.014762473
96	0xbcd47ad8	-0.025937483
97	0x3ce79445	0.028268943
98	0xbc88343b	-0.016626468
99	0x3c96c79f	0.018405734
100	0x3cc4d590	0.024027616
101	0x3cbe4c4d	0.023229742
102	0x3d0bef43	0.034163725
103	0xbd0bf65a	-0.034170486
104	0xbb0db967	-0.00216254
105	0xbbc905ad	-0.00613471
106	0xbd27bc4f	-0.04095107
107	0xbb935b3e	-0.004496961
108	0x3d478848	0.048713952
109	0xbc61c090	-0.013778821
110	0x3d1a1a90	0.03762299
111	0xbc34506b	-0.011005501
112	0xbcd62030	-0.026138395
113	0x3cf43182	0.029808763
114	0xbc725216	-0.014790079
115	0x3d10af2d	0.03532331
116	0xbd316d25	-0.04331698
117	0xb8647add	-5.447386e-05
118	0xbcb4441a	-0.02200513
119	0xbd2e9b78	-0.042628735
120	0x3c86e7fc	0.01646804
121	0xbd36ccc0	-0.04462886
122	0x3d23e69d	0.04001485
123	0x3c9fa242	0.01948655
124	0xbccbb250	-0.0248653
125	0xbc9c7845	-0.019100318
126	0xbb40adc9	-0.002940046
127	0x3d155ce7	0.03646555
128	0xbc562f3d	-0.013072786
129	0x3d152744	0.0364144
130	0xbcf4e750	-0.029895455
131	0x3b9d89ab	0.004807671
132	0x3d3bcf0e	0.04585176
133	0x3caa1ed5	0.020766655
134	0xbbf5c368	-0.007500101
135	0x3ca163fb	0.019700995
136	0x3b59fd29	0.0033262467
137	0x3c467a03	0.012114051
138	0x3cb31b58	0.021863624
139	0x3d295a27	0.04134574
140	0xbcc39e6b	-0.02387925
141	0x3d0cf79c	0.034415826
142	0x3bb36582	0.005474747
143	0x3d17c5c0	0.037053823
144	0x3c148196	0.009064099
145	0x3a5f5a56	0.0008520236
146	0x3cad2ce2	0.021139566
147	0x3c91503a	0.01773845
148	0x3cfdc439	0.030977355
149	0xbcd9633f	-0.026536582
150	0x3d102ece	0.035200886
151	0x3d005492	0.031330653
152	0x3d2fa5bb	0.042882662
153	0xbd27051b	-0.040776353
154	0xbd397163	-0.04527415
155	0xbce62db9	-0.028097974
156	0xbcb12df7	-0.021628363
157	0x3ce866c7	0.02836932
158	0x3c3722cd	0.011177731
159	0xbc8acef1	-0.01694438
160	0x3c057061	0.008144469
161	0xbc7c83d2	-0.015412288
162	0xbccf6a0e	-0.025319126
163	0x3d2dda62	0.042444594
164	0x3c31c1af	0.0108494
165	0x3d19ee37	0.037580695
166	0x3d1aff8e	0.037841372
167	0xbcc75717	-0.02433352
168	0xbd1941a5	-0.03741612
169	0xbd157ab0	-0.036493957
170	0x3cc6bdb4	0.02426038
171	0xbcdbf86f	-0.02685186
172	0x3bd6fc88	0.006560866
173	0x3a7e570d	0.00097023026
174	0xbcfc7223	-0.030816143
175	0xb955e1bd	-0.00020397357
176	0xbc4db5ed	-0.0125555815
177	0xbc55adf3	-0.013041961
178	0xbd1eafce	-0.03874188
179	0xbc9809fd	-0.01855945
180	0xbc44ed74	-0.012019504
181	0xbd0f1bbf	-0.03493857
182	0xbd1b6b66	-0.03794422
183	0xbce979c7	-0.02850045
184	0xbba7d148	-0.005121384
185	0xbd30c6ca	-0.04315833
186	0x3c7ff250	0.015621737
187	0xbcfa8da6	-0.030585121
188	0xbccdd6c3	-0.02512682
189	0xbcbf5976	-0.023358088
190	0x3c704c3f	0.014666616
191	0x3cecde91	0.028914722
192	0x3bb40697	0.0054939496
193	0x3cc73e49	0.024321692
194	0x3c22ad16	0.009928962
195	0x38da6811	0.00010414434
196	0x3ca6a1ab	0.020340761
197	0xbd23db4a	-0.040004052
198	0xbce14a9f	-0.027501402
199	0x3d390b8d	0.04517703
200	0x3c01e81a	0.0079288725
201	0xbd222026	-0.03958144
202	0x3bd8d4d5	0.0066171684
203	0xbd1a9a83	-0.03774501
204	0xbc8cc4d9	-0.017183708
205	0xbc381f49	-0.011237928
206	0xbce4d7c4	-0.027934916
207	0xbd23461e	-0.03986179
208	0xbc0410d3	-0.008060652
209	0xbbed7528	-0.007246632
210	0xbcf30442	-0.029665116
211	0xbb37ae99	-0.0028027652
212	0xbd144473	-0.03619809
213	0x3d16398c	0.036675975
214	0xbc05b644	-0.008161131
215	0x3d291887	0.041283157
216	0x3c12fd6e	0.008971555
217	0xbd2a1615	-0.041524965
218	0x3d3a7ce2	0.045529254
219	0x3ceb1af3	0.028699374
220	0xbc33641d	-0.010949162
221	0x3cba9fcb	0.022781273
222	0xbcdd5cc4	-0.027021773
223	0xbcdef982	-0.027218584
224	0xbcc8c931	-0.024509998
225	0x3cdec4c8	0.027193442
226	0xbbe60297	-0.0070193517
227	0xbaf52435	-0.0018702807
228	0xbd1d8e5c	-0.038465843
229	0x3ca148d6	0.019688051
230	0x3b9db9ea	0.0048134224
231	0xbd31acbe	-0.04337763
232	0x3c238a29	0.00998167
233	0x39405810	0.00018343353
234	0x3c3c7a3a	0.01150375
235	0xbd02c4fd	-0.031926144
236	0xbcdec22c	-0.027192198
237	0xbb50305f	-0.0031767113
238	0x3afb89c3	0.0019190836
239	0x3d07cf5f	0.03315675
240	0x3d0cfb95	0.034419615
241	0x3c022724	0.007943902
242	0xbb2c9a7e	-0.0026337202
243	0xbb84e447	-0.004055533
244	0x3d01c202	0.03167916
245	0xbd1f8b41	-0.038951162
246	0x3cd4140d	0.025888467
247	0xbcec2590	-0.028826505
248	0xbcc2d847	-0.02378477
249	0xbcb7846d	-0.022402013
250	0xbd12776d	-0.035758425
251	0x3c0e799c	0.008695986
252	0xbc4a522b	-0.012348692
253	0xbc0392c2	-0.008030595
254	0xbcf0fa90	-0.029416353
255	0x3d0cbcaf	0.03435963

fc3.weight f4 [128, 256]
0	0xbc87f412	-0.016595874
1	0xbd11c039	-0.03558371
2	0x3ce0b58c	0.027430318
3	0x3d523178	0.05131671
4	0xbc9a4a43	-0.018834239
5	0xbd6d4baa	-0.057933487
6	0x3ce29ed1	0.02766362
7	0x3d317a63	0.043329608
8	0x3d07dcc4	0.033169523
9	0x3d3d2e14	0.04618652
10	0x3d2cd7c4	0.042197958
11	0xbd4439aa	-0.047906555
12	0xbd3d9e23	-0.04629339
13	0x3cfe5094	0.031044282
14	0x398102ed	0.00024606977
15	0x3d230258	0.039797157
16	0x3d3d4ea2	0.04621757
17	0xbc2ca148	-0.010536499
18	0xbd7456b7	-0.05965301
19	0x3c1d0936	0.009584716
20	0x3ce2a698	0.027667329
21	0x3cc9f87f	0.024654625
22	0x3b80a57e	0.003925978
23	0xbc90afc2	-0.017661933
24	0x3d3a64b4	0.045506194
25	0x3d23a8dc	0.03995596
26	0x3d654f71	0.055983964
27	0xbd0aab67	-0.03385487
28	0xbcae4a09	-0.021275537
29	0x3ce28b93	0.027654445
30	0x3d50df6e	0.05099433
31	0x3d842e46	0.064541385
32	0xbd4ab700	-0.04949093
33	0x3ca05a96	0.019574445
34	0x3ca838e3	0.020534938
35	0xbd1c07ef	-0.038093504
36	0xbc21d488	-0.009877332
37	0x3cbf4e4c	0.023352765
38	0xbc81642f	-0.015794842
39	0x3d302f9c	0.043014154
40	0xbc1b118f	-0.0094646355
41	0xbc05f908	-0.008177049
42	0x3c940400	0.018068314
43	0xbcbcd983	-0.023052936
44	0xbd18a602	-0.037267692
45	0x3d4c3252	0.049852677
46	0x3c3a4699	0.011369371
47	0xbd5539a1	-0.052056912
48	0x3d4d7713	0.050162386
49	0x3d0aa5dc	0.033849582
50	0xbc340189	-0.010986694
51	0xbced4f8d	-0.028968597
52	0xbcbe894b	-0.023258826
53	0xbccdfe1c	-0.025145583
54	0x3d531135	0.05153008
55	0x3c2f2ce7	0.010691858
56	0x3b602ea4	0.0034207487
57	0xbcc579d1	-0.024105938
58	0x3d776c36	0.060405932
59	0xbd59d5f3	-0.053182553
60	0xbd4fcd03	-0.050732624
61	0xbd18a432	-0.037265964
62	0x3d50d2c3	0.050982248
63	0x3cce1a0e	0.025158908
64	0xbd719a8e	-0.058985285
65	0xbd3c4f80	-0.045974255
66	0xbc213295	-0.00983872
67	0x3d321752	0.04347927
68	0x3b3461e9	0.002752418
69	0x3d8583ff	0.06519317
70	0xbd49e87c	-0.04929398
71	0x3ccf4e44	0.025305875
72	0xbc81fd12	-0.015867744
73	0x3c6f6adc	0.01461288
74	0xbc742c72	-0.014903175
75	0xbd2b2214	-0.041780546
76	0xbd65789f	-0.056023236
77	0xbd3de7a0	-0.046363473
78	0xbd1005c9	-0.035161767
79	0xbd652e3e	-0.055952303
80	0x3c6f47d3	0.014604527
81	0xbc72f5b5	-0.014829089
82	0x3b87f5b4	0.004149163
83	0xbcbe1c01	-0.023206713
84	0xbd50d300	-0.050982475
85	0xbd3f9d33	-0.046780776
86	0xbcc625a4	-0.02418787
87	0xbd7694fe	-0.060200684
88	0x3d0b9ca4	0.03408493
89	0x3d17e920	0.03708756
90	0xbd1ab90d	-0.037774134
91	0x3c98886a	0.018619735
92	0xbd26c89d	-0.040718663
93	0xbcbde5fd	-0.023180956
94	0xbc924d92	-0.017859254
95	0xbd2c44c9	-0.042057786
96	0x3cd4737c	0.025933973
97	0x3c8573e6	0.016290616
98	0x3bf52cd7	0.007482152
99	0x3c0508f7	0.008119813
100	0xbd65dd23	-0.056119096
101	0x3c69568b	0.014241825
102	0x3d38f41d	0.04515468
103	0xbd0c409c	-0.034241304
104	0xbd61dbb5	-0.05514117
105	0xb94eca2a	-0.00019721003
106	0x3cf031ed	0.029320681
107	0x3c5a5f54	0.013328392
108	0x3d07a829	0.033119354
109	0xbbe7fe72	-0.007079893
110	0xbbd657d1	-0.0065412303
111	0xbd6ae683	-0.05734874
112	0xbd820aca	-0.06349714
113	0xbd5900c8	-0.05297926
114	0xbd53bf40	-0.051696062
115	0x3c1ee090	0.009697095
116	0xbc628072	-0.013824569
117	0xbcd2da90	-0.025738984
118	0xbd6a7204	-0.05723764
119	0x3d4d7299	0.050158117
120	0xbb54b50a	-0.003245654
121	0x3d090f90	0.033462107
122	0xbd566b19	-0.05234823
123	0xbd1d8d81	-0.038465027
124	0x3d181dd3	0.037137818
125	0x3d28c31a	0.04120169
126	0xbd32e355	-0.043673832
127	0x3d44ff0a	0.048094787
128	0x3d0c426b	0.03424303
129	0x3d524cfb	0.051342946
130	0xbd4a6aa6	-0.049418114
131	0xbd8084b1	-0.06275309
132	0xbd610038	-0.05493185
133	0x3b315f1d	0.0027064749
134	0x3c9d191c	0.019177012
135	0xbc883683	-0.016627556
136	0xbc7b8f7f	-0.015354036
137	0x3c894c81	0.016760113
138	0xbd0903e3	-0.033450972
139	0xbd28c600	-0.041204453
140	0xbd5c7066	-0.05381813
141	0x3c508678	0.012727372
142	0xbd2fd308	-0.042925864
143	0x3c99b6f0	0.01876399
144	0xbbede872	-0.0072603757
145	0xbd257564	-0.040395156
146	0x3d61bb55	0.055110294
147	0x3d0e172a	0.03469006
148	0x3d453a72	0.04815144
149	0xbd54c519	-0.05194578
150	0xbd1bcec7	-0.038038995
151	0xbd049c59	-0.032375667
152	0x3bb80259	0.0056155142
153	0x3cf92e55	0.0304176
154	0xbd6dfdca	-0.05810336
155	0x3c9ac49d	0.01889258
156	0x3d7d68a1	0.06186736
157	0x3d34d71c	0.044150457
158	0xbc6c1180	-0.014408469
159	0x3ae503dd	0.0017472465
160	0xbbd17aee	-0.006392828
161	0x3d5d9e4b	0.054106038
162	0x3d537119	0.05162153
163	0xbbf5d38b	-0.0075020245
164	0xbd3b567b	-0.04573677
165	0xbcbd9f21	-0.023147168
166	0x3d19c0ac	0.03753726
167	0x3d363456	0.044483505
168	0x3d135099	0.035965536
169	0xbcd388dd	-0.025822097
170	0xbb21e1ad	-0.0024701164
171	0x3c0bea80	0.008539796
172	0x3cda7935	0.026669124
173	0xbd49edba	-0.04929898
174	0x3c7b52ff	0.015339612
175	0xbcbe171d	-0.02320438
176	0xbc4e7756	-0.012601694
177	0x3d0a6fe1	0.033798102
178	0x3ccb8fa0	0.02484876
179	0x3d63dad2	0.055628605
180	0x3cfa8d56	0.030584972
181	0xbd34fb83	-0.044185173
182	0xbb31d071	-0.0027132297
183	0xbd6b4421	-0.05743802
184	0xbbdb74e1	-0.0066972827
185	0xbbc98e4a	-0.0061509954
186	0x3babbc80	0.005240977
187	0x3c7b1fa7	0.015327371
188	0x3c831d89	0.016005294
189	0xbd6990c1	-0.057022814
190	0xbc85ddfb	-0.0163412
191	0xbc4f021d	-0.012634781
192	0x3d1fe920	0.039040685
193	0xbd7d5bb6	-0.06185504
194	0x3b4cf842	0.0031275903
195	0xbd08dd36	-0.03341409
196	0xbc64c3c0	-0.013962686
197	0xbd13026a	-0.035890974
198	0x3aaa6a22	0.0013001601
199	0x3cf9282c	0.030414663
200	0xbd10d28b	-0.03535704
201	0xbca4ef75	-0.020133713
202	0x3d7f1fa3	0.06228603
203	0xbcac1201	-0.021004679
204	0x3c9b1677	0.01893161
205	0xbd46b23e	-0.04850983
206	0x3d275c88	0.04085973
207	0xb9b316ba	-0.00034158473
208	0xbc9d3945	-0.019192347
209	0xbc9453f3	-0.018106436
210	0x3d67ecf8	0.056622475
211	0x3d4c7666	0.0499176
212	0xbd0f824c	-0.03503637
213	0xbd75067b	-0.059820633
214	0x3cbf6980	0.023365736
215	0xbb8e19f4	-0.00433659
216	0x3be715aa	0.007052143
217	0x3cf56b2c	0.02995833
218	0xbd4ae45b	-0.049534183
219	0x3ce6e6e6	0.028186273
220	0xbd069e83	-0.032866012
221	0x3c3ebb88	0.011641391
222	0xbbbefe41	-0.0058286493
223	0xbba268b0	-0.0049563274
224	0x3d2f8c3b	0.042858344
225	0xbc4aa5e0	-0.012368649
226	0x3c74af10	0.014934316
227	0x3bd376e3	0.0064533814
228	0x3d7302e7	0.05932894
229	0xbd45d17a	-0.048295476
230	0x3d7cd9ab	0.06173102
231	0x3c85f78c	0.016353391
232	0xb9dfc38a	-0.00042679562
233	0xbbce78ef	-0.0063010375
234	0xbc03d337	-0.008045963
235	0x3a9d0d36	0.0011982087
236	0xbc9b4681	-0.018954517
237	0x3be7ec0d	0.0070777
238	0x3d81ae09	0.06332023
239	0xbc4366ca	-0.011926362
240	0x3cd496c6	0.0259508
241	0xbabf6538	-0.0014602309
242	0xbc9e175a	-0.019298244
243	0xbc8eec53	-0.017446673
244	0x3c0026c7	0.007821745
245	0xbbbb5986	-0.005717459
246	0x3c184253	0.009293157
247	0xbd50049f	-0.050785657
248	0xbb5eecbb	-0.0034015614
249	0xbd56d924	-0.052453175
250	0xbd63b263	-0.055590045
251	0xbc088e2f	-0.00833468
252	0x3c10ead0	0.008845046
253	0x3d66025e	0.0561546
254	0xbbb5962e	-0.0055415845
255	0x3c7c8bce	0.015414191

fc3.bias f4 [128]
0	0x3ccc9d46	0.024977338
1	0xbd0f2761	-0.034949664
2	0x3d58976a	0.052878775
3	0xbd44bc38	-0.048031062
4	0x3c8972a5	0.0167783
5	0x3bfd12af	0.0077231745
6	0x3c29d462	0.010365577
7	0xbcb1d364	-0.021707244
8	0x3d80158f	0.06254112
9	0x3c141fca	0.009040782
10	0xbb8a6232	-0.0042231316
11	0xbc2690c7	-0.010166354
12	0x3cf0eb6a	0.02940913
13	0x3b965fcc	0.0045890566
14	0xbd3fd876	-0.046837293
15	0x3d2fd224	0.042925015
16	0xbd01692d	-0.031594444
17	0x3b9a08b9	0.004700747
18	0xbd3e8e4a	-0.046522416
19	0x3bc3838d	0.00596661
20	0x3d706f0d	0.058699656
21	0xbd21baad	-0.03948467
22	0xbd572991	-0.052529875
23	0xbb53dc61	-0.00323274
24	0xbd0090ea	-0.0313882
25	0xbd2b2991	-0.041787688
26	0x3d1b464f	0.03790885
27	0xbd6cefd7	-0.057845917
28	0xbcb744db	-0.0223717
29	0x3d641822	0.055687077
30	0x3c4aa04a	0.012367317
31	0x3d0526dd	0.032507766
32	0xbd491c29	-0.04909912
33	0x3cf4efbe	0.029899474
34	0x3c3c6fc0	0.011501253
35	0x3b19fdd0	0.0023497231
36	0x3d1e94fa	0.038716294
37	0xbcccd36b	-0.025003156
38	0x3c4be22d	0.012444061
39	0x3d1e5b04	0.038661018
40	0x3c210903	0.009828809
41	0x3d5ef0a0	0.054428697
42	0x3d2f1da6	0.042752884
43	0x3d35cf65	0.04438724
44	0xbcc8333b	-0.024438491
45	0x3cbc0c3b	0.02295505
46	0x3c10f396	0.008847138
47	0x3d13530c	0.03596787
48	0xb989d469	-0.00026288934
49	0x3c8c1b1d	0.017102772
50	0xbd0b127c	-0.033953175
51	0x3d6e3304	0.05815412
52	0x3aa18b1e	0.0012324785
53	0xbd67b2a1	-0.05656684
54	0xbcaed8fa	-0.021343697
55	0xbd7949d2	-0.060861416
56	0xbc800fcf	-0.015632538
57	0x3d149c3a	0.0362818
58	0x3d0d3fc0	0.034484625
59	0xbc8fb641	-0.01754296
60	0xbd237cb6	-0.039913855
61	0x3b811a94	0.003939936
62	0x3cbbb6db	0.02291434
63	0xbb8d081e	-0.004303946
64	0xbc007f77	-0.00784289
65	0x3c9a80cf	0.018860249
66	0x3d3fb50e	0.046803527
67	0x3d2f4270	0.04278797
68	0xbd33a4ff	-0.043858524
69	0xbd19006f	-0.03735393
70	0xbb9f1ecf	-0.0048559676
71	0xbba3e0a1	-0.005001143
72	0x3d282564	0.041051283
73	0x3d476f5d	0.04869019
74	0xbba75ac7	-0.005107257
75	0xbcd36c36	-0.025808435
76	0x3d2895c1	0.04115844
77	0x3ca37838	0.019954786
78	0x3d3854db	0.0450028
79	0x3d3e814e	0.046510033
80	0xbd060a55	-0.032724697
81	0x3c10f1b2	0.008846687
82	0xbd3f7987	-0.046746757
83	0xbd118378	-0.03552577
84	0xbd6db572	-0.058034368
85	0xbd134f1f	-0.035964128
86	0x3d5657c5	0.052329797
87	0x3d226dd9	0.03965554
88	0x3d5560c8	0.05209425
89	0xbd5b2a3f	-0.053507086
90	0x3caac1b6	0.020844322
91	0x3b70b59c	0.0036729341
92	0xbcf7d1a1	-0.030251326
93	0xbd0ac861	-0.033882502
94	0xbd65cfc5	-0.056106348
95	0x37e5de42	2.7402424e-05
96	0xbcb6ccdb	-0.02231448
97	0xbb9d4f0d	-0.0048006834
98	0x3b9ffb9b	0.0048822886
99	0x3d637cf0	0.05553907
100	0xbd80370f	-0.062605016
101	0xbcdbe86f	-0.026844231
102	0x3c454ceb	0.012042264
103	0x3c533868	0.012891866
104	0xbb80ea19	-0.0039341566
105	0x3b818049	0.0039520604
106	0xbd389378	-0.045062512
107	0xbc7dd49d	-0.0154925855
108	0x3cb9ff99	0.022704886
109	0xbcff864d	-0.03119197
110	0xbd755031	-0.05989093
111	0x3ced8e31	0.028998466
112	0x3d4c5382	0.049884327
113	0xbd0e2df9	-0.03471181
114	0x3c266637	0.010156206
115	0x3bb5ac26	0.0055442033
116	0xbd3332ce	-0.043749623
117	0x3d074fea	0.033035196
118	0xbd79390a	-0.060845412
119	0x3d5322c1	0.051546816
120	0xbd09442d	-0.033512283
121	0x3c1e59af	0.009664937
122	0x3c81fc14	0.01586727
123	0x3c38fd17	0.01129081
124	0xbb4adfab	-0.003095607
125	0x3d6b8f64	0.057509795
126	0x3c9161e8	0.01774688
127	0xbd17bc83	-0.037045013

bn1.weight f4 [512]
0	0x3f8003f0	1.0001202
1	0x3f7f2211	0.99661356
2	0x3f800fda	1.0004838
3	0x3f7fc802	0.9991456
4	0x3f7ff68c	0.99985576
5	0x3f802685	1.0011755
6	0x3f7f8497	0.9981169
7	0x3f7fbc15	0.99896365
8	0x3f7ff296	0.9997953
9	0x3f7fd745	0.9993785
10	0x3f7e907f	0.99439234
11	0x3f7ff12e	0.99977386
12	0x3f8011af	1.0005397
13	0x3f8015cc	1.0006652
14	0x3f7f9825	0.9984153
15	0x3f7febf8	0.99969435
16	0x3f7fe25d	0.9995478
17	0x3f80195b	1.0007738
18	0x3f8021e9	1.0010349
19	0x3f7fd2b5	0.9993089
20	0x3f7ff45d	0.99982244
21	0x3f7fb750	0.9988909
22	0x3f7fee25	0.99972755
23	0x3f8003b5	1.0001131
24	0x3f80430e	1.0020463
25	0x3f7ff46d	0.9998234
26	0x3f7fe83d	0.9996374
27	0x3f8040ad	1.0019737
28	0x3f80219d	1.0010258
29	0x3f7fdc64	0.99945664
30	0x3f801d56	1.0008953
31	0x3f8021f1	1.0010358
32	0x3f80155e	1.0006521
33	0x3f801e8d	1.0009323
34	0x3f7fa743	0.99864596
35	0x3f7fd0f9	0.9992824
36	0x3f8010cc	1.0005126
37	0x3f7fffa6	0.99999464
38	0x3f7fb83a	0.9989048
39	0x3f800e0f	1.000429
40	0x3f80293d	1.0012585
41	0x3f7f9df7	0.9985041
42	0x3f800029	1.0000049
43	0x3f7feacb	0.9996764
44	0x3f7f392d	0.9969662
45	0x3f801657	1.0006818
46	0x3f801d98	1.0009031
47	0x3f7fd942	0.99940884
48	0x3f7faf30	0.9987669
49	0x3f7f6275	0.9975961
50	0x3f802f1c	1.0014377
51	0x3f800fd3	1.0004829
52	0x3f801056	1.0004985
53	0x3f80249a	1.001117
54	0x3f7f7d0c	0.9980018
55	0x3f800fba	1.0004799
56	0x3f7fcff9	0.99926716
57	0x3f7fe06e	0.9995183
58	0x3f802363	1.0010799
59	0x3f80395b	1.0017503
60	0x3f800c56	1.0003765
61	0x3f7f8a11	0.9982005
62	0x3f803236	1.0015323
63	0x3f7fd7ff	0.9993896
64	0x3f7fabdb	0.99871606
65	0x3f800e2f	1.0004328
66	0x3f8017e9	1.0007297
67	0x3f800562	1.0001643
68	0x3f7fb729	0.99888855
69	0x3f7ffa2c	0.99991107
70	0x3f7fa7ad	0.9986523
71	0x3f801c8b	1.0008711
72	0x3f803155	1.0015055
73	0x3f801d4c	1.0008941
74	0x3f80344a	1.0015957
75	0x3f7fe893	0.99964255
76	0x3f7ff02e	0.9997586
77	0x3f7fa4e3	0.9986097
78	0x3f7fe9a2	0.9996587
79	0x3f802499	1.0011169
80	0x3f8007c3	1.0002369
81	0x3f802d03	1.0013736
82	0x3f802f41	1.0014421
83	0x3f806fa3	1.0034069
84	0x3f7fb2af	0.99882025
85	0x3f7fe326	0.99955976
86	0x3f7fdd93	0.9994747
87	0x3f802e02	1.001404
88	0x3f7fbc9b	0.99897164
89	0x3f7fa226	0.99856794
90	0x3f801f3a	1.000953
91	0x3f8021ee	1.0010355
92	0x3f803c49	1.0018398
93	0x3f7ffe22	0.9999715
94	0x3f803a2b	1.0017751
95	0x3f800217	1.0000638
96	0x3f7fd75e	0.99938
97	0x3f804c30	1.002325
98	0x3f7ffb38	0.99992704
99	0x3f801ea3	1.000935
100	0x3f80168b	1.000688
101	0x3f802576	1.0011432
102	0x3f800ff7	1.0004872
103	0x3f80004a	1.0000088
104	0x3f7fab85	0.99871093
105	0x3f8030c0	1.0014877
106	0x3f8000b5	1.0000216
107	0x3f8015ba	1.000663
108	0x3f7fcfdf	0.9992656
109	0x3f7fa106	0.9985508
110	0x3f7fc2ac	0.9990642
111	0x3f800752	1.0002234
112	0x3f7fb5be	0.9988669
113	0x3f7f9f85	0.9985278
114	0x3f7ff0bf	0.99976724
115	0x3f80399c	1.0017581
116	0x3f7f8ba1	0.9982243
117	0x3f7ff2a0	0.9997959
118	0x3f801211	1.0005513
119	0x3f800658	1.0001936
120	0x3f7fde78	0.99948835
121	0x3f8008f6	1.0002735
122	0x3f800b1a	1.0003388
123	0x3f8007e0	1.0002403
124	0x3f7fb800	0.99890137
125	0x3f7f958b	0.9983756
126	0x3f7f4797	0.9971861
127	0x3f7ff36c	0.9998081
128	0x3f7fa90e	0.9986733
129	0x3f7fd123	0.9992849
130	0x3f7ff029	0.9997583
131	0x3f7ffe00	0.9999695
132	0x3f800fc7	1.0004815
133	0x3f803378	1.0015707
134	0x3f8006c9	1.0002071
135	0x3f7fbb15	0.9989484
136	0x3f7f6f7b	0.9977948
137	0x3f7f977d	0.9984053
138	0x3f7fdd0b	0.9994666
139	0x3f7f9797	0.9984068
140	0x3f7fdc07	0.9994511
141	0x3f8049b9	1.0022498
142	0x3f8009fe	1.0003049
143	0x3f802eac	1.0014243
144	0x3f800a67	1.0003175
145	0x3f7f7329	0.99785095
146	0x3f80381f	1.0017127
147	0x3f8025ae	1.0011499
148	0x3f8007eb	1.0002416
149	0x3f8019ec	1.0007911
150	0x3f7ff348	0.9998059
151	0x3f803a51	1.0017797
152	0x3f80013c	1.0000377
153	0x3f8024e6	1.001126
154	0x3f800fe1	1.0004846
155	0x3f7ff659	0.9998527
156	0x3f8013e1	1.0006067
157	0x3f7f1757	0.9964499
158	0x3f7f9ab2	0.9984542
159	0x3f7fe7e1	0.99963194
160	0x3f7ff4a0	0.99982643
161	0x3f801bb5	1.0008456
162	0x3f7fe990	0.99965763
163	0x3f7f09ae	0.99624145
164	0x3f800dff	1.0004271
165	0x3f8016c1	1.0006944
166	0x3f7fec56	0.99969995
167	0x3f802e6c	1.0014167
168	0x3f8035e2	1.0016444
169	0x3f800654	1.0001931
170	0x3f7fde0e	0.99948204
171	0x3f801d3f	1.0008925
172	0x3f801f3c	1.0009532
173	0x3f8003e6	1.000119
174	0x3f7fa10c	0.99855113
175	0x3f7fc912	0.99916184
176	0x3f7ff144	0.9997752
177	0x3f801b63	1.0008358
178	0x3f7fe46b	0.99957913
179	0x3f80082d	1.0002495
180	0x3f800a93	1.0003227
181	0x3f800d7b	1.0004114
182	0x3f7fbbb0	0.99895763
183	0x3f7f89af	0.99819463
184	0x3f801f82	1.0009615
185	0x3f800611	1.0001851
186	0x3f8012bb	1.0005716
187	0x3f801002	1.0004885
188	0x3f8048e0	1.002224
189	0x3f7ff924	0.99989533
190	0x3f7fd786	0.9993824
191	0x3f80066f	1.0001963
192	0x3f7ff8b0	0.9998884
193	0x3f7f438c	0.99712443
194	0x3f8014e7	1.0006379
195	0x3f7fc375	0.9990762
196	0x3f800220	1.0000648
197	0x3f800d07	1.0003976
198	0x3f7feb4f	0.9996843
199	0x3f801bb7	1.0008458
200	0x3f80030b	1.0000929
201	0x3f802703	1.0011905
202	0x3f7fe069	0.999518
203	0x3f801523	1.000645
204	0x3f7fed6f	0.9997167
205	0x3f8009e3	1.0003017
206	0x3f7fe8df	0.9996471
207	0x3f8004e4	1.0001493
208	0x3f801d6d	1.000898
209	0x3f7ff12a	0.9997736
210	0x3f7fd3fe	0.9993285
211	0x3f7fb4fa	0.99885523
212	0x3f7f9c68	0.9984803
213	0x3f8045aa	1.002126
214	0x3f80035b	1.0001024
215	0x3f800577	1.0001668
216	0x3f7f2bb8	0.99676085
217	0x3f7fd3ba	0.99932444
218	0x3f7fe104	0.9995272
219	0x3f800f30	1.0004635
220	0x3f801e2e	1.000921
221	0x3f801f5a	1.0009568
222	0x3f7ffdd7	0.99996704
223	0x3f8015f7	1.0006703
224	0x3f7fadf2	0.99874794
225	0x3f7fa292	0.9985744
226	0x3f7ff0d7	0.9997687
227	0x3f80135b	1.0005907
228	0x3f7fa0f7	0.9985499
229	0x3f800a9e	1.000324
230	0x3f7ff811	0.99987894
231	0x3f7f5a01	0.9974671
232	0x3f8018d5	1.0007578
233	0x3f8018e1	1.0007592
234	0x3f7ffcc9	0.99995095
235	0x3f7ff248	0.99979067
236	0x3f7fe79b	0.99962777
237	0x3f7ffa48	0.99991274
238	0x3f7fde3e	0.9994849
239	0x3f7fb310	0.998826
240	0x3f8028f3	1.0012497
241	0x3f80043a	1.000129
242	0x3f7fcffb	0.9992673
243	0x3f7fc576	0.99910676
244	0x3f803ed9	1.001918
245	0x3f80054d	1.0001618
246	0x3f7fdc2a	0.9994532
247	0x3f7fd6e5	0.9993728
248	0x3f801a5c	1.0008044
249	0x3f802258	1.0010481
250	0x3f7fed2a	0.9997126
251	0x3f8039d4	1.0017648
252	0x3f801aed	1.0008217
253	0x3f80073e	1.000221
254	0x3f8014ec	1.0006385
255	0x3f801cc4	1.0008779
