data/rl4wound_paper_res/ctr/models_map524/agent_ctr_True_ep_1004.pth (torch, 950255 bytes, 21 tensors)

fc1.weight f4 [512, 5]
-0.005307011 0.24116091 -0.36533841 -0.32543644 -0.17319861 0.116910905 -0.008508839 0.35537925
-0.039716203 0.118569836 -0.13452719 -0.08962888 -0.42642128 -0.296595 -0.18170513 0.017539559
0.17786926 0.2664097 -0.30482382 -0.19589058 0.16288577 0.3680784 -0.09297134 0.33632195
-0.07013826 0.045691013 0.40703937 -0.41397062 -0.27732527 -0.11618685 -0.17467578 0.3836617
-0.28755534 -0.20867655 -0.30991778 -0.41859362 -0.2577438 0.38300914 0.20064324 0.21757655
0.024127863 -0.22728033 0.073052675 -0.41930667 -0.32450408 -0.23306525 0.28090265 0.26518604
-0.19523221 -0.013133419 0.28359088 0.44602585 0.1769247 0.061445966 0.29616192 -0.26232746
0.0836613 -0.3464902 -0.30992767 -0.23181605 0.19897695 0.17840756 -0.2625256 0.13713953
0.24782826 -0.055744138 0.017137976 0.10252525 0.27421552 0.43244278 -0.34312126 -0.1643561
0.17500527 0.3733914 0.38727516 0.39520794 0.088340394 -0.38962203 0.04104498 -0.27892858
-0.41587245 0.39890558 0.3383524 -0.44781232 0.081946895 -0.07614073 -0.070412144 -0.20342362
0.17066994 -0.26659563 0.16255747 0.22782862 0.31890145 0.16787672 -0.44194224 -0.29005852
0.22152732 0.09362053 -0.34841624 -0.25856993 0.42099673 0.29806146 -0.19619298 -0.11045515
-0.42882007 -0.011292729 -0.3351208 -0.34747076 -0.024853041 0.06474061 -0.1824531 0.26629713
-0.27393097 0.4028141 0.3102003 -0.37584403 -0.11149092 0.02019576 0.06663355 0.107685864
0.17851645 0.029588515 -0.2205904 0.20796256 -0.43297043 -0.26343262 -0.10992893 -0.21915114
-0.15911134 -0.36605313 -0.09197871 0.095254816 -0.29252943 -0.023878265 0.31974348 -0.045827985
0.015416396 -0.04008676 0.08808975 0.28655902 0.42144698 0.28671843 0.42461506 -0.03081934
-0.40404844 -0.21355271 0.3006939 -0.00066451414 -0.22085924 -0.34244293 -0.41679683 -0.376811
-0.092411034 0.24164368 0.24516767 -0.43278825 0.27808923 -0.34805724 -0.09427881 -0.18297204
-0.08618206 -0.091965504 -0.40047306 -0.38403696 -0.072454974 0.008918791 -0.19995792 0.16457805
-0.4066541 -0.033398993 0.39415756 -0.1796832 0.4029243 0.16132915 -0.40511832 0.28393894
-0.05184003 -0.19843963 0.3560899 -0.36335772 0.046939027 -0.0909985 0.31927836 0.1255956
0.2145409 0.15837401 -0.1043047 -0.09682976 -0.37259215 0.24124455 0.35640046 0.30639812
-0.31648597 0.01832535 -0.3153977 -0.24566844 -0.25924027 0.15185098 -0.26714906 -0.010747988
0.017423829 0.2927807 -0.33858037 -0.3055526 -0.26093832 0.3142341 -0.16308802 0.37414762
0.16330183 0.05649988 -0.0031167804 -0.084118225 0.054627597 -0.104799435 -0.0059818267 0.056421686
-0.35462674 -0.23250937 0.3635527 -0.36025017 -0.027716443 0.44462118 0.15751827 0.009826339
-0.3880269 0.22152182 -0.32187128 -0.12530687 -0.1484225 -0.06251678 0.004642334 0.37334773
0.05417809 0.39806297 0.27385846 -0.2844694 0.2005673 -0.3160048 -0.1886209 0.13063265
0.14925073 0.33491263 -0.14410834 9.1470276e-05 0.23015167 -0.4309723 0.3243976 -0.3717539
0.0042986507 -0.07524289 -0.23397027 0.057380456 0.36967108 -0.13103524 -0.26786777 -0.16640182
00000000: 6fe6 adbb e3f2 763e a30d bbbe 9b9f a6be
00000010: fa5a 31be fc6e ef3d a868 0bbc 45f4 b53e
00000020: 75ad 22bd bed4 f23d 7fc1 09be 598f b7bd
00000030: e453 dabe 4ddb 97be e910 3abe 1faf 8f3c
00000040: 5c23 363e da66 883e de11 9cbe 8a97 48be
00000050: 87cb 263e c674 bc3e c267 bebd 6432 ac3e
00000060: a6a4 8fbd 8026 3b3d 7767 d03e f5f3 d3be
00000070: 94fd 8dbe 5ff3 edbd 35de 32be 4e6f c43e
00000080: 743a 93be 4eaf 55be 8bad 9ebe e751 d6be
00000090: fff6 83be c619 c43e 6c75 4d3e 63cc 5e3e
000000a0: cca7 c53c 2dbc 68be a49c 953d 5daf d6be
000000b0: 6625 a6be a8a8 6ebe 79d2 8f3e 77c6 873e
000000c0: f4ea 47be 8d2d 57bc d332 913e 805d e43e
000000d0: c02b 353e c4ae 7b3d 89a2 973e c94f 86be
000000e0: 9e56 ab3d 2a67 b1be d7ae 9ebe 3061 6dbe
000000f0: 9dc0 4b3e 79b0 363e c169 86be 4e6e 0c3e
00000100: b1c6 7d3e f753 64bd f164 8c3c c2f8 d13d
00000110: fa65 8c3e 2469 dd3e 97ad afbe f74c 28be
00000120: 9534 333e 282d bf3e ee48 c63e b258 ca3e
00000130: cfeb b43d 8a7c c7be c81e 283d bacf 8ebe
00000140: 3ced d4be 5a3d cc3e 873c ad3e a847 e5be
00000150: c6d3 a73d acef 9bbd 3e34 90bd 484e 50be
00000160: 1ac4 2e3e 397f 88be 7775 263e e84b 693e
00000170: 0d47 a33e e0e7 2b3e 4146 e2be 8d82 94be
00000180: 0fd8 623e 1fbc bf3d 9d63 b2be 4763 84be
00000190: e28c d73e 839b 983e d0e6 48be 4f36 e2bd
000001a0: 4e8e dbbe 2305 39bc f494 abbe b0e7 b1be
000001b0: 9b98 cbbc ba96 843d fcd4 3abe 1958 883e
000001c0: ae40 8cbe a63d ce3e 93d2 9e3e a16e c0be
000001d0: 5a55 e4bd 9471 a53c 2c77 883d 688a dc3d
000001e0: 04cd 363e 9d63 f23c 73e2 61be 23f4 543e
000001f0: 4dae ddbe a4e0 86be 6b22 e1bd 2869 60be
00000200: 15ee 22be 516b bbbe 555f bcbd f514 c33d
00000210: 6bc6 95be 5a9c c3bc 6bb5 a33e 20b6 3bbd
00000220: 0d95 7c3c 0432 24bd 6668 b43d ddb7 923e
00000230: e6c7 d73e c2cc 923e 2567 d93e d778 fcbc
00000240: 70df cebe 90ad 5abe 8df4 993e ca32 2eba
00000250: ed28 62be ae54 afbe 6566 d5be 5fed c0be
00000260: ff41 bdbd 7171 773e 3c0d 7b3e 6c96 ddbe
00000270: b661 8e3e 8f34 b2be 4015 c1bd 065d 3bbe
00000280: 3880 b0bd 6958 bcbd ce0a cdbe 7ea0 c4be
00000290: 4663 94bd 1f20 123c c5c1 4cbe 2687 283e
000002a0: f734 d0be 62cd 08bd 05cf c93e dffe 37be
000002b0: 184c ce3e 7833 253e ab6b cfbe 7260 913e
000002c0: 3656 54bd c233 4bbe 6a51 b63e 060a babe
000002d0: 2343 403d 6c5d babd 7478 a33e 229c 003e
000002e0: 9cb0 5b3e cc2c 223e b49d d5bd ae4e c6bd
000002f0: 66c4 bebe d008 773e 1f7a b63e 37e0 9c3e
00000300: 730a a2be 0b1f 963c cf7b a1be 8290 7bbe
00000310: 24bb 84be d37e 1b3e c3c7 88be 5418 30bc
00000320: 6bbc 8e3c 5ae7 953e 685a adbe 6471 9cbe
00000330: b599 85be 4be3 a03e 8c00 27be 4790 bf3e
00000340: 9838 273e 6b6c 673d e642 4cbb 2d46 acbd
00000350: 30c1 5f3d 16a1 d6bd 3303 c4bb 6d1a 673d
00000360: a391 b5be f016 6ebe 9423 ba3e b672 b8be
00000370: 980d e3bc 63a5 e33e 784c 213e a7fe 203c
00000380: 76ab c6be 9ed6 623e 50cc a4be 7250 00be
00000390: 11fc 17be cc08 80bd b81e 983b 6f27 bf3e
000003a0: d8e9 5d3d e9ce cb3e 2d37 8c3e f9a5 91be
000003b0: 8461 4d3e 62cb a1be d625 41be 91c4 053e
000003c0: 2fd5 183e ab79 ab3e 2391 13be bbd3 bf38
000003d0: e1ac 6b3e 67a8 dcbe 7117 a63e 8756 bebe
000003e0: b2db 8c3b f218 9abd e795 6fbe c507 6b3d
000003f0: 8745 bd3e 1a2e 06be f725 89be 3d65 2abe

fc1.bias f4 [512]
-0.29447487 -0.31445524 0.29717243 -0.14576636 -0.028886128 0.13377863 -0.27639964 0.041490015
0.26503053 -0.26229542 0.12991863 -0.015731404 0.24553563 0.29691443 0.11571868 0.012067529
-0.38524953 0.17848894 0.27261412 -0.1629963 -0.4406911 0.36691833 -0.104754314 0.08700506
-0.12710734 0.28994456 0.4366217 0.2803246 -0.13924825 0.31589934 0.21629842 0.044521503
-0.36029732 -0.19067608 -0.44347733 0.29869413 0.4418706 0.25988537 0.13934594 0.10572059
0.42962575 -0.22647876 -0.15055294 -0.39884987 -0.042940885 0.027145011 0.12260431 -0.3116578
-0.04957119 -0.37069735 -0.36208114 0.058804963 -0.43641493 0.11989815 -0.41382006 -0.31065327
-0.09223308 -0.42499864 0.36133504 0.366264 -0.22988127 0.098793186 0.2318328 0.1419667
-0.05783653 -0.41830617 0.32717055 -0.39344862 -0.080427974 0.026355816 -0.14996856 -0.15746698
-0.3876468 0.022155836 -0.049171343 0.3900366 -0.14673458 0.33944675 0.026744975 -0.20467971
-0.10691095 -0.054065328 0.00560404 -0.0792436 0.1326681 0.37160954 0.070834786 0.16185862
0.27851608 0.09546124 0.20614818 0.23436694 0.41378134 -0.40864098 0.15350425 -0.020331645
-0.07982287 -0.16615003 0.26380342 0.40908483 -0.36487088 0.2406103 0.31222582 0.07823096
0.008077121 0.34376496 0.01026659 -0.11086743 -0.03371196 0.14060816 0.110835195 -0.018659456
0.1374582 0.1202757 -0.3576843 0.11121173 0.27418482 0.05020416 -0.040422462 0.342661
-0.39033294 -0.2040107 -0.2013763 0.38614532 -0.4335941 0.04994821 -0.43772173 -0.015600328
0.16826923 -0.10240924 0.43405524 0.0023719931 -0.22763705 0.11557953 0.22737156 -0.0009636835
0.3825613 -0.28187987 0.1910497 0.24871324 0.22256042 0.0012599892 0.122203425 -0.34748557
-0.3453413 -0.027289713 -0.058710936 0.33231935 0.33026192 0.3050983 -0.20690767 -0.34960154
-0.41813672 0.16738425 -0.39940432 -0.44758666 -0.2232403 -0.3811802 -0.1804003 -0.28189188
-0.23065688 0.42550382 -0.08493925 0.37059942 0.008865979 -0.06129735 -0.13009991 -0.31813982
-0.35871184 0.3099847 -0.14006293 -0.43795624 0.40985283 0.008993294 -0.30093375 -0.35234737
-0.37319538 -0.3913736 0.40498155 0.308065 0.03644658 -0.38310295 -0.117161416 -0.41787308
0.15827529 -0.1201124 -0.09553505 -0.1396205 0.20934269 0.24718834 0.096827894 -0.06254856
-0.0442143 -0.007281784 -0.3350172 0.4314966 -0.19315666 0.2602615 -0.25105575 0.0077085346
0.15306477 -0.41021347 0.20833424 -0.34599218 0.062388256 -0.08860373 0.2582533 0.436096
0.09278327 -0.012914622 -0.21947251 0.1669735 -0.21337365 0.18331727 -0.19332436 0.3011912
0.34302744 0.27915394 0.011802939 0.20490187 -0.4107442 0.36277974 -0.11554115 0.16374438
-0.07754189 -0.1461551 -0.208857 0.2880916 -0.24491312 -0.08109969 0.2210506 0.04557205
-0.37441546 -0.4442073 -0.21781097 0.40878382 -0.3179567 0.250295 0.32010892 -0.18673743
-0.19883989 -0.32156268 0.069184884 -0.0633628 0.021739148 0.1942257 0.19114417 -0.1438892
0.031355288 0.11057545 0.010650138 0.08952338 -0.18030196 0.36687365 -0.04796595 -0.05960652
00000000: 69c5 96be 4700 a1be fc26 983e c743 15be
00000010: 9aa2 ecbc 44fd 083e 4184 8dbe 6ff1 293d
00000020: 15b2 873e 964b 86be 6409 053e 25df 80bc
00000030: b16d 7b3e 2b05 983e eafd ec3d e3b6 453c
00000040: 6d3f c5be cec5 363e 1494 8b3e 81e8 26be
00000050: 44a2 e1be b8dc bb3e 6e89 d6bd b52f b23d
00000060: 6d28 02be 9d73 943e e18c df3e b586 8f3e
00000070: 1897 0ebe 8fbd a13e 557d 5d3e 2e5c 363d
00000080: e478 b8be 9740 43be 760f e3be 70ee 983e
00000090: dd3c e23e b20f 853e b4b0 0e3e 0984 d83d
000000a0: e8f7 db3e 0cea 67be 8d2a 1abe 0d36 ccbe
000000b0: c8e2 2fbd 375f de3c f817 fb3d 9c91 9fbe
000000c0: 290b 4bbd 0bcc bdbe b362 b9be 79dd 703d
000000d0: c771 dfbe 298d f53d 39e0 d3be f20d 9fbe
000000e0: b2e4 bcbd 6c99 d9be e800 b93e f486 bb3e
000000f0: ff65 6bbe 1554 ca3d 9465 6d3e b85f 113e
00000100: ffe5 6cbd 3a2c d6be e682 a73e 1972 c9be
00000110: 6cb7 a4bd 27e8 d73c 5c91 19be 063f 21be
00000120: a479 c6be 2880 b53c e467 49bd e1b2 c73e
00000130: 9741 16be f7cb ad3e 4718 db3c 8f97 51be
00000140: 21f4 dabd 9b73 5dbd 18a2 b73b 784a a2bd
00000150: 25da 073e 9b43 be3e d411 913d 44be 253e
00000160: a999 8e3e 2f81 c33d 8218 533e e3fd 6f3e
00000170: 26db d33e 6439 d1be 3830 1d3e 8d8e a6bc
00000180: 2c7a a3bd 3c23 2abe 3e11 873e 9173 d13e
00000190: 5bd0 babe 8c62 763e 10dc 9f3e 8e37 a03d
000001a0: e755 043c f601 b03e 3335 283c 770e e3bd
000001b0: 8d15 0abd 96fb 0f3e 90fd e23d b7db 98bc
000001c0: d8c1 0c3e 1b53 f63d 6622 b7be fac2 e33d
000001d0: f461 8c3e e1a2 4d3d 0692 25bd 4371 af3e
000001e0: b8d9 c7be 2ee8 50be 9735 4ebe d7b4 c53e
000001f0: 0c00 debe 7f96 4c3d 101d e0be 8598 7fbc
00000200: c54e 2c3e f0bb d1bd 7d3c de3e 7173 1b3b
00000210: b019 69be f6b4 ec3d 17d4 683e b49f 7cba
00000220: 13df c33e 8f52 90be 88a2 433e afae 7e3e
00000230: e1e6 633e 3926 a53a ca45 fa3d a1e9 b1be
00000240: 93d0 b0be ad8e dfbc e17a 70bd c325 aa3e
00000250: 1718 a93e d835 9c3e 9bdf 53be f9fe b2be
00000260: 0416 d6be c766 2b3e b97e ccbe 142a e5be
00000270: 1b99 64be 0d2a c3be dbba 38be 2254 90be
00000280: 5131 6cbe a3db d93e a1f4 adbd 35bf bd3e
00000290: 9c42 113c ee12 7bbd e938 05be 39e3 a2be
000002a0: 14a9 b7be 51b6 9e3e a86c 0fbe cd3b e0be
000002b0: 3bd8 d13e 9c58 133c fd13 9abe e066 b4be
000002c0: 7713 bfbe 1f62 c8be be59 cf3e b2ba 9d3e
000002d0: 0249 153d 1226 c4be 53f2 efbd 76f3 d5be
000002e0: eb12 223e 7dfd f5bd e1a7 c3bd adf8 0ebe
000002f0: ee5d 563e f11e 7d3e b44d c63d 7619 80bd
00000300: 0e1a 35bd 089c eebb 6087 abbe 1fed dc3e
00000310: dcca 45be ff40 853e 618a 80be e097 fc3b
00000320: 03bd 1c3e 8007 d2be 9255 553e e325 b1be
00000330: d48a 7f3d df75 b5bd c739 843e fa47 df3e
00000340: 2805 be3d da97 53bc 67bd 60be 1afb 2a3e
00000350: 9f7e 5abe 86b7 3b3e d2f6 45be bc35 9a3e
00000360: 4ba1 af3e 44ed 8e3e 1d61 413c ccd1 513e
00000370: 104d d2be 44be b93e d7a0 ecbd 9bac 273e
00000380: 48ce 9ebd afa9 15be 9cde 55be be80 933e
00000390: 81ca 7abe 9817 a6bd 175b 623e c2a9 3a3d
000003a0: 62b3 bfbe 246f e3be d709 5fbe 1d4c d13e
000003b0: 38cb a2be ab26 803e 51e5 a33e 1938 3fbe
000003c0: af9c 4bbe dda3 a4be ceb0 8d3d 5bc4 81bd
000003d0: 4c16 b23c 1ae3 463e 4cbb 433e b157 13be
000003e0: 676e 003d 6275 e23d eb7d 2e3c 0958 b73d
000003f0: 14a1 38be ddd6 bb3e f277 44bd f725 74bd

fc2.weight f4 [256, 512]
0.03996141 0.034493882 -0.039975878 -0.018490458 0.023510315 -0.026491322 0.007601897 -0.017674463
0.007341161 0.022246957 0.012684153 0.030903237 -0.00682588 0.023936734 0.01547935 -0.014923421
-0.03222274 0.04152541 -0.011293769 0.03235792 0.026672868 -0.003209711 -0.03744892 0.004750936
-0.020595523 0.011335977 -0.019213647 0.03225763 -0.038019832 -0.0122903455 0.007850199 0.003410816
0.03495607 -0.01557842 -0.033635393 0.030104987 0.013427666 0.027544891 -0.027080316 -0.02556872
-0.019027637 0.0044319937 0.014846514 -0.024363993 -0.001949279 -0.0093402155 0.040407225 -0.017302912
0.041308276 -0.027953455 -0.016715197 -0.032088444 0.034193844 -0.028860556 0.017846568 -0.017468184
0.04341039 0.0050017186 -0.03684634 0.0072892224 0.0041714213 -0.04102852 0.00930044 0.042746495
0.0110092135 0.0006167145 -0.0075691757 0.013109442 -0.01804013 0.041939337 0.037648812 0.018828688
-0.017543713 -0.04284716 -0.02641516 0.044392876 -0.039317265 -0.043722093 -0.004481865 0.012487153
-0.044865016 -0.04093892 0.0018173389 -0.016863596 0.031405147 0.011188297 -0.03673535 -0.039167814
0.032085415 -0.006262831 -0.017555146 0.012436212 -0.009796906 0.019764181 0.010227554 -0.018663984
-0.03572525 0.026147308 -0.02829658 -0.005821563 0.007085149 -0.0254892 0.022686895 -0.02960695
0.00937046 0.0049294825 0.014906047 -0.044933088 0.0011695421 0.019392673 -0.027375361 0.011831178
0.0019252263 0.036469195 -0.010764488 -0.0013947386 -0.020281818 -0.0096536 0.01187282 -0.041517794
0.034133088 0.03054238 0.019301219 0.033327922 -0.014924491 0.008885303 0.00048578603 -0.032044325
-0.015228 -0.017402073 -0.010233761 -0.038597032 -0.031888966 -0.005375159 -0.005839286 -0.039107166
0.007468776 0.02276716 0.038310394 0.03631849 -0.03122391 -0.014527688 -0.022522956 0.008416873
0.010339104 0.0093334345 0.026223548 0.022768002 -0.02288159 0.029165862 0.031430542 0.007031131
-0.039449688 -0.026198495 0.013070191 0.016199527 0.043176938 0.020925974 0.017644746 -0.0026998406
0.029006938 -0.01728882 0.016621627 -0.020252813 -0.00039769468 0.025234567 0.019338563 -0.01147361
-0.0015007275 -0.023349743 0.01902081 0.03109642 0.013552615 -0.044351187 -0.032855805 0.02875537
-0.0072493725 0.025449378 0.034558 -0.013146081 -0.025035838 -0.040676173 0.015090274 0.02136394
-0.00924195 -0.043563902 -0.030105073 -0.002510326 0.020657841 -0.014974942 -0.030036112 -0.031958017
0.03948264 0.014459273 -0.034155842 -0.028824214 -0.03759193 0.0052348003 -0.019611783 -0.0011220233
-0.00862045 -0.040057443 -0.040942464 -0.035723448 -0.019382363 0.007126439 -0.022302218 -0.0032865687
-0.006616825 0.03897529 -0.018438898 0.043427076 -0.03200351 -0.038359974 0.012398433 -0.02424814
0.022680545 -0.024614645 0.03546877 0.041591033 0.004527874 0.0081127295 0.042854898 0.025034359
-0.03789578 -0.00071188906 -0.03803522 0.035622083 -0.009578649 0.0006069602 -0.028827688 -0.02306955
0.0053792396 0.037864923 -0.023455465 0.005576225 0.03895148 0.04135685 -0.006838119 0.042103276
0.014841528 0.04163316 0.0008420934 -0.037675317 -0.013075745 0.014877522 0.022108374 -0.04208821
0.03346658 -0.0381776 0.024485396 0.04220838 0.011282995 -0.0071541974 0.02305827 -0.012022544
00000000: 93ae 233d 7549 0d3d bfbd 23bd 4d79 97bc
00000010: b498 c03c 5404 d9bc 5619 f93b 09ca 90bc
00000020: 1f8e f03b 403f b63c 32d1 4f3c c928 fd3c
00000030: a2ab dfbb f816 c43c 1a9d 7d3c 5d81 74bc
00000040: fefb 03bd 8c16 2a3d 8009 39bc bd89 043d
00000050: 0f81 da3c 045a 52bb 0a64 19bd bdad 9b3b
00000060: f1b7 a8bc 89ba 393c f065 9dbc 9420 043d
00000070: afba 1bbd 725d 49bc 1f9e 003c ff87 5f3b
00000080: 192e 0f3d a13c 7fbc 44c5 09bd bc9e f63c
00000090: b7ff 5b3c d3a5 e13c 8ad7 ddbc 7e75 d1bc
000000a0: d9df 9bbc 423a 913b cb3e 733c ff96 c7bc
000000b0: f37e ffba b407 19bc 0c82 253d d6be 8dbc
000000c0: de32 293d a5fe e4bc 4fee 88bc 2c6f 03bd
000000d0: d80e 0c3d f96c ecbc f732 923c 7019 8fbc
000000e0: 18cf 313d 75e5 a33b 30ec 16bd 6eda ee3b
000000f0: 6bb0 883b 850d 28bd df60 183c f316 2f3d
00000100: fd5f 343c 02ab 213a d906 f8bb fcc8 563c
00000110: e5c8 93bc 95c8 2b3d a435 1a3d 9f3e 9a3c
00000120: d5b7 8fbc 8180 2fbd 9b64 d8bc 4ed5 353d
00000130: 240b 21bd f015 33bd 9cdc 92bb ea96 4c3c
00000140: 61c4 37bd 92af 27bd c633 ee3a 8625 8abc
00000150: afa2 003d 1e4f 373c ce77 16bd 6e6e 20bd
00000160: ff6b 033d 6f38 cdbb cfcf 8fbc 41c1 4b3c
00000170: 3483 20bc 7ee8 a13c 7891 273c 36e5 98bc
00000180: a454 12bd e132 d63c 3bce e7bc cfc2 bebb
00000190: 8a2a e83b bace d0bc ded9 b93c 468a f2bc
000001a0: 8f86 193c 7f87 a13b 7e38 743c c20b 38bd
000001b0: 524b 993a 62dd 9e3c 4b42 e0bc 8fd7 413c
000001c0: e057 fc3a b960 153d 895d 30bc a9cf b6ba
000001d0: 0e26 a6bc 222a 1ebc 3786 423c 900e 2abd
000001e0: 23cf 0b3d 0334 fa3c 971d 9e3c dc82 083d
000001f0: da85 74bc a993 113c 19b1 fe39 e940 03bd
00000200: dc7e 79bc cb8e 8ebc 81ab 27bc ec17 1ebd
00000210: 019e 02bd 1a22 b0bb 7b57 bfbb d62e 20bd
00000220: a2bc f43b 3282 ba3c 5ceb 1c3d b2c2 143d
00000230: 49c9 ffbc 8a05 6ebc 1082 b8bc ede6 093c
00000240: 5865 293c 43eb 183c c4d2 d63c f683 ba3c
00000250: 2c72 bbbc 3fed ee3c 50bd 003d 6765 e63b
00000260: ff95 21bd 3a9e d6bc 5b24 563c dfb4 843c
00000270: 4dda 303d f36c ab3c b78b 903c cfef 30bb
00000280: f59f ed3c 49a1 8dbc 142a 883c 3ae9 a5bc
00000290: ad81 d0b9 b9b8 ce3c e86b 9e3c cffb 3bbc
000002a0: 0fb4 c4ba f647 bfbc 88d1 9b3c ebbd fe3c
000002b0: ca0b 5e3c 97a9 35bd cf93 06bd 6290 eb3c
000002c0: 258c edbb 377b d03c b08c 0d3d a962 57bc
000002d0: f517 cdbc 0f9c 26bd 323d 773c 6e03 af3c
000002e0: 8c6b 17bc 1070 32bd ea9e f6bc 4884 24bb
000002f0: a23a a93c 7659 75bc 4b0e f6bc 69e6 02bd
00000300: 8cb8 213d 96e6 6c3c ffe6 0bbd c220 ecbc
00000310: fff9 19bd b088 ab3b e4a8 a0bc db10 93ba
00000320: ca3c 0dbc 4613 24bd 49b3 27bd c052 12bd
00000330: c3c7 9ebc e784 e93b 24b3 b6bc 7963 57bb
00000340: f3d1 d8bb 8ea4 1f3d 2c0d 97bc 97e0 313d
00000350: 1d16 03bd 591f 1dbd cc22 4b3c 09a4 c6bc
00000360: 8dcc b93c a7a4 c9bc b347 113d 5c5b 2a3d
00000370: 8f5e 943b 41eb 043c 9e88 2f3d db14 cd3c
00000380: 9b38 1bbd 119e 3aba d2ca 1bbd 76e8 113d
00000390: c4ef 1cbc 691c 1f3a 0b28 ecbc 5afc bcbc
000003a0: 5544 b03b 4018 1b3d ad25 c0bc c4b8 b63b
000003b0: 968b 1f3d cd65 293d 4d12 e0bb 7c74 2c3d
000003c0: e129 733c 8887 2a3d eebf 5c3a 6f51 1abd
000003d0: a63b 56bc dac0 733c 9f1c b53c b064 2cbd
000003e0: 4114 093d 1d60 1cbd 9995 c83c b2e2 2c3d
000003f0: 50dc 383c c26d eabb b2e4 bc3c 34fa 44bc

fc2.bias f4 [256]
-0.013017689 0.033044722 -0.030106772 -0.037972987 -0.02253018 0.025457554 -0.032375395 0.032342587
0.032019645 0.032695085 0.010733116 0.013926572 0.014717543 0.032814965 -0.013928671 0.042991586
-0.045982048 -0.03880396 -0.031822473 0.034924645 -0.0064922567 -0.033708304 -0.027725779 -0.0017083837
0.013419277 0.03993042 0.020261485 0.0046316795 -0.0023573881 0.027395459 -0.011133501 -0.0052922545
0.03884215 -0.031502917 0.023243265 -0.02903544 -0.039171312 0.01719918 -0.037262727 0.035443313
-0.016874356 -0.037805706 -0.043083187 0.036537375 -0.043917686 0.01797403 -0.023946388 0.0137541285
0.029778896 -0.010896103 0.02857275 -0.015272378 0.006194608 -0.029600184 0.026030952 0.0076079643
0.0036271352 0.03016176 -0.0402895 0.017213287 -0.0066308505 -0.01684639 -0.0066558076 0.0018114921
0.036132302 -0.041727696 0.019014642 0.019772355 -0.040272485 -0.009680763 -0.015499844 0.03317812
-0.032802895 0.02697272 0.016407311 0.03813532 0.03543991 -0.0025879988 -0.02233572 0.04277725
-0.0170829 -0.0038473506 0.01586258 0.02575699 0.028493335 -0.020534357 0.026872989 -0.01766297
0.001883378 -0.044174124 -0.0026651588 -0.010792872 -0.0011323693 0.036134437 -0.0136567205 0.01488685
-0.025917506 0.02839193 -0.01671093 0.018278636 0.023998756 0.023189515 0.034166005 -0.034172494
-0.0022585655 -0.0061011245 -0.04109803 -0.0046770484 0.048433814 -0.013912673 0.037447978 -0.01095539
-0.02636811 0.029811144 -0.014781646 0.03558618 -0.04332701 -0.00015352994 -0.021848 -0.04249965
0.016312517 -0.044601593 0.03997166 0.019520083 -0.02486084 -0.019058822 -0.0029029907 0.036400605
-0.013106387 0.036340673 -0.029967416 0.0048043206 0.045743376 0.020710273 -0.0074676634 0.01969428
0.0035369347 0.012118375 0.021723183 0.04134282 -0.023837749 0.03429387 0.0055220197 0.037019912
0.009053419 0.0011321402 0.021062259 0.017890928 0.03095766 -0.026496012 0.03482597 0.031392235
0.042951338 -0.040839296 -0.04517127 -0.028137213 -0.02136345 0.028384803 0.010963493 -0.016622432
0.0080041 -0.015417833 -0.025355274 0.042585377 0.010637632 0.037369452 0.037660733 -0.024029087
-0.037370156 -0.036413718 0.024146259 -0.027065642 0.0065911114 0.0010964713 -0.03081266 -0.00013638676
-0.0125506595 -0.012958845 -0.039039068 -0.018620556 -0.01186769 -0.03499778 -0.037928235 -0.028599253
-0.005272428 -0.04293303 0.015594071 -0.030347455 -0.024987282 -0.023367427 0.014601836 0.02857339
0.005573912 0.024282519 0.0099724 -6.444092e-05 0.020269128 -0.039871413 -0.027588096 0.045112453
0.007861202 -0.03968109 0.0066127777 -0.037711013 -0.017159667 -0.011240887 -0.027996132 -0.039994977
-0.008230314 -0.0072365105 -0.029626332 -0.0027045533 -0.036335524 0.036622275 -0.008287157 0.041346226
0.009175457 -0.04149789 0.04553019 0.02873417 -0.011280046 0.022654573 -0.026993323 -0.02731843
-0.024606133 0.027202671 -0.006998849 -0.001916337 -0.038428754 0.01956057 0.0049914336 -0.043422535
0.009856699 0.0002638022 0.011534995 -0.03175988 -0.027118895 -0.0030296016 0.0019998013 0.033112247
0.034287732 0.007968241 -0.0026121861 -0.0042463415 0.031587258 -0.039129447 0.025933966 -0.02880397
-0.023756977 -0.022367971 -0.035976473 0.008665518 -0.012639028 -0.008051331 -0.029242171 0.034376014
00000000: 2548 55bc e759 073d 7aa2 f6bc 9089 1bbd
00000010: 3691 b8bc 5c8c d03c 109c 04bd a979 043d
00000020: 0827 033d 48eb 053d f4d9 2f3c 472c 643c
00000030: d921 713c fc68 063d 1535 64bc f217 303d
00000040: ac57 3cbd e7f0 1ebd 4858 02bd 250d 0f3d
00000050: ffbc d4bb b811 0abd 2c21 e3bc d8eb dfba
00000060: 87dc 5b3c 158e 233d 6afb a53c 58c5 973b
00000070: 697e 1abb 716c e03c 4a69 36bc a66a adbb
00000080: f218 1f3d 3409 01bd a968 be3c bbdb edbc
00000090: 1972 20bd 4be5 8c3c cda0 18bd 022d 113d
000000a0: 173c 8abc 28da 1abd ff77 30bd 37a8 153d
000000b0: 08e3 33bd 463e 933c 372b c4bc ff58 613c
000000c0: dff2 f33c 9285 32bc 6611 ea3c ff38 7abc
000000d0: 23fc ca3b 167c f2bc dd3e d53c 3b4c f93b
000000e0: 3bb5 6d3b cc15 f73c 9a06 25bd e102 8d3c
000000f0: 9b47 d9bb 7101 8abc f618 dabb 976f ed3a
00000100: 77ff 133d a9ea 2abd 98c4 9b3c a2f9 a13c
00000110: c3f4 24bd 109c 1ebc 0ff3 7dbc c8e5 073d
00000120: 545c 06bd e5f5 dc3c a068 863c c833 1c3d
00000130: 7029 113d 6a9b 29bb 66f9 b6bc 3337 2f3d
00000140: 70f1 8bbc d523 7cbb 3ef2 813c 5300 d33c
00000150: db6a e93c ab37 a8bc be24 dc3c efb1 90bc
00000160: aedb f63a edef 34bd f2a9 2ebb 96d4 30bc
00000170: 026c 94ba b401 143d 70c0 5fbc f9e7 733c
00000180: f350 d4bc 3196 e83c 5ce5 88bc 14bd 953c
00000190: 0a99 c43c f0f7 bd3c a7f1 0b3d 75f8 0bbd
000001a0: 7104 14bb f1eb c7bb 6856 28bd ed41 99bb
000001b0: 8962 463d fbf1 63bc 0d63 193d 3c7e 33bc
000001c0: ef01 d8bc 8036 f43c b82e 72bc d0c2 113d
000001d0: aa77 31bd e1fc 20b9 94fa b2bc 1d14 2ebd
000001e0: d4a1 853c 29b0 36bd 53b9 233d 95e8 9f3c
000001f0: f6a8 cbbc 3f21 9cbc 1a40 3ebb cd18 153d
00000200: 2cbc 56bc f5d9 143d 3a7e f5bc 906d 9d3b
00000210: 685d 3b3d 97a8 a93c 4db3 f4bb e655 a13c
00000220: ebcb 673b 268c 463c d1f4 b13c 1757 293d
00000230: 6247 c3bc bb77 0c3d 0ff2 b43b 31a2 173d
00000240: cb54 143c 5264 943a c28a ac3c ff8f 923c
00000250: eb9a fd3c 2a0e d9bc ada5 0e3d 2595 003d
00000260: beed 2f3d 1b47 27bd 8205 39bd 0380 e6bc
00000270: 6702 afbc 3f87 e83c 39a0 333c c42b 88bc
00000280: a123 033c 149b 7cbc ddb5 cfbc 016e 2e3d
00000290: 7649 2e3c b610 193d 2442 1a3d a6d8 c4bc
000002a0: 7311 19bd 8d26 15bd 60ce c53c c4b8 ddbc
000002b0: 40fa d73b 79b7 8f3a d56a fcbc 0b03 0fb9
000002c0: 48a1 4dbc 5651 54bc 6ee7 1fbd 238a 98bc
000002d0: b370 42bc d559 0fbd a35a 1bbd fb48 eabc
000002e0: 55c4 acbb 8bda 2fbd 467e 7f3c 3a9b f8bc
000002f0: 21b2 ccbc 0c6d bfbc 8a3c 6f3c be12 ea3c
00000300: 5da5 b63b 22ec c63c 4763 233c 7524 87b8
00000310: 710b a63c 3550 23bd 6e00 e2bc d6c7 383d
00000320: 45cc 003c a388 22bd 00b0 d83b dd76 1abd
00000330: 6e92 8cbc b32b 38bc 2558 e5bc c6d1 23bd
00000340: 70d8 06bc 4020 edbb ecb2 f2bc e03e 31bb
00000350: 8fd4 14bd 3d01 163d dbc6 07bc a95a 293d
00000360: a854 163c b1f9 29bd dd7d 3a3d ec63 eb3c
00000370: f1cf 38bc 1596 b93c 1a21 ddbc e6ca dfbc
00000380: cd92 c9bc 23d8 de3c 9a56 e5bb 992d fbba
00000390: 7867 1dbd 7d3d a03c 2e8f a33b d4db 31bd
000003a0: fe7d 213c ef4e 8a39 47fd 3c3c a616 02bd
000003b0: 7228 debc 488c 46bb 190f 033b b5a0 073d
000003c0: 4b71 0c3d 3a8d 023c 3631 2bbb e524 8bbb
000003d0: a461 013d 3346 20bd 7873 d43c 4ef6 ebbc
000003e0: fe9d c2bc 093d b7bc 115c 13bd d1f9 0d3c
000003f0: ed13 4fbc bbe9 03bc 478d efbc ddcd 0c3d

fc3.weight f4 [128, 256]
-0.01664621 -0.035705987 0.027555596 0.05128484 -0.01871783 -0.05794731 0.027820751 0.04326282
0.03310179 0.046358086 0.042251654 -0.04796178 -0.04632639 0.031067131 0.0003839286 0.039719097
0.046196863 -0.010556605 -0.059765887 0.009510231 0.02764424 0.024721343 0.0037700061 -0.017576203
0.045499027 0.039986398 0.055929787 -0.033909854 -0.021409314 0.027621431 0.051149394 0.06451842
-0.049505923 0.019553203 0.020490155 -0.038088273 -0.009848744 0.023283621 -0.015775146 0.042956352
-0.009459488 -0.008254263 0.018010637 -0.023048399 -0.037403453 0.049567405 0.011333978 -0.052025396
0.050129488 0.033857122 -0.010981094 -0.02900953 -0.02341047 -0.025041925 0.051633757 0.010720519
0.0034600846 -0.024138877 0.060443666 -0.05333754 -0.050841704 -0.03703509 0.050964963 0.025175923
-0.058919083 -0.046076447 -0.00984204 0.04343619 0.002772811 0.06515418 -0.049327977 0.02510662
-0.015878 0.0145560615 -0.014842197 -0.041783582 -0.055969574 -0.04632714 -0.035218373 -0.05606542
0.014568243 -0.014785504 0.004078349 -0.023171488 -0.050953913 -0.046837457 -0.024179995 -0.06019798
0.03406443 0.036958557 -0.037828848 0.018599011 -0.040725775 -0.023103073 -0.017763026 -0.042009458
0.025963088 0.016335825 0.007500056 0.008086786 -0.05613678 0.014263258 0.045159604 -0.034248076
-0.05509898 -0.00020292448 0.029310793 0.01339337 0.032926258 -0.007021779 -0.006530725 -0.05737031
-0.063499555 -0.053014927 -0.05166822 0.009592379 -0.013856669 -0.025769236 -0.057121027 0.050144453
-0.0032350814 0.033496495 -0.052442346 -0.038477536 0.036905475 0.041178696 -0.043697428 0.04807411
0.03423286 0.05129773 -0.049406618 -0.06278274 -0.054942053 0.0025939022 0.019153198 -0.01663262
-0.015440759 0.016680451 -0.03353449 -0.041080188 -0.053874243 0.012686706 -0.04293015 0.018741338
-0.007265722 -0.040449064 0.055155102 0.034728475 0.048294514 -0.051972006 -0.038112864 -0.032427132
0.0056231357 0.030327693 -0.0580339 0.018995492 0.06176489 0.044139087 -0.014308584 0.0018271556
-0.006336798 0.054138917 0.051664755 -0.007379649 -0.045898605 -0.023022624 0.037539 0.044405133
0.035932604 -0.025799733 -0.0023955451 0.008425699 0.026663207 -0.04928171 0.015298174 -0.023277933
-0.012583329 0.033556525 0.024896199 0.05556477 0.030636288 -0.044236828 -0.0026990508 -0.057505075
-0.0066659786 -0.006232416 0.0052112406 0.015482944 0.015903302 -0.057023507 -0.016271817 -0.012598342
0.038979977 -0.061823312 0.0031335044 -0.03342114 -0.013994144 -0.03565833 0.0012477732 0.03042351
-0.035300877 -0.020169113 0.062204927 -0.020990832 0.018879173 -0.048542377 0.04084417 -0.00038680842
-0.019132284 -0.018222785 0.05658763 0.0498939 -0.035257973 -0.059797954 0.023324039 -0.004372061
0.0070565036 0.029888775 -0.049672745 0.028392155 -0.032967925 0.011749279 -0.0058502685 -0.00494024
0.042802874 -0.012318831 0.014902196 0.0064577884 0.059301816 -0.0481756 0.061675217 0.016349418
-0.00029186593 -0.006384741 -0.008099291 0.001262632 -0.018992202 0.007057955 0.06320965 -0.011993142
0.025950793 -0.001378734 -0.01921934 -0.017530276 0.0077639096 -0.005658071 0.0091900835 -0.050802007
-0.0034813874 -0.052421283 -0.05564423 -0.008408441 0.008747766 0.05614972 -0.0054185777 0.01547953
00000000: a25d 88bc 7140 12bd 46bc e13c 0d10 523d
00000010: 2256 99bc 295a 6dbd 58e8 e33c 5b34 313d
00000020: be95 073d fae1 3d3d 1210 2d3d 9273 44bd
00000030: bec0 3dbd 7f80 fe3c 064a c939 7eb0 223d
00000040: ec38 3d3d 9cf5 2cbc 13cd 74bd cdd0 1b3c
00000050: 2c76 e23c 6a84 ca3c 3512 773b f8fb 8fbc
00000060: 305d 3a3d c7c8 233d a216 653d 0fe5 0abd
00000070: 9662 afbc 5746 e23c 0782 513d 3c22 843d
00000080: b9c6 4abd 0a2e a03c f8da a73c 7302 1cbd
00000090: a05c 21bc 4bbd be3c e13a 81bc 00f3 2f3d
000000a0: f8fb 1abc e33c 07bc 0b8b 933c ffcf bcbc
000000b0: 5d34 19bd 3107 4b3d 26b2 393c 9518 55bd
000000c0: 9454 4d3d c4ad 0a3d 0cea 33bc 65a5 edbc
000000d0: 50c7 bfbc b924 cdbc eb7d 533d 1ea5 2f3c
000000e0: 96c2 623b e5be c5bc c793 773d 7778 5abd
000000f0: 643f 50bd 1bb2 17bd a3c0 503d bd3d ce3c
00000100: 2355 71bd a8ba 3cbd 8240 21bc 25ea 313d
00000110: 0db8 353b 8e6f 853d 220c 4abd 66ac cd3c
00000120: 9412 82bc 8c7c 6e3c b02c 73bc 4325 2bbd
00000130: 5a40 65bd 87c1 3dbd 2441 10bd dba4 65bd
00000140: a4af 6e3c e63e 72bc aca3 853b 22d2 bdbc
00000150: 0db5 50bd a2d8 3fbd 2015 c6bc 2892 76bd
00000160: 2587 0b3d db61 173d 6cf2 1abd f45c 983c
00000170: 12d0 26bd a842 bdbc c483 91bc 1c12 2cbd
00000180: 8bb0 d43c b5d2 853c 08c3 f53b 707e 043c
00000190: aeef 65bd 71b0 693c 47f9 383d b647 0cbd
000001a0: 78af 61bd 20c8 54b9 301d f03c de6f 5b3c
000001b0: afdd 063d f416 e6bb b1ff d5bb 21fd 6abd
000001c0: 0e0c 82bd 2e26 59bd 0ea2 53bd 5b29 1d3c
000001d0: 1507 63bc 011a d3bc bdf7 69bd 4564 4d3d
000001e0: a903 54bb 9f33 093d c9cd 56bd 9f9a 1dbd
000001f0: 322a 173d feaa 283d 13fc 32bd 5ce9 443d
00000200: c137 0c3d 921d 523d 985e 4abd 3d94 80bd
00000210: eb0a 61bd 75fe 293b 2be7 9c3c 2241 88bc
00000220: 3dfb 7cbc 71a5 883c 765b 09bd b343 28bd
00000230: 3dab 5cbd e7db 4f3c 86d7 2fbd 6f87 993c
00000240: 4b15 eebb ebad 25bd 51ea 613d 723f 0e3d
00000250: 78d0 453d 99e0 54bd 3c1c 1cbd 50d2 04bd
00000260: 4842 b83b c871 f83c f4b4 6dbd 6f9c 9b3c
00000270: 2efd 7c3d 30cb 343d 8d6e 6abc 2b7d ef3a
00000280: eaa4 cfbb c5c0 5d3d 6c9e 533d fcd0 f1bb
00000290: 2d00 3cbd f199 bcbc 7fc2 193d 28e2 353d
000002a0: 112e 133d f659 d3bc 94fe 1cbb f10b 0a3c
000002b0: cc6c da3c 9edb 49bd 31a5 7a3c 5db1 bebc
000002c0: 4f2a 4ebc 9172 093d 1df3 cb3c e297 633d
000002d0: f4f8 fa3c ad31 35bd 8fe2 30bb 718a 6bbd
000002e0: 486e dabb 4b39 ccbb 0ec3 aa3b 2dac 7d3c
000002f0: a447 823c 7b91 69bd 794c 85bc 4769 4ebc
00000300: 78a9 1f3d 713a 7dbd 7b5b 4d3b 9be4 08bd
00000310: b247 65bc 780e 12bd 528c a33a ba3a f93c
00000320: a797 10bd b239 a5bc 98ca 7e3d f7f4 abbc
00000330: 7fa8 9a3c 5fd4 46bd 374c 273d 8ccc cab9
00000340: 4fbb 9cbc f347 95bc 6ec8 673d 8c5d 4c3d
00000350: aa6a 10bd b3ee 74bd 0e12 bf3c 8243 8fbb
00000360: 3e3a e73b 4ed9 f43c a675 4bbd aa96 e83c
00000370: 6009 07bd 0c80 403c 9cb3 bfbb bde1 a1bb
00000380: 1152 2f3d ecd4 49bc 5728 743c db9b d33b
00000390: 76e6 723d c753 45bd 279f 7c3d 37ef 853c
000003a0: 9505 99b9 1737 d1bb e3b2 04bc e67e a53a
000003b0: 8995 9bbc 6b46 e73b 1074 813d e27e 44bc
000003c0: c296 d43c a3b6 b4ba e171 9dbc a79b 8fbc
000003d0: 6568 fe3b 5767 b9bb 0192 163c c415 50bd
000003e0: fd27 64bb b3b7 56bd 34eb 63bd 8fc3 09bc
000003f0: ca52 0f3c 40fd 653d 538e b1bb db9d 7d3c

fc3.bias f4 [128]
0.024990486 -0.034984972 0.05268046 -0.04785201 0.016369255 0.007724731 0.010259772 -0.021690136
0.062396348 0.008922037 -0.0042011817 -0.010678834 0.028970188 0.0043972526 -0.046894528 0.042961996
-0.03171701 0.004662173 -0.046593495 0.0060168994 0.0586908 -0.03906374 -0.05263595 -0.0034661808
-0.031371918 -0.041898575 0.038201086 -0.057844985 -0.022468518 0.055602733 0.012328588 0.032181367
-0.04942464 0.030242203 0.011444743 0.002513221 0.0387257 -0.024985358 0.0124030225 0.038647924
0.009738465 0.054332137 0.042541027 0.04440861 -0.024511691 0.022849577 0.008670978 0.03570138
-0.00036807198 0.017123666 -0.033942115 0.05800377 0.0011240002 -0.05663313 -0.021357246 -0.06079226
-0.015822168 0.03625421 0.034390084 -0.017603539 -0.039985564 0.004005537 0.022933207 -0.0043927934
-0.00780362 0.018822044 0.046741884 0.04272092 -0.04392531 -0.037336342 -0.0050952896 -0.0048356075
0.04101328 0.048646 -0.0050827567 -0.02571619 0.041102417 0.019797588 0.045120418 0.04644367
-0.03284606 0.008810115 -0.046763886 -0.035642013 -0.058119684 -0.036164 0.05221149 0.039644323
0.052877124 -0.05366009 0.02074277 0.0037151126 -0.030299477 -0.033940453 -0.05616637 2.2254244e-05
-0.022260271 -0.0048223985 0.0048553767 0.055339433 -0.06264349 -0.026848303 0.011958074 0.012915068
-0.0038807795 0.003989833 -0.045084696 -0.015549611 0.022598233 -0.031233229 -0.05991436 0.029084882
0.049862076 -0.03467057 0.010109949 0.005522412 -0.04397214 0.033023406 -0.060825508 0.050924256
-0.03349732 0.009591894 0.015878407 0.011218923 -0.0032174715 0.05749405 0.017750567 -0.037007786
00000000: d9b8 cc3c 674c 0fbd 77c7 573d 7800 44bd
00000010: d118 863c be1f fd3b 9a18 283c 83af b1bc
00000020: 5093 7f3d bc2d 123c 11aa 89bb 47f6 2ebc
00000030: e352 ed3c d416 903b 7a14 40bd ebf8 2f3d
00000040: b2e9 01bd 24c5 983b d2d8 3ebd 6929 c53b
00000050: c465 703d 4d01 20bd cb98 57bd dd28 63bb
00000060: d77f 00bd d79d 2bbd be78 1c3d ddee 6cbd
00000070: e60f b8bc b1bf 633d d9fd 493c 9cd0 033d
00000080: 7e71 4abd 7fbe f73c bb82 3b3c dab4 243b
00000090: d79e 1e3d 18ae ccbc 0c36 4b3c 494d 1e3d
000000a0: 158e 1f3c 608b 5e3d 803f 2e3d cde5 353d
000000b0: becc c8bc 092f bb3c b810 0e3c 9c3b 123d
000000c0: c9f9 c0b9 ee46 8c3c e306 0bbd 5c95 6d3d
000000d0: 3053 933a 24f8 67bd 64f5 aebc 4e01 79bd
000000e0: 7e9d 81bc 4b7f 143d 9edc 0c3d 4c35 90bc
000000f0: e7c7 23bd e140 833b 6cde bb3c 6cf1 8fbb
00000100: 82b5 ffbb b030 9a3c 6b74 3f3d 22fc 2e3d
00000110: 07eb 33bd feed 18bd 63f6 a6bb 0474 9ebb
00000120: 8bfd 273d 0741 473d 418d a6bb c2aa d2bc
00000130: 025b 283d 8d2e a23c 30d0 383d b83b 3e3d
00000140: 9789 06bd 4d58 103c 7d8b 3fbd 5cfd 11bd
00000150: e80e 6ebd b420 14bd b7db 553d 1662 223d
00000160: af95 583d afca 5bbd beec a93c 3f79 733b
00000170: 9c36 f8bc 2505 0bbd b50e 66bd a0ae ba37
00000180: 2c5b b6bc 3605 9ebb da19 9f3b 9aab 623d
00000190: 3b4b 80bd f9f0 dbbc cceb 433c b999 533c
000001a0: ad54 7ebb 25bd 823b bbaa 38bd ccc3 7ebc
000001b0: ee1f b93c d4dc ffbc c368 75bd 6b43 ee3c
000001c0: 2d3c 4c3d ba02 0ebd 33a4 253c 59f5 b43b
000001d0: 211c 34bd 8d43 073d 2b24 79bd f495 503d
000001e0: 7c34 09bd 5227 1d3c 6f13 823c 93cf 373c
000001f0: 37dc 52bb e27e 6b3d a369 913c 7a95 17bd

bn1.weight f4 [512]
1.000138 0.9966744 1.0005232 0.99914795 0.9998487 1.0011913 0.9981121 0.99896187
0.99976426 0.99937695 0.9944942 0.9997997 1.0005533 1.0006529 0.9984341 0.9997171
0.99956477 1.0007885 1.0010614 0.99932355 0.9997969 0.9988713 0.9997232 1.0001067
1.0020369 0.999834 0.9996755 1.0019099 1.001087 0.9994428 1.0008802 1.0010486
1.0006472 1.000913 0.998674 0.9992711 1.0005157 0.999967 0.9989017 1.000431
1.0012534 0.9985254 0.9999981 0.9997065 0.99712396 1.0006657 1.0008769 0.99944055
0.99875116 0.9976106 1.0014251 1.0004902 1.00051 1.0011214 0.9980374 1.0004814
0.99929667 0.99949807 1.0011151 1.0017351 1.0004165 0.99822754 1.0015594 0.9993927
0.9987538 1.0004392 1.0007396 1.0001398 0.99887776 0.9999077 0.9986865 1.0008302
1.0015016 1.0008955 1.0015866 0.9996422 0.99980664 0.99859846 0.99965966 1.0011371
1.0002164 1.0013533 1.0014273 1.0034082 0.99882764 0.9995577 0.99946415 1.0013938
0.99898314 0.9985946 1.0009713 1.0010486 1.0018405 1.0000242 1.0018069 1.0000461
0.9994046 1.0023328 0.9999304 1.0008918 1.0006527 1.0011318 1.0004835 1.0000327
0.99871945 1.0014837 1.0000347 1.000664 0.9992777 0.99852824 0.9990991 1.000207
0.9988848 0.99856853 0.9997746 1.001727 0.9982718 0.99978936 1.0005531 1.0002404
0.999495 1.0002824 1.0003488 1.0002226 0.9988916 0.9983988 0.9972466 0.9998301
0.9987017 0.99929094 0.99972916 0.99996424 1.000494 1.0015352 1.000203 0.9989554
0.9977782 0.9983904 0.9994704 0.99839747 0.9994637 1.0022273 1.0003241 1.0013756
1.0003284 0.9978876 1.0014591 1.001166 1.0002394 1.0007864 0.9998145 1.0017606
1.0000292 1.0011199 1.0004666 0.9998863 1.0005949 0.9964353 0.9984484 0.9996041
0.9998377 1.0008641 0.99964905 0.99634695 1.0004209 1.0006837 0.9996758 1.0014
1.0016154 1.0001856 0.9995056 1.0009003 1.0009264 1.0001546 0.9985467 0.99921334
0.999773 1.0009272 0.9995894 1.0002443 1.0003177 1.0004233 0.9989343 0.9982287
1.0009147 1.0002018 1.0005378 1.0004894 1.0022166 0.99990624 0.999376 1.0001864
0.9998835 0.99715775 1.0006449 0.9990784 1.0000429 1.0003961 0.99969816 1.0008739
1.0000869 1.0011244 0.99949324 1.0006138 0.9997118 1.0002904 0.9996454 1.0001554
1.0008929 0.9997871 0.99932307 0.99887276 0.998494 1.0021203 1.0001181 1.0001292
0.9968757 0.9993194 0.9995392 1.0004802 1.0009272 1.0009303 0.9999815 1.0006558
0.9987359 0.9985859 0.99976915 1.0006032 0.9985751 1.0003399 0.9999044 0.9974257
1.0007521 1.0007243 0.99993056 0.9997921 0.99961567 0.99992025 0.9994903 0.99882615
1.0012511 1.0001155 0.99928254 0.999123 1.0018947 1.0001613 0.99947834 0.99937165
1.0008166 1.0010251 0.99969333 1.0017228 1.0008142 1.0002079 1.0006388 1.0009066
00000000: 8604 803f 0e26 7f3f 2511 803f 29c8 7f3f
00000010: 16f6 7f3f 0927 803f 4684 7f3f f7bb 7f3f
00000020: 8df0 7f3f 2bd7 7f3f 2c97 7e3f e0f2 7f3f
00000030: 2112 803f 6515 803f 6199 7f3f 76ed 7f3f
00000040: 7ae3 7f3f d619 803f c822 803f abd3 7f3f
00000050: b1f2 7f3f 08b6 7f3f dced 7f3f 7f03 803f
00000060: bf42 803f 1ff5 7f3f bcea 7f3f 953e 803f
00000070: 9e23 803f 7cdb 7f3f d81c 803f 5c22 803f
00000080: 3515 803f eb1d 803f 19a9 7f3f 3bd0 7f3f
00000090: e610 803f d6fd 7f3f 06b8 7f3f 1f0e 803f
000000a0: 1229 803f 5c9f 7f3f e0ff 7f3f c4ec 7f3f
000000b0: 8443 7f3f d015 803f bc1c 803f 56db 7f3f
000000c0: 28ae 7f3f 6963 7f3f b32e 803f 1010 803f
000000d0: b610 803f bf24 803f 617f 7f3f c60f 803f
000000e0: e8d1 7f3f 1bdf 7f3f 8a24 803f db38 803f
000000f0: a60d 803f d78b 7f3f 1933 803f 33d8 7f3f
00000100: 54ae 7f3f 640e 803f 3c18 803f 9504 803f
00000110: 74b6 7f3f f3f9 7f3f eba9 7f3f 341b 803f
00000120: 3431 803f 581d 803f fd33 803f 8de8 7f3f
00000130: 54f3 7f3f 26a4 7f3f b2e9 7f3f 4325 803f
00000140: 1707 803f 582c 803f c52e 803f ae6f 803f
00000150: 2bb3 7f3f 03e3 7f3f e2dc 7f3f ac2d 803f
00000160: 5cbd 7f3f e5a3 7f3f d41f 803f 5c22 803f
00000170: 4f3c 803f cb00 803f 353b 803f 8301 803f
00000180: fbd8 7f3f 714c 803f 70fb 7f3f 391d 803f
00000190: 6315 803f 1625 803f d80f 803f 1201 803f
000001a0: 14ac 7f3f 9e30 803f 2301 803f c215 803f
000001b0: aad0 7f3f 8c9f 7f3f f5c4 7f3f c806 803f
000001c0: eab6 7f3f 30a2 7f3f 3af1 7f3f 9738 803f
000001d0: be8e 7f3f 32f2 7f3f 2012 803f e107 803f
000001e0: e8de 7f3f 4109 803f 6e0b 803f 4b07 803f
000001f0: 5cb7 7f3f 1097 7f3f 8e4b 7f3f def4 7f3f
00000200: eaaa 7f3f 88d1 7f3f 40ee 7f3f a8fd 7f3f
00000210: 3010 803f 4e32 803f a706 803f 8bbb 7f3f
00000220: 646e 7f3f 8396 7f3f 4bdd 7f3f fa96 7f3f
00000230: dadc 7f3f fc48 803f 9f0a 803f 132d 803f
00000240: c30a 803f 9075 7f3f d02f 803f 3526 803f
00000250: d807 803f c519 803f d8f3 7f3f b139 803f
00000260: f500 803f b224 803f 4a0f 803f 8cf8 7f3f
00000270: 7e13 803f 6216 7f3f 509a 7f3f 0ee6 7f3f
00000280: 5df5 7f3f 511c 803f 00e9 7f3f 9810 7f3f
00000290: cb0d 803f 6716 803f c1ea 7f3f e02d 803f
000002a0: ef34 803f 1506 803f 99df 7f3f 801d 803f
000002b0: 5b1e 803f 1105 803f c2a0 7f3f 72cc 7f3f
000002c0: 20f1 7f3f 621e 803f 17e5 7f3f 0108 803f
000002d0: 690a 803f df0d 803f 29ba 7f3f eb8b 7f3f
000002e0: f91d 803f 9d06 803f 9f11 803f 0910 803f
000002f0: a248 803f dbf9 7f3f 1bd7 7f3f 1c06 803f
00000300: 5df8 7f3f bb45 7f3f 2215 803f 9ac3 7f3f
00000310: 6801 803f fb0c 803f 38ec 7f3f a31c 803f
00000320: d902 803f d824 803f cade 7f3f 1d14 803f
00000330: 1ded 7f3f 8409 803f c3e8 7f3f 1805 803f
00000340: 421d 803f 0cf2 7f3f a3d3 7f3f 20b6 7f3f
00000350: 4e9d 7f3f 7a45 803f df03 803f 3c04 803f
00000360: 3f33 7f3f 65d3 7f3f cde1 7f3f bc0f 803f
00000370: 621e 803f 7c1e 803f cafe 7f3f 7d15 803f
00000380: 28ad 7f3f 53a3 7f3f dff0 7f3f c413 803f
00000390: 9ea2 7f3f 230b 803f bcf9 7f3f 4a57 7f3f
000003a0: a518 803f bc17 803f 73fb 7f3f 60f2 7f3f
000003b0: d0e6 7f3f c6fa 7f3f 99de 7f3f 12b3 7f3f
000003c0: ff28 803f c903 803f fbd0 7f3f 86c6 7f3f
000003d0: 163e 803f 4905 803f d0dd 7f3f d2d6 7f3f
000003e0: c21a 803f 9721 803f e7eb 7f3f 7438 803f
000003f0: ae1a 803f d006 803f ef14 803f b51d 803f

bn1.bias f4 [512]
0.0025220774 -0.0019962094 -0.0016790453 0.0017747703 -0.0010393107 0.00041956682 -0.0035845467 0.002583786
0.002868003 -0.0018128677 -0.0022139256 0.0022182597 -0.00418573 -0.004006439 0.00035963173 0.0011376548
0.001901809 0.0033844574 0.004016315 0.0028019855 -0.0027984877 0.0020453634 -0.0017040983 0.0003833409
0.00060861715 0.0027862748 -0.0017003347 -0.0027767923 0.005125694 -0.00021093833 -0.0023365205 0.0054295072
-4.7753172e-05 -0.0005653485 0.0033885601 0.0020057028 -0.0034984087 0.002029591 -0.0019645102 0.0001394894
0.0002841691 -0.0049394807 0.0034276797 -0.0025145756 0.0013892876 0.0050944416 -0.0014492592 -0.00044464407
-0.0011356671 0.0031780475 0.0006141409 0.0025853785 -0.0012206966 0.0012359096 -0.001368827 -0.002470522
-0.0002260375 0.0052536707 0.0025189295 0.0019932436 0.0010271033 0.0019664592 0.0002389954 0.0021880677
-0.0036284206 0.0016865078 0.0016675736 -0.00095945137 -0.00308487 -0.004867851 -6.275143e-05 0.0020664101
-0.0020080649 -0.00044384372 0.0035645247 0.00081324123 -0.00052186224 -0.0017625666 0.00040805875 -0.0036379907
-0.0021807107 -0.0029992815 0.0033614484 -0.004501611 0.0017907448 -0.0026109542 0.0025389465 -0.001214156
0.0004382152 -0.002588139 0.0037915574 0.0025283573 -0.003596522 -0.00028447417 0.00059502 0.00047246553
0.00041179513 -0.0044362247 0.0018061174 0.00089543016 0.0014870933 -0.0030901174 -0.0035375166 0.0049806
-0.00325715 0.0019202942 0.004464724 -0.006092994 0.0016209104 -0.0012473677 -0.003529812 -0.0048143007
0.0013532046 -0.00044089442 -0.004293003 -0.0011750718 -0.0026137205 0.0014457703 -0.0036448308 0.0022088294
-0.0018852353 0.0016733182 -0.0026925174 -0.0016893548 0.0013680796 -0.0010647603 -0.002956795 0.0035873945
-0.001978556 0.001687999 0.00023717375 -0.0011047529 -0.0016387986 -0.00097417086 -0.005162823 0.0051037623
-0.0004991788 0.0026875813 2.6546897e-05 -0.0015941677 0.0016946497 3.4951496e-05 -0.0038615617 -0.0020925235
0.0045653535 -0.0051289536 0.0022967823 0.003870934 -9.445623e-05 0.0018950887 -0.001891148 0.0019283099
5.5863235e-05 -0.0017562277 0.0013770276 0.0005373953 0.00219144 -0.00023130505 -0.00019991072 -0.0012570814
0.00071517954 0.0008076248 -0.0020545628 -0.0035685275 0.004354241 0.00080248207 0.0029332293 -0.0011480603
0.002691362 0.003368977 -0.0003088757 0.0005092506 -0.0039833197 -0.001378028 -0.0034998094 -0.0052745035
-0.002111911 -0.002978636 -0.0007573557 0.004148507 0.000991303 0.0019936801 -0.0013179475 0.005392861
0.0024980453 -0.004111195 -0.0034012287 0.003301274 0.00142583 0.0039673205 -0.0019945554 -0.0030311188
0.0014289398 0.0015882166 0.0043067653 -0.0033036927 0.0038553267 -0.0011676432 -0.0019925083 -0.002336603
-0.0010927385 -0.0016253596 0.0014358589 0.0035700724 -9.40001e-05 -0.0028473376 0.0049033635 -0.0018791012
0.0015470951 -0.0009114404 -0.002807302 0.0053693927 0.0031000422 0.0007343364 -0.0030774297 -0.0010395561
-0.0023675417 0.0022304633 -0.0026776507 0.0015321182 -0.0019571115 -0.0029952521 -0.0027641975 0.0011655662
-0.0017520604 -0.0036325175 -0.0036014034 0.003538675 4.400776e-05 0.0024321321 -0.003711609 0.0020581463
-0.00083805196 -0.0011057629 -0.0020923167 -0.0024304732 -0.003328859 0.0030283497 -0.0043391823 0.0003961591
-0.0004792972 -0.00082250824 0.0020289442 -0.002088611 -0.0021988854 -0.0015764459 -0.0013571945 0.005002472
0.0004609794 -0.0031452829 0.0021457267 -0.00472266 -0.002388183 0.0038287053 -0.0039049133 -0.0045873784
00000000: 7049 253b d6d2 02bb 6913 dcba 699f e83a
00000010: 7b39 88ba 4ef9 db39 b7ea 6abb bc54 293b
00000020: 1bf5 3b3b bf9d edba 8217 11bb 3960 113b
00000030: 7328 89bb 7248 83bb f48c bc39 5c1d 953a
00000040: 1f46 f93a c6cd 5d3b 4b9b 833b 84a1 373b
00000050: d566 37bb 810b 063b 0d5c dfba 25fb c839
00000060: 9b8b 1f3a ef99 363b c4dd deba d8fa 35bb
00000070: 70f5 a73b 542f 5db9 4f20 19bb 02ea b13b
00000080: 944a 48b8 e533 14ba 9b12 5e3b 1c72 033b
00000090: 8f45 65bb e302 053b 03bf 00bb e743 1239
000000a0: 88fc 9439 5edb a1bb eca2 603b 94cb 24bb
000000b0: c218 b63a 46ef a63b 12f5 bdba 1e1f e9b9
000000c0: aada 94ba ca46 503b 4cfe 203a 746f 293b
000000d0: c8ff 9fba 3ffe a13a 366a b3ba 7be8 21bb
000000e0: 7b04 6db9 fc26 ac3b a014 253b 14a1 023b
000000f0: de9f 863a b6df 003b d79a 7a39 af65 0f3b
00000100: ccca 6dbb d00d dd3a 7c92 da3a b183 7bba
00000110: 882b 4abb 7e82 9fbb 6b99 83b8 9c6c 073b
00000120: bd99 03bb b2b3 e8b9 cd9a 693b b22f 553a
00000130: 95cd 08ba ec05 e7ba b8f0 d539 5b6b 6ebb
00000140: 41ea 0ebb 988f 44bb bf4b 5c3b 4082 93bb
00000150: 6db7 ea3a 8b1c 2bbb 7464 263b 5124 9fba
00000160: 40c0 e539 c49d 29bb c77b 783b ccb2 253b
00000170: a0b3 6bbb 7a25 95b9 1efb 1b3a 40b5 f739
00000180: 35e6 d739 c05d 91bb 3ebb ec3a 4dbb 6a3a
00000190: 92ea c23a 9183 4abb aed5 67bb 4d34 a33b
000001a0: e975 55bb 62b2 fb3a d24c 923b bda7 c7bb
000001b0: ba74 d43a b77e a3ba 6b54 67bb 48c1 9dbb
000001c0: 035e b13a d927 e7b9 52ac 8cbb de04 9aba
000001d0: f44a 2bbb 0080 bd3a 1dde 6ebb 02c2 103b
000001e0: 001a f7ba 3e53 db3a f274 30bb 576d ddba
000001f0: 2251 b33a 6d8f 8bba cac6 41bb 7e1a 6b3b
00000200: a9aa 01bb d93f dd3a d8b1 7839 5bcd 90ba
00000210: f5cc d6ba 805f 7fba e62c a9bb 763d a73b
00000220: 52db 02ba 2222 303b 07b1 de37 64f3 d0ba
00000230: 021f de3a e298 1238 4112 7dbb b822 09bb
00000240: f698 953b c810 a8bb 9d85 163b 7faf 7d3b
00000250: cd16 c6b8 a064 f83a 66e0 f7ba 58bf fc3a
00000260: b14e 6a38 3931 e6ba 617d b43a fddf 0c3a
00000270: 439e 0f3b 7a8a 72b9 209f 51b9 a7c4 a4ba
00000280: e37a 3b3a c8b6 533a d8a5 06bb f5dd 69bb
00000290: 05ae 8e3b a95d 523a 6c3b 403b 837a 96ba
000002a0: 9061 303b 0eca 5c3b 98f0 a1b9 3b7f 053a
000002b0: 8286 82bb f29e b4ba 0f5d 65bb bed5 acbb
000002c0: fd67 0abb 3835 43bb 4889 46ba 33f0 873b
000002d0: 9cee 813a 67a8 023b fbbe acba 99b6 b03b
000002e0: 3fb6 233b 34b7 86bb 26e7 5ebb 305a 583b
000002f0: eae2 ba3a 4c00 823b 16b7 02bb bca5 46bb
00000300: 434b bb3a b52b d03a c41f 8d3b c482 58bb
00000310: a6a9 7c3b 9b0b 99ba be94 02bb b121 19bb
00000320: 383a 8fba 050a d5ba 6e33 bc3a e0f7 693b
00000330: eb21 c5b8 669a 3abb 65ac a03b 2c4c f6ba
00000340: e6c7 ca3a bbed 6eba b6fa 37bb bbf1 af3b
00000350: 142a 4b3b 7b80 403a b4ae 49bb b741 88ba
00000360: c228 1bbb f72c 123b 867b 2fbb 5bd1 c83a
00000370: e242 00bb fe4b 44bb 8a27 35bb e9c5 983a
00000380: 64a5 e5ba 880f 6ebb 8605 6cbb 1de9 673b
00000390: f994 3838 6864 1f3b 773e 73bb f7e1 063b
000003a0: b7b0 5bba 3fef 90ba 401f 09bb 9348 1fbb
000003b0: fd28 5abb 4777 463b b32f 8ebb 93b3 cf39
000003c0: 2e4a fbb9 989d 57ba 09f8 043b 14e1 08bb
000003d0: 2d1b 10bb bfa0 ceba e4e3 b1ba c7eb a33b
000003e0: 9caf f139 1721 4ebb 529f 0c3b 8bc0 9abb
000003f0: 1083 1cbb 04eb 7a3b 93e9 7fbb b851 96bb
