data/rl4wound_paper_res/ctr/models_map524/agent_ctr_True_ep_1049.pth (torch, 950255 bytes, 21 tensors)

fc1.weight f4 [512, 5]
0	0xbbafdd34	-0.0053669456
1	0x3e76fb5c	0.24119323
2	0xbebafffe	-0.36523432
3	0xbea692c4	-0.32533848
4	0xbe313338	-0.17304695
5	0x3def54c4	0.1168609
6	0xbc0c3fe3	-0.008560154
7	0x3eb5f820	0.35540867
8	0xbd227eb2	-0.039671607
9	0x3df300a7	0.11865359
10	0xbe09cdaa	-0.13457361
11	0xbdb75c30	-0.0895313
12	0xbeda4992	-0.42634255
13	0xbe97db6b	-0.2965959
14	0xbe39fb98	-0.18162382
15	0x3c90443a	0.017610658
16	0x3e360f8c	0.17779368
17	0x3e886147	0.26636717
18	0xbe9c1848	-0.30487275
19	0xbe4876a6	-0.19576511
20	0x3e26d5fc	0.16292566
21	0x3ebc742c	0.36807382
22	0xbdbe7975	-0.0930051
23	0x3eac2e6b	0.33629164
24	0xbd8fc3d1	-0.07019771
25	0x3d3b279a	0.045692064
26	0x3ed0534a	0.40688545
27	0xbed3efdc	-0.41393936
28	0xbe8df909	-0.2772906
29	0xbdedd7d4	-0.116134316
30	0xbe32d933	-0.17465667
31	0x3ec47714	0.383721
32	0xbe933a01	-0.2875519
33	0xbe55b5d9	-0.2087015
34	0xbe9ea76b	-0.30987105
35	0xbed6522b	-0.41859564
36	0xbe83f0ce	-0.25769657
37	0x3ec41749	0.38299015
38	0x3e4d7c74	0.20067006
39	0x3e5ebede	0.21752498
40	0x3cc63146	0.024193417
41	0xbe68c274	-0.22730428
42	0x3d957d99	0.072993465
43	0xbed6b092	-0.41931587
44	0xbea6395b	-0.32465634
45	0xbe6eb1d7	-0.23310028
46	0x3e8fdc56	0.2809779
47	0x3e87ca04	0.26521313
48	0xbe47dd4a	-0.19518009
49	0xbc588535	-0.013215353
50	0x3e912261	0.28346542
51	0x3ee46401	0.44607547
52	0x3e353601	0.17696382
53	0x3d7be798	0.061500162
54	0x3e97878f	0.2959561
55	0xbe86537c	-0.2623557
56	0x3dab5c0a	0.083671644
57	0xbeb16259	-0.34645346
58	0xbe9eadda	-0.30992013
59	0xbe6d4e22	-0.23174337
60	0x3e4babbd	0.19889732
61	0x3e36a4ca	0.178363
62	0xbe8664a1	-0.2624865
63	0x3e0c7e4e	0.13720056
64	0x3e7db6c2	0.24776748
65	0xbd64467c	-0.05573128
66	0x3c8c5d81	0.01713443
67	0x3dd1f585	0.10251907
68	0x3e8c5cc8	0.27414536
69	0x3edd71ee	0.43250984
70	0xbeafb1ff	-0.34315488
71	0xbe286062	-0.16443017
72	0x3e333d70	0.17503905
73	0x3ebf29d4	0.373366
74	0x3ec648e8	0.38727498
75	0x3eca52dd	0.39516345
76	0x3db50416	0.0883867
77	0xbec77b81	-0.38961414
78	0x3d2811c9	0.041032586
79	0xbe8ed4e6	-0.27896804
80	0xbed4ebfe	-0.41586298
81	0x3ecc3347	0.39882872
82	0x3ead41fe	0.3383941
83	0xbee541fb	-0.44776902
84	0x3da7c8cf	0.08192598
85	0xbd9c2a80	-0.07625294
86	0xbd9031b9	-0.07040734
87	0xbe5032de	-0.20331904
88	0x3e2eda8d	0.17075558
89	0xbe887842	-0.2665425
90	0x3e265688	0.16243947
91	0x3e69547e	0.22786137
92	0x3ea34d44	0.31894886
93	0x3e2bfa85	0.16794784
94	0xbee23ae5	-0.44185558
95	0xbe9483a7	-0.29006693
96	0x3e62bca7	0.22142278
97	0x3dbfc5c9	0.093638964
98	0xbeb26330	-0.348413
99	0xbe84587a	-0.25848752
100	0x3ed79491	0.42105535
101	0x3e988af0	0.297935
102	0xbe48e716	-0.19619402
103	0xbde2297c	-0.11043069
104	0xbedb91aa	-0.4288457
105	0xbc3c04c3	-0.011475745
106	0xbeab9803	-0.33514413
107	0xbeb1e4ee	-0.34744972
108	0xbccb1d06	-0.024794113
109	0x3d84bd45	0.06481413
110	0xbe3ac529	-0.18239273
111	0x3e885b87	0.2663233
112	0xbe8c45bf	-0.27396962
113	0x3ece3b8e	0.40279812
114	0x3e9ed239	0.31019762
115	0xbec07216	-0.3758704
116	0xbde4338d	-0.11142645
117	0x3ca5535c	0.02018135
118	0x3d886128	0.06659156
119	0x3ddcd478	0.10782713
120	0x3e36ca0e	0.17850515
121	0x3cf23682	0.029567007
122	0xbe61daee	-0.22056171
123	0x3e54f812	0.20797756
124	0xbeddaec7	-0.43297407
125	0xbe86def1	-0.26341966
126	0xbde13236	-0.10995905
127	0xbe60698f	-0.21915267
128	0xbe230bfe	-0.15922543
129	0xbebb5a85	-0.36592498
130	0xbdbc1d61	-0.09185291
131	0x3dc31778	0.09525961
132	0xbe95d4c2	-0.29263884
133	0xbcc43506	-0.023951065
134	0x3ea3aa90	0.31966066
135	0xbd3baace	-0.04581719
136	0x3c7ca305	0.015419726
137	0xbd246c4b	-0.04014234
138	0x3db43cc3	0.08800652
139	0x3e92c2cf	0.28664252
140	0x3ed7cbe5	0.42147747
141	0x3e92dbbb	0.28683266
142	0x3ed95a52	0.4245172
143	0xbcfd65cf	-0.030932335
144	0xbeced88b	-0.40399584
145	0xbe5aab48	-0.21354401
146	0x3e99f253	0.3006769
147	0xba344536	-0.00068767683
148	0xbe62269f	-0.22085045
149	0xbeaf5d71	-0.34250978
150	0xbed55eaa	-0.41673785
151	0xbec0f50b	-0.37686953
152	0xbdbd5eda	-0.09246607
153	0x3e776c4a	0.24162403
154	0x3e7b139c	0.24519199
155	0xbedd93a1	-0.43276694
156	0x3e8e5997	0.27802727
157	0xbeb23753	-0.34807834
158	0xbdc12a46	-0.09431891
159	0xbe3b62f0	-0.1829946
160	0xbdb069aa	-0.08613904
161	0xbdbd05e4	-0.09229639
162	0xbecd05a9	-0.4004338
163	0xbec49082	-0.383915
164	0xbd94611b	-0.07245084
165	0x3c132551	0.008981065
166	0xbe4ce6a2	-0.20009854
167	0x3e287e88	0.16454518
168	0xbed03604	-0.4066621
169	0xbd0909c1	-0.033456568
170	0x3ec9c934	0.39411318
171	0xbe37dda1	-0.17955638
172	0x3ece4fd6	0.40295285
173	0x3e253540	0.16133595
174	0xbecf6f7f	-0.40514752
175	0x3e91641a	0.28396684
176	0xbd54b35d	-0.051928867
177	0xbe4b32b1	-0.19843556
178	0x3eb64f2c	0.35607278
179	0xbeba08e1	-0.363349
180	0x3d403f14	0.046935156
181	0xbdba6b0b	-0.09102448
182	0x3ea375a6	0.31925696
183	0x3e009803	0.12557988
184	0x3e5bc58c	0.21462077
185	0x3e2244f6	0.15846619
186	0xbdd5caad	-0.10439048
187	0xbdc66f8c	-0.09689245
188	0xbebecb73	-0.37264594
189	0x3e76eca0	0.24113703
190	0x3eb68160	0.3564558
191	0x3e9cda70	0.30635405
192	0xbea2030d	-0.31642953
193	0x3c9628d5	0.018330017
194	0xbea18834	-0.31549227
195	0xbe7b83db	-0.24562018
196	0xbe84b7b3	-0.259214
197	0x3e1b72e1	0.15180542
198	0xbe88ccfa	-0.26718885
199	0xbc31a11e	-0.010841636
200	0x3c8e6eb4	0.017386772
201	0x3e95f223	0.29286298
202	0xbead5664	-0.33854973
203	0xbe9c6a21	-0.3054972
204	0xbe8592e4	-0.2608863
205	0x3ea0e691	0.31425908
206	0xbe26fba9	-0.16306938
207	0x3ebf8ca6	0.37411994
208	0x3e273e7a	0.16332427
209	0x3d66f92e	0.05638998
210	0xbb4cf88e	-0.003127608
211	0xbdac1bbe	-0.08403729
212	0x3d5fbf03	0.054625522
213	0xbdd6af71	-0.104826815
214	0xbbc4a4b0	-0.0060010776
215	0x3d66eba0	0.056377053
216	0xbeb59b77	-0.35470173
217	0xbe6e110d	-0.23248692
218	0x3eba2322	0.3635493
219	0xbeb87157	-0.3602397
220	0xbce26d1d	-0.02763992
221	0x3ee3ad2b	0.44468054
222	0x3e213483	0.15742688
223	0x3c205cbd	0.0097877355
224	0xbec6a85c	-0.38800323
225	0x3e62d0a0	0.22149897
226	0xbea4c639	-0.32182482
227	0xbe005195	-0.12531121
228	0xbe181238	-0.148507
229	0xbd7f9cd6	-0.06240543
230	0x3b989c0f	0.0046572755
231	0x3ebf2504	0.37332928
232	0x3d5ddf72	0.054168172
233	0x3ecbd3f4	0.39810145
234	0x3e8c328a	0.27382308
235	0xbe91b3c2	-0.28457457
236	0x3e4d19e4	0.20029408
237	0xbea1bcf3	-0.3158947
238	0xbe411328	-0.18854964
239	0x3e05cd0e	0.13066503
240	0x3e18cdcd	0.14922257
241	0x3eab768d	0.33488885
242	0xbe137b1b	-0.1440243
243	0x3904a5d4	0.00012650277
244	0x3e6bbb1f	0.230206
245	0xbedca70e	-0.43096203
246	0x3ea61ac6	0.32442302
247	0xbebe5715	-0.37175813
248	0x3b8c386f	0.0042791883
249	0xbd9a0660	-0.07520747
250	0xbe6f97a0	-0.23397684
251	0x3d6af126	0.057358883
252	0x3ebd4551	0.36966947
253	0xbe062e17	-0.1310352
254	0xbe892673	-0.26787147
255	0xbe2a6c0e	-0.16642782

fc1.bias f4 [512]
0	0xbe96c828	-0.29449582
1	0xbea105d7	-0.31449768
2	0x3e98322e	0.29725784
3	0xbe154559	-0.14577235
4	0xbced12f1	-0.028939696
5	0x3e0916da	0.13387623
6	0xbe8d82b9	-0.27638796
7	0x3d2a217a	0.041535832
8	0x3e87a914	0.26496184
9	0xbe864cc9	-0.26230457
10	0x3e04f388	0.12983525
11	0xbc80fb0d	-0.01574471
12	0x3e7b794d	0.24557991
13	0x3e980408	0.29690576
14	0x3decd3b9	0.115638204
15	0x3c461377	0.012089602
16	0xbec5414c	-0.3852638
17	0x3e36c61e	0.17849013
18	0x3e8b98e4	0.27265084
19	0xbe26e6c1	-0.16298963
20	0xbee19646	-0.44059962
21	0x3ebbf694	0.36711562
22	0xbdd68a28	-0.1047557
23	0x3db22969	0.086993046
24	0xbe020a40	-0.12699223
25	0x3e947ccf	0.2900147
26	0x3edf9a30	0.43672323
27	0x3e8f8843	0.28033647
28	0xbe0e8ccb	-0.13920896
29	0x3ea1ba54	0.3158747
30	0x3e5d7b00	0.21628952
31	0x3d3646ab	0.044500988
32	0xbeb87afc	-0.3603133
33	0xbe4339f0	-0.1906507
34	0xbee30f2a	-0.44347507
35	0x3e98f201	0.29872134
36	0x3ee23ed9	0.44188574
37	0x3e850298	0.2597854
38	0x3e0ea6e8	0.13930857
39	0x3dd87e25	0.10570935
40	0x3edbfc9d	0.42966166
41	0xbe67cf60	-0.22637701
42	0xbe1a2bae	-0.15055725
43	0xbecc34a1	-0.39883903
44	0xbd2f71d3	-0.04283316
45	0x3cdf1e54	0.027236141
46	0x3dfb253f	0.122629635
47	0xbe9f93d1	-0.31167462
48	0xbd4a7273	-0.049425554
49	0xbebdcd28	-0.37070584
50	0xbeb960fc	-0.36206806
51	0x3d70d743	0.05879904
52	0xbedf76ce	-0.43645328
53	0x3df5d1a2	0.12002875
54	0xbed3e428	-0.41385007
55	0xbe9f0f4e	-0.31066364
56	0xbdbcf064	-0.092255384
57	0xbed98c43	-0.42489824
58	0x3eb8fd9b	0.36130986
59	0x3ebb82b4	0.36623156
60	0xbe6b47ae	-0.22976562
61	0x3dcac7e6	0.09901409
62	0x3e6d6f9d	0.23187108
63	0x3e1168ce	0.14200136
64	0xbd6cf82e	-0.05785387
65	0xbed61b11	-0.41817525
66	0x3ea7836f	0.32717463
67	0xbec97542	-0.39347273
68	0xbda4ac75	-0.08040706
69	0x3cd7f57a	0.02636217
70	0xbe199d26	-0.15001354
71	0xbe213e18	-0.15746343
72	0xbec67d29	-0.38767365
73	0x3cb4f5b8	0.022089824
74	0xbd4959f4	-0.04915805
75	0x3ec7b921	0.3900843
76	0xbe16465d	-0.14675279
77	0x3ead9699	0.3390396
78	0x3cda610a	0.0266576
79	0xbe519370	-0.20466399
80	0xbddaf3c6	-0.10691027
81	0xbd5d973c	-0.054099306
82	0x3bb98580	0.0056616664
83	0xbda2614c	-0.07928714
84	0x3e07dd97	0.13268124
85	0x3ebe5a0d	0.37178078
86	0x3d914de1	0.07094932
87	0x3e25bc2a	0.1618506
88	0x3e8e9504	0.27848065
89	0x3dc3c645	0.09559301
90	0x3e5311b0	0.20612216
91	0x3e70114e	0.23444101
92	0x3ed3ba2e	0.4135298
93	0xbed13eb6	-0.40868157
94	0x3e1d36a4	0.15352875
95	0xbca696b6	-0.020335536
96	0xbda37e92	-0.07983126
97	0xbe29ea4e	-0.16593286
98	0x3e87037e	0.26369852
99	0x3ed178a0	0.40912342
100	0xbebac7b2	-0.3648048
101	0x3e764941	0.24051382
102	0x3e9fee2e	0.31236404
103	0x3da01ad7	0.07817619
104	0x3c067fa8	0.008209147
105	0x3eaff88e	0.3436932
106	0x3c271b80	0.010199428
107	0xbde307ee	-0.11085497
108	0xbd0a0c14	-0.033702925
109	0x3e0fe493	0.14052038
110	0x3de2ed2c	0.11080393
111	0xbc977935	-0.018490413
112	0x3e0cbaab	0.13743083
113	0x3df6615b	0.12030288
114	0xbeb706a4	-0.35747254
115	0x3de3b8e2	0.11119248
116	0x3e8c7880	0.27435684
117	0x3d4dd969	0.050256167
118	0xbd253a78	-0.040338963
119	0x3eaf6fec	0.34265077
120	0xbec7d86a	-0.39032298
121	0xbe50ec7e	-0.20402715
122	0xbe4e38e3	-0.20138888
123	0x3ec5ac0d	0.38607827
124	0xbede008a	-0.43359786
125	0x3d4ccbd8	0.049999088
126	0xbee02957	-0.4378154
127	0xbc8011a1	-0.015633406
128	0x3e2c8b3f	0.16849993
129	0xbdd1bd39	-0.102411695
130	0x3ede4201	0.43409732
131	0x3b2d0223	0.0026398979
132	0xbe691c62	-0.22764733
133	0x3dec5d63	0.115412496
134	0x3e68b97b	0.22727005
135	0xba80dbf0	-0.0009831171
136	0x3ec3e3fc	0.38259876
137	0xbe90456c	-0.28177965
138	0x3e43a491	0.19105746
139	0x3e7e7ba0	0.24851847
140	0x3e63e242	0.2225428
141	0x3a9b50ca	0.0011849639
142	0x3df97c51	0.121819146
143	0xbeb1e6d0	-0.34746408
144	0xbeb0b800	-0.3451538
145	0xbcdfc678	-0.027316317
146	0xbd70606f	-0.058685716
147	0x3eaa20d1	0.33228162
148	0x3ea930fe	0.3304519
149	0x3e9c3408	0.30508447
150	0xbe53e5da	-0.2069315
151	0xbeb2fe04	-0.34959424
152	0xbed61980	-0.4181633
153	0x3e2b77ad	0.16744871
154	0xbecc7499	-0.39932707
155	0xbee533b5	-0.44766012
156	0xbe6482f8	-0.22315586
157	0xbec328cb	-0.3811706
158	0xbe38e05a	-0.18054333
159	0xbe9052db	-0.28188214
160	0xbe6c39cb	-0.23068921
161	0x3ed9da9b	0.42549595
162	0xbdadef0a	-0.08492859
163	0x3ebdbf0a	0.37059814
164	0x3c112cf3	0.008860814
165	0xbd7b7070	-0.061386526
166	0xbe05427d	-0.13013645
167	0xbea2e089	-0.31811932
168	0xbeb7a67b	-0.35869202
169	0x3e9eb669	0.30998543
170	0xbe0f86f1	-0.1401632
171	0xbee035eb	-0.43791136
172	0x3ed1d916	0.40985936
173	0x3c130e1b	0.008975531
174	0xbe9a1767	-0.3009598
175	0xbeb46972	-0.35236698
176	0xbebf1564	-0.37321007
177	0xbec86d0e	-0.39145702
178	0x3ecf5cee	0.40500587
179	0x3e9db1a2	0.30799586
180	0x3d15042f	0.036380943
181	0xbec42d78	-0.3831594
182	0xbdefdf47	-0.11712509
183	0xbed5f239	-0.41786364
184	0x3e21ebdd	0.15812631
185	0xbdf60887	-0.12013345
186	0xbdc396f0	-0.095502734
187	0xbe0eedc7	-0.13957892
188	0x3e565098	0.20929182
189	0x3e7d5ae9	0.2474171
190	0x3dc6484e	0.0968176
191	0xbd808c09	-0.062767096
192	0xbd3513f6	-0.04420849
193	0xbbee5514	-0.0072733257
194	0xbeab874f	-0.3350167
195	0x3edce190	0.4314084
196	0xbe45caa0	-0.19315577
197	0x3e854124	0.2602626
198	0xbe808c54	-0.25107062
199	0x3bffc757	0.0078057456
200	0x3e1c42fe	0.1525993
201	0xbed1fb7e	-0.41012186
202	0x3e558870	0.20852828
203	0xbeb131cf	-0.34608313
204	0x3d7f0a77	0.06226584
205	0xbdb57495	-0.08860127
206	0x3e84432a	0.25832492
207	0x3edf4197	0.4360473
208	0x3dbdb612	0.09263243
209	0xbc531571	-0.01288353
210	0xbe60bf25	-0.21947916
211	0x3e2afd87	0.16698276
212	0xbe5a9614	-0.21346313
213	0x3e3ba50f	0.18324684
214	0xbe45f652	-0.19332245
215	0x3e9a32b2	0.30116802
216	0x3eaf9ec8	0.34300828
217	0x3e8f0515	0.27933565
218	0x3c44f3f9	0.012021058
219	0x3e51b873	0.20480518
220	0xbed25ee9	-0.41088036
221	0x3eb9bdda	0.36277658
222	0xbdec8901	-0.11549569
223	0x3e27ac16	0.1637424
224	0xbd9ec8f9	-0.07753176
225	0xbe1598a0	-0.14609003
226	0xbe55d3a9	-0.20881523
227	0x3e9380c0	0.28809166
228	0xbe7ad419	-0.24494971
229	0xbda631e9	-0.08114988
230	0x3e622cab	0.22087352
231	0x3d3a9a21	0.045557145
232	0xbebfac30	-0.37436056
233	0xbee36c0c	-0.4441837
234	0xbe5f08ea	-0.21780744
235	0x3ed14a6b	0.4087709
236	0xbea2c8f2	-0.31793934
237	0x3e8030e2	0.25037295
238	0x3ea3e566	0.32010955
239	0xbe3f429f	-0.18677758
240	0xbe4ba40e	-0.198868
241	0xbea4a1d1	-0.32154706
242	0x3d8daee6	0.06918125
243	0xbd81bcf0	-0.06334865
244	0x3cb1ffb7	0.02172838
245	0x3e46eeab	0.19426982
246	0x3e43b6c4	0.19112688
247	0xbe136299	-0.14393081
248	0x3d0060a8	0.03134218
249	0x3de2af62	0.11068608
250	0x3c2ef012	0.010677354
251	0x3db7476b	0.08949169
252	0xbe389f46	-0.18029508
253	0x3ebbd5cf	0.3668656
254	0xbd4516de	-0.04811751
255	0xbd74fb40	-0.059809923

fc2.weight f4 [256, 512]
0	0x3d23b776	0.039969884
1	0x3d0d5ef6	0.03451439
2	0xbd23babb	-0.039973002
3	0xbc96ed23	-0.018423622
4	0x3cc079fc	0.023495667
5	0xbcd8efd2	-0.026481543
6	0x3bf9cfaa	0.0076236324
7	0xbc90d66c	-0.01768037
8	0x3bf0f666	0.0073535917
9	0x3cb6de76	0.022322875
10	0x3c506249	0.0127187455
11	0x3cfd4613	0.030917203
12	0xbbe06652	-0.006848135
13	0x3cc3a531	0.02388248
14	0x3c7cf73c	0.015439805
15	0xbc74c38b	-0.014939199
16	0xbd03c090	-0.032166064
17	0x3d29fda1	0.041501645
18	0xbc38b8ed	-0.0112745585
19	0x3d04c73e	0.032416575
20	0x3cda8b16	0.02667765
21	0xbb54629b	-0.0032407406
22	0xbd19856c	-0.037480757
23	0x3b9af7d8	0.0047292523
24	0xbca8d50b	-0.0206094
25	0x3c39f1d9	0.011349165
26	0xbc9d8aa5	-0.01923115
27	0x3d03f826	0.032219075
28	0xbd1b7be0	-0.037959933
29	0xbc47f977	-0.012205473
30	0x3bfe9388	0.007769052
31	0x3b60b37b	0.0034286666
32	0x3d0f30fd	0.03495883
33	0xbc7f02a1	-0.015564592
34	0xbd09bcf1	-0.033627454
35	0x3cf66953	0.03007952
36	0x3c5bf112	0.013424175
37	0x3ce1a788	0.027545705
38	0xbcdddefb	-0.027083864
39	0xbcd150b8	-0.025551185
40	0xbc9bc248	-0.019013539
41	0x3b911cdd	0.0044284896
42	0x3c73960b	0.014867316
43	0xbcc7dbc8	-0.024396792
44	0xbaf56efe	-0.0018725095
45	0xbc1955e2	-0.009358855
46	0x3d256919	0.040383432
47	0xbc8dabde	-0.017293867
48	0x3d292e8b	0.041304152
49	0xbce4fd5c	-0.027952842
50	0xbc88b3f2	-0.016687367
51	0xbd036b13	-0.032084536
52	0x3d0c01fa	0.034181572
53	0xbcecabad	-0.028890455
54	0x3c91d593	0.017802035
55	0xbc8f0955	-0.017460505
56	0x3d319500	0.043354988
57	0x3ba3fd2b	0.005004545
58	0xbd16d384	-0.03682281
59	0x3bee7587	0.007277194
60	0x3b87a95f	0.0041400637
61	0xbd2808a1	-0.041023854
62	0x3c18a77d	0.009317276
63	0x3d2ed03a	0.04267905
64	0x3c33e64f	0.010980203
65	0x3a21d6a2	0.00061736454
66	0xbbf801c1	-0.0075685685
67	0x3c56b3eb	0.013104419
68	0xbc93c3e3	-0.018037742
69	0x3d2bdc44	0.04195811
70	0x3d1a2bbf	0.037639376
71	0x3c9a5040	0.018837094
72	0xbc90264a	-0.017596383
73	0xbd2f7d44	-0.042844072
74	0xbcd83538	-0.026392564
75	0x3d35d8a2	0.04439605
76	0xbd21354b	-0.039357465
77	0xbd32f3a3	-0.04368938
78	0xbb92cf93	-0.004480311
79	0x3c4ca547	0.012490577
80	0xbd37ede9	-0.044904623
81	0xbd2778fa	-0.040886857
82	0x3af05194	0.0018334859
83	0xbc8a9c6d	-0.016920293
84	0x3d004328	0.031314045
85	0x3c374854	0.011186678
86	0xbd166256	-0.036714874
87	0xbd207dc3	-0.039182436
88	0x3d035a90	0.03206879
89	0xbbccc20b	-0.0062487177
90	0xbc8fad15	-0.017538587
91	0x3c4c0c57	0.012454114
92	0xbc2011a2	-0.009769829
93	0x3ca1ebc3	0.01976574
94	0x3c28de39	0.010306888
95	0xbc98dedc	-0.018660955
96	0xbd12871e	-0.03577339
97	0x3cd71b98	0.026258275
98	0xbce7af92	-0.02828196
99	0xbbc139fc	-0.005896805
100	0x3be7aabc	0.0070699137
101	0xbcd08792	-0.02545527
102	0x3cba02fc	0.022706501
103	0xbcf2db4f	-0.02964559
104	0x3c19e49c	0.009392884
105	0x3ba317c6	0.0049771992
106	0x3c744e0c	0.014911186
107	0xbd381507	-0.04494193
108	0x3a9c5af3	0.001192896
109	0x3c9eae6d	0.019370282
110	0xbce03280	-0.02736783
111	0x3c41125e	0.011784164
112	0x3af98fe5	0.0019040076
113	0x3d152cde	0.03641974
114	0xbc304752	-0.010759192
115	0xbabbb3bc	-0.0014320533
116	0xbca6af24	-0.020347185
117	0xbc1eb4e7	-0.009686685
118	0x3c4182d5	0.011810978
119	0xbd2a328f	-0.041552123
120	0x3d0ba88c	0.034096286
121	0x3cfa5f60	0.030563056
122	0x3c9e24a8	0.019304588
123	0x3d0868c1	0.033303026
124	0xbc7400b4	-0.014892746
125	0x3c12044a	0.008912155
126	0x3a004b55	0.0004894038
127	0xbd03440f	-0.032047328
128	0xbc7937c6	-0.015211051
129	0xbc8e84dd	-0.017397339
130	0xbc276997	-0.010218046
131	0xbd1df8a4	-0.0385672
132	0xbd027b3a	-0.0318558
133	0xbbb00c08	-0.005372528
134	0xbbc1058c	-0.005890554
135	0xbd20513d	-0.039139975
136	0x3bf3f757	0.0074452567
137	0x3cba3fd7	0.02273552
138	0x3d1cd2f3	0.038287114
139	0x3d14b5e2	0.03630627
140	0xbcffe144	-0.031235345
141	0xbc6dab9f	-0.01450625
142	0xbcb88e1b	-0.022528699
143	0x3c090213	0.008362311
144	0x3c293827	0.010328329
145	0x3c18bac1	0.009321869
146	0x3cd721c2	0.026261214
147	0x3cba54b2	0.022745464
148	0xbcbb400e	-0.022857692
149	0x3ceef31a	0.029168654
150	0x3d00b5e7	0.031423476
151	0x3be6e6b8	0.007046547
152	0xbd21b234	-0.03947659
153	0xbcd659ed	-0.026165927
154	0x3c555a5c	0.013022032
155	0x3c849ca0	0.016187966
156	0x3d30eeae	0.043196373
157	0x3cab1684	0.02088476
158	0x3c90b101	0.017662527
159	0xbb3338c7	-0.0027347074
160	0x3cedc1b2	0.029023025
161	0xbc8da995	-0.017292777
162	0x3c886132	0.016647909
163	0xbca5da11	-0.020245584
164	0xb9c82398	-0.00038173492
165	0x3cce6ba5	0.025197813
166	0x3c9e869e	0.0193513
167	0xbc3c04d3	-0.01147576
168	0xbac67690	-0.0015141536
169	0xbcbf1122	-0.0233236
170	0x3c9be3c6	0.01902951
171	0x3cfe9fe5	0.031082103
172	0x3c5e2ae3	0.01356003
173	0xbd35b851	-0.04436523
174	0xbd06ab88	-0.03287843
175	0x3cec3e52	0.02883831
176	0xbbef6ddd	-0.007306798
177	0x3cd04e64	0.025428005
178	0x3d0d928c	0.034563586
179	0xbc59653a	-0.013268763
180	0xbccd08eb	-0.025028666
181	0xbd26c639	-0.040716384
182	0x3c76ef97	0.015071771
183	0x3cae95c1	0.021311643
184	0xbc186c57	-0.009303174
185	0xbd32933b	-0.04359744
186	0xbcf70a17	-0.030156178
187	0xbb2572bc	-0.002524539
188	0x3ca8c13b	0.020599952
189	0xbc765595	-0.015035053
190	0xbcf60e53	-0.030036127
191	0xbd030291	-0.03198487
192	0x3d2202b3	0.039553355
193	0x3c6ca2bc	0.014443096
194	0xbd0bdeb0	-0.03414792
195	0xbcebe05b	-0.028793504
196	0xbd19fe14	-0.037595823
197	0x3baac765	0.005211758
198	0xbca088b0	-0.019596428
199	0xba93ee2b	-0.001128619
200	0xbc0d2f8c	-0.008617293
201	0xbd24291c	-0.040078267
202	0xbd2787ee	-0.040901117
203	0xbd1246ca	-0.03571204
204	0xbc9f3d58	-0.01943843
205	0x3be953ae	0.007120571
206	0xbcb69d68	-0.022291854
207	0xbb57bb7f	-0.0032918153
208	0xbbd81146	-0.006593856
209	0x3d1fb58f	0.038991507
210	0xbc9712af	-0.018441526
211	0x3d31e1c2	0.04342819
212	0xbd031684	-0.032003894
213	0xbd1d4939	-0.03839991
214	0x3c4b1c36	0.012396863
215	0xbcc7057b	-0.024294605
216	0x3cb9b392	0.022668634
217	0xbcc9585d	-0.024578268
218	0x3d113a51	0.035456005
219	0x3d2a4894	0.041573122
220	0x3b9458af	0.0045271735
221	0x3c0408bd	0.008058724
222	0x3d2f70a8	0.042832047
223	0x3ccd3cc8	0.025053397
224	0xbd1b6fad	-0.0379483
225	0xba42d0bf	-0.0007431618
226	0xbd1bd43f	-0.03804421
227	0x3d11e15a	0.035615303
228	0xbc1cdb40	-0.009573758
229	0x3a1b2da6	0.0005919583
230	0xbcec6998	-0.028858945
231	0xbcbce6d3	-0.023059284
232	0x3bae953d	0.005327849
233	0x3d1b5d11	0.037930552
234	0xbcc005ca	-0.02344026
235	0x3bb8ce3a	0.0056398185
236	0x3d1fb2c3	0.03898884
237	0x3d2966e2	0.041357882
238	0xbbe044e4	-0.00684415
239	0x3d2c678f	0.04209095
240	0x3c73cc4f	0.014880254
241	0x3d2a92dc	0.041643962
242	0x3a6560d4	0.0008750085
243	0xbd1a162a	-0.037618794
244	0xbc5661b5	-0.013084819
245	0x3c739a31	0.014868305
246	0x3cb52723	0.022113388
247	0xbd2c6139	-0.042084906
248	0x3d095156	0.033524834
249	0xbd1c8db2	-0.03822107
250	0x3cc8b7c9	0.024501698
251	0x3d2ccb63	0.042186152
252	0x3c39799b	0.011320497
253	0xbbeae87e	-0.0071688285
254	0x3cbcf93a	0.02306806
255	0xbc450cfa	-0.01202702

fc2.bias f4 [256]
0	0xbc5594f8	-0.013036005
1	0x3d080aa0	0.033213258
2	0xbcf50f26	-0.02991445
3	0xbd1b8d4a	-0.03797654
4	0xbcb806ff	-0.022464273
5	0x3cd074a8	0.025446251
6	0xbd03ff13	-0.03222568
7	0x3d04abbc	0.03239034
8	0x3d02ea0a	0.03196148
9	0x3d059a79	0.03261802
10	0x3c313610	0.010816112
11	0x3c5de2fc	0.013542887
12	0x3c704a75	0.014666189
13	0x3d0652cc	0.032793805
14	0xbc6400e1	-0.013916225
15	0x3d2fa634	0.042883113
16	0xbd3ca486	-0.04605534
17	0xbd1e83b2	-0.038699813
18	0xbd020f81	-0.031753067
19	0x3d0f49bf	0.03498244
20	0xbbd2bde5	-0.0064313286
21	0xbd0a582f	-0.033775505
22	0xbce2a296	-0.027665418
23	0xbad1fde9	-0.0016021106
24	0x3c5a8ace	0.013338758
25	0x3d239012	0.039932318
26	0x3ca56b56	0.020192783
27	0x3b986328	0.004650492
28	0xbb0a9eb9	-0.0021151735
29	0x3ce0127b	0.027352562
30	0xbc33d0c9	-0.010975071
31	0xbbaa1cf3	-0.0051914393
32	0x3d1ec3cb	0.03876094
33	0xbd017a96	-0.031611048
34	0x3cbd39ff	0.023098944
35	0xbced6f1c	-0.028983645
36	0xbd2049c5	-0.039132852
37	0x3c8c93c8	0.017160311
38	0xbd187a40	-0.03722596
39	0x3d113e3a	0.035459734
40	0xbc8ab118	-0.016930148
41	0xbd1a7847	-0.03771236
42	0xbd308e05	-0.04310419
43	0x3d151672	0.03639836
44	0xbd3419da	-0.043969966
45	0x3c91cc28	0.017797545
46	0xbcc3d2fa	-0.023904312
47	0x3c62161d	0.0137992175
48	0x3cf32ae8	0.029683545
49	0xbc3411eb	-0.0109906
50	0x3ce9936d	0.02851268
51	0xbc7a63d4	-0.01528259
52	0x3bcbf81e	0.0062246462
53	0xbcf4cf2a	-0.02988394
54	0x3cd55b26	0.02604444
55	0x3bf87fa4	0.0075835753
56	0x3b748c08	0.003731491
57	0x3cf755fd	0.03019237
58	0xbd24bc8b	-0.04021887
59	0x3c8c673a	0.017139066
60	0xbbd359d0	-0.0064499155
61	0xbc8929a6	-0.016743492
62	0xbbdbe0a1	-0.0067101275
63	0x3afea991	0.0019429197
64	0x3d1366eb	0.035986822
65	0xbd2addec	-0.041715547
66	0x3c9bae47	0.019004
67	0x3ca18253	0.019715464
68	0xbd24efb5	-0.040267665
69	0xbc1db566	-0.009625768
70	0xbc7dd371	-0.015492306
71	0x3d083d21	0.033261422
72	0xbd05e81e	-0.032692067
73	0x3cdc5950	0.026898056
74	0x3c868805	0.016422281
75	0x3d1c2d89	0.038129363
76	0x3d12769c	0.035757646
77	0xbb29060c	-0.0025790958
78	0xbcb6d226	-0.022317003
79	0x3d2fea40	0.042948008
80	0xbc8c0273	-0.017091012
81	0xbb7d3fa0	-0.003864266
82	0x3c81ab14	0.015828647
83	0x3cd320eb	0.025772532
84	0x3ce9b9a3	0.028530901
85	0xbca7a2d1	-0.02046338
86	0x3cddb8a2	0.027065579
87	0xbc904259	-0.017609762
88	0x3afc3080	0.0019240528
89	0xbd34bb0b	-0.04412369
90	0xbb30065d	-0.0026859262
91	0xbc321717	-0.010869763
92	0xba90149a	-0.0010992468
93	0x3d13b4a3	0.03606094
94	0xbc604fad	-0.013690871
95	0x3c720c2d	0.014773411
96	0xbcd498a9	-0.0259517
97	0x3ce7ac82	0.0282805
98	0xbc88539a	-0.016641427
99	0x3c96bc84	0.018400438
100	0x3cc4df09	0.024032133
101	0x3cbe55d6	0.02323429
102	0x3d0bf0ba	0.03416512
103	0xbd0bebb0	-0.034160316
104	0xbb0eba74	-0.0021778615
105	0xbbc9164b	-0.0061366907
106	0xbd27c7a7	-0.040961888
107	0xbb942e06	-0.004522088
108	0x3d476ab2	0.048685737
109	0xbc61df57	-0.0137861585
110	0x3d1a0b8a	0.03760866
111	0xbc34400c	-0.011001598
112	0xbcd64c67	-0.026159478
113	0x3cf4363f	0.029811023
114	0xbc7220e1	-0.014778347
115	0x3d10c932	0.035348125
116	0xbd3163ea	-0.043308176
117	0xb8738fb5	-5.8069552e-05
118	0xbcb42125	-0.02198846
119	0xbd2e8ed2	-0.042616673
120	0x3c86eb1c	0.01646953
121	0xbd36ccc0	-0.04462886
122	0x3d23e3da	0.040012218
123	0x3c9fa413	0.019487416
124	0xbccbb112	-0.024864707
125	0xbc9c6e41	-0.019095542
126	0xbb404b53	-0.0029341772
127	0x3d156522	0.0364734
128	0xbc563e5f	-0.013076394
129	0x3d1518c2	0.036400564
130	0xbcf4f595	-0.029902259
131	0x3b9d7753	0.0048054843
132	0x3d3bc50e	0.045842223
133	0x3caa5b8c	0.020795606
134	0xbbf5ba63	-0.0074990257
135	0x3ca1811c	0.019714884
136	0x3b5b7eb4	0.003349227
137	0x3c466ca0	0.012110859
138	0x3cb2efe9	0.021842914
139	0x3d294e0e	0.041334204
140	0xbcc38086	-0.023864996
141	0x3d0cf0ed	0.034409452
142	0x3bb3c272	0.005485826
143	0x3d17c4d8	0.03705296
144	0x3c14c845	0.009080951
145	0x3a65637d	0.00087504816
146	0x3cad12e9	0.021127181
147	0x3c916a3f	0.017750857
148	0x3cfdca8f	0.030980377
149	0xbcd96750	-0.026538521
150	0x3d100adc	0.035166606
151	0x3d006de5	0.031354804
152	0x3d2fabd2	0.04288847
153	0xbd270e9e	-0.040785424
154	0xbd39640e	-0.045261435
155	0xbce63769	-0.028102593
156	0xbcb0f163	-0.021599477
157	0x3ce86161	0.028366746
158	0x3c36c04f	0.011154248
159	0xbc8a9d36	-0.016920667
160	0x3c051c1f	0.00812438
161	0xbc7cadde	-0.015422313
162	0xbccf7ce9	-0.025328116
163	0x3d2dea68	0.042459875
164	0x3c315fc9	0.01082606
165	0x3d19e227	0.03756919
166	0x3d1af8a3	0.037834775
167	0xbcc715b8	-0.024302348
168	0xbd19402c	-0.037414715
169	0xbd157119	-0.03648481
170	0x3cc6b30a	0.024255294
171	0xbcdc43c4	-0.026887782
172	0x3bd69dc3	0.0065495684
173	0x3a81bd93	0.0009898416
174	0xbcfc7a2e	-0.030819979
175	0xb94dcb20	-0.00019625993
176	0xbc4dafeb	-0.012554149
177	0xbc5580b6	-0.013031175
178	0xbd1ecf4f	-0.038771924
179	0xbc9815ec	-0.01856514
180	0xbc44b701	-0.012006522
181	0xbd0f192e	-0.034936123
182	0xbd1b673e	-0.037940256
183	0xbce97a18	-0.028500602
184	0xbba841fd	-0.0051348195
185	0xbd30aea6	-0.043135308
186	0x3c7ff8fc	0.015623327
187	0xbcfa69d5	-0.030568043
188	0xbccde6cd	-0.025134468
189	0xbcbf438a	-0.023347635
190	0x3c70348b	0.014660965
191	0x3cec9244	0.028878339
192	0x3bb47bee	0.0055079376
193	0x3cc74a1d	0.024327332
194	0x3c22ce20	0.009936839
195	0x38ba2243	8.875553e-05
196	0x3ca68dcc	0.020331286
197	0xbd23ce81	-0.03999186
198	0xbce1568d	-0.027507091
199	0x3d390ac3	0.04517628
200	0x3c01f5db	0.007932152
201	0xbd22208b	-0.039581817
202	0x3bd8cb33	0.00661602
203	0xbd1a9ab3	-0.03774519
204	0xbc8cc1ce	-0.017182257
205	0xbc383086	-0.011242038
206	0xbce4c5ab	-0.027926287
207	0xbd234c69	-0.039867792
208	0xbc045136	-0.008076003
209	0xbbed364c	-0.0072391387
210	0xbcf2fd5c	-0.029661827
211	0xbb374f80	-0.002797097
212	0xbd1453e0	-0.036212802
213	0x3d1631ae	0.036668472
214	0xbc05f276	-0.008175483
215	0x3d291e66	0.041288756
216	0x3c135055	0.008991321
217	0xbd2a1691	-0.041525427
218	0x3d3a79d1	0.04552633
219	0x3ceb2842	0.02870572
220	0xbc33f642	-0.010984005
221	0x3cba7c5f	0.022764383
222	0xbcdd5aa8	-0.027020767
223	0xbcdf17d3	-0.02723304
224	0xbcc8ca12	-0.024510417
225	0x3cdec305	0.027192602
226	0xbbe586ec	-0.0070046093
227	0xbaf579f0	-0.0018728357
228	0xbd1d889d	-0.038460363
229	0x3ca13c50	0.01968208
230	0x3b9e53f9	0.0048317877
231	0xbd31b632	-0.043386646
232	0x3c2353d9	0.009968721
233	0x39431bd9	0.00018607023
234	0x3c3c6480	0.01149857
235	0xbd02bba3	-0.031917226
236	0xbcdeb0fe	-0.027184006
237	0xbb4efbe2	-0.003158324
238	0x3afc5c8f	0.0019253659
239	0x3d07ca42	0.033151872
240	0x3d0cf48d	0.03441291
241	0x3c026ba1	0.007960231
242	0xbb2c87a1	-0.0026325958
243	0xbb85a749	-0.00407878
244	0x3d01b40d	0.03166585
245	0xbd1fa251	-0.038973156
246	0x3cd40534	0.025881387
247	0xbcec0f19	-0.028815793
248	0xbcc2d5a9	-0.023783522
249	0xbcb78841	-0.022403838
250	0xbd12908d	-0.035782386
251	0x3c0e56c8	0.008687682
252	0xbc4ac101	-0.012375117
253	0xbc03beae	-0.008041067
254	0xbcf0ca59	-0.029393362
255	0x3d0cbea1	0.034361485

fc3.weight f4 [128, 256]
0	0xbc87fec8	-0.016600981
1	0xbd11cccc	-0.0355957
2	0x3ce0cfa8	0.027442768
3	0x3d522ef7	0.05131432
4	0xbc9a3272	-0.018822882
5	0xbd6d4c6f	-0.05793422
6	0x3ce2bd62	0.027678195
7	0x3d317348	0.04332283
8	0x3d07d5dd	0.03316294
9	0x3d3d4040	0.04620385
10	0x3d2cdcb9	0.042202685
11	0xbd443f08	-0.047911674
12	0xbd3da241	-0.046297316
13	0x3cfe55fa	0.031046856
14	0x3988f79b	0.00026124422
15	0x3d22fb01	0.039790157
16	0x3d3d4c27	0.046215203
17	0xbc2caa51	-0.0105386535
18	0xbd746282	-0.059664257
19	0x3c1ce878	0.009576909
20	0x3ce2a128	0.027664736
21	0x3cca055e	0.024660762
22	0x3b802d29	0.0039116335
23	0xbc909fb0	-0.01765427
24	0x3d3a63c1	0.04550529
25	0x3d23ab1a	0.039958097
26	0x3d65498f	0.055978354
27	0xbd0ab029	-0.033859406
28	0xbcae6325	-0.02128751
29	0x3ce283e6	0.027650785
30	0x3d50ef7c	0.05100964
31	0x3d842d12	0.06453909
32	0xbd4ab84d	-0.04949217
33	0x3ca0552e	0.019571867
34	0x3ca830a0	0.020530999
35	0xbd1c07f1	-0.03809351
36	0xbc21c87d	-0.00987446
37	0x3cbf414b	0.023346564
38	0xbc815e08	-0.015791908
39	0x3d3028ec	0.043007776
40	0xbc1b0e4e	-0.00946386
41	0xbc0618c6	-0.008184617
42	0x3c93f6ed	0.01806208
43	0xbcbcd99f	-0.023052989
44	0xbd18b261	-0.03727949
45	0x3d4c1562	0.04982508
46	0x3c3a3a84	0.01136649
47	0xbd553697	-0.052054014
48	0x3d4d7363	0.05015887
49	0x3d0aa67e	0.033850186
50	0xbc33fc39	-0.010985428
51	0xbced595c	-0.028973274
52	0xbcbeaa0b	-0.023274442
53	0xbccde9ae	-0.025135841
54	0x3d531d2a	0.051541485
55	0x3c2f3781	0.0106943855
56	0x3b60725c	0.003424785
57	0xbcc57f36	-0.02410851
58	0x3d776fb5	0.060409267
59	0xbd59e694	-0.053198412
60	0xbd4fd7b3	-0.050742816
61	0xbd188d57	-0.037244167
62	0x3d50d069	0.050980005
63	0x3cce1e18	0.025160834
64	0xbd71942e	-0.058979206
65	0xbd3c5a76	-0.045984708
66	0xbc2135e0	-0.009839505
67	0x3d321281	0.043474678
68	0x3b3479ac	0.0027538342
69	0x3d858235	0.06518976
70	0xbd49eb7c	-0.04929684
71	0x3ccf29a2	0.025288407
72	0xbc81fed9	-0.015868591
73	0x3c6f58fe	0.01460862
74	0xbc7414b4	-0.014897514
75	0xbd2b2244	-0.041780725
76	0xbd65737b	-0.056018334
77	0xbd3de46d	-0.046360422
78	0xbd100c2b	-0.035167854
79	0xbd653a27	-0.05596366
80	0x3c6f3c1b	0.014601733
81	0xbc72e4b6	-0.014825037
82	0x3b87b570	0.004141502
83	0xbcbe1605	-0.02320386
84	0xbd50d0ab	-0.05098025
85	0xbd3fa212	-0.04678542
86	0xbcc62403	-0.024187094
87	0xbd769493	-0.060200285
88	0x3d0b9a9e	0.034083
89	0x3d17dba8	0.037074715
90	0xbd1abefb	-0.03777979
91	0x3c9884c2	0.018617991
92	0xbd26c87f	-0.04071855
93	0xbcbdd6c6	-0.023173701
94	0xbc9239cf	-0.01784983
95	0xbd2c3fd4	-0.04205306
96	0x3cd47b92	0.02593783
97	0x3c857e22	0.016295496
98	0x3bf53843	0.0074835136
99	0x3c04fc53	0.008116799
100	0xbd65de85	-0.056120414
101	0x3c695ee0	0.014243811
102	0x3d38f4d0	0.045155346
103	0xbd0c4050	-0.03424102
104	0xbd61d8ef	-0.055138525
105	0xb94ea356	-0.00019706538
106	0x3cf0305b	0.029319933
107	0x3c5a772c	0.013334077
108	0x3d079374	0.033099607
109	0xbbe7d06f	-0.007074408
110	0xbbd65216	-0.006540547
111	0xbd6ae935	-0.05735131
112	0xbd820b18	-0.06349772
113	0xbd590351	-0.05298168
114	0xbd53bb83	-0.051692497
115	0x3c1eb543	0.009686771
116	0xbc628a09	-0.013826855
117	0xbcd2deee	-0.025741067
118	0xbd6a66f1	-0.05722708
119	0x3d4d71b4	0.050157264
120	0xbb549d2a	-0.003244231
121	0x3d09137d	0.03346585
122	0xbd567483	-0.052357208
123	0xbd1d8e89	-0.03846601
124	0x3d18030f	0.037112292
125	0x3d28c0ad	0.041199375
126	0xbd32e5a8	-0.04367605
127	0x3d44fc8d	0.048092414
128	0x3d0c3fe5	0.034240622
129	0x3d524945	0.051339407
130	0xbd4a69ee	-0.04941743
131	0xbd8085d6	-0.06275527
132	0xbd610268	-0.054933935
133	0x3b30a91d	0.0026956268
134	0x3c9d14dd	0.019174987
135	0xbc88386c	-0.016628467
136	0xbc7bae4b	-0.015361379
137	0x3c893abd	0.016751641
138	0xbd090be9	-0.033458624
139	0xbd28b982	-0.04119254
140	0xbd5c7577	-0.05382296
141	0x3c507a0a	0.012724409
142	0xbd2fd289	-0.04292539
143	0x3c99b1c5	0.018761525
144	0xbbedf429	-0.007261772
145	0xbd257a6d	-0.040399957
146	0x3d61c0c2	0.05511547
147	0x3d0e19fa	0.034692742
148	0x3d4549aa	0.048165955
149	0xbd54c719	-0.051947687
150	0xbd1bd624	-0.038046017
151	0xbd04a191	-0.032380644
152	0x3bb80b83	0.0056166067
153	0x3cf91ea2	0.030410115
154	0xbd6df5bd	-0.058095682
155	0x3c9ad9e2	0.018902723
156	0x3d7d5edb	0.06185804
157	0x3d34d64f	0.044149693
158	0xbc6bebca	-0.014399478
159	0x3ae5df0d	0.0017537788
160	0xbbd14da0	-0.0063874274
161	0x3d5da225	0.05410971
162	0x3d5375dc	0.05162607
163	0xbbf57a5b	-0.0074913925
164	0xbd3b663e	-0.045751803
165	0xbcbd8802	-0.023136143
166	0x3d19c08a	0.037537135
167	0x3d362d06	0.04447653
168	0x3d134d59	0.035962436
169	0xbcd3839c	-0.025819592
170	0xbb21685b	-0.002462885
171	0x3c0bb91f	0.008528023
172	0x3cda782f	0.026668636
173	0xbd49eb3a	-0.049296595
174	0x3c7b4083	0.015335205
175	0xbcbe261a	-0.023211528
176	0xbc4e70af	-0.012600108
177	0x3d0a590d	0.03377633
178	0x3ccb98ab	0.024853071
179	0x3d63d529	0.055623207
180	0x3cfa96f3	0.030589556
181	0xbd34ffbe	-0.044189207
182	0xbb31ab1e	-0.002711005
183	0xbd6b47ea	-0.05744163
184	0xbbdb581c	-0.006693853
185	0xbbc9d287	-0.00615913
186	0x3baba202	0.0052378187
187	0x3c7b61af	0.015343114
188	0x3c8308a0	0.015995324
189	0xbd69906a	-0.05702249
190	0xbc85d10b	-0.016335031
191	0xbc4ef30c	-0.012631189
192	0x3d1fe39e	0.039035432
193	0xbd7d583a	-0.061851718
194	0x3b4cfd0f	0.0031278764
195	0xbd08ddf9	-0.033414815
196	0xbc64cee6	-0.013965344
197	0xbd12eada	-0.035868503
198	0x3aa9c97e	0.0012953726
199	0x3cf9299d	0.03041535
200	0xbd10ccf6	-0.035351716
201	0xbca4f501	-0.020136358
202	0x3d7f1860	0.062279105
203	0xbcac109d	-0.021004016
204	0x3c9b0da2	0.0189274
205	0xbd46b5d8	-0.048513263
206	0x3d275abf	0.040858027
207	0xb9b506db	-0.00034528118
208	0xbc9d2d12	-0.01918653
209	0xbc946aa4	-0.018117256
210	0x3d67e949	0.056618962
211	0x3d4c73dd	0.049915183
212	0xbd0f97ed	-0.035056997
213	0xbd7503ec	-0.059818193
214	0x3cbf62f0	0.023362607
215	0xbb8e372c	-0.004340073
216	0x3be71d80	0.007053077
217	0x3cf55eea	0.029952485
218	0xbd4af1d2	-0.049547024
219	0x3ce70fd0	0.028205782
220	0xbd06a8d3	-0.032875847
221	0x3c3ee248	0.011650629
222	0xbbbf0e2a	-0.005830546
223	0xbba25f67	-0.0049552205
224	0x3d2f86ee	0.04285329
225	0xbc4a8fe8	-0.0123634115
226	0x3c74a599	0.01493206
227	0x3bd38049	0.0064545018
228	0x3d7300ae	0.05932682
229	0xbd45c53f	-0.04828381
230	0x3d7cd4bd	0.06172632
231	0x3c85f6d8	0.016353056
232	0xb9d942d7	-0.00041439265
233	0xbbcec25b	-0.00630979
234	0xbc03e8e0	-0.008051127
235	0x3a9dabbc	0.001202933
236	0xbc9b4d91	-0.018957885
237	0x3be7ddf0	0.0070760176
238	0x3d81a819	0.0633089
239	0xbc43808c	-0.011932503
240	0x3cd49666	0.025950622
241	0xbabe5d3b	-0.0014523634
242	0xbc9e0875	-0.019291142
243	0xbc8efdbc	-0.017454974
244	0x3c000e61	0.007815928
245	0xbbbb2dd4	-0.0057122502
246	0x3c1816ca	0.009282777
247	0xbd5006ac	-0.050787613
248	0xbb5f6f86	-0.0034093573
249	0xbd56d697	-0.052450743
250	0xbd63b77a	-0.0555949
251	0xbc08aa21	-0.008341343
252	0x3c10c513	0.008836049
253	0x3d660218	0.05615434
254	0xbbb53652	-0.005530157
255	0x3c7ca6f9	0.015420669

fc3.bias f4 [128]
0	0x3ccc9f67	0.024978353
1	0xbd0f26be	-0.034949057
2	0x3d587f5d	0.052855838
3	0xbd44a950	-0.04801303
4	0x3c8923b0	0.01674065
5	0x3bfd3b23	0.007727997
6	0x3c29aa6f	0.010355576
7	0xbcb1cf7e	-0.021705385
8	0x3d800c41	0.06252337
9	0x3c13ee50	0.009028986
10	0xbb8a5415	-0.004221449
11	0xbc276384	-0.0102165975
12	0x3cf098ef	0.0293698
13	0x3b95b23f	0.0045683677
14	0xbd3fdc04	-0.046840683
15	0x3d2fd70e	0.0429297
16	0xbd01763a	-0.03160689
17	0x3b99ce15	0.0046937563
18	0xbd3e9778	-0.04653117
19	0x3bc3b968	0.00597303
20	0x3d706e62	0.05869902
21	0xbd218bfc	-0.03944014
22	0xbd573399	-0.05253944
23	0xbb554a05	-0.003254534
24	0xbd0094af	-0.031391796
25	0xbd2b3327	-0.04179683
26	0x3d1b661a	0.03793917
27	0xbd6cef10	-0.057845175
28	0xbcb76151	-0.022385271
29	0x3d640eef	0.055678304
30	0x3c4a94b3	0.012364554
31	0x3d050708	0.03247741
32	0xbd493a95	-0.049128134
33	0x3cf530c3	0.029930478
34	0x3c3c5d97	0.011496923
35	0x3b1b0bb8	0.0023658108
36	0x3d1e9730	0.038718402
37	0xbccccf94	-0.025001325
38	0x3c4bda88	0.012442239
39	0x3d1e57ce	0.038657956
40	0x3c20e370	0.00981985
41	0x3d5ee725	0.054419655
42	0x3d2f093b	0.042733412
43	0x3d35d207	0.04438975
44	0xbcc83cb1	-0.024443002
45	0x3cbbfcad	0.022947634
46	0x3c109e4f	0.008826806
47	0x3d1336ce	0.035940938
48	0xb98e2b4a	-0.00027116603
49	0x3c8c2029	0.017105179
50	0xbd0b10d9	-0.033951614
51	0x3d6e21ce	0.058137707
52	0x3aa094df	0.0012251398
53	0xbd67b850	-0.05657226
54	0xbcaee9ed	-0.021351779
55	0xbd793e3e	-0.060850374
56	0xbc80366f	-0.015650956
57	0x3d149f4f	0.03628474
58	0x3d0d3744	0.034476534
59	0xbc8fbf0d	-0.017547155
60	0xbd2385c5	-0.039922494
61	0x3b815c95	0.003947804
62	0x3cbbb249	0.022912161
63	0xbb8d62c0	-0.0043147504
64	0xbc006183	-0.007835749
65	0x3c9a79b7	0.018856866
66	0x3d3fad53	0.046796154
67	0x3d2f397e	0.04277944
68	0xbd33aaca	-0.04386405
69	0xbd18ffef	-0.037353452
70	0xbb9fd506	-0.0048776893
71	0xbba35803	-0.004984857
72	0x3d2821e6	0.041047953
73	0x3d476942	0.048684366
74	0xbba73c69	-0.005103637
75	0xbcd35a1e	-0.025799807
76	0x3d289119	0.041154
77	0x3ca352a8	0.019936875
78	0x3d386110	0.04501444
79	0x3d3e78c6	0.046501897
80	0xbd061787	-0.03273728
81	0x3c10e80c	0.008844387
82	0xbd3f79af	-0.046746906
83	0xbd118b79	-0.035533402
84	0xbd6dbeb7	-0.058043208
85	0xbd1363ef	-0.035983976
86	0x3d564a53	0.052316975
87	0x3d226b63	0.039653193
88	0x3d55b4a2	0.052174218
89	0xbd5b3741	-0.05351949
90	0x3caab2f2	0.02083728
91	0x3b7111e5	0.0036784348
92	0xbcf7e7d2	-0.030261908
93	0xbd0acf41	-0.03388906
94	0xbd65d4cf	-0.056111153
95	0x37e276a7	2.6996551e-05
96	0xbcb6c3d7	-0.02231018
97	0xbb9d5cb5	-0.0048023113
98	0x3b9fec0d	0.0048804344
99	0x3d636481	0.05551577
100	0xbd80382c	-0.06260714
101	0xbcdbe6de	-0.026843484
102	0x3c4532c6	0.012036031
103	0x3c533750	0.0128916055
104	0xbb80bba4	-0.0039286185
105	0x3b81ab52	0.0039571906
106	0xbd389808	-0.045066863
107	0xbc7dd1d6	-0.015491923
108	0x3cb9e588	0.022692457
109	0xbcff8d2d	-0.031195248
110	0xbd7553cb	-0.059894364
111	0x3ceda03b	0.029007068
112	0x3d4c5078	0.04988143
113	0xbd0e2335	-0.034701545
114	0x3c264f26	0.010150706
115	0x3bb58ed2	0.005540707
116	0xbd334967	-0.043771174
117	0x3d074dc7	0.03303316
118	0xbd7935fc	-0.0608425
119	0x3d52e162	0.051484473
120	0xbd0945cf	-0.03351384
121	0x3c1e34ae	0.0096561145
122	0x3c820172	0.01586983
123	0x3c38dfa5	0.01128379
124	0xbb4b7527	-0.003104517
125	0x3d6b8ce1	0.0575074
126	0x3c91607a	0.017746199
127	0xbd17b8a5	-0.037041325

bn1.weight f4 [512]
0	0x3f8004bb	1.0001444
1	0x3f7f226b	0.9966189
2	0x3f801098	1.0005064
3	0x3f7fc803	0.9991457
4	0x3f7ff5b9	0.9998432
5	0x3f8026ca	1.0011837
6	0x3f7f8512	0.99812424
7	0x3f7fbd06	0.998978
8	0x3f7ff129	0.99977356
9	0x3f7fd6e4	0.9993727
10	0x3f7e90ee	0.99439895
11	0x3f7ff213	0.9997875
12	0x3f8011b8	1.0005407
13	0x3f8015fe	1.0006711
14	0x3f7f97df	0.9984111
15	0x3f7fed05	0.9997104
16	0x3f7fe267	0.9995484
17	0x3f801923	1.0007671
18	0x3f8021ab	1.0010275
19	0x3f7fd3f9	0.9993282
20	0x3f7ff37e	0.99980915
21	0x3f7fb73b	0.9988896
22	0x3f7fef64	0.99974656
23	0x3f800362	1.0001032
24	0x3f80427a	1.0020287
25	0x3f7ff49f	0.9998264
26	0x3f7fe864	0.99963975
27	0x3f803fe7	1.0019501
28	0x3f802156	1.0010173
29	0x3f7fdc29	0.9994531
30	0x3f801d81	1.0009004
31	0x3f8021ab	1.0010275
32	0x3f80156d	1.0006539
33	0x3f801e1a	1.0009186
34	0x3f7fa8d2	0.99866974
35	0x3f7fd019	0.99926907
36	0x3f8010c0	1.0005112
37	0x3f7fff05	0.99998504
38	0x3f7fb79a	0.9988953
39	0x3f800ddd	1.0004231
40	0x3f80294a	1.00126
41	0x3f7f9f01	0.99851996
42	0x3f80004b	1.000009
43	0x3f7feb56	0.9996847
44	0x3f7f39aa	0.99697363
45	0x3f80164f	1.0006808
46	0x3f801d4f	1.0008944
47	0x3f7fd9cc	0.99941707
48	0x3f7faf3f	0.9987678
49	0x3f7f62d2	0.9976016
50	0x3f802e9b	1.0014223
51	0x3f800fc8	1.0004816
52	0x3f801036	1.0004947
53	0x3f8024c6	1.0011222
54	0x3f7f7d1b	0.9980027
55	0x3f800f72	1.0004714
56	0x3f7fd133	0.9992859
57	0x3f7fdfbf	0.99950784
58	0x3f802345	1.0010763
59	0x3f8038f7	1.0017384
60	0x3f800cc3	1.0003895
61	0x3f7f8ac0	0.9982109
62	0x3f803286	1.0015419
63	0x3f7fd7c5	0.99938613
64	0x3f7fac67	0.9987244
65	0x3f800dbb	1.000419
66	0x3f8017e9	1.0007297
67	0x3f80051a	1.0001557
68	0x3f7fb729	0.99888855
69	0x3f7ffaf9	0.9999233
70	0x3f7fa87c	0.9986646
71	0x3f801bb8	1.0008459
72	0x3f80319c	1.001514
73	0x3f801d47	1.0008935
74	0x3f803476	1.001601
75	0x3f7fe976	0.9996561
76	0x3f7ff0a6	0.99976575
77	0x3f7fa4e2	0.99860966
78	0x3f7fea77	0.9996714
79	0x3f802490	1.0011158
80	0x3f8007d4	1.0002389
81	0x3f802c8f	1.0013598
82	0x3f802f09	1.0014354
83	0x3f806ffa	1.0034173
84	0x3f7fb280	0.99881744
85	0x3f7fe363	0.9995634
86	0x3f7fdd1a	0.9994675
87	0x3f802df5	1.0014025
88	0x3f7fbd36	0.9989809
89	0x3f7fa1dc	0.9985635
90	0x3f801f8d	1.0009629
91	0x3f802251	1.0010473
92	0x3f803cd6	1.0018566
93	0x3f80003d	1.0000073
94	0x3f803a63	1.0017818
95	0x3f80017a	1.0000451
96	0x3f7fd7dd	0.99938756
97	0x3f804cd3	1.0023445
98	0x3f7ff9db	0.99990624
99	0x3f801dc6	1.0009086
100	0x3f801629	1.0006763
101	0x3f8024ff	1.001129
102	0x3f80102e	1.0004938
103	0x3f80010b	1.0000318
104	0x3f7fab28	0.9987054
105	0x3f80311b	1.0014986
106	0x3f800084	1.0000157
107	0x3f80161a	1.0006745
108	0x3f7fd134	0.99928594
109	0x3f7fa01e	0.99853694
110	0x3f7fc385	0.99907714
111	0x3f800770	1.000227
112	0x3f7fb62c	0.9988735
113	0x3f7fa048	0.99853945
114	0x3f7ff0ca	0.9997679
115	0x3f803957	1.0017499
116	0x3f7f8cb1	0.99824053
117	0x3f7ff258	0.9997916
118	0x3f80121a	1.0005524
119	0x3f800737	1.0002202
120	0x3f7fdff9	0.9995113
121	0x3f8008d1	1.000269
122	0x3f800a99	1.0003234
123	0x3f80080a	1.0002453
124	0x3f7fb6fe	0.998886
125	0x3f7f96be	0.9983939
126	0x3f7f4984	0.9972155
127	0x3f7ff376	0.99980867
128	0x3f7fa7d1	0.9986544
129	0x3f7fd1c3	0.99929446
130	0x3f7fef7c	0.999748
131	0x3f7ffea5	0.9999793
132	0x3f800ffa	1.0004876
133	0x3f803333	1.0015625
134	0x3f8006bc	1.0002055
135	0x3f7fbbf1	0.9989615
136	0x3f7f6f24	0.9977896
137	0x3f7f97a7	0.9984078
138	0x3f7fddb7	0.99947685
139	0x3f7f9730	0.9984007
140	0x3f7fdc38	0.999454
141	0x3f80499e	1.0022466
142	0x3f800ac1	1.0003282
143	0x3f802da9	1.0013934
144	0x3f800a7c	1.00032
145	0x3f7f71ee	0.9978322
146	0x3f803646	1.0016563
147	0x3f80257b	1.0011438
148	0x3f8007aa	1.0002339
149	0x3f8019be	1.0007856
150	0x3f7ff2b1	0.9997969
151	0x3f803a7b	1.0017847
152	0x3f800175	1.0000445
153	0x3f80254f	1.0011386
154	0x3f800ff1	1.0004865
155	0x3f7ff7d9	0.9998756
156	0x3f8013a4	1.0005994
157	0x3f7f17c2	0.99645627
158	0x3f7f9a3e	0.9984473
159	0x3f7fe783	0.99962634
160	0x3f7ff4ab	0.9998271
161	0x3f801bd9	1.0008498
162	0x3f7fea25	0.9996665
163	0x3f7f099a	0.99624026
164	0x3f800dfe	1.000427
165	0x3f8016d6	1.0006969
166	0x3f7feb1f	0.9996814
167	0x3f802e2b	1.0014089
168	0x3f803558	1.0016279
169	0x3f80066d	1.0001961
170	0x3f7fddd7	0.99947876
171	0x3f801cfe	1.0008848
172	0x3f801f41	1.0009538
173	0x3f800404	1.0001225
174	0x3f7fa0db	0.9985482
175	0x3f7fcb32	0.99919426
176	0x3f7ff185	0.99977905
177	0x3f801b6a	1.0008366
178	0x3f7fe4c7	0.9995846
179	0x3f80084e	1.0002534
180	0x3f800a57	1.0003155
181	0x3f800d44	1.0004048
182	0x3f7fbb16	0.99894845
183	0x3f7f89dc	0.9981973
184	0x3f801f1a	1.0009491
185	0x3f80063b	1.0001901
186	0x3f801263	1.0005611
187	0x3f801001	1.0004884
188	0x3f804985	1.0022436
189	0x3f7ff899	0.99988705
190	0x3f7fd7c5	0.99938613
191	0x3f80070d	1.0002152
192	0x3f7ff8c6	0.99988973
193	0x3f7f43ce	0.99712837
194	0x3f801496	1.0006282
195	0x3f7fc2fb	0.9990689
196	0x3f800236	1.0000675
197	0x3f800cc7	1.0003899
198	0x3f7feb05	0.99967986
199	0x3f801c71	1.000868
200	0x3f80028a	1.0000775
201	0x3f80266c	1.0011725
202	0x3f7fe0f2	0.99952614
203	0x3f8014b4	1.0006318
204	0x3f7febf4	0.9996941
205	0x3f8009bb	1.000297
206	0x3f7fe8f2	0.9996482
207	0x3f8004b8	1.000144
208	0x3f801dfa	1.0009148
209	0x3f7ff131	0.99977404
210	0x3f7fd48f	0.99933714
211	0x3f7fb610	0.9988718
212	0x3f7f9c87	0.99848217
213	0x3f8045f0	1.0021343
214	0x3f80033c	1.0000987
215	0x3f8004ae	1.0001428
216	0x3f7f2bbe	0.9967612
217	0x3f7fd3cb	0.99932545
218	0x3f7fdfd8	0.99950933
219	0x3f800f2d	1.0004631
220	0x3f801e42	1.0009234
221	0x3f801f27	1.0009507
222	0x3f7ffe2c	0.9999721
223	0x3f8015c3	1.0006641
224	0x3f7fae1c	0.99875045
225	0x3f7fa20c	0.9985664
226	0x3f7ff242	0.9997903
227	0x3f801326	1.0005844
228	0x3f7fa0b1	0.9985457
229	0x3f800b52	1.0003455
230	0x3f7ff877	0.999885
231	0x3f7f5933	0.9974548
232	0x3f8018b2	1.0007536
233	0x3f8018f8	1.000762
234	0x3f7ffc29	0.9999414
235	0x3f7ff20d	0.99978715
236	0x3f7fe736	0.99962175
237	0x3f7ff969	0.99989945
238	0x3f7fdf1a	0.999498
239	0x3f7fb3cd	0.9988373
240	0x3f80293f	1.0012587
241	0x3f800458	1.0001326
242	0x3f7fd019	0.99926907
243	0x3f7fc748	0.99913454
244	0x3f803ebe	1.0019147
245	0x3f8005b3	1.0001739
246	0x3f7fdd3d	0.9994696
247	0x3f7fd740	0.9993782
248	0x3f801a6b	1.0008062
249	0x3f80227a	1.0010521
250	0x3f7fedd7	0.9997229
251	0x3f803977	1.0017537
252	0x3f801aeb	1.0008215
253	0x3f8006e3	1.0002102
254	0x3f80153d	1.0006481
255	0x3f801d69	1.0008975
