data/rl4wound_paper_res/ctr/models_map524/agent_ctr_True_ep_1069.pth (torch, 950255 bytes, 21 tensors)

fc1.weight f4 [512, 5]
000000 1c 68 b1 bb 4d 02 77 3e 65 f8 ba be 70 8b a6 be
       -0.005414022 0.24121971 -0.36517635 -0.32528257
000010 2e 22 31 be 0c 38 ef 3d 90 73 0c bc 91 fb b5 3e
       -0.17298195 0.11680612 -0.008572474 0.35543492
000020 bc 67 22 bd 55 0b f3 3d 48 d2 09 be cf 3e b7 bd
       -0.03964971 0.11867396 -0.13459122 -0.08947527
000030 08 47 da be 0c dd 97 be 96 f2 39 be 46 75 90 3c
       -0.42632318 -0.29660833 -0.18158945 0.017634045
000040 69 0a 36 3e 7c 5e 88 3e b6 1b 9c be 36 66 48 be
       0.17777409 0.26634586 -0.30489892 -0.1957024
000050 b1 e0 26 3e f4 6b bc 3e fe 7b be bd a8 2f ac 3e
       0.1629665 0.36801112 -0.093009934 0.3363011
000060 df d5 8f bd b6 28 3b 3d a3 47 d0 3e 2b ed d3 be
       -0.070232145 0.04569312 0.40679654 -0.41391882
000070 9f f6 8d be 9d cb ed bd 50 d2 32 be 31 7b c4 3e
       -0.2772722 -0.11611102 -0.1746304 0.38375238
000080 ff 3a 93 be 0f bc 55 be 30 a4 9e be 80 57 d6 be
       -0.28755948 -0.2087252 -0.3098464 -0.41863632
000090 59 e7 83 be 01 18 c4 3e 75 79 4d 3e 69 bc 5e 3e
       -0.25762442 0.38299564 0.20065863 0.2175156
0000a0 c3 65 c6 3c cc c1 68 be 2c 6d 95 3d 43 b2 d6 be
       0.024218446 -0.22730178 0.072962135 -0.41932878
0000b0 cf 42 a6 be 69 b6 6e be 53 de 8f 3e f4 cc 87 3e
       -0.32472846 -0.23311771 0.28099307 0.26523554
0000c0 cc d5 47 be ea 30 59 bc 8e 1b 91 3e b2 63 e4 3e
       -0.19515151 -0.013256291 0.28341335 0.4460731
0000d0 ac 3d 35 3e 0e 13 7c 3d 3c 7a 97 3e 4a 51 86 be
       0.17699307 0.06154161 0.29585445 -0.26233894
0000e0 89 5e ab 3d 15 64 b1 be 87 b1 9e be 03 48 6d be
       0.083676405 -0.3464667 -0.30994818 -0.23172002
0000f0 9a a2 4b 3e b3 9f 36 3e 5f 62 86 be 8d 85 0c 3e
       0.19886246 0.17834358 -0.26246926 0.1372282
000100 c3 ae 7d 3e a1 2c 64 bd 6d 2e 8c 3c c0 e9 d1 3d
       0.24773698 -0.055706624 0.017111981 0.102496624
000110 9b 59 8c 3e cc 75 dd 3e a1 b6 af be ca 4f 28 be
       0.27412114 0.43253934 -0.34319022 -0.16436687
000120 bd 3d 33 3e 82 28 bf 3e df 48 c6 3e e2 4e ca 3e
       0.1750402 0.37335593 0.3872747 0.39513308
000130 4e 16 b5 3d 51 7d c7 be f6 fd 27 3d db d6 8e be
       0.08842145 -0.38962796 0.04101368 -0.27898297
000140 2a ee d4 be e1 2d cc 3e 23 47 ad 3e 9f 3c e5 be
       -0.41587955 0.39878753 0.33843336 -0.44772813
000150 1f c0 a7 3d 33 22 9c bd 96 3c 90 bd f4 2d 50 be
       0.08190941 -0.076237105 -0.07042806 -0.2033003
000160 19 e6 2e 3e 86 73 88 be f9 4e 26 3e 7e 55 69 3e
       0.17079963 -0.26650637 0.16241063 0.22786519
000170 57 4e a3 3e 1b 03 2c 3e 62 36 e2 be cc 84 94 be
       0.31895706 0.1679806 -0.44182116 -0.29007566
000180 e1 ac 62 3e 6b d3 bf 3d 4b 60 b2 be b8 55 84 be
       0.2213626 0.09366497 -0.3483909 -0.25846648
000190 29 93 d7 3e b1 87 98 3e 74 df 48 be 68 2b e2 bd
       0.42104462 0.29791024 -0.1961649 -0.11043435
0001a0 16 95 db be 8d 6b 3d bc 48 9b ab be 7b e1 b1 be
       -0.4288718 -0.011561287 -0.33516908 -0.3474234
0001b0 57 d5 ca bc 8a ce 84 3d dc bc 3a be 28 57 88 3e
       -0.024759931 0.06484707 -0.18236107 0.26628995
0001c0 cc 45 8c be b6 3d ce 3e 2c d2 9e 3e b7 72 c0 be
       -0.27397 0.40281457 0.31019723 -0.3758752
0001d0 04 34 e4 bd 62 70 a5 3c 8e 56 88 3d a0 fc dc 3d
       -0.11142734 0.02019519 0.06657134 0.10790372
0001e0 14 d0 36 3e 51 fb f1 3c eb d8 61 be 85 f8 54 3e
       0.17852813 0.029538782 -0.22055404 0.20797928
0001f0 98 ad dd be 9b de 86 be 64 35 e1 bd 93 69 60 be
       -0.43296504 -0.2634171 -0.109965116 -0.21915273
000200 6d 19 23 be b9 52 bb be 9b f8 bb bd c0 1f c3 3d
       -0.15927668 -0.3658655 -0.09178277 0.0952754
000210 18 dd 95 be b6 70 c4 bc 9c a4 a3 3e 9a 8d 3b bd
       -0.29270244 -0.023979526 0.31961524 -0.04578934
000220 10 15 7c 3c 49 74 24 bd bc 32 b4 3d 3b c6 92 3e
       0.015385881 -0.04014996 0.08798739 0.28666863
000230 dc d0 d7 3e ea df 92 3e 26 54 d9 3e c8 c1 fd bc
       0.42151535 0.28686458 0.42447013 -0.030976191
000240 55 d3 ce be 0b ac 5a be 4d f1 99 3e fc 63 35 ba
       -0.4039561 -0.21354692 0.3006691 -0.0006919501
000250 ec 23 62 be 4e 61 af be d2 61 d5 be 9d f1 c0 be
       -0.22084016 -0.34253925 -0.41676193 -0.37684336
000260 21 63 bd bd 5f 65 77 3e 3c 15 7b 3e 5c 97 dd be
       -0.09247423 0.24159764 0.24519819 -0.4327954
000270 b8 54 8e 3e 2e 34 b2 be 10 1a c1 bd 93 67 3b be
       0.2779901 -0.34805435 -0.09428799 -0.18301229
000280 d5 85 b0 bd e2 34 bd bd 97 fd cc be 48 86 c4 be
       -0.086192764 -0.09238602 -0.40037224 -0.38383698
000290 88 60 94 bd 3b e3 13 3c 40 f4 4c be 0a 74 28 3e
       -0.072449744 0.009026344 -0.20015049 0.16450515
0002a0 55 3a d0 be eb 21 09 bd 95 c8 c9 3e 15 d2 37 be
       -0.40669504 -0.033479612 0.39410844 -0.17951234
0002b0 72 50 ce 3e 71 35 25 3e e1 70 cf be 9e 63 91 3e
       0.4029575 0.16133668 -0.40515807 0.28396314
0002c0 f8 c2 54 bd d1 32 4b be 5a 4f b6 3e d0 08 ba be
       -0.05194375 -0.19843604 0.35607415 -0.36334848
0002d0 bf 6b 40 3d 13 8f ba bd 11 74 a3 3e bb 93 00 3e
       0.046977755 -0.091093205 0.3192449 0.12556355
0002e0 c4 ce 5b 3e d8 4c 22 3e 71 d8 d5 bd 3e 7c c6 bd
       0.21465594 0.15849626 -0.104416735 -0.09691666
0002f0 aa ce be be 28 e1 76 3e 6b 7f b6 3e 5b da 9c 3e
       -0.37267047 0.24109328 0.35644087 0.30635342
000300 fe ff a1 be 8b 1c 96 3c 09 8e a1 be 9d 83 7b be
       -0.3164062 0.018324157 -0.31553677 -0.24561925
000310 a6 b3 84 be 9d 6f 1b 3e a8 ce 88 be e5 6b 32 bc
       -0.2591831 0.15179296 -0.26720166 -0.010889982
000320 4e 64 8e 3c 22 f3 95 3e 3e 54 ad be c8 66 9c be
       0.017381813 0.29287058 -0.33853334 -0.30547166
000330 20 8f 85 be d0 e6 a0 3e 95 ee 26 be 85 89 bf 3e
       -0.26085758 0.31426096 -0.1630195 0.37409607
000340 08 4b 27 3e 2d cd 66 3d d1 9e 4e bb 31 18 ac bd
       0.16337216 0.056348015 -0.0031527767 -0.08403052
000350 eb e2 5f 3d cc a1 d6 bd 03 bc c4 bb fd da 66 3d
       0.054659765 -0.10480079 -0.006003858 0.056361187
000360 cc a0 b5 be e3 0d 6e be 5b 23 ba 3e 34 70 b8 be
       -0.3547424 -0.23247485 0.363551 -0.36023104
000370 47 31 e2 bc c1 b0 e3 3e de 2b 21 3e 06 f3 1f 3c
       -0.027611388 0.4447079 0.1573939 0.009762531
000380 c6 a5 c6 be f0 cd 62 3e 4f c4 a4 be a8 4f 00 be
       -0.3879835 0.22148871 -0.32181022 -0.12530386
000390 73 1a 18 be 5c 67 7f bd 20 8c 98 3b 23 27 bf 3e
       -0.1485384 -0.06235443 0.004655376 0.37334546
0003a0 c7 d6 5d 3d db d4 cb 3e 3c 2f 8c 3e d7 b9 91 be
       0.054159906 0.39810833 0.27379787 -0.28462097
0003b0 04 fe 4c 3e 34 b8 a1 be 26 0a 41 be a4 cd 05 3e
       0.20018774 -0.31585848 -0.18851528 0.13066727
0003c0 d7 bf 18 3e 8e 79 ab 3e 26 6b 13 be 3b ab 0a 39
       0.14916931 0.33491176 -0.14396343 0.00013224494
0003d0 18 c1 6b 3e 56 a2 dc be bd 1f a6 3e 36 5b be be
       0.23022878 -0.43092602 0.3244609 -0.37178963
0003e0 31 04 8b 3b d7 fe 99 bd 72 93 6f be 51 00 6b 3d
       0.004242443 -0.0751931 -0.2339609 0.05737335
0003f0 f9 41 bd 3e c8 33 06 be 2b 26 89 be 0e 75 2a be
       0.36964396 -0.1310569 -0.26786932 -0.16646215

fc1.bias f4 [512]
000000 8b cb 96 be a3 09 a1 be fa 36 98 3e aa 45 15 be
       -0.29452166 -0.31452665 0.29729444 -0.14577356
000010 8b 25 ed bc f1 22 09 3e 9e 83 8d be 01 61 2a 3d
       -0.028948566 0.13392235 -0.27639478 0.041596416
000020 bd a5 87 3e 4d 4d 86 be 4b f1 04 3e 50 1f 81 bc
       0.26493636 -0.2623085 0.12982671 -0.015762001
000030 9d 74 7b 3e 2c 02 98 3e f8 d5 ec 3d a6 8a 46 3c
       0.24556203 0.29689157 0.11564249 0.012118017
000040 e5 42 c5 be bb c7 36 3e 8e 93 8b 3e a4 f0 26 be
       -0.385276 0.17849629 0.27261013 -0.16302735
000050 c5 8e e1 be 1e 00 bc 3e 88 96 d6 bd 8d 21 b2 3d
       -0.44054237 0.3671884 -0.1047793 0.086978056
000060 3a f1 01 be 9c 7f 94 3e f4 9a df 3e 32 89 8f 3e
       -0.12689677 0.29003608 0.43672907 0.2803436
000070 58 8a 0e be b1 b9 a1 3e 60 88 5d 3e db 4f 36 3d
       -0.13919961 0.31586984 0.21634054 0.04450975
000080 2d 7c b8 be da 35 43 be 2e 0e e3 be ae f1 98 3e
       -0.3603224 -0.19063511 -0.44346756 0.29871887
000090 99 40 e2 3e 62 fe 84 3e c3 a8 0e 3e f4 7b d8 3d
       0.4418991 0.2597533 0.13931565 0.10570517
0000a0 04 ff db 3e f2 c7 67 be 45 2c 1a be d6 33 cc be
       0.42968 -0.22634867 -0.1505595 -0.39883298
0000b0 e5 42 2f bd f0 74 df 3c 1d 31 fb 3d 6c 96 9f be
       -0.042788405 0.02727744 0.12265227 -0.3116945
0000c0 31 1c 4a bd f3 ce bd be fb 5d b9 be 2d d2 70 3d
       -0.04934329 -0.37071952 -0.36204514 0.05879419
0000d0 a1 72 df be 2f f0 f5 3d ff e6 d3 be e9 0e 9f be
       -0.43642142 0.12008702 -0.41387174 -0.31066063
0000e0 2b f6 bc bd ad 87 d9 be 19 f9 b8 3e 4d 8c bb 3e
       -0.0922664 -0.42486325 0.36127546 0.36630479
0000f0 ca 39 6b be a6 ff ca 3d 60 6e 6d 3e 03 66 11 3e
       -0.22971264 0.09912042 0.23186636 0.1419907
000100 ce fe 6c bd 0d 0e d6 be 3f 86 a7 3e fa 7a c9 be
       -0.05786019 -0.41807595 0.3271961 -0.39351636
000110 0d a8 a4 bd ff d8 d7 3c a1 97 19 be 74 3d 21 be
       -0.08039866 0.026348589 -0.14999248 -0.15746099
000120 a1 81 c6 be df fb b4 3c 47 56 49 bd cd b8 c7 3e
       -0.38770774 0.022092758 -0.049154546 0.3900818
000130 37 47 16 be 37 83 ad 3e 92 2c da 3c ee 94 51 be
       -0.14675604 0.3388917 0.02663258 -0.20466968
000140 63 dd da bd b5 d3 5d bd 70 39 bb 3b 62 67 a2 bd
       -0.106867574 -0.054156978 0.005713634 -0.07929875
000150 8a db 07 3e 56 60 be 3e c3 5c 91 3d ea ba 25 3e
       0.13267341 0.37182873 0.07097771 0.16184583
000160 b8 96 8e 3e 96 dc c3 3d 8a 13 53 3e ac 1b 70 3e
       0.27849364 0.09563558 0.20612922 0.23448056
000170 01 ae d3 3e 20 43 d1 be ce 35 1d 3e 1c 79 a6 bc
       0.41343692 -0.40871525 0.15352556 -0.020321421
000180 12 8a a3 bd 0e d1 29 be ed fd 86 3e b2 7d d1 3e
       -0.07985319 -0.16583654 0.26365605 0.4091621
000190 00 c6 ba be a8 41 76 3e e7 f7 9f 3e 0d 10 a0 3d
       -0.36479187 0.24048483 0.31243822 0.078155614
0001a0 3d db 06 3c 9c f6 af 3e 96 c1 26 3c f0 0a e3 bd
       0.008230981 0.34367836 0.01017799 -0.110860705
0001b0 fa 1e 0a bd b2 df 0f 3e 7b e3 e2 3d 25 cf 96 bc
       -0.033720948 0.14050177 0.11078545 -0.018409321
0001c0 14 b9 0c 3e f0 6f f6 3d c3 ff b6 be fe b9 e3 3d
       0.13742477 0.12033069 -0.35742006 0.111194596
0001d0 41 7a 8c 3e 87 ff 4d 3d 8c 1f 25 bd 79 71 af 3e
       0.27437022 0.050292518 -0.04031329 0.3426626
0001e0 0c d4 c7 be 51 ec 50 be 67 34 4e be 95 ac c5 3e
       -0.39028966 -0.20402648 -0.20137177 0.38608232
0001f0 40 fe dd be 8c d7 4c 3d 98 33 e0 be 05 3b 80 bc
       -0.4335804 0.05001025 -0.43789363 -0.015653143
000200 90 9e 2c 3e 2f a6 d1 bd fc 43 de 3e 76 95 36 3b
       0.16857362 -0.10236775 0.43411243 0.0027860082
000210 cf 1f 69 be 0d 2f ec 3d 20 ae 68 3e d0 0f 7b ba
       -0.2276604 0.11532412 0.22722673 -0.00095772464
000220 03 e1 c3 3e 19 41 90 be d0 9f 43 3e 82 61 7e 3e
       0.38257608 -0.28174666 0.19103932 0.24841884
000230 ea d8 63 3e d8 bf 9a 3a ee 1c f9 3d 76 e8 b1 be
       0.22250715 0.0011806441 0.12163721 -0.34747666
000240 c6 a9 b0 be 13 d3 df bc f5 76 70 bd 8f 20 aa 3e
       -0.34504527 -0.027322328 -0.058707196 0.33227965
000250 5c 3b a9 3e ff 33 9c 3e 92 eb 53 be cb 01 b3 be
       0.330531 0.3050842 -0.20695332 -0.34962305
000260 09 17 d6 be 90 8b 2b 3e b4 6e cc be 2a 38 e5 be
       -0.4181445 0.16752458 -0.3992821 -0.44769412
000270 09 7b 64 be 49 2c c3 be 16 ec 38 be 8d 52 90 be
       -0.22312559 -0.38119724 -0.1805881 -0.2818798
000280 64 3a 6c be cf d8 d9 3e 6e f2 ad bd f4 bc bd 3e
       -0.2306915 0.42548224 -0.084935054 0.37058222
000290 7d 67 11 3c 9a 92 7b bd b0 35 05 be 8a df a2 be
       0.008874771 -0.061419107 -0.13008761 -0.31811172
0002a0 2a a3 b7 be a6 ae 9e 3e 4e 92 0f be 32 32 e0 be
       -0.35866672 0.3099262 -0.14020655 -0.43788296
0002b0 81 d9 d1 3e 3c 3c 13 3c 23 19 9a be 72 6f b4 be
       0.40986255 0.008986529 -0.30097303 -0.35241276
0002c0 e2 16 bf be 9b 6f c8 be fd 5b cf 3e 17 b3 9d 3e
       -0.37322146 -0.39147648 0.4049987 0.30800697
0002d0 61 05 15 3d 70 2e c4 be e5 e3 ef bd a6 f0 d5 be
       0.036382083 -0.3831668 -0.11713389 -0.41785163
0002e0 15 dd 21 3e 37 0c f6 bd 20 98 c3 bd 9c e7 0e be
       0.15806992 -0.120140485 -0.095505 -0.1395554
0002f0 d6 49 56 3e bf 70 7d 3e 71 4b c6 3d 4e d0 80 bd
       0.20926604 0.2475004 0.09682358 -0.06289731
000300 07 07 35 bd ab cd ed bb fa 86 ab be a3 d7 dc 3e
       -0.044196155 -0.0072571835 -0.33501416 0.43133268
000310 33 ce 45 be cc 41 85 3e 50 8b 80 be eb 85 00 3c
       -0.1931694 0.26026762 -0.25106287 0.0078444285
000320 5e 12 1c 3e 75 f4 d1 be 71 98 55 3e 5e 32 b1 be
       0.15241382 -0.41006818 0.20858933 -0.3460874
000330 ab e5 7e 3d 98 72 b5 bd 2b 47 84 3e 1b 3f df 3e
       0.062230747 -0.08859748 0.25835547 0.43602833
000340 e1 9c bd 3d e7 e8 52 bc 70 bd 60 be 46 fd 2a 3e
       0.09258438 -0.012872911 -0.21947265 0.16698179
000350 ea 9e 5a be a8 a1 3b 3e d1 f4 45 be 2c 34 9a 3e
       -0.21349683 0.18323386 -0.19331671 0.3011793
000360 3c 9c af 3e 47 13 8f 3e 3e 54 46 3c 20 ae 51 3e
       0.34298885 0.27944395 0.012105046 0.2047658
000370 9e 64 d2 be 54 be b9 3e 6a 83 ec bd 89 b4 27 3e
       -0.4109239 0.3627802 -0.11548503 0.16377462
000380 d9 d1 9e bd af 92 15 be 13 cf 55 be a9 7e 93 3e
       -0.07754869 -0.14606737 -0.20879774 0.28807572
000390 e9 d3 7a be dd 40 a6 bd c0 16 62 3e b2 ba 3a 3d
       -0.244949 -0.081178404 0.22078991 0.045588203
0003a0 00 a7 bf be 02 6c e3 be 10 0a 5f be 15 4c d1 3e
       -0.37432098 -0.4441834 -0.21781182 0.40878358
0003b0 85 c6 a2 be 09 2f 80 3e 1d e9 a3 3e e0 43 3f be
       -0.31792083 0.25035885 0.3201379 -0.18678236
0003c0 08 a2 4b be b9 a1 a4 be 86 b7 8d 3d 80 c8 81 bd
       -0.19886029 -0.32154635 0.0691977 -0.063370705
0003d0 f8 3c b2 3c 72 e6 46 3e 71 af 43 3e d9 65 13 be
       0.021757588 0.19423845 0.19109894 -0.1439432
0003e0 b8 57 00 3d 29 c7 e2 3d 7c 67 2f 3c 41 3b b7 3d
       0.031333655 0.11073143 0.010705825 0.08946849
0003f0 a3 a6 38 be 43 d2 bb 3e fb 58 45 bd ca 40 75 bd
       -0.18032317 0.36683854 -0.04818056 -0.05987624

fc2.weight f4 [256, 512]
000000 87 b2 23 3d 5f 76 0d 3d 9a bf 23 bd 2d 90 96 bc
       0.03996518 0.034536716 -0.039977647 -0.018379295
000010 9f 38 c0 3c d2 f8 d8 bc 9a e8 f9 3b ce d0 90 bc
       0.023464499 -0.026485834 0.007626605 -0.01767769
000020 66 28 f1 3b 4d 66 b7 3c 91 85 50 3c c6 49 fd 3c
       0.007359552 0.022387648 0.012727157 0.030918967
000030 c8 1b e1 bb 22 5c c3 3c bf 96 7c 3c 4b 26 75 bc
       -0.006869767 0.023847643 0.0154168 -0.014962743
000040 51 96 03 bd a9 da 29 3d d6 bd 38 bc c2 ed 04 3d
       -0.032125775 0.041468296 -0.011275729 0.032453306
000050 bc 6f da 3c 63 58 55 bb e4 a4 19 bd de 07 9b 3b
       0.026664607 -0.0032553903 -0.037510768 0.0047311625
000060 8b 1a a9 bc a3 22 3a 3c 1f 99 9d bc 65 e4 03 3d
       -0.02064254 0.011360797 -0.019238053 0.032200236
000070 32 63 1b bd 38 20 47 bc 4c 2d fd 3b ce 2a 61 3b
       -0.037936397 -0.012153678 0.007726347 0.003435779
000080 37 2b 0f 3d 2f ca 7e bc 20 c2 09 bd b9 16 f6 3c
       0.034953322 -0.015551134 -0.033632398 0.030040132
000090 50 fa 5b 3c b2 a2 e1 3c cb 05 de bc 60 09 d1 bc
       0.013426378 0.0275434 -0.027102372 -0.025517166
0000a0 4a c4 9b bc 30 e3 90 3b eb 1a 74 3c 81 33 c8 bc
       -0.019014496 0.004421614 0.014898996 -0.024438621
0000b0 c2 f4 f1 ba f1 82 19 bc 1c 48 25 3d a9 a1 8d bc
       -0.0018459784 -0.009369598 0.040351972 -0.017289
0000c0 6f 28 29 3d a9 04 e5 bc 4c 7d 88 bc 4e 5b 03 bd
       0.041298326 -0.027956324 -0.016661309 -0.032069497
0000d0 d6 ed 0b 3d 02 e4 ec bc a0 86 91 3c 5a fd 8e bc
       0.034162365 -0.028917316 0.01776439 -0.017454792
0000e0 6c 62 31 3d b1 10 a4 3b 41 c2 16 bd 92 c3 ed 3b
       0.043306753 0.0050068726 -0.03680635 0.00725598
0000f0 cf e8 86 3b 14 08 28 bd 89 3f 19 3c 5b 8e 2e 3d
       0.0041171084 -0.04102333 0.009353527 0.04261623
000100 8f 9e 33 3c 42 29 1a 3a 41 0a f8 bb f7 6f 56 3c
       0.010963096 0.00058807817 -0.0075695817 0.013088218
000110 7b cb 93 bc b9 e5 2b 3d c5 18 1a 3d 61 6c 9a 3c
       -0.018041363 0.041967127 0.03762128 0.018850507
000120 79 80 90 bc cd 86 2f bd 06 2d d8 bc fd d7 35 3d
       -0.017639386 -0.042853165 -0.026388656 0.044395436
000130 44 64 21 bd 01 d7 32 bd 78 0a 93 bb 2b 99 4c 3c
       -0.03940226 -0.043662075 -0.004487332 0.01248769
000140 c1 18 38 bd f1 3e 27 bd 12 b1 f1 3a 6d bf 8a bc
       -0.044945482 -0.04083151 0.0018439612 -0.016936982
000150 63 04 00 3d dc 66 37 3c 02 56 16 bd c9 9b 20 bd
       0.031254184 0.011193957 -0.036703117 -0.03921107
000160 fe 47 03 3d 9a 09 cd bb f3 b4 8f bc b3 29 4c 3c
       0.03205108 -0.006257248 -0.017542338 0.012461114
000170 f3 60 1f bc c1 d9 a1 3c e9 ae 29 3c 61 a6 98 bc
       -0.009727704 0.019757153 0.010356643 -0.018634023
000180 d3 b2 12 bd 76 58 d7 3c d2 7a e7 bc e4 f5 c2 bb
       -0.03581507 0.026287299 -0.028256807 -0.0059497226
000190 10 63 e7 3b a2 29 d0 bc 97 21 ba 3c c5 30 f3 bc
       0.0070613697 -0.025410477 0.022721095 -0.029686341
0001a0 2a 1f 1a 3c 34 80 a3 3b 0f 27 74 3c c9 1a 38 bd
       0.009406844 0.0049896482 0.01490189 -0.04494742
0001b0 9b f2 9e 3a 34 a6 9e 3c b4 00 e0 bc 8f 52 40 3c
       0.0012126745 0.019366361 -0.027344085 0.0117384335
0001c0 76 bd f6 3a aa fa 14 3d 5b 63 30 bc 57 6b bf ba
       0.0018824774 0.036371864 -0.010765876 -0.0014604133
0001d0 d8 11 a7 bc 88 1f 1f bc 56 b2 40 3c d2 4b 2a bd
       -0.02039425 -0.0097121075 0.011761269 -0.041576214
0001e0 74 7d 0b 3d c0 71 fa 3c ff 4e 9e 3c be 3e 08 3d
       0.03405519 0.030571818 0.019324778 0.03326296
0001f0 8b cd 73 bc 9c 2c 12 3c d4 5a fd 39 1b 49 03 bd
       -0.014880548 0.0089217685 0.00048323593 -0.03205214
000200 84 17 79 bc 00 76 8e bc f6 0c 27 bc e7 cf 1d bd
       -0.0152033605 -0.017390251 -0.010195961 -0.03852835
000210 af 4e 02 bd f6 7a af bb 85 bc c1 bb 28 80 20 bd
       -0.03181332 -0.0053552343 -0.005912366 -0.03918472
000220 cb a3 f3 3b 06 ff b9 3c c5 b8 1c 3d ad aa 14 3d
       0.007435297 0.022704612 0.038262147 0.03629558
000230 11 08 00 bd 5c 11 6d bc 40 9b b8 bc 46 5a 08 3c
       -0.031257693 -0.014469471 -0.022534966 0.008322304
000240 57 06 29 3c 02 52 18 3c a8 17 d7 3c 23 0b ba 3c
       0.010316453 0.009296896 0.026256397 0.022710389
000250 5f fd ba bc 22 de ee 3c f5 ab 00 3d db 7e e7 3b
       -0.022825895 0.029158656 0.03141399 0.007064683
000260 84 d1 21 bd 97 05 d6 bc 24 d0 54 3c d1 62 84 3c
       -0.03950645 -0.026125712 0.012989078 0.0161604
000270 69 f6 30 3d 9d e3 aa 3c 48 bf 90 3c 06 33 34 bb
       0.043203745 0.020860488 0.017669335 -0.0027496233
000280 cd f5 ed 3c e3 c7 8d bc 81 b1 88 3c 58 bb a5 bc
       0.029047871 -0.017307227 0.016686203 -0.020230934
000290 77 b5 c1 b9 cd 23 ce 3c f4 7d 9e 3c f7 17 3c bc
       -0.0003694703 0.025163556 0.019347169 -0.011480323
0002a0 eb f2 c8 ba 4d e6 be bc 87 e4 9b 3c e8 63 fe 3c
       -0.0015331184 -0.023303175 0.019029869 0.031053498
0002b0 8f 45 5e 3c 21 b8 35 bd 21 be 06 bd ad bc ec 3c
       0.013566389 -0.044365052 -0.032896165 0.028898561
0002c0 93 fb f0 bb 88 30 d0 3c 0f 86 0d 3d 91 c2 5a bc
       -0.0073542087 0.025413767 0.034551676 -0.013352052
0002d0 5f 2b cd bc 8f e0 26 bd f8 b5 76 3c 1f 3e ae 3c
       -0.025045095 -0.0407415 0.015058033 0.021269856
0002e0 cb 2a 19 bc a3 b3 32 bd 1f 5d f7 bc f1 7a 27 bb
       -0.009348582 -0.043628346 -0.03019577 -0.0025555457
0002f0 98 4e a8 3c b0 2a 77 bc fa 0e f6 bc 57 22 03 bd
       0.020545289 -0.015085861 -0.030036438 -0.03201517
000300 40 40 22 3d a6 5e 6c 3c ea e3 0b bd 13 a7 eb bc
       0.039612055 0.014426863 -0.034152903 -0.02876619
000310 2f e7 19 bd 04 55 ab 3b 8e 6b a0 bc c1 29 96 ba
       -0.03757399 0.0052286405 -0.019582536 -0.0011456535
000320 af 10 0d bc 9d 3b 24 bd bd 64 27 bd 82 47 12 bd
       -0.008609935 -0.040095914 -0.040867556 -0.035712726
000330 66 a9 9f bc d3 26 ea 3b 3d 99 b6 bc 22 c6 57 bb
       -0.019489955 0.0071457415 -0.022289867 -0.0032924493
000340 45 a0 d7 bb 74 bb 1f 3d c2 28 97 bc 07 cf 31 3d
       -0.006580385 0.03899713 -0.018452052 0.043410327
000350 5b 26 03 bd d0 63 1d bd c4 4d 4b 3c 60 4b c7 bc
       -0.032019 -0.038425267 0.0124086775 -0.024327934
000360 00 c5 b9 3c 75 6c c9 bc 3d 1e 11 3d fc 38 2a 3d
       0.022676945 -0.02458785 0.035429228 0.04155825
000370 0e 04 94 3b dc 4f 03 3c 1e 54 2f 3d 22 4a cd 3c
       0.004517085 0.008014645 0.04280483 0.025059763
000380 1d 9d 1b bd 03 e1 4c ba 56 e9 1b bd 03 cf 11 3d
       -0.03799163 -0.0007815512 -0.038064323 0.035597812
000390 38 dc 1c bc f0 6e 14 3a 06 89 ec bc fc bc bc bc
       -0.009573989 0.0005662283 -0.028873932 -0.023039334
0003a0 f6 22 ad 3b c4 95 1b 3d d5 05 c0 bc 3c f0 b9 3b
       0.0052837087 0.037984625 -0.02344028 0.00567439
0003b0 80 db 1f 3d f7 60 29 3d 48 f4 e0 bb 50 4e 2c 3d
       0.03902769 0.04135224 -0.006865058 0.042066872
0003c0 d7 0e 74 3c f8 9d 2a 3d 85 40 6f 3a 79 d9 19 bd
       0.014896116 0.041654557 0.00091267406 -0.037560914
0003d0 17 bc 56 bc 7d 56 73 3c 8d 23 b5 3c f5 6a 2c bd
       -0.013106368 0.014852163 0.022111678 -0.04209419
0003e0 ba 79 09 3d 29 b5 1c bd a9 bf c8 3c 32 b4 2c 3d
       0.033563353 -0.038258705 0.024505453 0.042164035
0003f0 50 41 3a 3c d1 78 eb bb c8 f1 bc 3c 18 46 45 bc
       0.011368111 -0.0071860333 0.023064509 -0.012040637

fc2.bias f4 [256]
000000 e5 81 55 bc ff 48 08 3d 45 6f f4 bc a7 94 1b bd
       -0.013031458 0.03327274 -0.029838214 -0.037983563
000010 f0 03 b8 bc c4 3e d0 3c 89 c4 03 bd 96 b5 04 3d
       -0.022462815 0.025420554 -0.032169852 0.032399736
000020 53 db 02 3d 1a 7b 05 3d 19 51 31 3c 48 93 5a 3c
       0.031947445 0.032588102 0.010822558 0.013340779
000030 b9 67 70 3c e2 7f 06 3d 93 0f 64 bc cd 75 2f 3d
       0.014673167 0.032836802 -0.013919729 0.042836953
000040 2e b3 3c bd 38 34 1e bd 8e f6 01 bd 26 86 0f 3d
       -0.046069317 -0.03862402 -0.031729273 0.035040043
000050 29 8e d1 bb ec 69 0a bd 25 77 e2 bc 4c 77 cc ba
       -0.0063951206 -0.03379242 -0.027644703 -0.0015599518
000060 11 2e 5a 3c cb 8c 23 3d 1c 77 a5 3c 10 93 98 3b
       0.013316647 0.039929193 0.020198397 0.004656203
000070 12 f3 03 bb b4 06 e0 3c 2c 9e 32 bc 78 3a a9 bb
       -0.0020133895 0.027346946 -0.010901969 -0.0051644407
000080 b6 cf 1e 3d 9b a0 01 bd 6c db bc 3c 9d 9f ed bc
       0.038772307 -0.031647306 0.023053847 -0.029006774
000090 74 29 20 bd 45 4c 8c 3c 77 4b 18 bd 64 26 11 3d
       -0.039102033 0.017126212 -0.037181344 0.035437003
0000a0 46 09 8b bc bc 51 1a bd 94 8d 30 bd 29 ec 14 3d
       -0.016972195 -0.037675604 -0.04310377 0.036358032
0000b0 79 3d 34 bd a6 27 91 3c c6 e1 c3 bc a9 3d 62 3c
       -0.044003937 0.017719101 -0.023911368 0.013808646
0000c0 b4 99 f2 3c 94 a6 34 bc 3b 5d e9 3c 6c b5 7a bc
       0.029614307 -0.011026043 0.028486839 -0.015302043
0000d0 dc 2e cd 3b 75 e9 f5 bc 92 68 d5 3c 77 62 f9 3b
       0.0062616896 -0.030018548 0.02605084 0.007610615
0000e0 8c 91 76 3b cd 81 f7 3c 48 98 24 bd 35 cf 8b 3c
       0.0037623374 0.030213261 -0.04018429 0.017066577
0000f0 5c 65 d0 bb a5 df 88 bc 6c 4e dc bb 7d cb 01 3b
       -0.006359739 -0.016708205 -0.006723216 0.0019805126
000100 b9 1b 13 3d bf b0 2a bd 6e 97 9b 3c 06 6a a1 3c
       0.03591511 -0.041672464 0.018993106 0.019703876
000110 b6 e9 24 bd 49 c7 1c bc 9c dc 7d bc 76 50 08 3d
       -0.040261947 -0.009568998 -0.015494492 0.03327986
000120 ab ba 05 bd a2 5d dc 3c a4 94 86 3c eb 20 1c 3d
       -0.032648724 0.026900116 0.0164283 0.03811733
000130 9b 0e 13 3d 58 67 27 bb c6 b3 b6 bc f4 2e 30 3d
       0.0359026 -0.0025543775 -0.02230252 0.043013528
000140 89 e4 8b bc ee d9 7c bb 96 87 81 3c cf 1b d3 3c
       -0.017076747 -0.0038582045 0.015811723 0.025770096
000150 42 0b ea 3c a5 21 a7 bc e7 0e de 3c 4f 35 90 bc
       0.028569821 -0.020401785 0.027106715 -0.017603545
000160 ab 2e fe 3a f6 7c 34 bd 2e a6 2f bb 7f ba 32 bc
       0.001939257 -0.044064485 -0.0026801932 -0.010908722
000170 e3 8c 8b ba b8 af 13 3d 71 4a 60 bc 33 47 71 3c
       -0.0010646846 0.03605625 -0.013689623 0.014726448
000180 07 75 d4 bc 66 30 e7 3c 1e ee 87 bc ae 22 97 3c
       -0.02593471 0.02822132 -0.016593035 0.018449154
000190 5a d9 c4 3c 7c 66 be 3c 47 ee 0b 3d 4e 03 0c bd
       0.024029423 0.023242228 0.034162786 -0.03418284
0001a0 8c c1 0a bb 9f 11 c9 bb ad 9d 27 bd 55 a7 91 bb
       -0.0021172492 -0.006136134 -0.040921856 -0.0044449964
0001b0 e0 e3 47 3d d8 53 61 bc 8e 53 1a 3d c7 1a 34 bc
       0.048801303 -0.0137529 0.03767734 -0.010992712
0001c0 56 79 d5 bc 16 27 f4 3c c9 83 72 bc d0 76 10 3d
       -0.026058834 0.029803794 -0.014801928 0.03526956
0001d0 f6 5d 31 bd d8 fd 39 b7 c0 9a b4 bc c3 c3 2e bd
       -0.0433025 -1.1085962e-05 -0.022046447 -0.04266716
0001e0 b6 3c 87 3c d5 ce 36 bd f9 ef 23 3d c8 8c 9f 3c
       0.016508441 -0.044630844 0.040023778 0.01947631
0001f0 f8 95 cb bc e6 79 9c bc 11 8d 41 bb ab 68 15 3d
       -0.024851784 -0.019101094 -0.0029533545 0.036476772
000200 8b 34 56 bc 07 3d 15 3d d0 b9 f4 bc dc bc 9d 3b
       -0.013074051 0.036435153 -0.029873759 0.0048137736
000210 49 e1 3b 3d f9 3a aa 3c 37 e0 f5 bb 1b 68 a1 3c
       0.045869146 0.020780073 -0.007503535 0.019702962
000220 66 6f 54 3b 00 a8 46 3c 0f 86 b3 3c 9e 5a 29 3d
       0.0032415031 0.012125015 0.02191451 0.041346185
000230 17 b2 c3 bc 12 17 0d 3d cb dd b2 3b 3a d4 17 3d
       -0.02388863 0.03444583 0.0054585687 0.03706763
000240 81 e0 13 3c e0 3f 4a 3a ea 62 ad 3c fa d9 90 3c
       0.009025694 0.00077152066 0.02116533 0.017682064
000250 97 ca fd 3c 94 4c d9 bc 01 a1 10 3d 10 28 00 3d
       0.030980391 -0.026525773 0.035309795 0.031288207
000260 e6 a0 2f 3d b7 ef 26 bd c9 7e 39 bd 94 35 e6 bc
       0.042878054 -0.040755954 -0.045286927 -0.02810172
000270 33 c2 b1 bc ae 77 e8 3c e4 43 38 3c f9 b2 8b bc
       -0.021699047 0.02837738 0.011246655 -0.017053114
000280 3b 1b 06 3c f7 1b 7c bc fd 31 cf bc 59 a6 2d 3d
       0.008185203 -0.015387527 -0.025292391 0.04239497
000290 52 a7 32 3c a5 15 1a 3d 21 2a 1b 3d 01 13 c8 bc
       0.01090415 0.037618298 0.037881974 -0.024423124
0002a0 4b 3c 19 bd 1d 9e 15 bd 92 ee c6 3c 58 32 db bc
       -0.037411015 -0.03652774 0.024283681 -0.026757404
0002b0 61 73 d6 3b 40 ab 72 3a ec 7f fc bc b6 24 6b b9
       0.006544516 0.00092570856 -0.030822717 -0.00022425022
0002c0 ef c3 4d bc ba fb 55 bc 31 48 1e bd ae 05 98 bc
       -0.012558921 -0.013060505 -0.038643066 -0.018557396
0002d0 fa ba 45 bc b8 14 0f bd bf 6e 1b bd 7b 3c e9 bc
       -0.0120685045 -0.03493187 -0.037947413 -0.028471222
0002e0 6f 87 a6 bb 88 22 31 bd 7e 11 80 3c fa 09 fb bc
       -0.005082063 -0.043245822 0.01563334 -0.030644406
0002f0 1f 3e ce bc 42 3b bf bc 0f 72 70 3c 0a b2 ed 3c
       -0.025176106 -0.023343686 0.014675631 0.02901556
000300 a6 5a b3 3b b2 1d c7 3c 97 0e 22 3c 49 60 22 39
       0.0054734526 0.024306152 0.009891174 0.00015485393
000310 ef d2 a6 3c 60 f6 23 bd 16 19 e1 bc 11 16 39 3d
       0.020364253 -0.040029883 -0.027477782 0.04518706
000320 4a ce 01 3c 02 0a 22 bd b1 09 d9 3b 55 9b 1a bd
       0.007922718 -0.039560325 0.0066234698 -0.037745792
000330 aa c2 8c bc fa e9 37 bc 4e e5 e4 bc 84 1a 23 bd
       -0.017182667 -0.011225218 -0.027941372 -0.03982021
000340 74 2f 03 bc 0b 1e ee bb 1d 0b f3 bc 08 92 39 bb
       -0.008006919 -0.007266765 -0.029668385 -0.0028315801
000350 ed 1b 14 bd 99 38 16 3d 3f 35 05 bc e4 fc 28 3d
       -0.036159445 0.03667507 -0.008130371 0.0412568
000360 11 8b 11 3c ec 17 2a bd 9f 75 3a 3d b3 f0 ea 3c
       0.008883254 -0.04152672 0.04552233 0.028679227
000370 de df 31 bc 74 eb ba 3c c9 55 dd bc 0c 79 de bc
       -0.010856597 0.02281735 -0.027018445 -0.027157329
000380 cc 89 c8 bc 80 d2 de 3c ea b5 e6 bb 20 e1 f1 ba
       -0.02447977 0.027199984 -0.007040729 -0.0018453933
000390 85 ab 1d bd 59 58 a1 3c a9 9d 9b 3b b3 9c 31 bd
       -0.038493652 0.019695448 0.004749019 -0.04336233
0003a0 0f 27 24 3c 03 7e 23 39 33 d3 3c 3c 76 d2 02 bd
       0.010019078 0.00015591834 0.011524963 -0.031938992
0003b0 36 ed de bc 3c fe 52 bb 72 26 fa 3a 57 dd 07 3d
       -0.02721272 -0.0032194993 0.0019084944 0.03317007
0003c0 94 20 0d 3d a6 b2 01 3c c1 ed 2c bb fb dc 82 bb
       0.034454897 0.007916128 -0.002638683 -0.003993628
0003d0 45 e0 01 3d b4 52 1f bd ef fa d3 3c af 3c ec bc
       0.03170802 -0.03889723 0.02587649 -0.02883753
0003e0 dd de c2 bc 7b 88 b7 bc 23 27 12 bd e6 0d 0f 3c
       -0.02378791 -0.022403946 -0.035681855 0.008731341
0003f0 ac 2e 49 bc 25 21 03 bc 82 52 f1 bc 3d c4 0c 3d
       -0.012279194 -0.008003508 -0.029458288 0.034366835

fc3.weight f4 [128, 256]
000000 fe be 87 bc 71 a0 11 bd 3a 73 e0 3c b2 2f 52 3d
       -0.016570564 -0.0355534 0.027398694 0.051315017
000010 61 94 9a bc d1 52 6d bd 86 59 e2 3c 3f 8d 31 3d
       -0.01886958 -0.057940308 0.027630579 0.043347593
000020 7b f1 07 3d 83 08 3d 3d e4 d0 2c 3d 70 32 44 bd
       0.033189278 0.046150696 0.0421914 -0.047899663
000030 37 8a 3d bd 52 2f fe 3c 60 0b 68 39 5e 0e 23 3d
       -0.04627439 0.031028423 0.00022129482 0.039808623
000040 28 5d 3d 3d 23 5e 2c bc a9 2e 74 bd ea 7c 1d 3c
       0.04623142 -0.010520491 -0.05961481 0.009612301
000050 ef c4 e2 3c 4d e6 c9 3c 3b 14 82 3b cf cb 90 bc
       0.027681796 0.024645949 0.003969697 -0.017675309
000060 58 72 3a 3d 7e 9e 23 3d 75 6b 65 3d 25 aa 0a bd
       0.045519203 0.03994607 0.056010682 -0.03385367
000070 ce f0 ad bc 81 b4 e2 3c fa bb 50 3d ec 38 84 3d
       -0.021232989 0.027673962 0.05096052 0.064561695
000080 27 b9 4a bd 37 75 a0 3c c8 3a a8 3c 3c 01 1c bd
       -0.04949298 0.019587142 0.020535842 -0.038087115
000090 5e 1d 22 bc ee 62 bf 3c 7a 5a 81 bc 6b 47 30 3d
       -0.009894697 0.023362603 -0.015790213 0.04303686
0000a0 e9 30 1b bc 21 a5 05 bc c8 2d 94 3c c9 c7 bc bc
       -0.00947211 -0.008157046 0.018088236 -0.023044484
0000b0 7f 8d 18 bd cc 74 4c 3d 3a 49 3a 3c b9 41 55 bd
       -0.037244316 0.049916074 0.011369998 -0.05206463
0000c0 2d 88 4d 3d 67 ac 0a 3d c4 37 34 bc 09 3c ed bc
       0.050178695 0.033855822 -0.010999624 -0.028959291
0000d0 28 24 be bc 3e 2c ce bc 71 f5 52 3d fb 2b 2f 3c
       -0.0232106 -0.02516758 0.051503602 0.010691638
0000e0 c6 57 5f 3b 7a 7c c5 bc f4 59 77 3d 15 b2 59 bd
       0.0034079417 -0.024107207 0.06038852 -0.053148348
0000f0 a2 b7 4f bd b2 d5 18 bd 10 e1 50 3d 99 31 ce 3c
       -0.050712235 -0.03731317 0.050995886 0.025170134
000100 76 a2 71 bd b4 2e 3c bd e9 08 21 bc ae 2c 32 3d
       -0.058992825 -0.045942977 -0.0098287845 0.04349964
000110 46 b7 34 3b 56 85 85 3d d1 e5 49 bd a5 af cf 3c
       0.002757506 0.065195724 -0.049291436 0.025352309
000120 92 f6 81 bc de 67 6f 3c 8c 4f 74 bc 09 22 2b bd
       -0.015864644 0.014612166 -0.014911544 -0.041780505
000130 0c 7f 65 bd c4 e7 3d bd 12 e7 0f bd 72 07 65 bd
       -0.056029364 -0.046363607 -0.035132475 -0.055915304
000140 67 3f 6f 3c b6 07 73 bc bb e5 88 3b 9c 16 be bc
       0.014602519 -0.014833381 0.0041777766 -0.02320414
000150 0b d1 50 bd da 98 3f bd 6f 18 c6 bc 32 9a 76 bd
       -0.05098061 -0.04677663 -0.024181573 -0.060205646
000160 47 99 0b 3d 68 08 18 3d b7 ab 1a bd 9d 88 98 3c
       0.034081724 0.03711739 -0.037761416 0.01861983
000170 22 d5 26 bd 10 01 be bc db 6d 92 bc a3 48 2c bd
       -0.040730603 -0.023193866 -0.017874649 -0.04206146
000180 78 4b d4 3c 2e 4c 85 3c 10 40 f5 3b 9b 52 05 3c
       0.025914893 0.016271677 0.0074844435 0.00813737
000190 04 e0 65 bd 09 6f 69 3c a3 ec 38 3d 3d 49 0c bd
       -0.05612184 0.014247664 0.04514755 -0.034249533
0001a0 cd db 61 bd 42 97 58 b9 4c 24 f0 3c 54 4d 5a 3c
       -0.05514126 -0.00020655713 0.029314183 0.0133241005
0001b0 0d e4 07 3d 2f 38 e8 bb c2 30 d6 bb 66 d6 6a bd
       0.03317647 -0.0070867757 -0.006536574 -0.057333373
0001c0 8b 06 82 bd 7f 04 59 bd de d2 53 bd 5f 48 1f 3c
       -0.06348904 -0.052982803 -0.05171477 0.009721844
0001d0 d4 91 62 bc 09 e6 d2 bc 9c 89 6a bd 92 6b 4d 3d
       -0.013828713 -0.025744455 -0.05726014 0.050151415
0001e0 c7 79 54 bb 48 0d 09 3d bc 47 56 bd 7a 8e 1d bd
       -0.0032421218 0.03345993 -0.052314505 -0.038465954
0001f0 fd 62 18 3d 45 ca 28 3d 5d da 32 bd e4 0b 45 3d
       0.037203778 0.041208524 -0.04366528 0.048107043
000200 4f 51 0c 3d 9f 4e 52 3d d1 6e 4a bd e0 85 80 bd
       0.03425723 0.05134451 -0.04942209 -0.06275535
000210 dd ed 60 bd ec c9 33 3b 1b 1c 9d 3c 5c 19 88 bc
       -0.054914344 0.0027433587 0.01917844 -0.016613655
000220 fd 59 7b bc 96 8e 89 3c 7d f1 08 bd f3 e0 28 bd
       -0.015341279 0.016791623 -0.033433426 -0.041230153
000230 bd 6a 5c bd 95 7a 50 3c f5 dd 2f bd 4d c6 99 3c
       -0.05381273 0.012724538 -0.042936284 0.018771315
000240 91 78 ed bb cf 6f 25 bd 34 a5 61 3d 77 17 0e 3d
       -0.0072470387 -0.040389832 0.05508919 0.034690347
000250 9d 10 45 3d b3 c7 54 bd ae c0 1b bd 96 87 04 bd
       0.048111547 -0.05194826 -0.03802555 -0.032355867
000260 4a 8c b7 3b 83 3d f9 3c 61 1b 6e bd b3 8d 9a 3c
       0.0056014406 0.030424839 -0.05813158 0.018866396
000270 ee 7a 7d 3d 63 d5 34 3d fc 53 6c bc 24 2d e1 3a
       0.061884813 0.044148814 -0.01442432 0.0017179591
000280 f4 ec d1 bb c2 91 5d 3d 4e 59 53 3d 11 d1 f6 bb
       -0.006406421 0.054094084 0.05159884 -0.007532247
000290 fe 37 3b bd 2b d1 bd bc e5 ca 19 3d b3 42 36 3d
       -0.045707695 -0.023171028 0.03754701 0.044497203
0002a0 2a 58 13 3d 1c b1 d3 bc 23 b3 22 bb 4c 8a 0c 3c
       0.03597275 -0.025841288 -0.0024826012 0.008577894
0002b0 d6 72 da 3c 7f fb 49 bd 0e 97 7b 3c 82 ef bd bc
       0.026666086 -0.04931211 0.015355838 -0.023185495
0002c0 06 4d 4e bc 79 aa 0a 3d d5 86 cb 3c 76 e5 63 3d
       -0.012591606 0.03385398 0.024844566 0.055638753
0002d0 71 85 fa 3c eb f3 34 bd be c7 32 bb 7e 3b 6b bd
       0.030581208 -0.04417793 -0.00272797 -0.057429783
0002e0 b4 cf db bb 38 5d c8 bb 90 36 ac 3b f7 42 7a 3c
       -0.0067081098 -0.006114628 0.005255528 0.015274755
0002f0 2d 65 83 3c 0e 97 69 bd 7d f0 85 bc 39 0c 4f bc
       0.016039455 -0.057028823 -0.016350025 -0.012637191
000300 e7 01 20 3d dc 6d 7d bd 5e 86 4d 3b 0a d2 08 bd
       0.039064314 -0.06187235 0.0031360607 -0.033403434
000310 2b b8 64 bc bb 3e 13 bd 4d f1 aa 3a bb 2d f9 3c
       -0.013959925 -0.035948496 0.0013041884 0.030417314
000320 bf d8 10 bd 2e f7 a4 bc 74 27 7f 3d 3f 0d ac bc
       -0.035362955 -0.020137396 0.062293485 -0.02100241
000330 f6 18 9b 3c 4a a7 46 bd ef 5d 27 3d e0 c8 b3 b9
       0.0189328 -0.048499383 0.040861066 -0.00034291204
000340 b3 4b 9d bc 0c 1f 94 bc c9 01 68 3d dd 7d 4c 3d
       -0.019201135 -0.01808121 0.056642327 0.04992472
000350 72 45 0f bd f2 0d 75 bd 9b 77 bf 3c be ce 8d bb
       -0.034978338 -0.059827752 0.023372462 -0.004327624
000360 bf bf e6 3b 79 76 f5 3c 40 c6 4a bd 16 7d e6 3c
       0.007041901 0.029963719 -0.049505472 0.028135817
000370 d1 7b 06 bd 50 5c 3e 3c 6c ba be bb ea 25 a2 bb
       -0.032832924 0.011618689 -0.005820563 -0.0049483674
000380 8c 93 2f 3d 59 c4 4a bc 42 92 74 3c 3c fc d2 3b
       0.04286532 -0.0123759145 0.014927449 0.00643876
000390 c8 07 73 3d 5e f8 45 bd f3 dd 7c 3d d8 ff 85 3c
       0.059333593 -0.048332565 0.061735105 0.016357347
0003a0 84 a4 ed b9 92 68 cd bb 94 98 03 bc a0 c7 9b 3a
       -0.00045326736 -0.0062685693 -0.008031983 0.0011885054
0003b0 38 3b 9b bc a7 ec e7 3b 44 bd 81 3d fa 31 43 bc
       -0.018949136 0.0070777717 0.06334928 -0.011913771
0003c0 48 a1 d4 3c 1c 92 c3 ba 74 46 9e bc 31 c5 8e bc
       0.025955811 -0.0014920863 -0.019320704 -0.017428013
0003d0 25 6e 00 3c 82 92 bb bb 4b df 18 3c 01 0a 50 bd
       0.0078387605 -0.005724252 0.009330581 -0.05079079
0003e0 72 b6 5d bb f4 e2 56 bd 26 af 63 bd cc 48 08 bc
       -0.003383067 -0.052462533 -0.055586956 -0.008318137
0003f0 af 2b 11 3c 0a fb 65 3d 97 66 b6 bb 29 1d 7c 3c
       0.008860513 0.056147613 -0.005566429 0.015387812

fc3.bias f4 [128]
000000 09 a5 cc 3c 78 2a 0f bd a7 cc 58 3d 92 ea 44 bd
       0.024981039 -0.03495261 0.052929547 -0.048075266
000010 ff 81 8a 3c 5a e5 fc 3b 15 64 2a 3c 5b f1 b1 bc
       0.01690769 0.0077177705 0.010399838 -0.021721533
000020 f0 2c 80 3d 0d bf 14 3c 21 3b 8a bb f2 40 24 bc
       0.06258571 0.009078753 -0.0042184745 -0.01002525
000030 5b d3 f1 3c 1e d1 97 3b a8 c2 3f bd 14 ce 2f 3d
       0.029519727 0.004633083 -0.046816498 0.04292114
000040 7d 47 01 bd e7 50 9a 3b 24 7e 3e bd 64 24 c3 3b
       -0.031562317 0.0047093513 -0.046507016 0.005955266
000050 15 6a 70 3d 28 49 22 bd f1 01 57 bd b7 77 4f bb
       0.058694918 -0.03962055 -0.052492086 -0.003165705
000060 a8 91 00 bd 47 1a 2b bd 1d f1 1a 3d b3 eb 6c bd
       -0.03138891 -0.041773107 0.0378276 -0.057841968
000070 3c 02 b7 bc 64 47 64 3d 29 f7 4a 3c 69 75 05 3d
       -0.022339933 0.055732146 0.012388029 0.032582674
000080 bb ba 48 bd b8 44 f4 3c e3 da 3c 3c b0 90 17 3b
       -0.049006205 0.029817924 0.011526796 0.0023127012
000090 bb 97 1e 3d 32 d4 cc bc 26 22 4c 3c bb 5b 1e 3d
       0.03871892 -0.025003526 0.0124593135 0.0386617
0000a0 99 5d 21 3c 14 fb 5e 3d 98 3c 2f 3d e2 ce 35 3d
       0.009848976 0.054438666 0.042782396 0.044386752
0000b0 db 1d c8 bc 69 0a bc 3c c4 b7 11 3c 93 8d 13 3d
       -0.024428299 0.022954183 0.008893911 0.036023688
0000c0 1e c4 75 b9 1a 25 8c 3c 7f 0c 0b bd 54 57 6e 3d
       -0.0002343808 0.017107535 -0.033947464 0.05818875
0000d0 e7 48 a3 3a 56 95 67 bd e2 c8 ae bc 29 5c 79 bd
       0.001245764 -0.056538902 -0.021336023 -0.060878906
0000e0 4f c9 7e bc ad 92 14 3d 9a 59 0d 3d e5 90 8f bc
       -0.015550925 0.036272693 0.03450928 -0.017525146
0000f0 04 6e 23 bd d3 b2 80 3b b9 a1 bb 3c 9c 47 8c bb
       -0.03989984 0.0039275675 0.022904264 -0.0042809974
000100 61 a5 00 bc 5a a4 9a 3c 17 c4 3f 3d 2a 5b 2f 3d
       -0.007851929 0.018877197 0.046817865 0.04281155
000110 03 90 33 bd d4 ff 18 bd 2c 97 9d bb ea 77 a5 bb
       -0.043838512 -0.03735335 -0.004809281 -0.0050496953
000120 38 37 28 3d 54 78 47 3d 49 5d a7 bb 9d a1 d3 bc
       0.041068286 0.04869874 -0.005107556 -0.0258339
000130 70 b5 28 3d 5b cf a3 3c 42 30 38 3d 32 83 3e 3d
       0.041188657 0.019996336 0.044967897 0.046511836
000140 00 f3 05 bd 19 f0 10 3c a1 71 3f bd 27 70 11 bd
       -0.032702446 0.008846306 -0.046739224 -0.035507347
000150 f8 87 6d bd 73 1f 13 bd 9f 6e 56 3d 1e 7f 22 3d
       -0.057990998 -0.035918664 0.05235159 0.03967201
000160 6b 69 54 3d 86 f5 5a bd 39 16 ab 3c 1f fc 6f 3b
       0.051858347 -0.053456806 0.02088462 0.0036618782
000170 53 b1 f7 bc 61 ba 0a bd 99 b6 65 bd e3 45 1c 38
       -0.030235922 -0.03386915 -0.05608234 3.7258385e-05
000180 65 d0 b6 bc 30 19 9d bb be 79 a0 3b 38 b2 63 3d
       -0.022316167 -0.0047942623 0.0048973253 0.055589885
000190 74 2b 80 bd 1a d4 db bc 6d 71 45 3c 7c 7f 53 3c
       -0.06258288 -0.026834536 0.012050969 0.012908813
0001a0 f6 ec 80 bb 92 81 81 3b f8 8c 38 bd 69 59 7d bc
       -0.003934498 0.0039522136 -0.045056313 -0.015463212
0001b0 f9 20 ba 3c 26 64 ff bc 41 3f 75 bd e7 38 ed 3c
       0.0227208 -0.031175684 -0.059874777 0.028957797
0001c0 16 68 4c 3d f3 3c 0e bd a0 d8 26 3c 10 29 b6 3b
       0.04990395 -0.034726094 0.010183483 0.0055590943
0001d0 14 eb 32 bd cd 5b 07 3d 3c 3a 79 bd 14 eb 53 3d
       -0.04368122 0.033046532 -0.060846552 0.05173786
0001e0 2d 32 09 bd 93 b3 1e 3c 6d 10 82 3c ba 19 39 3c
       -0.033495117 0.0096863685 0.015876973 0.011297638
0001f0 0d df 49 bb 8d 8b 6b 3d e0 7a 91 3c e5 b6 17 bd
       -0.0030803115 0.057506133 0.017758787 -0.037039656

bn1.weight f4 [512]
000000 47 04 80 3f 63 20 7f 3f 28 10 80 3f 23 c8 7f 3f
       1.0001305 0.99658793 1.000493 0.9991476
000010 9e f5 7f 3f 5b 26 80 3f ac 84 7f 3f 9a bc 7f 3f
       0.9998416 1.0011705 0.99811816 0.9989716
000020 1e f2 7f 3f b9 d6 7f 3f 74 8f 7e 3f 13 f1 7f 3f
       0.99978817 0.99937016 0.9943764 0.99977225
000030 ca 11 80 3f f4 15 80 3f 0c 98 7f 3f a6 ed 7f 3f
       1.0005429 1.00067 0.9984138 0.99972
000040 8b e1 7f 3f e7 18 80 3f 7f 21 80 3f 5f d1 7f 3f
       0.99953526 1.00076 1.0010222 0.9992885
000050 f5 f2 7f 3f 5d b8 7f 3f 23 f0 7f 3f 5d 03 80 3f
       0.999801 0.9989069 0.99975795 1.0001026
000060 b7 42 80 3f 5a f4 7f 3f 15 e8 7f 3f d5 40 80 3f
       1.002036 0.99982226 0.99963504 1.0019785
000070 01 21 80 3f 34 db 7f 3f c1 1d 80 3f f9 21 80 3f
       1.0010072 0.9994385 1.000908 1.0010368
000080 85 15 80 3f 58 1e 80 3f b0 a7 7f 3f a8 d0 7f 3f
       1.0006567 1.000926 0.99865246 0.9992776
000090 37 11 80 3f d8 ff 7f 3f 52 b7 7f 3f b6 0d 80 3f
       1.0005254 0.9999976 0.998891 1.0004184
0000a0 c0 29 80 3f 0b 9c 7f 3f 7c 00 80 3f bb ea 7f 3f
       1.0012741 0.9984748 1.0000148 0.99967545
0000b0 49 38 7f 3f 44 16 80 3f 9b 1d 80 3f 53 d8 7f 3f
       0.9969526 1.0006795 1.0009035 0.9993946
0000c0 11 b1 7f 3f ce 61 7f 3f 06 2f 80 3f a7 0f 80 3f
       0.99879557 0.99758613 1.001435 1.0004777
0000d0 c3 10 80 3f eb 24 80 3f a9 7b 7f 3f 79 0f 80 3f
       1.0005115 1.0011266 0.99798065 1.0004722
0000e0 a3 cf 7f 3f 79 df 7f 3f 60 23 80 3f 09 39 80 3f
       0.99926203 0.9995037 1.0010796 1.0017406
0000f0 92 0c 80 3f 03 8a 7f 3f ca 31 80 3f b6 d7 7f 3f
       1.0003836 0.99819964 1.0015194 0.99938524
000100 f6 aa 7f 3f cc 0d 80 3f d9 17 80 3f 71 05 80 3f
       0.9987024 1.000421 1.0007278 1.000166
000110 68 b8 7f 3f 3b fb 7f 3f e6 a8 7f 3f 5e 1c 80 3f
       0.99890757 0.9999272 0.99867094 1.0008657
000120 cb 31 80 3f aa 1c 80 3f a1 34 80 3f 64 e8 7f 3f
       1.0015196 1.0008748 1.0016061 0.99963975
000130 67 f0 7f 3f 62 a4 7f 3f 29 ea 7f 3f b5 24 80 3f
       0.999762 0.99860203 0.99966675 1.0011202
000140 ea 07 80 3f 7d 2c 80 3f b0 2f 80 3f 14 70 80 3f
       1.0002415 1.0013577 1.0014553 1.0034204
000150 bf b2 7f 3f 8b e3 7f 3f 4e dd 7f 3f e9 2d 80 3f
       0.9988212 0.9995658 0.9994706 1.0014011
000160 08 bd 7f 3f 19 a2 7f 3f 6c 1f 80 3f 84 22 80 3f
       0.99897814 0.99856716 1.0009589 1.0010533
000170 30 3c 80 3f 17 ff 7f 3f d5 3a 80 3f fb 01 80 3f
       1.0018368 0.9999861 1.0017954 1.0000604
000180 93 d7 7f 3f a9 4c 80 3f 90 fb 7f 3f 38 1e 80 3f
       0.99938315 1.0023395 0.9999323 1.0009222
000190 3e 16 80 3f 98 25 80 3f f4 0f 80 3f 34 00 80 3f
       1.0006788 1.0011473 1.0004869 1.0000062
0001a0 68 ab 7f 3f ff 30 80 3f a2 00 80 3f e6 15 80 3f
       0.9987092 1.0014952 1.0000193 1.0006683
0001b0 1b d0 7f 3f ce 9f 7f 3f 6c c2 7f 3f 95 07 80 3f
       0.9992692 0.9985322 0.9990604 1.0002314
0001c0 57 b5 7f 3f 61 9e 7f 3f 54 f1 7f 3f b1 39 80 3f
       0.9988608 0.9985104 0.9997761 1.0017606
0001d0 61 8b 7f 3f 95 f2 7f 3f ba 11 80 3f b7 06 80 3f
       0.9982205 0.99979526 1.000541 1.0002049
0001e0 66 dd 7f 3f dd 08 80 3f f4 0a 80 3f 00 08 80 3f
       0.999472 1.0002705 1.0003343 1.0002441
0001f0 0d b8 7f 3f d7 95 7f 3f 0d 46 7f 3f 4f f2 7f 3f
       0.99890214 0.9983801 0.99716264 0.9997911
000200 ca a7 7f 3f 19 d1 7f 3f 2b ef 7f 3f 26 ff 7f 3f
       0.998654 0.9992843 0.99974316 0.999987
000210 93 0f 80 3f c8 32 80 3f 5e 06 80 3f 10 bc 7f 3f
       1.0004753 1.0015497 1.0001943 0.99896336
000220 c8 6f 7f 3f f2 97 7f 3f 31 dd 7f 3f 0f 98 7f 3f
       0.9977994 0.99841225 0.99946886 0.998414
000230 06 db 7f 3f 8c 49 80 3f 61 0a 80 3f ef 2e 80 3f
       0.9994358 1.0022445 1.0003167 1.0014323
000240 9d 0a 80 3f ba 72 7f 3f bf 3b 80 3f 81 25 80 3f
       1.0003239 0.99784434 1.0018233 1.0011445
000250 f4 07 80 3f cc 19 80 3f cb f2 7f 3f b1 39 80 3f
       1.0002427 1.0007873 0.9997985 1.0017606
000260 9b 01 80 3f 1b 25 80 3f 7c 10 80 3f 76 f6 7f 3f
       1.000049 1.0011324 1.0005031 0.99985445
000270 93 13 80 3f 4f 16 7f 3f ae 9a 7f 3f b9 e7 7f 3f
       1.0005974 0.99643415 0.998454 0.99962956
000280 15 f5 7f 3f 03 1c 80 3f 00 ea 7f 3f 93 06 7f 3f
       0.9998334 1.0008548 0.9996643 0.99619406
000290 81 0d 80 3f b7 16 80 3f 00 eb 7f 3f 2c 2e 80 3f
       1.0004121 1.0006932 0.99967957 1.001409
0002a0 0e 36 80 3f 99 06 80 3f 18 dd 7f 3f f1 1c 80 3f
       1.0016496 1.0002013 0.9994674 1.0008832
0002b0 ba 1f 80 3f 3e 04 80 3f 97 a0 7f 3f 10 c8 7f 3f
       1.0009682 1.0001295 0.99854416 0.99914646
0002c0 7b f1 7f 3f b4 1a 80 3f 92 e5 7f 3f 86 08 80 3f
       0.99977845 1.0008149 0.9995967 1.0002601
0002d0 05 0a 80 3f 55 0d 80 3f d6 bc 7f 3f 36 89 7f 3f
       1.0003058 1.0004069 0.99897516 0.9981874
0002e0 1e 1f 80 3f d2 05 80 3f c2 12 80 3f d6 0f 80 3f
       1.0009496 1.0001776 1.0005724 1.0004833
0002f0 2b 49 80 3f f1 f7 7f 3f dd d8 7f 3f 87 06 80 3f
       1.0022329 0.99987704 0.9994028 1.0001992
000300 a4 f9 7f 3f b9 41 7f 3f 8d 14 80 3f 34 c3 7f 3f
       0.99990296 0.9970966 1.0006272 0.9990723
000310 0f 02 80 3f d8 0c 80 3f 79 eb 7f 3f ce 1b 80 3f
       1.0000628 1.000392 0.9996868 1.0008485
000320 2c 03 80 3f 60 27 80 3f 78 e1 7f 3f 4f 15 80 3f
       1.0000968 1.0012016 0.99953413 1.0006503
000330 22 ec 7f 3f e9 09 80 3f 0a ea 7f 3f 19 05 80 3f
       0.99969685 1.0003024 0.9996649 1.0001556
000340 a3 1d 80 3f 44 f1 7f 3f 77 d4 7f 3f 1d b5 7f 3f
       1.0009044 0.9997752 0.9993357 0.9988573
000350 1c 9d 7f 3f 0a 46 80 3f 1d 03 80 3f 41 05 80 3f
       0.99849105 1.0021374 1.000095 1.0001603
000360 61 2a 7f 3f e1 d3 7f 3f 24 e1 7f 3f c6 0e 80 3f
       0.9967404 0.99932677 0.9995291 1.0004508
000370 00 1e 80 3f 68 1f 80 3f 34 fd 7f 3f 01 17 80 3f
       1.0009155 1.0009584 0.9999573 1.000702
000380 df ac 7f 3f 2e a2 7f 3f 3a f1 7f 3f 16 13 80 3f
       0.99873155 0.9985684 0.9997746 1.0005825
000390 fa a0 7f 3f ad 0a 80 3f bd f6 7f 3f 6d 59 7f 3f
       0.99855006 1.0003258 0.9998587 0.9974583
0003a0 57 18 80 3f 27 19 80 3f fc fb 7f 3f e9 f1 7f 3f
       1.0007428 1.0007676 0.9999387 0.999785
0003b0 19 e8 7f 3f 61 f9 7f 3f b1 de 7f 3f 7e b3 7f 3f
       0.9996353 0.99989897 0.99949175 0.9988326
0003c0 7e 28 80 3f 7a 04 80 3f ff d0 7f 3f c3 c5 7f 3f
       1.0012357 1.0001366 0.9992828 0.99911135
0003d0 67 3f 80 3f b1 05 80 3f 7d dc 7f 3f 08 d7 7f 3f
       1.0019349 1.0001737 0.99945813 0.99937487
0003e0 26 1a 80 3f 9f 22 80 3f b2 ed 7f 3f 58 39 80 3f
       1.000798 1.0010566 0.9997207 1.00175
0003f0 f3 19 80 3f 59 07 80 3f 50 14 80 3f d7 1c 80 3f
       1.0007919 1.0002242 1.0006199 1.0008801
