data/rl4wound_paper_res/ctr/models_map524/agent_ctr_True_ep_1074.pth (torch, 950255 bytes, 21 tensors)

fc1.weight f4 [512, 5]
-0.0054204566 0.24122259 -0.3651659 -0.3252706 -0.17296681 0.11679737 -0.008585502 0.35544357
-0.039637886 0.11868253 -0.134601 -0.08946223 -0.4263117 -0.29660764 -0.18157901 0.017635755
0.17776757 0.26634508 -0.30489954 -0.19569302 0.16297247 0.36799738 -0.09300737 0.33630547
-0.070239365 0.045693293 0.40677828 -0.41391456 -0.27726883 -0.11610486 -0.17464355 0.3837605
-0.2875455 -0.20872007 -0.30984104 -0.41864374 -0.2576105 0.3829952 0.20065704 0.21751587
0.024225952 -0.22729664 0.07295056 -0.419337 -0.3247446 -0.23310603 0.2810126 0.26522353
-0.19516122 -0.013260933 0.28340465 0.44607365 0.17699572 0.061550576 0.29582822 -0.26234114
0.083672576 -0.3464619 -0.3099475 -0.23171644 0.19885848 0.1783443 -0.26247033 0.1372294
0.24773425 -0.055703346 0.017113747 0.10249171 0.27411467 0.43254656 -0.34320405 -0.16436285
0.17505082 0.3733476 0.38727054 0.39512685 0.08842 -0.38962224 0.041018054 -0.27898863
-0.41587517 0.39878067 0.33843625 -0.44772482 0.0819015 -0.07625117 -0.070432074 -0.20328315
0.17081068 -0.26650053 0.16239525 0.22786973 0.3189629 0.1679864 -0.44181433 -0.29006845
0.22135809 0.09365878 -0.3483981 -0.258459 0.4210481 0.2979042 -0.19616368 -0.11043274
-0.42887402 -0.011591812 -0.33517742 -0.3474157 -0.024746995 0.06485868 -0.18233953 0.2662931
-0.273985 0.40280858 0.31020024 -0.3758771 -0.111426234 0.020197934 0.06656732 0.10791507
0.17853542 0.029536594 -0.22055638 0.20797537 -0.4329675 -0.26341906 -0.109970786 -0.21914828
-0.15928012 -0.3658573 -0.09177903 0.09528256 -0.29270685 -0.02399056 0.31960574 -0.0457915
0.015379068 -0.04014681 0.08798036 0.2866769 0.4215228 0.2868751 0.4244567 -0.030983426
-0.4039526 -0.21354643 0.30067286 -0.0006953024 -0.2208406 -0.34253928 -0.4167575 -0.37683964
-0.0924861 0.24159208 0.24520528 -0.43279773 0.27798545 -0.34805468 -0.09428408 -0.18300565
-0.08618683 -0.09241748 -0.4003747 -0.38383076 -0.07245025 0.009024889 -0.200164 0.1645104
-0.40668845 -0.03348755 0.3941048 -0.17949787 0.40295708 0.1613395 -0.40516207 0.28395268
-0.05195691 -0.19842733 0.35608464 -0.36334825 0.046976097 -0.09109819 0.3192451 0.12556164
0.21465944 0.15850371 -0.104426116 -0.09692075 -0.37267467 0.24107797 0.3564462 0.30635244
-0.31640574 0.018321311 -0.31554037 -0.24562138 -0.25917205 0.15179111 -0.26720417 -0.010901172
0.017379595 0.2928681 -0.3385253 -0.30545923 -0.26085797 0.31426954 -0.1630184 0.3740865
0.1633738 0.056341868 -0.00314975 -0.08402548 0.054657206 -0.10480358 -0.0060072676 0.056365795
-0.35475376 -0.23247911 0.36354756 -0.36022663 -0.027613549 0.44470745 0.15739475 0.009763318
-0.38798228 0.2214838 -0.32180265 -0.12530181 -0.14855033 -0.06234497 0.00465738 0.3733383
0.05416259 0.39811653 0.27379254 -0.28464165 0.20015599 -0.3158358 -0.18850301 0.13066801
0.14916445 0.3349104 -0.14395152 0.00013625613 0.23023541 -0.43092102 0.3244675 -0.3717938
0.0042353123 -0.07519062 -0.23396683 0.05736912 0.3696476 -0.13105309 -0.2678661 -0.16646194
00000000: 169e b1bb 0e03 773e 06f7 babe de89 a6be
00000010: 361e 31be 7633 ef3d 35aa 0cbc b3fc b53e
00000020: 565b 22bd d40f f33d d8d4 09be f937 b7bd
00000030: 8745 dabe f5dc 97be d9ef 39be dc78 903c
00000040: b408 363e 625e 883e cb1b 9cbe c063 48be
00000050: 41e2 263e 276a bc3e a67a bebd 3b30 ac3e
00000060: a8d9 8fbd e428 3b3d 3e45 d03e 9cec d3be
00000070: 2ef6 8dbe 63c8 edbd c2d5 32be 427c c43e
00000080: 2a39 93be b7ba 55be 7ca3 9ebe 7958 d6be
00000090: 86e5 83be f217 c43e 0a79 4d3e 7bbc 5e3e
000000a0: 8175 c63c 73c0 68be 1a67 953d 57b3 d6be
000000b0: ed44 a6be 59b3 6ebe e2e0 8f3e 61cb 873e
000000c0: 58d8 47be 6244 59bc 6a1a 913e c463 e43e
000000d0: 5e3e 353e 751c 7c3d cc76 973e 9451 86be
000000e0: 875c ab3d 7463 b1be 70b1 9ebe 1347 6dbe
000000f0: 8fa1 4b3e e39f 363e 8362 86be dd85 0c3e
00000100: 0cae 7d3e 3129 64bd 2132 8c3c 2ce7 d13d
00000110: c258 8c3e be76 dd3e 71b8 afbe bc4e 28be
00000120: 8640 333e 6b27 bf3e 5348 c63e 114e ca3e
00000130: 8c15 b53d 917c c7be 8c02 283d 99d7 8ebe
00000140: 97ed d4be fb2c cc3e 8447 ad3e 303c e5be
00000150: f9bb a73d 9329 9cbd b13e 90bd 7529 50be
00000160: ffe8 2e3e c272 88be f14a 263e af56 693e
00000170: 1b4f a33e a004 2c3e 7d35 e2be da83 94be
00000180: b2ab 623e 2dd0 bf3d 3c61 b2be bd54 84be
00000190: 9e93 d73e e686 983e 22df 48be 8f2a e2bd
000001a0: 6095 dbbe 95eb 3dbc 609c abbe 78e0 b1be
000001b0: 36ba cabc a1d4 843d 37b7 3abe 9257 883e
000001c0: c347 8cbe ed3c ce3e 91d2 9e3e f772 c0be
000001d0: 7033 e4bd 2376 a53c 7254 883d 9402 dd3d
000001e0: fdd1 363e baf6 f13c 88d9 61be 7ff7 543e
000001f0: ebad ddbe ddde 86be 5d38 e1bd 6868 60be
00000200: 541a 23be a651 bbbe a5f6 bbbd 8123 c33d
00000210: acdd 95be da87 c4bc 5da3 a33e de8f 3bbd
00000220: 7df8 7b3c fb70 24bd 0c2f b43d 51c7 923e
00000230: d6d1 d73e 4be1 923e 6352 d93e f4d0 fdbc
00000240: e0d2 cebe eaab 5abe cbf1 993e f444 36ba
00000250: 0a24 62be 4f61 afbe 3d61 d5be 20f1 c0be
00000260: 5a69 bdbd ea63 773e 1817 7b3e aa97 ddbe
00000270: 1c54 8e3e 3934 b2be 0318 c1bd d565 3bbe
00000280: b982 b0bd 6045 bdbd eafd ccbe 7785 c4be
00000290: cc60 94bd 21dd 133c cbf7 4cbe 6a75 283e
000002a0: 7839 d0be 3e2a 09bd 1bc8 c93e 4ace 37be
000002b0: 6450 ce3e 2f36 253e 6771 cfbe 3f62 913e
000002c0: c5d0 54bd 8930 4bbe ba50 b63e c808 babe
000002d0: 026a 403d b091 babd 1874 a33e 3b93 003e
000002e0: afcf 5b3e cc4e 223e 5cdd d5bd 637e c6bd
000002f0: 37cf bebe 25dd 763e 1e80 b63e 3ada 9c3e
00000300: efff a1be 9316 963c 828e a1be 2c84 7bbe
00000310: 33b2 84be 216f 1b3e fcce 88be d49a 32bc
00000320: a75f 8e3c cff2 953e 3053 adbe 2765 9cbe
00000330: 2d8f 85be f0e7 a03e 4cee 26be 4488 bf3e
00000340: 764b 273e bbc6 663d 096c 4ebb 8d15 acbd
00000350: 3ce0 5f3d 42a3 d6bd 9dd8 c4bb d2df 663d
00000360: 49a2 b5be 010f 6ebe e822 ba3e a06f b8be
00000370: cf35 e2bc b2b0 e33e 172c 213e 53f6 1f3c
00000380: 9da5 c6be a6cc 623e 51c3 a4be 1e4f 00be
00000390: 941d 18be 705d 7fbd ef9c 983b 3326 bf3e
000003a0: 98d9 5d3d eed5 cb3e 892e 8c3e 8dbc 91be
000003b0: b1f5 4c3e 3bb5 a1be ef06 41be d6cd 053e
000003c0: 91be 183e 6079 ab3e 0768 13be fadf 0e39
000003d0: d5c2 6b3e aea1 dcbe 9b20 a63e c25b bebe
000003e0: 60c8 8a3b 8afd 99bd 0095 6fbe e2fb 6a3d
000003f0: 7342 bd3e c832 06be bf25 89be 0075 2abe

fc1.bias f4 [512]
-0.294533 -0.3145295 0.2973085 -0.14578116 -0.028941464 0.13393213 -0.2763988 0.041608952
0.26492932 -0.2623031 0.129825 -0.015772205 0.2455648 0.29688692 0.11564497 0.012119019
-0.3852771 0.17850013 0.27261204 -0.16303803 -0.44053152 0.3672101 -0.10479579 0.08697562
-0.12688224 0.29004335 0.4367333 0.2803461 -0.13919064 0.31586698 0.2163434 0.044511374
-0.36034068 -0.19062893 -0.4434686 0.2987198 0.44189668 0.25974587 0.1393078 0.105705075
0.42968807 -0.226343 -0.15056816 -0.3988372 -0.042773183 0.027292902 0.12265679 -0.31169903
-0.049328677 -0.37072328 -0.3620312 0.05878796 -0.43643376 0.12010113 -0.41387126 -0.3106538
-0.09227991 -0.42484555 0.36127597 0.36631712 -0.22969769 0.09914797 0.2318667 0.14199135
-0.05786556 -0.41805667 0.32720384 -0.39352027 -0.08039739 0.026345804 -0.14998686 -0.15745252
-0.38772807 0.022096906 -0.04916214 0.39007327 -0.14675969 0.33885488 0.026622718 -0.20466863
-0.10686144 -0.054166626 0.0057210205 -0.07931092 0.13267234 0.37184623 0.07098673 0.16183607
0.27849126 0.09564244 0.20613046 0.23449291 0.41341215 -0.4087287 0.15352072 -0.020314204
-0.079850696 -0.1658121 0.2636482 0.40915805 -0.36478704 0.2404722 0.3124486 0.07815669
0.008236014 0.3436779 0.0101743685 -0.11087135 -0.033728402 0.14049701 0.110777855 -0.018393502
0.13742267 0.12033266 -0.35740116 0.11119781 0.27438328 0.05030052 -0.040302224 0.34266764
-0.39028472 -0.20402634 -0.20136227 0.38608295 -0.43356946 0.05001749 -0.4379178 -0.015649594
0.16859603 -0.102365024 0.43411043 0.0028225768 -0.22765914 0.11530593 0.2272286 -0.00095433835
0.3825804 -0.2817421 0.19103874 0.24839857 0.22249839 0.001171209 0.12158933 -0.34748
-0.3450249 -0.027314888 -0.05871985 0.33226803 0.3305491 0.3050837 -0.20695667 -0.34963244
-0.41815355 0.16753322 -0.39928257 -0.4476957 -0.22311534 -0.38119066 -0.18060015 -0.28187984
-0.2306914 0.42546588 -0.08494404 0.37058654 0.008867813 -0.061421975 -0.13008314 -0.3181036
-0.35867116 0.3099336 -0.14021103 -0.43787748 0.40987164 0.008996208 -0.30097052 -0.35241744
-0.3732136 -0.39147952 0.40499958 0.3080068 0.036375873 -0.38317162 -0.117138624 -0.41785353
0.1580521 -0.12014707 -0.095499724 -0.13955255 0.20925283 0.24752647 0.09681363 -0.062927425
-0.044199605 -0.0072530517 -0.33501294 0.43132138 -0.19317845 0.2602726 -0.25105652 0.007843222
0.15236895 -0.41005307 0.20859785 -0.34610164 0.062218215 -0.08859388 0.25837034 0.43601745
0.092571974 -0.012866212 -0.2194807 0.1669825 -0.21349902 0.18323256 -0.19331026 0.30117545
0.34298703 0.2794823 0.012119063 0.20475884 -0.41093707 0.36278272 -0.11547951 0.16376986
-0.0775486 -0.14605102 -0.20879826 0.28808022 -0.24494664 -0.08119516 0.22076754 0.045594096
-0.3743147 -0.44418925 -0.21780913 0.4087781 -0.31790665 0.250372 0.3201337 -0.1867927
-0.1988649 -0.32154799 0.0692099 -0.06337212 0.021754684 0.19424023 0.19109558 -0.1439488
0.0313369 0.11075451 0.010695229 0.089458905 -0.18032184 0.36682555 -0.048194915 -0.059897784
00000000: 08cd 96be 030a a1be d238 983e a847 15be
00000010: a616 edbc 8125 093e 2584 8dbe 266e 2a3d
00000020: d1a4 873e 984c 86be d8f0 043e b634 81bc
00000030: 5775 7b3e 9001 983e 45d7 ec3d da8e 463c
00000040: 0a43 c5be bdc8 363e ce93 8b3e 71f3 26be
00000050: 598d e1be f602 bc3e 2d9f d6bd 4620 b23d
00000060: 6bed 01be 9080 943e 829b df3e 8689 8f3e
00000070: fe87 0ebe 51b9 a13e 2089 5d3e 8f51 363d
00000080: 937e b8be 3b34 43be 510e e3be cdf1 983e
00000090: 4840 e23e 69fd 843e b4a6 0e3e e77b d83d
000000a0: 1300 dc3e 76c6 67be 8a2e 1abe 6434 ccbe
000000b0: ef32 2fbd 5d95 df3c 7c33 fb3d 0497 9fbe
000000c0: de0c 4abd 71cf bdbe 275c b9be a5cb 703d
000000d0: 3f74 dfbe 95f7 f53d efe6 d3be 040e 9fbe
000000e0: 40fd bcbd 5b85 d9be 2af9 b83e eb8d bb3e
000000f0: df35 6bbe 170e cb3d 776e 6d3e 2e66 113e
00000100: 7004 6dbd 860b d6be 4387 a73e 7d7b c9be
00000110: 63a7 a4bd 28d3 d73c 2896 19be 3c3b 21be
00000120: 4b84 c6be 9204 b53c 3d5e 49bd afb7 c73e
00000130: 2c48 16be 637e ad3e e317 da3c a794 51be
00000140: 2cda dabd d3dd 5dbd 6677 bb3b c36d a2bd
00000150: 42db 073e a162 be3e 7e61 913d 5bb8 253e
00000160: 6896 8e3e 2fe0 c33d dd13 533e e91e 703e
00000170: c2aa d33e e344 d1be 8934 1d3e f969 a6bc
00000180: c388 a3bd a6ca 29be e6fc 863e 2a7d d13e
00000190: 5ec5 babe 583e 763e 43f9 9f3e 9d10 a03d
000001a0: 59f0 063c 8df6 af3e 65b2 263c 8510 e3bd
000001b0: cb26 0abd 73de 0f3e 80df e23d f8ad 96bc
000001c0: 87b8 0c3e f870 f63d 49fd b6be adbb e33d
000001d0: f77b 8c3e eb07 4e3d f213 25bd 2272 af3e
000001e0: 66d3 c7be 48ec 50be e931 4ebe aaac c53e
000001f0: d1fc ddbe 24df 4c3d c336 e0be 9433 80bc
00000200: 70a4 2c3e c1a4 d1bd b943 de3e fbfa 383b
00000210: 7a1f 69be 8425 ec3d 9dae 683e 902c 7aba
00000220: 94e1 c33e 8040 90be a99f 433e 325c 7e3e
00000230: 9ed6 633e 4183 993a d403 f93d e6e8 b1be
00000240: 1ba7 b0be 79c3 dfbc 3a84 70bd 091f aa3e
00000250: bb3d a93e ee33 9c3e 73ec 53be 0603 b3be
00000260: 3918 d6be d48d 2b3e c46e ccbe 5f38 e5be
00000270: 5978 64be 6c2b c3be 3fef 38be 8e52 90be
00000280: 5e3a 6cbe aad6 d93e 24f7 adbd 85bd bd3e
00000290: 4e4a 113c 9c95 7bbd 8434 05be 7ade a2be
000002a0: bfa3 b7be 9eaf 9e3e 7b93 0fbe 7a31 e0be
000002b0: b2da d13e d564 133c cf18 9abe 0f70 b4be
000002c0: da15 bfbe 0170 c8be 1b5c cf3e 11b3 9d3e
000002d0: defe 143d 122f c4be 60e6 efbd e6f0 d5be
000002e0: 69d8 213e ab0f f6bd 5c95 c3bd dde6 0ebe
000002f0: 6046 563e 9477 7d3e 3946 c63d 18e0 80bd
00000300: a50a 35bd 02ab edbb d186 abbe 28d6 dc3e
00000310: 92d0 45be 7342 853e 7b8a 80be db80 003c
00000320: 9b06 1c3e 7af2 d1be ad9a 553e 3c34 b1be
00000330: 87d8 7e3d b570 b5bd 1e49 843e ae3d df3e
00000340: 6096 bd3d cecc 52bc 8cbf 60be 76fd 2a3e
00000350: 7d9f 5abe 51a1 3b3e 20f3 45be ab33 9a3e
00000360: ff9b af3e 4e18 8f3e 098f 463c 4dac 513e
00000370: 5866 d2be a8be b93e 8580 ecbd 49b3 273e
00000380: cdd1 9ebd 668e 15be 36cf 55be 407f 933e
00000390: 4bd3 7abe a649 a6bd e310 623e e0c0 3a3d
000003a0: 2da6 bfbe c66c e3be 5b09 5fbe 5d4b d13e
000003b0: a9c4 a2be c230 803e 90e8 a33e 9646 3fbe
000003c0: 3ea3 4bbe f0a1 a4be ecbd 8d3d 3ec9 81bd
000003d0: e136 b23c e9e6 463e 8fae 433e 5067 13be
000003e0: 1f5b 003d 43d3 e23d 0b3b 2f3c 3b36 b73d
000003f0: 4aa6 38be 8fd0 bb3e 0868 45bd 6157 75bd

fc2.weight f4 [256, 512]
0.03996555 0.034540493 -0.039977726 -0.018371115 0.023460217 -0.026485365 0.007628033 -0.017678348
0.007360861 0.02239786 0.012730271 0.030919835 -0.0068731345 0.023841327 0.015411529 -0.014965341
-0.032119416 0.041462395 -0.011275706 0.032459423 0.026664365 -0.0032569438 -0.03751571 0.0047291084
-0.020647604 0.01136115 -0.01923916 0.0321967 -0.037930254 -0.012144735 0.007716558 0.003436767
0.034953263 -0.015548873 -0.03363306 0.030033972 0.013426315 0.02754385 -0.02710422 -0.025513282
-0.019013684 0.0044206 0.01490362 -0.024445726 -0.0018394322 -0.00937029 0.040347278 -0.017287849
0.04129826 -0.027957108 -0.016657371 -0.032068234 0.034158833 -0.028922645 0.017757082 -0.017453859
0.043298442 0.005008909 -0.03680522 0.0072526303 0.0041128653 -0.041024253 0.009357996 0.042606186
0.010960039 0.0005848748 -0.0075705927 0.01308605 -0.01804249 0.041969992 0.037618585 0.018853158
-0.017647017 -0.042853206 -0.026387382 0.044394758 -0.039409224 -0.04365584 -0.004487549 0.012488476
-0.044951793 -0.040823076 0.0018449863 -0.016941544 0.031242851 0.011194614 -0.03670202 -0.039215885
0.032047063 -0.006257801 -0.01754244 0.012463403 -0.009722689 0.019757098 0.01036782 -0.018631378
-0.035822753 0.026296586 -0.028252939 -0.0059593422 0.007059049 -0.025403863 0.02272403 -0.029693356
0.009409863 0.0049923155 0.014901865 -0.044947736 0.0012159956 0.019366281 -0.027341524 0.011730415
0.0018777065 0.036364544 -0.010765417 -0.0014651486 -0.020403262 -0.009717251 0.011752524 -0.041580774
0.03404807 0.030573886 0.019327033 0.033257473 -0.014877756 0.008924043 0.0004839593 -0.032052323
-0.015202952 -0.017388245 -0.010192853 -0.038522746 -0.03180743 -0.00535189 -0.005918676 -0.039191544
0.007435268 0.02269977 0.03825765 0.036293756 -0.03126138 -0.014463958 -0.022535328 0.008315302
0.010315787 0.009293485 0.026256692 0.022705538 -0.022821592 0.02915843 0.031411693 0.0070671826
-0.039511044 -0.026120506 0.012983191 0.016155964 0.043203585 0.020855676 0.017670177 -0.002752941
0.029051762 -0.017308349 0.016691213 -0.020228462 -0.0003663708 0.02515767 0.01934825 -0.011479953
-0.0015357272 -0.02330074 0.019030944 0.031048475 0.013568655 -0.044365514 -0.032898273 0.028909596
-0.007362451 0.025411874 0.03454946 -0.013366851 -0.025045818 -0.0407466 0.015056278 0.021262415
-0.009356433 -0.043633766 -0.030202378 -0.00255994 0.020535633 -0.015095276 -0.030036233 -0.032019604
0.039620303 0.014423932 -0.034153786 -0.028761476 -0.0375723 0.0052293492 -0.019579347 -0.0011477325
-0.0086089345 -0.04009748 -0.04086159 -0.035711408 -0.019498385 0.0071482323 -0.022288015 -0.0032921683
-0.006577661 0.03899897 -0.018454222 0.0434075 -0.0320218 -0.038430076 0.012410782 -0.024335109
0.022677703 -0.024586884 0.035424903 0.04155605 0.0045151473 0.008007277 0.04279938 0.0250611
-0.03800052 -0.0007884235 -0.038068116 0.03559438 -0.009573196 0.0005615027 -0.028875664 -0.023037108
0.005275921 0.037992183 -0.023439288 0.005680953 0.03903287 0.041350603 -0.00686847 0.04206271
0.014900143 0.04165572 0.00091697735 -0.037552692 -0.013107945 0.014849252 0.02211258 -0.042096272
0.0335694 -0.03826616 0.024507213 0.042160697 0.011374465 -0.0071886717 0.023065029 -0.012042785
00000000: ebb2 233d 557a 0d3d afbf 23bd 057f 96bc
00000010: a42f c03c d6f7 d8bc 94f4 f93b 2fd2 90bc
00000020: 6133 f13b b87b b73c a092 503c 984b fd3c
00000030: 0838 e1bb e34e c33c a380 7c3c 3131 75bc
00000040: a68f 03bd 79d4 293d bdbd 38bc 2cf4 043d
00000050: 3a6f da3c 7372 55bb 13aa 19bd a3f6 9a3b
00000060: 2a25 a9bc 1e24 3a3c 719b 9dbc b0e0 033d
00000070: c15c 1bbd b6fa 46bc 2edb fc3b 623b 613b
00000080: 272b 0f3d b3c0 7ebc d2c2 09bd ce09 f63c
00000090: 0cfa 5b3c a4a3 e13c ab09 debc 3b01 d1bc
000000a0: 96c2 9bbc aeda 903b 502e 743c 6742 c8bc
000000b0: 1a19 f1ba d885 19bc 3043 253d 3f9f 8dbc
000000c0: 5d28 293d 4e06 e5bc 0a75 88bc fb59 03bd
000000d0: 22ea 0b3d 2fef ecbc 4d77 913c 65fb 8ebc
000000e0: b559 313d c621 a43b 12c1 16bd 79a7 ed3b
000000f0: 37c5 863b 0c09 28bd 4852 193c d383 2e3d
00000100: bc91 333c 4952 193a bc12 f8bb df66 563c
00000110: d8cd 93bc bae8 2b3d f215 1a3d f071 9a3c
00000120: 7a90 90bc d886 2fbd 5a2a d8bc 47d7 353d
00000130: 916b 21bd 77d0 32bd 4a0c 93bb 779c 4c3c
00000140: 5f1f 38bd 1936 27bd 78d3 f13a fec8 8abc
00000150: 02f1 ff3c 9d69 373c db54 16bd d6a0 20bd
00000160: c843 033d 3d0e cdbb 2ab5 8fbc 4d33 4c3c
00000170: ea4b 1fbc a3d9 a13c cadd 293c d5a0 98bc
00000180: e1ba 12bd f06b d73c b572 e7bc 9646 c3bb
00000190: 984f e73b c31b d0bc bf27 ba3c 7b3f f3bc
000001a0: d32b 1a3c 9496 a33b f426 743c 1e1b 38bd
000001b0: 0b62 9f3a 09a6 9e3c 55fb dfbc ed30 403c
000001c0: 601d f63a fdf2 143d 6e61 30bc 3b0a c0ba
000001d0: be24 a7bc 1b35 1fbc a98d 403c 9a50 2abd
000001e0: fd75 0b3d 1676 fa3c ba53 9e3c fd38 083d
000001f0: d5c1 73bc 2636 123c ebbb fd39 4c49 03bd
00000200: cd15 79bc cb71 8ebc edff 26bc 07ca 1dbd
00000210: 8248 02bd e85e afbb 74f1 c1bb 5087 20bd
00000220: 8ca3 f33b def4 b93c 0eb4 1c3d c3a8 143d
00000230: ef0b 00bd 3dfa 6cbc 029c b8bc e83c 083c
00000240: 8c03 293c b443 183c 4618 d73c f700 ba3c
00000250: 59f4 babc a9dd ee3c 8ca9 003d d393 e73b
00000260: 55d6 21bd acfa d5bc 73b7 543c 8359 843c
00000270: 3ef6 303d 86d9 aa3c 0cc1 903c b06a 34bb
00000280: f6fd ed3c 3dca 8dbc 03bc 883c 29b6 a5bc
00000290: 7515 c0b9 7517 ce3c 3980 9e3c 6a16 3cbc
000002a0: 744a c9ba 32e1 bebc c8e6 9b3c 5f59 fe3c
000002b0: 104f 5e3c 9db8 35bd 57c0 06bd d1d3 ec3c
000002c0: b740 f1bb 902c d03c bc83 0d3d a300 5bbc
000002d0: e32c cdbc e8e5 26bd 9bae 763c 842e ae3c
000002e0: b94b 19bc 52b9 32bd fa6a f7bc abc4 27bb
000002f0: 583a a83c 2d52 77bc 8c0e f6bc fd26 03bd
00000300: e648 223d 5b52 6c3c d7e4 0bbd 309d ebbc
00000310: 69e5 19bd f65a ab3b de64 a0bc 836f 96ba
00000320: 7d0c 0dbc 413d 24bd 7c5e 27bd 2046 12bd
00000330: 14bb 9fbc b83b ea3b 5b95 b6bc 6bc1 57bb
00000340: 6b89 d7bb 62bd 1f3d 4f2d 97bc 10cc 313d
00000350: 4a29 03bd db68 1dbd 9856 4b3c 6c5a c7bc
00000360: 97c6 b93c 6f6a c9bc b419 113d ad36 2a3d
00000370: cdf3 933b f430 033c 674e 2f3d f04c cd3c
00000380: 6fa6 1bbd 35ae 4eba 50ed 1bbd 6acb 113d
00000390: e5d8 1cbc cf31 133a a88c ecbc 51b8 bcbc
000003a0: a2e1 ac3b b19d 1b3d c003 c0bc 4a27 ba3b
000003b0: eee0 1f3d 405f 293d e710 e1bb f349 2c3d
000003c0: bb1f 743c 309f 2a3d 4f61 703a dad0 19bd
000003d0: b5c2 56bc 474a 733c 7125 b53c 246d 2cbd
000003e0: 1180 093d fabc 1cbd 5ac3 c83c b2b0 2c3d
000003f0: f75b 3a3c f38e ebbb dff2 bc3c 1a4f 45bc

fc2.bias f4 [256]
-0.013031732 0.033284456 -0.029828418 -0.037991237 -0.02245198 0.025413321 -0.03215389 0.032395665
0.031938843 0.032578964 0.0108388215 0.013287063 0.014671207 0.032842726 -0.013909507 0.042818524
-0.046071786 -0.03860761 -0.031725377 0.035038374 -0.0063920543 -0.03379841 -0.027643058 -0.001554649
0.013314923 0.03992579 0.020195972 0.004662769 -0.0019894235 0.027337834 -0.0108816195 -0.0051628966
0.038767196 -0.03165068 0.023052447 -0.029005228 -0.03909846 0.017128427 -0.03716777 0.035436835
-0.016980164 -0.037666555 -0.043107964 0.03634324 -0.044009395 0.017699199 -0.023908991 0.013815023
0.02959994 -0.011030619 0.028478414 -0.015299656 0.0062602535 -0.030047307 0.026059072 0.0076126773
0.0037687104 0.030213328 -0.040176846 0.017057288 -0.006344098 -0.016697407 -0.0067260712 0.0019868542
0.03590215 -0.041668713 0.018985605 0.019700037 -0.040270105 -0.009556727 -0.015493561 0.033278797
-0.032638818 0.026896436 0.016429644 0.03811954 0.03593188 -0.0025562167 -0.022294186 0.043032195
-0.017085345 -0.0038545595 0.015806368 0.025766576 0.028568156 -0.020401735 0.027116181 -0.017597495
0.0019493079 -0.044060398 -0.002682555 -0.010914077 -0.0010479883 0.036056947 -0.013693314 0.014715584
-0.025939137 0.028205842 -0.016587812 0.018463597 0.024030464 0.023258377 0.034163926 -0.034197845
-0.0021098435 -0.0061451276 -0.04090584 -0.0044311886 0.048830546 -0.013738912 0.037693817 -0.010997652
-0.026041243 0.02980642 -0.014802828 0.03525064 -0.043298386 -1.2439159e-06 -0.022058943 -0.04268275
0.016520016 -0.044632748 0.04003317 0.0194759 -0.024839133 -0.019107778 -0.0029660875 0.03648649
-0.013070786 0.036433883 -0.029866626 0.0048151375 0.045877002 0.020795196 -0.0075042513 0.019706419
0.003219877 0.012121594 0.021925986 0.041353565 -0.023896238 0.034455128 0.00545283 0.037064955
0.009035732 0.00074178306 0.021173116 0.01767445 0.03097383 -0.026526015 0.035343155 0.03128429
0.042876408 -0.04074782 -0.045307145 -0.02810607 -0.021725593 0.028373789 0.0112669235 -0.017078292
0.008193135 -0.015382282 -0.025292754 0.04237597 0.010917735 0.037627794 0.03789585 -0.024447415
-0.03741479 -0.036530975 0.024289284 -0.026723862 0.0065408004 0.0009050444 -0.03082119 -0.00023527867
-0.0125549035 -0.013067339 -0.038614262 -0.01855633 -0.012082098 -0.034925014 -0.03795145 -0.028467994
-0.005069388 -0.0432605 0.015630437 -0.030667856 -0.025192302 -0.023340153 0.014681288 0.029050754
0.0054665245 0.024305783 0.009868979 0.00016852771 0.020371847 -0.040033307 -0.02747189 0.045183606
0.007936727 -0.03955014 0.006628835 -0.03774875 -0.017187908 -0.011231741 -0.027942171 -0.039804365
-0.007990867 -0.007278001 -0.029682597 -0.0028392284 -0.036145672 0.036676537 -0.008121842 0.041250095
0.008859452 -0.041530035 0.045521468 0.028674977 -0.01082203 0.022842469 -0.027026959 -0.027140003
-0.02446635 0.027208066 -0.0070336964 -0.0018416583 -0.038497407 0.019708809 0.0047363318 -0.043368526
0.010026685 0.00014599155 0.011530467 -0.031939246 -0.02721418 -0.0032334658 0.0019109352 0.033173792
0.03446515 0.007915623 -0.0026370771 -0.003981786 0.031704873 -0.038871843 0.025880221 -0.028838983
-0.023792855 -0.022397839 -0.0356642 0.008731461 -0.012253403 -0.008013698 -0.029475698 0.034366347
00000000: 0c83 55bc 4855 083d ba5a f4bc b39c 1bbd
00000010: 37ed b7bc 992f d03c ccb3 03bd 51b1 043d
00000020: 4ed2 023d 8571 053d 5095 313c fbb1 593c
00000030: 815f 703c 1886 063d b3e4 63bc 7a62 2f3d
00000040: c5b5 3cbd 0323 1ebd 78f2 01bd 6684 0f3d
00000050: 7074 d1bb 3470 0abd b273 e2bc 5dc5 cbba
00000060: d626 5a3c 3a89 233d 0672 a53c 24ca 983b
00000070: fd60 02bb 98f3 df3c d248 32bc 842d a9bb
00000080: 5aca 1e3d 25a4 01bd 7cd8 bc3c 5f9c edbc
00000090: b525 20bd ea50 8c3c 3b3d 18bd 3726 113d
000000a0: fc19 8bbc 3f48 1abd fa91 30bd a6dc 143d
000000b0: 3243 34bd e9fd 903c cadc c3bc 6858 623c
000000c0: 937b f23c c5b9 34bc 904b e93c 69ab 7abc
000000d0: d022 cd3b c525 f6bc d679 d53c c473 f93b
000000e0: 78fc 763b f181 f73c 7a90 24bd babb 8b3c
000000f0: 27e2 cfbb 00c9 88bc 6066 dcbb e235 023b
00000100: 220e 133d d0ac 2abd b387 9b3c f961 a13c
00000110: 44f2 24bd d193 1cbc b4d8 7dbc 594f 083d
00000120: 48b0 05bd ea55 dc3c 7697 863c 3c23 1c3d
00000130: 4f2d 133d 3386 27bb 4ca2 b6bc 8742 303d
00000140: 91f6 8bbc c79c 7cbb 5b7c 813c 6d14 d33c
00000150: c407 ea3c 8a21 a7bc c122 de3c 9f28 90bc
00000160: eb7f ff3a ad78 34bd cecd 2fbb f5d0 32bc
00000170: a75c 89ba 73b0 133d ec59 60bc a219 713c
00000180: 507e d4bc f00f e73c 2ae3 87bc f840 973c
00000190: 89db c43c 5a88 be3c 79ef 0b3d 0a13 0cbd
000001a0: 4d45 0abb 115d c9bb e28c 27bd 8133 91bb
000001b0: 8a02 483d 2c19 61bc d564 1a3d 7f2f 34bc
000001c0: 7254 d5bc 982c f43c 9087 72bc fa62 103d
000001d0: a659 31bd a0f4 a6b5 f5b4 b4bc 1bd4 2ebd
000001e0: fc54 873c d4d0 36bd d2f9 233d ec8b 9f3c
000001f0: 707b cbbc ea87 9cbc b162 42bb dc72 153d
00000200: da26 56bc b23b 153d dbaa f4bc 4dc8 9d3b
00000210: 86e9 3b3d b05a aa3c 39e6 f5bb 5b6f a13c
00000220: 9204 533b a699 463c 209e b33c 5b62 293d
00000230: 0bc2 c3bc d220 0d3d a7ad b23b 6cd1 173d
00000240: 9b0a 143c 3874 423a 3e73 ad3c 02ca 903c
00000250: d4bc fd3c 164d d9bc fcc3 103d f523 003d
00000260: 2c9f 2f3d 30e7 26bd fc93 39bd b33e e6bc
00000270: dff9 b1bc 2670 e83c e798 383c c6e7 8bbc
00000280: 803c 063c f805 7cbc c032 cfbc 6d92 2d3d
00000290: 4de0 323c 9a1f 1a3d ae38 1b3d f245 c8bc
000002a0: 4040 19bd 81a1 15bd 52fa c63c 00ec dabc
000002b0: 3654 d63b 8040 6d3a b87c fcbc 23b5 76b9
000002c0: 15b3 4dbc 6418 56bc fd29 1ebd 7203 98bc
000002d0: fef3 45bc 880d 0fbd fb72 1bbd b635 e9bc
000002e0: 1c1d a6bb ec31 31bd 670b 803c 283b fbbc
000002f0: 1660 cebc d933 bfbc c989 703c d9fb ed3c
00000300: 8820 b33b ec1c c73c 80b1 213c d0b6 3039
00000310: dce2 a63c f7f9 23bd bb0c e1bc 7212 393d
00000320: 0c09 023c 54ff 21bd b336 d93b 6f9e 1abd
00000330: a8cd 8cbc 5605 38bc fbe6 e4bc e709 23bd
00000340: 20ec 02bc 4c7c eebb eb28 f3bc 5912 3abb
00000350: 7c0d 14bd 233a 163d 7911 05bc dcf5 283d
00000360: 3c27 113c 661b 2abd b874 3a3d c9e7 ea3c
00000370: e24e 31bc 2120 bb3c a467 ddbc b654 debc
00000380: a86d c8bc 73e3 de3c ec7a e6bb cc63 f1ba
00000390: 75af 1dbd 5e74 a13c 3b33 9b3b 32a3 31bd
000003a0: f746 243c 4f15 1939 49ea 3c3c bad2 02bd
000003b0: 46f0 debc 8ee8 53bb 5878 fa3a 3ee1 073d
000003c0: 542b 0d3d 87b0 013c d0d2 2cbb a479 82bb
000003d0: f8dc 013d 1538 1fbd c202 d43c bb3f ecbc
000003e0: 3ce9 c2bc ac7b b7bc a014 12bd 670e 0f3c
000003f0: 7fc2 48bc e34b 03bc 0577 f1bc bac3 0c3d

fc3.weight f4 [128, 256]
-0.016570149 -0.03554545 0.027390707 0.051318057 -0.018876595 -0.05793784 0.027617885 0.043351658
0.033193335 0.046139292 0.042187314 -0.04789609 -0.046272956 0.031026341 0.00020852525 0.039814655
0.046230555 -0.010520261 -0.05960666 0.009616411 0.027682628 0.024641084 0.00398495 -0.01768245
0.04552149 0.03994166 0.05601313 -0.033848293 -0.021223744 0.027675053 0.050949506 0.064562045
-0.049491007 0.019588346 0.020538324 -0.038088493 -0.009894523 0.023368226 -0.015792945 0.043039862
-0.00947237 -0.008151881 0.018092074 -0.023046482 -0.03723308 0.04993971 0.011373893 -0.052066013
0.050180357 0.033856757 -0.010997977 -0.02895592 -0.02320069 -0.025175432 0.051498614 0.010688631
0.0034060786 -0.024103954 0.06038484 -0.053135067 -0.050702106 -0.03733034 0.050995972 0.02516764
-0.058998425 -0.04593673 -0.009829669 0.043501675 0.0027550408 0.0651993 -0.049288545 0.025369784
-0.015864134 0.014618592 -0.014916709 -0.041778933 -0.056033537 -0.046366446 -0.035130665 -0.055907827
0.014606889 -0.014835795 0.0041813445 -0.023207217 -0.0509834 -0.046771653 -0.0241817 -0.06020441
0.034083102 0.037126385 -0.03775782 0.018621508 -0.040727943 -0.023199009 -0.017882986 -0.042065166
0.025914798 0.016268821 0.007482562 0.008139625 -0.056120064 0.014244687 0.045147367 -0.034246366
-0.05514632 -0.00020488368 0.029315919 0.013318232 0.033188954 -0.0070913997 -0.0065373876 -0.05733281
-0.06348904 -0.052978117 -0.05171614 0.009728544 -0.013825247 -0.025741376 -0.057269216 0.05015335
-0.0032422042 0.033455867 -0.052306134 -0.038463753 0.037218947 0.041209698 -0.0436637 0.04810795
0.0342577 0.051351856 -0.049422976 -0.06275057 -0.054914866 0.0027500552 0.019180538 -0.016615981
-0.015333136 0.016795577 -0.033427693 -0.041239347 -0.0538073 0.012728246 -0.042936075 0.018772636
-0.007245863 -0.040385462 0.055085707 0.03468598 0.048105013 -0.05194511 -0.038021334 -0.03235367
0.005602105 0.030432958 -0.05813585 0.01886023 0.061892934 0.044151045 -0.014431825 0.0017134728
-0.0064091296 0.054091968 0.05159804 -0.007542576 -0.0456942 -0.023181455 0.03754481 0.044504113
0.03597475 -0.025841078 -0.002488699 0.008584861 0.026667234 -0.049311403 0.015357848 -0.02318013
-0.012595062 0.03387511 0.024841275 0.05564414 0.030578319 -0.044172984 -0.0027280198 -0.057422526
-0.0067035183 -0.006104527 0.0052565667 0.015263717 0.016046826 -0.057028405 -0.016356032 -0.0126400925
0.039072484 -0.061872184 0.0031349505 -0.033403054 -0.013957396 -0.03596366 0.001307215 0.030415837
-0.035368107 -0.020133749 0.062300738 -0.021004671 0.01893755 -0.04849732 0.04086234 -0.00033726462
-0.01920634 -0.018072212 0.056643073 0.04992593 -0.03495938 -0.059828915 0.02337926 -0.004322759
0.007041787 0.029970096 -0.049494684 0.028119082 -0.032824628 0.011609687 -0.0058196895 -0.0049510705
0.042869948 -0.012378011 0.014930633 0.006439918 0.059336565 -0.048339494 0.06174023 0.016356654
-0.0004634357 -0.006264348 -0.008028477 0.0011813077 -0.01894563 0.0070793177 0.06335689 -0.011907568
0.025955144 -0.0014953173 -0.01932384 -0.017422741 0.007842432 -0.0057288627 0.009335206 -0.050790694
-0.0033775074 -0.05246569 -0.055581957 -0.008312789 0.008867484 0.0561494 -0.0055768853 0.015385885
00000000: 1fbe 87bc 1b98 11bd 7a62 e03c e232 523d
00000010: 17a3 9abc 3b50 6dbd e73e e23c 8291 313d
00000020: bcf5 073d 8efc 3c3d 9bcc 2c3d b12e 44bd
00000030: b688 3dbd f42a fe3c 92a7 5a39 b114 233d
00000040: 405c 3d3d 2c5d 2cbc 1d26 74bd 278e 1d3c
00000050: aec6 e23c 19dc c93c 2f94 823b c9da 90bc
00000060: be74 3a3d de99 233d 066e 653d 82a4 0abd
00000070: 6bdd adbc cbb6 e23c 6eb0 503d 1b39 843d
00000080: 15b7 4abd bd77 a03c fd3f a83c ae02 1cbd
00000090: a31c 22bc b96e bf3c 3560 81bc 914a 303d
000000a0: 0032 1bbc 788f 05bc d435 943c facb bcbc
000000b0: b781 18bd 958d 4c3d 9159 3a3c 2c43 55bd
000000c0: eb89 4d3d 62ad 0a3d dc30 34bc f734 edbc
000000d0: 600f bebc b53c cebc 36f0 523d 5e1f 2f3c
000000e0: 8438 5f3b a875 c5bc 1856 773d 28a4 59bd
000000f0: 03ad 4fbd b3e7 18bd 27e1 503d 5e2c ce3c
00000100: 55a8 71bd 2728 3cbd 9f0c 21bc d02e 323d
00000110: ea8d 343b 3687 853d c9e2 49bd 4bd4 cf3c
00000120: 80f5 81bc d282 6f3c 3665 74bc 6320 2bbd
00000130: 6c83 65bd beea 3dbd 2ce5 0fbd 9bff 64bd
00000140: bc51 6f3c d611 73bc a903 893b 101d bebc
00000150: f8d3 50bd a293 3fbd b318 c6bc e698 76bd
00000160: b99a 0b3d d611 183d f2a7 1abd 228c 983c
00000170: 58d2 26bd d90b bebc 577f 92bc 864c 2cbd
00000180: 454b d43c 3146 853c 4830 f53b 105c 053c
00000190: 27de 65bd 8c62 693c 72ec 383d eb45 0cbd
000001a0: 1ce1 61bd 0bd6 56b9 f027 f03c b734 5a3c
000001b0: 24f1 073d f95e e8bb 9537 d6bb cfd5 6abd
000001c0: 8b06 82bd 95ff 58bd 4ed4 53bd 7964 1f3c
000001d0: 4a83 62bc 94df d2bc 2093 6abd 996d 4d3d
000001e0: 297b 54bb 0509 093d f53e 56bd 2b8c 1dbd
000001f0: e572 183d 80cb 283d b5d8 32bd d70c 453d
00000200: cd51 0c3d 5356 523d bf6f 4abd 5f83 80bd
00000210: 69ee 60bd 453a 343b 8120 9d3c 3d1e 88bc
00000220: d537 7bbc e196 893c 7aeb 08bd 97ea 28bd
00000230: 0b65 5cbd 228a 503c bddd 2fbd 12c9 993c
00000240: b46e edbb 3a6b 25bd 8da1 613d e312 0e3d
00000250: c309 453d 65c4 54bd 42bc 1bbd 4885 04bd
00000260: dd91 b73b 8a4e f93c db1f 6ebd c580 9a3c
00000270: 7283 7d3d bad7 343d 7673 6cbc 9b96 e03a
00000280: ad03 d2bb 8a8f 5d3d 7758 533d b727 f7bb
00000290: d729 3bbd 09e7 bdbc 96c8 193d f249 363d
000002a0: 425a 133d abb0 d3bc 7119 23bb 84a7 0c3c
000002b0: 3e75 da3c c1fa 49bd 7c9f 7b3c 42e4 bdbc
000002c0: 855b 4ebc a1c0 0a3d ee7f cb3c 1ceb 633d
000002d0: 627f fa3c bbee 34bd 94c8 32bb e233 6bbd
000002e0: 30a9 dbbb 7c08 c8bb 473f ac3b ab14 7a3c
000002f0: a274 833c 9e96 69bd 16fd 85bc 6418 4fbc
00000300: 780a 203d b06d 7dbd be73 4d3b a4d1 08bd
00000310: 90ad 64bc a14e 13bd db56 ab3a a22a f93c
00000320: 26de 10bd 88ef a4bc 0f2f 7f3d fd11 acbc
00000330: ec22 9b3c 20a5 46bd 455f 273d e4d2 b0b9
00000340: 9d56 9dbc 2d0c 94bc 9102 683d 227f 4c3d
00000350: 9131 0fbd 2a0f 75bd dd85 bf3c eea5 8dbb
00000360: cabe e63b d983 f53c f0ba 4abd fd59 e63c
00000370: 1e73 06bd 8e36 3e3c 18b3 bebb 973c a2bb
00000380: 6698 2f3d 24cd 4abc 9d9f 743c f305 d33b
00000390: e60a 733d a2ff 45bd 53e3 7c3d 64fe 853c
000003a0: 49f9 f2b9 2945 cdbb e089 03bc 1cd6 9a3a
000003b0: de33 9bbc 9ff9 e73b 42c1 813d f617 43bc
000003c0: e29f d43c 86fe c3ba 084d 9ebc 23ba 8ebc
000003d0: 8b7d 003c 2fb9 bbbb b1f2 183c e709 50bd
000003e0: 2c59 5dbb 43e6 56bd e8a9 63bd 5d32 08bc
000003f0: ec48 113c eafc 653d 4ebe b6bb 1415 7c3c

fc3.bias f4 [128]
0.024981521 -0.034953322 0.052947707 -0.048091915 0.016948594 0.007716151 0.010412387 -0.021725085
0.062600285 0.009091231 -0.004220043 -0.009976153 0.029559948 0.0046470547 -0.046811547 0.042917307
-0.03155075 0.004713218 -0.046501067 0.005950348 0.058694467 -0.039668113 -0.05248111 -0.0031430288
-0.03139179 -0.04176419 0.037798673 -0.057841916 -0.022326404 0.055748206 0.012392412 0.03261134
-0.048985507 0.029790595 0.011533564 0.0022979972 0.03871798 -0.025004588 0.012462871 0.038664315
0.009856626 0.054443806 0.04279391 0.044385027 -0.024420634 0.022959199 0.008909746 0.0360441
-0.00022267168 0.01710712 -0.03394752 0.058200665 0.0012490489 -0.056532532 -0.021333281 -0.060886245
-0.015526197 0.036277503 0.034518715 -0.0175179 -0.039894916 0.0039218706 0.022903495 -0.004272777
-0.007858704 0.018881543 0.046826415 0.042816717 -0.04383461 -0.037352588 -0.00479166 -0.0050655864
0.04107275 0.04870243 -0.005110379 -0.025841966 0.04119646 0.020010298 0.044956278 0.04651937
-0.03269388 0.008849493 -0.04673813 -0.0354991 -0.057979986 -0.035902824 0.05235861 0.039676275
0.05177792 -0.05344176 0.020895109 0.0036563417 -0.030228524 -0.033861473 -0.056076765 3.885608e-05
-0.022321401 -0.004793085 0.004901085 0.05560701 -0.0625772 -0.026833327 0.012057631 0.012910029
-0.003938841 0.003951428 -0.045054972 -0.015461678 0.022731295 -0.03117125 -0.05987232 0.028947983
0.04990973 -0.034731694 0.010190359 0.005562642 -0.043663867 0.033048127 -0.06084814 0.0518021
-0.033493787 0.00969438 0.015876615 0.01130127 -0.0030698662 0.05750546 0.017766045 -0.037040066
00000000: 0ca6 cc3c 372b 0fbd b2df 583d 07fc 44bd
00000010: c7d7 8a3c c4d7 fc3b b798 2a3c cef8 b1bc
00000020: 9434 803d 63f3 143c 4948 8abb 0573 23bc
00000030: b427 f23c 5246 983b 77bd 3fbd 0fca 2f3d
00000040: 5c3b 01bd 5771 9a3b e777 3ebd 23fb c23b
00000050: 9c69 703d 087b 22bd 6ff6 56bd 46fb 4dbb
00000060: ad94 00bd ed10 2bbd c8d2 1a3d a5eb 6cbd
00000070: dde5 b6bc 3b58 643d 8b09 4b3c 7893 053d
00000080: 07a5 48bd 680b f43c 46f7 3c3c ff99 163b
00000090: bf96 1e3d 6cd6 ccbc 1231 4c3c 795e 1e3d
000000a0: b07d 213c 7800 5f3d ab48 2f3d 13cd 353d
000000b0: c80d c8bc ee14 bc3c 2ffa 113c faa2 133d
000000c0: f97c 69b9 3b24 8c3c 8e0c 0bbd d263 6e3d
000000d0: 20b7 a33a a88e 67bd 22c3 aebc db63 79bd
000000e0: 9761 7ebc b897 143d 7f63 0d3d b381 8fbc
000000f0: da68 23bd 0983 803b 1ca0 bb3c a702 8cbb
00000100: cbc1 00bc 77ad 9a3c 0ecd 3f3d 9560 2f3d
00000110: ec8b 33bd 07ff 18bd 5b03 9dbb 38fd a5bb
00000120: e63b 283d 337c 473d f774 a7bb 88b2 d3bc
00000130: 9fbd 283d a3ec a33c 1324 383d 188b 3e3d
00000140: 05ea 05bd 77fd 103c 7b70 3fbd 8167 11bd
00000150: 6c7c 6dbd d70e 13bd fb75 563d 9783 223d
00000160: 1615 543d bfe5 5abd 382c ab3c 3c9f 6f3b
00000170: cfa1 f7bc 54b2 0abd c0b0 65bd 66f9 2238
00000180: 5fdb b6bc 500f 9dbb 4899 a03b 2dc4 633d
00000190: 7a28 80bd 91d1 dbbc 5f8d 453c 9684 533c
000001a0: 6511 81bb fb7a 813b 908b 38bd fa52 7dbc
000001b0: fb36 ba3c d95a ffbc ae3c 75bd 5224 ed3c
000001c0: 256e 4c3d d242 0ebd 77f5 263c d346 b63b
000001d0: e2d8 32bd 795d 073d e63b 79bd 702e 543d
000001e0: c830 09bd 2dd5 1e3c ad0f 823c f628 393c
000001f0: cf2f 49bb d88a 6b3d 198a 913c 53b7 17bd

bn1.weight f4 [512]
1.0001225 0.9965835 1.000484 0.9991408 0.99983716 1.0011661 0.99811447 0.9989587
0.9997942 0.9993759 0.9943656 0.9997626 1.0005366 1.0006672 0.99842286 0.9997117
0.99953383 1.0007637 1.001028 0.9992774 0.9998125 0.99890673 0.9997467 1.0001091
1.0020419 0.99981993 0.99962777 1.0019908 1.0010026 0.99943966 1.0009022 1.0010378
1.0006411 1.0009297 0.9986422 0.99927944 1.0005254 0.99999833 0.99889994 1.000418
1.001268 0.99847716 1.0000081 0.999661 0.9969464 1.0006775 1.0009081 0.99938905
0.99879706 0.99758214 1.0014477 1.000471 1.0005143 1.0011309 0.99798113 1.0004783
0.9992546 0.99951214 1.0010831 1.0017481 1.0003827 0.99819386 1.0015149 0.9993921
0.9986904 1.000423 1.0007335 1.0001678 0.9989 0.9999195 0.99867016 1.0008808
1.0015186 1.0008732 1.0015992 0.99962693 0.99976176 0.9985963 0.9996551 1.0011214
1.0002398 1.0013617 1.0014545 1.0034091 0.99882424 0.9995515 0.9994768 1.0014064
0.99897635 0.99856573 1.0009605 1.0010492 1.0018389 0.9999762 1.0017979 1.0000678
0.9993771 1.0023383 0.9999465 1.0009329 1.0006894 1.0011514 1.0004857 1.0000029
0.9987142 1.0014906 1.0000234 1.000657 0.99926233 0.9985364 0.9990536 1.0002272
0.998862 0.9985042 0.9997658 1.0017736 0.99821866 0.9998014 1.0005338 1.0001962
0.99946916 1.000271 1.0003417 1.0002381 0.9989125 0.9983711 0.9971451 0.9997958
0.9986628 0.99927807 0.99974364 0.99998903 1.0004768 1.0015593 1.0001904 0.9989603
0.9978054 0.99841636 0.9994624 0.9984113 0.99943525 1.0022535 1.0003049 1.00144
1.0003169 0.99784493 1.0018526 1.0011435 1.0002537 1.0007886 0.9998058 1.0017521
1.0000435 1.001128 1.0005018 0.9998555 1.000601 0.99644345 0.9984523 0.9996302
0.9998359 1.000847 0.9996565 0.9961839 1.000408 1.0006886 0.99968857 1.0014155
1.0016638 1.0001872 0.99946564 1.0008875 1.0009716 1.0001379 0.99855006 0.9991416
0.9997785 1.0008119 0.9995989 1.000259 1.0003109 1.0004008 0.9989763 0.99818563
1.0009584 1.0001799 1.0005752 1.0004874 1.0022267 0.99988276 0.9993956 1.0001935
0.9998997 0.9970916 1.0006344 0.9990654 1.0000563 1.0003971 0.9996929 1.0008415
1.0001032 1.001211 0.99952763 1.0006588 0.9997001 1.0003061 0.9996618 1.0001627
1.0008988 0.9997748 0.99932927 0.99885637 0.9984859 1.0021392 1.0000994 1.000173
0.9967382 0.99932027 0.9995338 1.0004387 1.0009172 1.0009573 0.9999591 1.0006986
0.9987315 0.99857277 0.9997714 1.0005913 0.9985531 1.000315 0.9998643 0.99746615
1.0007453 1.0007625 0.999942 0.9997863 0.9996483 0.9999078 0.9994828 0.9988248
1.0012219 1.0001359 0.9992945 0.9991103 1.0019308 1.0001693 0.99945164 0.9993682
1.0008013 1.0010501 0.99971014 1.0017471 1.0007935 1.0002352 1.0006135 1.0008727
00000000: 0404 803f 1920 7f3f dc0f 803f b1c7 7f3f
00000010: 54f5 7f3f 3626 803f 6e84 7f3f c2bb 7f3f
00000020: 83f2 7f3f 19d7 7f3f be8e 7e3f 71f0 7f3f
00000030: 9511 803f dd15 803f a498 7f3f 1bed 7f3f
00000040: 73e1 7f3f 0619 803f af21 803f a5d0 7f3f
00000050: b6f3 7f3f 5ab8 7f3f 66ef 7f3f 9303 803f
00000060: e942 803f 33f4 7f3f 9be7 7f3f 3c41 803f
00000070: da20 803f 47db 7f3f 901d 803f 0222 803f
00000080: 0215 803f 771e 803f 04a7 7f3f c7d0 7f3f
00000090: 3711 803f e4ff 7f3f e8b7 7f3f b20d 803f
000000a0: 8d29 803f 339c 7f3f 4400 803f c9e9 7f3f
000000b0: e137 7f3f 3316 803f c21d 803f f6d7 7f3f
000000c0: 2ab1 7f3f 8b61 7f3f 702f 803f 6f0f 803f
000000d0: da10 803f 0f25 803f b17b 7f3f ac0f 803f
000000e0: 26cf 7f3f 07e0 7f3f 7e23 803f 4839 803f
000000f0: 8a0c 803f a289 7f3f a431 803f 29d8 7f3f
00000100: 2daa 7f3f dc0d 803f 0918 803f 8005 803f
00000110: e9b7 7f3f b9fa 7f3f d9a8 7f3f dd1c 803f
00000120: c331 803f 9d1c 803f 6734 803f 8de7 7f3f
00000130: 63f0 7f3f 02a4 7f3f 66e9 7f3f bf24 803f
00000140: dc07 803f 9f2c 803f a92f 803f b66f 803f
00000150: f2b2 7f3f 9be2 7f3f b6dd 7f3f 162e 803f
00000160: eabc 7f3f 01a2 7f3f 791f 803f 6122 803f
00000170: 423c 803f 71fe 7f3f ea3a 803f 3902 803f
00000180: 2dd7 7f3f 9f4c 803f 7efc 7f3f 921e 803f
00000190: 9716 803f bb25 803f ea0f 803f 1800 803f
000001a0: bcab 7f3f d830 803f c400 803f 8715 803f
000001b0: a8cf 7f3f 15a0 7f3f fac1 7f3f 7207 803f
000001c0: 6cb5 7f3f f99d 7f3f a7f0 7f3f 1e3a 803f
000001d0: 428b 7f3f fcf2 7f3f 7e11 803f 6e06 803f
000001e0: 36dd 7f3f e108 803f 320b 803f cd07 803f
000001f0: bbb8 7f3f 4095 7f3f e744 7f3f 9ef2 7f3f
00000200: 5ea8 7f3f b0d0 7f3f 33ef 7f3f 48ff 7f3f
00000210: a00f 803f 1833 803f 3d06 803f ddbb 7f3f
00000220: 2d70 7f3f 3798 7f3f c5dc 7f3f e297 7f3f
00000230: fdda 7f3f d849 803f fe09 803f 302f 803f
00000240: 620a 803f c472 7f3f b53c 803f 7825 803f
00000250: 5008 803f d719 803f 46f3 7f3f 6a39 803f
00000260: 6d01 803f f624 803f 7110 803f 88f6 7f3f
00000270: b213 803f eb16 7f3f 929a 7f3f c4e7 7f3f
00000280: 3ff5 7f3f c11b 803f 7de9 7f3f e805 7f3f
00000290: 5f0d 803f 9016 803f 97eb 7f3f 622e 803f
000002a0: 8536 803f 2206 803f fbdc 7f3f 151d 803f
000002b0: d61f 803f 8504 803f faa0 7f3f bec7 7f3f
000002c0: 7cf1 7f3f 9b1a 803f b7e5 7f3f 7d08 803f
000002d0: 300a 803f 220d 803f e9bc 7f3f 1889 7f3f
000002e0: 681f 803f e505 803f d912 803f f90f 803f
000002f0: f748 803f 51f8 7f3f 64d8 7f3f 5706 803f
00000300: 6df9 7f3f 6541 7f3f ca14 803f c0c2 7f3f
00000310: d801 803f 030d 803f e0eb 7f3f 931b 803f
00000320: 6203 803f af27 803f 0be1 7f3f 9615 803f
00000330: 59ec 7f3f 080a 803f d6e9 7f3f 5505 803f
00000340: 741d 803f 3ef1 7f3f 0bd4 7f3f 0db5 7f3f
00000350: c69c 7f3f 1946 803f 4203 803f ab05 803f
00000360: 3c2a 7f3f 74d3 7f3f 72e1 7f3f 600e 803f
00000370: 0e1e 803f 5e1f 803f 52fd 7f3f e416 803f
00000380: deac 7f3f 77a2 7f3f 05f1 7f3f 6013 803f
00000390: 2da1 7f3f 520a 803f 1bf7 7f3f f159 7f3f
000003a0: 6c18 803f fc18 803f 33fc 7f3f fff1 7f3f
000003b0: f3e8 7f3f f5f9 7f3f 1bde 7f3f fbb2 7f3f
000003c0: 0a28 803f 7404 803f c4d1 7f3f b1c5 7f3f
000003d0: 453f 803f 8c05 803f 10dc 7f3f 98d6 7f3f
000003e0: 421a 803f 6922 803f 01ed 7f3f 4039 803f
000003f0: 001a 803f b507 803f 1a14 803f 991c 803f

bn1.bias f4 [512]
0.0025283103 -0.0020399347 -0.0018309465 0.0017035932 -0.0008452377 0.00033404434 -0.0035110873 0.0025890202
0.0028262376 -0.0017777157 -0.002033506 0.0024596313 -0.004234173 -0.004051063 0.0004540631 0.0010751515
0.0020043931 0.0034386036 0.003982665 0.002920358 -0.0028249086 0.0023135035 -0.0016008925 0.000109877874
0.00073633867 0.002669841 -0.001889707 -0.0030383002 0.0053089443 -0.00036188 -0.0023203525 0.0055090175
-0.0003088462 -0.00063985423 0.0035277184 0.0019718017 -0.0036919261 0.0019431455 -0.0018673476 0.00032920064
1.26908035e-05 -0.005101126 0.003419261 -0.002712961 0.0011276985 0.005495243 -0.0015038833 -0.00045865984
-0.0011347692 0.003620429 0.00066304294 0.0026282559 -0.0012251704 0.0013976133 -0.0015925354 -0.002469341
-0.00017265049 0.0054694195 0.0025098708 0.002138968 0.00091474707 0.0018590684 0.00019076632 0.0020335852
-0.0037011087 0.0015969059 0.0015495159 -0.00090571924 -0.0030438465 -0.004979025 -1.3478377e-05 0.0020721995
-0.0018682753 -0.0003372792 0.003514752 0.00066861394 -0.0005787671 -0.0017038522 0.00018756243 -0.0037184604
-0.0021755956 -0.003001722 0.0035400402 -0.0045037423 0.0018276119 -0.0026431459 0.0024751464 -0.0012049852
0.0006094091 -0.002756409 0.004077079 0.0024798142 -0.003712263 -0.00040169118 0.0007594644 0.0004659942
0.0003938923 -0.004746825 0.0019668976 0.001007667 0.0013126764 -0.0031865982 -0.003563075 0.005065906
-0.0034614103 0.0019190008 0.004744372 -0.0063496395 0.0014112282 -0.0014036882 -0.003726669 -0.004828471
0.0016291883 -0.0005790092 -0.0045400984 -0.0011852781 -0.0025494508 0.0013386124 -0.003950049 0.0023319225
-0.0019999098 0.0019760546 -0.0027771832 -0.0016572601 0.001549264 -0.0010808537 -0.0029220588 0.0038957808
-0.001961468 0.0015967403 7.40445e-05 -0.0012644115 -0.0017133887 -0.0008820264 -0.0052420725 0.005469557
-0.00043938824 0.002813079 -1.4785854e-05 -0.0015626132 0.0018235176 4.4595e-05 -0.004114789 -0.00216114
0.0046947934 -0.0051400103 0.002635602 0.0041616377 -0.00017608827 0.001991416 -0.0020175043 0.0022348976
0.0002957866 -0.0018686603 0.0015952107 0.00038239366 0.0022133242 -0.0004822385 -0.00032188566 -0.0012809112
0.0005654508 0.0007747813 -0.0022425423 -0.0038006343 0.0045311446 0.00058159075 0.0027203185 -0.0011128213
0.002842555 0.0035375794 -0.00029491272 0.0002538344 -0.0041250046 -0.0014150587 -0.0037363735 -0.0054510403
-0.0018871642 -0.0030667346 -0.00057841634 0.004087831 0.0010687283 0.0019250665 -0.0011878349 0.0056066434
0.0025239794 -0.00440658 -0.0035752608 0.0031660527 0.0013279268 0.003993759 -0.0021449744 -0.0031368902
0.001184192 0.0016464868 0.0043325964 -0.003502544 0.0039050304 -0.0011922854 -0.002064419 -0.00246396
-0.0012450251 -0.0018541078 0.0013428201 0.003620411 -0.00014675534 -0.002855412 0.0050602313 -0.0019189059
0.0015789279 -0.00093622797 -0.0027405464 0.0054633766 0.003254086 0.00075570977 -0.0033006635 -0.0013323348
-0.002634059 0.0022861878 -0.0026855527 0.0014677995 -0.0021160962 -0.0032554579 -0.0028055417 0.001035632
-0.0017483719 -0.0037542179 -0.003671726 0.0036933494 -1.1676086e-05 0.0025823056 -0.0037102771 0.0021493235
-0.0009820943 -0.0012465562 -0.001935176 -0.0024644705 -0.0035670546 0.0030598342 -0.0043155984 0.0007366754
-0.00059491076 -0.0009058742 0.0019590436 -0.0022181517 -0.0023273602 -0.0014988219 -0.0014394562 0.0053052357
0.00053477834 -0.0030977032 0.0021099604 -0.0049752756 -0.0023093163 0.0039009575 -0.0040172273 -0.0048609492
00000000: 02b2 253b 6db0 05bb 5ffc efba 1a4b df3a
00000010: f192 5dba ac22 af39 451a 66bb 8dac 293b
00000020: 6638 393b 3e02 e9ba 9244 05bb c431 213b
00000030: d1be 8abb c8be 84bb 510f ee39 19ec 8c3a
00000040: 235c 033b 325a 613b 0481 823b 7a63 3f3b
00000050: 1a22 39bb 269e 173b 0ad5 d1ba 3c6e e638
00000060: da06 413a 80f8 2e3b 0cb0 f7ba 381e 47bb
00000070: a7f6 ad3b b6ba bdb9 0e11 18bb fd84 b43b
00000080: a3ec a1b9 e4bb 27ba 4b31 673b 5839 013b
00000090: 3ef4 71bb 25b1 fe3a cac1 f4ba 9098 ac39
000000a0: 96ea 5437 5927 a7bb ae15 603b efcb 31bb
000000b0: 48cf 933a 7011 b43b f31d c5ba 4878 f0b9
000000c0: 89bc 94ba b844 6d3b 0fd0 2d3a d13e 2c3b
000000d0: e695 a0ba 1f30 b73a 9fbc d0ba abd4 21bb
000000e0: 8309 35b9 d138 b33b a57c 243b ee2d 0c3b
000000f0: a3cb 6f3a fcab f33a 7208 4839 e645 053b
00000100: 4d8e 72bb 454f d13a 2019 cb3a ca6d 6dba
00000110: 457b 47bb 1727 a3bb 3021 62b7 bdcd 073b
00000120: ebe0 f4ba d9d4 b0b9 c157 663b ec45 2f3a
00000130: 67b8 17ba cb53 dfba 68ac 4439 6ab1 73bb
00000140: 7094 0ebb 8ab8 44bb 0500 683b 2194 93bb
00000150: 7b8c ef3a a138 2dbb 1136 223b 98f0 9dba
00000160: c1c0 1f3a dfa4 34bb 0499 853b 6184 223b
00000170: 7049 73bb 149a d2b9 cb16 473a af50 f439
00000180: 5483 ce39 418b 9bbb 11e7 003b b213 843a
00000190: 1c0e ac3a 3fd6 50bb 7b82 69bb e6ff a53b
000001a0: d4d8 62bb fb86 fb3a ad76 9b3b a310 d0bb
000001b0: f6f8 b83a f6fb b7ba 213b 74bb 2738 9ebb
000001c0: 7d8a d53a a6c8 17ba 1bc5 94bb 555b 9bba
000001d0: b014 27bb 6174 af3a 6a6f 81bb 2bd3 183b
000001e0: eb10 03bb b280 013b 6701 36bb 6c38 d9ba
000001f0: ac10 cb3a 6fab 8dba 0380 3fbb 5b50 7f3b
00000200: f98b 00bb b749 d13a 5748 9b38 9cba a5ba
00000210: c993 e0ba ca37 67ba b1c5 abbb f839 b33b
00000220: b15d e6b9 a25b 383b c210 78b7 99d0 ccba
00000230: 1903 ef3a 840b 3b38 5ad5 86bb eaa1 0dbb
00000240: c8d6 993b 886d a8bb 10ba 2c3b 595e 883b
00000250: 56a4 38b9 6b82 023b 1b38 04bb 5c77 123b
00000260: ce13 9b39 d6ed f4ba 6416 d13a 027c c839
00000270: 6b0d 113b f5d4 fcb9 c3c2 a8b9 3fe4 a7ba
00000280: c33a 143a b11a 4b3a 9ef7 12bb 1014 79bb
00000290: ff79 943b e575 183a 5f47 323b 16dc 91ba
000002a0: 294a 3a3b bcd6 673b 849e 9ab9 1415 8539
000002b0: 0c2b 87bb 7e79 b9ba f2dd 74bb a49e b2bb
000002c0: b95a f7ba 45fb 48bb dda0 17ba 36f3 853b
000002d0: 9214 8c3a 8352 fc3a 20b1 9bba efb7 b73b
000002e0: 5969 253b 1265 90bb ec4e 6abb 8d7d 4f3b
000002f0: d40d ae3a 14de 823b b392 0cbb 4994 4dbb
00000300: e436 9b3a eece d73a 74f8 8d3b f08a 65bb
00000310: 8aeb 7f3b 7646 9cba 344b 07bb 647a 21bb
00000320: 1c30 a3ba 8905 f3ba 9101 b03a 6b44 6d3b
00000330: 56e2 19b9 dd21 3bbb 4cd0 a53b cc83 fbba
00000340: 07f4 ce3a 326d 75ba bd9a 33bb 2006 b33b
00000350: 8142 553b d31a 463a f24f 58bb bda1 aeba
00000360: 2da0 2cbb ded3 153b 1900 30bb 2e63 c03a
00000370: 34ae 0abb 8559 55bb 2edd 37bb 0bbe 873a
00000380: a029 e5ba 5309 76bb 57a1 70bb 1f0c 723b
00000390: 68e4 43b7 e63b 293b 1f28 73bb aadb 0c3b
000003a0: 9eb9 80ba 7c63 a3ba bba5 fdba f482 21bb
000003b0: 3fc5 69bb 8087 483b dd69 8dbb 731d 413a
000003c0: c9f3 1bba 3078 6dba 4c63 003b 695e 11bb
000003d0: a086 18bb 1e74 c4ba 23ac bcba 8bd7 ad3b
000003e0: 5e30 0c3a d602 4bbb 4347 0a3b a307 a3bb
000003f0: e657 17bb 35a7 7f3b f2a2 83bb 9948 9fbb
