data/rl4wound_paper_res/ctr/models_map524/agent_ctr_True_ep_1014.pth (torch, 950255 bytes, 21 tensors)

fc1.weight f4 [512, 5]
00000000: d88a aebb eef8 763e f60a bbbe 0b9d a6be
00000010: 9c4b 31be 1a5a ef3d 9ee9 0bbc aaf8 b53e
00000020: 9988 22bd 4cd4 f23d 2dc6 09be 587a b7bd
00000030: 8a51 dabe 6cdb 97be 510e 3abe 3cea 8f3c
00000040: ee1d 363e 4964 883e 3015 9cbe 7187 48be
00000050: 6ccf 263e a172 bc3e 726a bebd 0532 ac3e
00000060: 39b8 8fbd 0828 3b3d 6c60 d03e baf2 d3be
00000070: 51fc 8dbe 51e4 edbd 38dd 32be c96f c43e
00000080: bd39 93be 84b2 55be bcab 9ebe 2853 d6be
00000090: 00f4 83be e919 c43e 3f76 4d3e 42c5 5e3e
000000a0: c2be c53c b7b9 68be fc95 953d d4af d6be
000000b0: 012c a6be bbb0 6ebe 20d7 8f3e 68c9 873e
000000c0: 45e1 47be 73f9 57bc e72c 913e db5c e43e
000000d0: c233 353e 79cd 7b3d 559b 973e 0a4f 86be
000000e0: ce5b ab3d 3468 b1be c4b0 9ebe 8359 6dbe
000000f0: 81b7 4b3e cca8 363e ff65 86be b977 0c3e
00000100: edbc 7d3e 1752 64bd c198 8c3c aef3 d13d
00000110: 0f66 8c3e 4a69 dd3e 0caf afbe 934a 28be
00000120: 5133 333e 722c bf3e e749 c63e 7657 ca3e
00000130: a6fe b43d e07e c7be 6cff 273d 89d1 8ebe
00000140: 7bee d4be d039 cc3e 463f ad3e d244 e5be
00000150: cdd2 a73d c5f9 9bbd e746 90bd 1445 50be
00000160: 02cf 2e3e d67a 88be 566e 263e 5f48 693e
00000170: a749 a33e e2f0 2b3e 2341 e2be 6184 94be
00000180: 66d2 623e ebc2 bf3d 7362 b2be a85f 84be
00000190: bb8d d73e f096 983e c5e4 48be 0339 e2bd
000001a0: f98d dbbe cfdd 39bc 8196 abbe ede5 b1be
000001b0: a870 cbbc 38a8 843d efd4 3abe fd56 883e
000001c0: 8c3f 8cbe 9d3e ce3e 72d2 9e3e 0a70 c0be
000001d0: b653 e4bd e88d a53c 9c6b 883d dea9 dc3d
000001e0: 18cc 363e ea3b f23c e9de 61be 1df7 543e
000001f0: 0bad ddbe cae0 86be 7328 e1bd bb68 60be
00000200: 96f7 22be 8964 bbbe 0d4c bcbd 011f c33d
00000210: 91cb 95be 3cc7 c3bc 09b1 a33e 0eb0 3bbd
00000220: a822 7c3c 9a2f 24bd 9f6c b43d 12b7 923e
00000230: 7fcb d73e 16d3 923e e660 d93e faec fcbc
00000240: e9d9 cebe 71aa 5abe 02f3 993e 054a 31ba
00000250: 822a 62be 1f57 afbe d166 d5be 74ec c0be
00000260: d142 bdbd dd74 773e 4d09 7b3e 8896 ddbe
00000270: 4360 8e3e 3c34 b2be 3116 c1bd c160 3bbe
00000280: c985 b0bd d37c bcbd 6107 cdbe a09a c4be
00000290: d05f 94bd 59c6 123c 70d1 4cbe eb80 283e
000002a0: 5036 d0be 1fed 08bd d7ce c93e 5afa 37be
000002b0: 8f4d ce3e fb30 253e 636c cfbe 6d63 913e
000002c0: 086b 54bd 1c37 4bbe 044f b63e ae08 babe
000002d0: 4a4b 403d 1c76 babd 1b7a a33e 7d94 003e
000002e0: 9eb8 5b3e 3136 223e 07ad d5bd b55b c6bd
000002f0: 4fc7 bebe 0f00 773e 1f79 b63e 3edf 9c3e
00000300: d106 a2be 6731 963c b080 a1be 018e 7bbe
00000310: 38b8 84be 327b 1b3e aec9 88be e1a5 30bc
00000320: 90a8 8e3c 32e7 953e 5f58 adbe f66e 9cbe
00000330: 3495 85be e8e2 a03e bffd 26be 1290 bf3e
00000340: 573c 273e e145 673d f6d3 4cbb 853e acbd
00000350: 42c7 5f3d f1a0 d6bd b1ce c3bb 491f 673d
00000360: 5b96 b5be 5017 6ebe dc22 ba3e a471 b8be
00000370: bace e2bc 12a9 e33e 4844 213e f08d 203c
00000380: 89a8 c6be 26d7 623e fdcb a4be 9f51 00be
00000390: 19fe 17be cce3 7fbd 9418 983b dd29 bf3e
000003a0: 85dc 5d3d 08d0 cb3e 5f33 8c3e 59aa 91be
000003b0: d551 4d3e edc7 a1be 871f 41be c4c3 053e
000003c0: f5d1 183e 9378 ab3e 9487 13be 73a9 b738
000003d0: aeb2 6b3e faa7 dcbe 4719 a63e 6c56 bebe
000003e0: 014a 8c3b 6c0d 9abd 1f93 6fbe 9b0d 6b3d
000003f0: ef43 bd3e aa31 06be c922 89be 8a64 2abe
-0.00532661 0.24118397 -0.365318 -0.3254169 -0.17313999 0.116871074 -0.008539585 0.35541278
-0.03968105 0.11856899 -0.13454504 -0.08958882 -0.42640334 -0.29659593 -0.18169524 0.017567746
0.17784855 0.26639012 -0.30484915 -0.19582917 0.16290063 0.36806205 -0.092976466 0.33631912
-0.070175596 0.045692474 0.40698564 -0.41396123 -0.27731565 -0.116158135 -0.17467201 0.38366535
-0.28754988 -0.2086888 -0.30990398 -0.41860318 -0.25772095 0.38301018 0.20064639 0.21754935
0.024138812 -0.22727095 0.07303998 -0.4193102 -0.32455447 -0.23309605 0.28093815 0.26520848
-0.19519527 -0.013182032 0.2835457 0.44602093 0.17695525 0.06147525 0.29610696 -0.26232177
0.0836712 -0.34649813 -0.30994236 -0.23178677 0.1989422 0.17837828 -0.26249692 0.13717546
0.247791 -0.05574235 0.017162682 0.10251556 0.27421615 0.43244392 -0.34313238 -0.16434698
0.17500044 0.37338597 0.38728258 0.39519852 0.08837633 -0.38963985 0.041015074 -0.27894238
-0.41588196 0.39887857 0.33837336 -0.44779068 0.08194504 -0.07615999 -0.070447735 -0.20338851
0.17071155 -0.26656216 0.16253027 0.22781514 0.3189213 0.16791108 -0.4419032 -0.29007247
0.22150573 0.093633495 -0.34840736 -0.2585423 0.4210032 0.29802656 -0.19618519 -0.1104603
-0.42881754 -0.011344387 -0.33513263 -0.34745732 -0.024833992 0.06477398 -0.1824529 0.26628867
-0.27392232 0.40282145 0.31019932 -0.3758548 -0.11148779 0.020209268 0.0666115 0.10774587
0.17851293 0.029569585 -0.2205769 0.20797391 -0.43296084 -0.26343375 -0.10994043 -0.21914952
-0.15914759 -0.3660014 -0.09194193 0.09527398 -0.2925687 -0.023898713 0.31971005 -0.045822196
0.015389122 -0.04008446 0.0880978 0.28655297 0.42147443 0.2867667 0.4245674 -0.030874718
-0.40400627 -0.2135408 0.30068213 -0.0006763044 -0.22086528 -0.34246156 -0.41680005 -0.376804
-0.0924126 0.24165674 0.24515267 -0.4327891 0.27807817 -0.34805477 -0.09428061 -0.18298627
-0.086192675 -0.09203496 -0.40044692 -0.3839922 -0.07244837 0.008958423 -0.20001769 0.16455428
-0.40666437 -0.03342926 0.3941562 -0.17966595 0.40293548 0.16131966 -0.4051238 0.28396168
-0.051859885 -0.19845241 0.3560716 -0.36334747 0.0469468 -0.09104559 0.31929097 0.12556644
0.21457145 0.15840985 -0.10433393 -0.096854605 -0.37261435 0.24121116 0.35639283 0.3063907
-0.31645826 0.018334104 -0.31543493 -0.24565889 -0.25921798 0.15183714 -0.2671637 -0.010781736
0.017414361 0.2927795 -0.33856484 -0.30553406 -0.26090395 0.31423116 -0.16307734 0.37414604
0.16331612 0.056463126 -0.0031254268 -0.08410362 0.054633386 -0.10479916 -0.0059755673 0.05642632
-0.35466275 -0.2325108 0.3635472 -0.360242 -0.027686466 0.44464928 0.15748703 0.009799466
-0.38800457 0.22152385 -0.3218688 -0.12531136 -0.14843024 -0.062473103 0.004641602 0.37336627
0.054165382 0.39807153 0.27382943 -0.28450277 0.20050748 -0.31597844 -0.18859683 0.1306296
0.14923842 0.33490428 -0.14407188 8.7576824e-05 0.2301738 -0.43096906 0.3244116 -0.3717531
0.004281283 -0.07522091 -0.23395966 0.057386022 0.36965892 -0.13104883 -0.2678435 -0.16639915

fc1.bias f4 [512]
00000000: 96c4 96be bc04 a1be b62a 983e d03f 15be
00000010: 03de ecbc f503 093e 5283 8dbe 6805 2a3d
00000020: cfb0 873e 264d 86be 8308 053e a0fe 80bc
00000030: cc6c 7b3e 3f02 983e aff9 ec3d 02fe 453c
00000040: 8e40 c5be 5ac5 363e 9295 8b3e 92e9 26be
00000050: 439f e1be bfe1 bb3e 5b85 d6bd cd30 b23d
00000060: 301d 02be a775 943e 2890 df3e 1c88 8f3e
00000070: bd99 0ebe 32bd a13e 3e80 5d3e 985c 363d
00000080: ea78 b8be ee41 43be 070e e3be d5ee 983e
00000090: fa3a e23e 060b 853e 4eb3 0e3e 2d83 d83d
000000a0: 5ffa db3e b6e5 67be 4327 1abe e035 ccbe
000000b0: 0dc2 2fbd 0c75 de3c d117 fb3d a695 9fbe
000000c0: bfd8 4abd 31cd bdbe 1061 b9be 4fe5 703d
000000d0: 8571 dfbe e39d f53d 6ee4 d3be dd0f 9fbe
000000e0: 19e5 bcbd ee97 d9be 4d01 b93e a586 bb3e
000000f0: 1160 6bbe 6263 ca3d fa63 6d3e 9461 113e
00000100: 0cf3 6cbd 0627 d6be 8b83 a73e 9471 c9be
00000110: 21c3 a4bd c1ff d73c 4f8d 19be 493a 21be
00000120: 4a7b c6be 1d60 b53c 2953 49bd ffb3 c73e
00000130: d344 16be 4bc1 ad3e 30e3 da3c 999c 51be
00000140: c8ed dabd d287 5dbd ac62 b83b a246 a2bd
00000150: 5eda 073e 2b46 be3e b117 913d 89be 253e
00000160: cc98 8e3e 8e93 c33d d81b 533e 7304 703e
00000170: 48d4 d33e 543b d1be 7b32 1d3e d880 a6bc
00000180: b97e a3bd 6111 2abe 7a0f 873e 4074 d13e
00000190: 63d1 babe e05a 763e 26e1 9f3e 1e2e a03d
000001a0: 387a 043c 2c02 b03e f70c 283c f714 e3bd
000001b0: aa0f 0abd 5af6 0f3e 90fe e23d fa86 98bc
000001c0: 60c1 0c3e 8e55 f63d 0f1e b7be 49c4 e33d
000001d0: 8065 8c3e b5ac 4d3d 3e7a 25bd 7571 af3e
000001e0: 3dd7 c7be eee8 50be cd36 4ebe 6ab2 c53e
000001f0: d801 debe 9bae 4c3d a221 e0be a9a4 7fbc
00000200: 4553 2c3e 22b1 d1bd fe3b de3e 659c 1f3b
00000210: 151c 69be 6c92 ec3d 2bce 683e 6279 80ba
00000220: badf c33e 3852 90be f6a0 433e 5d9f 7e3e
00000230: 76e8 633e 55c8 a43a f606 fa3d f0ea b1be
00000240: 83cc b0be d58d dfbc 806b 70bd d323 aa3e
00000250: f61d a93e e235 9c3e 3ae1 53be 72fd b2be
00000260: c617 d6be 9f70 2b3e a07d ccbe 272c e5be
00000270: e298 64be 542a c3be f5c3 38be dc53 90be
00000280: e02f 6cbe 86db d93e c4ee adbd b7be bd3e
00000290: 4e51 113c 7922 7bbd bd32 05be 57e3 a2be
000002a0: 31a8 b7be 54b4 9e3e 4174 0fbe 6939 e0be
000002b0: bcd7 d13e 9717 133c d613 9abe 896a b4be
000002c0: b013 bfbe 1867 c8be 585b cf3e e9ba 9d3e
000002d0: cf45 153d 9825 c4be 0cf1 efbd eaf2 d5be
000002e0: a80a 223e a2fb f5bd 93a6 c3bd a4f5 0ebe
000002f0: 9a58 563e 702c 7d3e f351 c63d bb32 80bd
00000300: d90d 35bd 8f30 eebb 1687 abbe 93e9 dc3e
00000310: 5cc7 45be 7540 853e ad8c 80be ae3a fd3b
00000320: cfa1 1c3e df02 d2be 7a5c 553e 8d26 b1be
00000330: 996f 7f3d 467f b5bd ad3c 843e 1f45 df3e
00000340: 23fd bd3d 155f 53bc bbbc 60be d6f6 2a3e
00000350: bd87 5abe 98b6 3b3e 9efa 45be ad36 9a3e
00000360: 50a0 af3e 45f6 8e3e 3d4f 423c f2ca 513e
00000370: 7050 d2be f0bd b93e e592 ecbd ebb3 273e
00000380: 08c8 9ebd 86a3 15be 09da 55be 6982 933e
00000390: f7c9 7abe 6a1a a6bd 2d54 623e 98c1 3a3d
000003a0: 7ab1 bfbe 3e6d e3be 0008 5fbe 1a4f d13e
000003b0: b6cb a2be ff25 803e b3e2 a33e d639 3fbe
000003c0: 9b9f 4bbe 4fa4 a4be 83ad 8d3d bed3 81bd
000003d0: d410 b23c badf 463e bab4 433e 3757 13be
000003e0: f45a 003d 0383 e23d 948d 2e3c ad50 b73d
000003f0: daa5 38be 4ad7 bb3e 7897 44bd e445 74bd
-0.29446858 -0.31448925 0.29720086 -0.14575124 -0.028914457 0.13380416 -0.27639252 0.041509062
0.26502082 -0.26230735 0.12991528 -0.015746415 0.24553221 0.29689214 0.11571061 0.012084486
-0.38525814 0.17848721 0.2726255 -0.16300038 -0.4406682 0.36695668 -0.10474654 0.08700714
-0.12706447 0.28996012 0.4366467 0.2803353 -0.13925834 0.31589657 0.21630952 0.044521898
-0.3602975 -0.19068119 -0.4434664 0.29869714 0.4418562 0.25984973 0.13935587 0.10571895
0.42964455 -0.22646222 -0.1505404 -0.39884853 -0.04290967 0.027155422 0.12260402 -0.3116886
-0.04952311 -0.3707061 -0.36206865 0.058812436 -0.43641296 0.11993005 -0.41385216 -0.3106679
-0.092233844 -0.42498726 0.36133805 0.36626163 -0.22985865 0.09882237 0.2318267 0.1419738
-0.057848975 -0.41826648 0.32717547 -0.39344466 -0.080450304 0.02636707 -0.14995311 -0.1574489
-0.38765937 0.022140557 -0.049151573 0.39004514 -0.14674692 0.33936533 0.02671966 -0.20469894
-0.106898844 -0.054084606 0.005626997 -0.079236284 0.13266894 0.3716291 0.07084597 0.16185965
0.2785095 0.09549628 0.2061609 0.23439197 0.41372895 -0.40865576 0.15351288 -0.02032511
-0.07983155 -0.16608192 0.26378995 0.40909004 -0.36487874 0.24058104 0.31226462 0.07821296
0.00808578 0.34376657 0.010256997 -0.11087983 -0.033706345 0.1405882 0.1108371 -0.01861905
0.13745642 0.12028037 -0.3576512 0.11121423 0.27421188 0.050213534 -0.040399782 0.34266248
-0.390314 -0.20401356 -0.20138092 0.38612682 -0.43360782 0.049971204 -0.4377566 -0.015603223
0.1682864 -0.102388635 0.43405145 0.0024354693 -0.22764619 0.11551365 0.22734897 -0.00098018
0.38256627 -0.28187728 0.1910437 0.2486548 0.22256646 0.0012571911 0.12208359 -0.34749556
-0.3453103 -0.02728931 -0.05869627 0.33230457 0.3303067 0.3050986 -0.20691386 -0.34958988
-0.41815013 0.1674218 -0.39939594 -0.44760248 -0.22323945 -0.3811823 -0.18043502 -0.2818898
-0.23065138 0.42550296 -0.084928066 0.37059566 0.008869482 -0.061312173 -0.13007636 -0.31814072
-0.35870507 0.30996954 -0.14009191 -0.437938 0.40984905 0.008977792 -0.3009326 -0.3523753
-0.37319708 -0.39141154 0.40499377 0.30806664 0.036443528 -0.38309932 -0.11715898 -0.4178689
0.15824378 -0.12010886 -0.09553256 -0.13960892 0.20932236 0.24723983 0.09683599 -0.06259676
-0.04420266 -0.007268972 -0.335015 0.43146953 -0.19314331 0.2602574 -0.25107327 0.0077279424
0.152961 -0.41017815 0.20836058 -0.34599724 0.062362287 -0.08862166 0.25827542 0.43607423
0.092767976 -0.012901087 -0.21946995 0.16695723 -0.21340843 0.18331373 -0.19333884 0.3011984
0.34301996 0.27922264 0.011859712 0.20487574 -0.41076994 0.36277723 -0.115514554 0.16377227
-0.07752997 -0.1461316 -0.20883955 0.28810433 -0.24491106 -0.08110507 0.22102423 0.04559478
-0.3744009 -0.44419283 -0.21780396 0.40880662 -0.31796044 0.2502899 0.32008895 -0.18674406
-0.19885103 -0.32156608 0.0691786 -0.06339215 0.02173654 0.19421282 0.1911191 -0.14388739
0.03133674 0.11060145 0.010653872 0.089509346 -0.18032017 0.3668769 -0.047996014 -0.059636965

fc2.weight f4 [256, 512]
00000000: 0dad 233d dc54 0d3d c4be 23bd 5846 97bc
00000010: 4271 c03c 8207 d9bc 9228 f93b b1cb 90bc
00000020: 46c0 f03b a180 b63c 89dc 4f3c 482c fd3c
00000030: 8e08 e0bb 2de0 c33c e052 7d3c 40b0 74bc
00000040: 3de9 03bd 8c04 2a3d 0a0c 39bc a89c 043d
00000050: f576 da3c 2bd6 52bb 2578 19bd c696 9b3b
00000060: 8bd9 a8bc cee0 393c 266f 9dbc 9812 043d
00000070: eead 1bbd e1f1 48bc a82c 003c 86b5 5f3b
00000080: 612c 0f3d 1f15 7fbc e3c6 09bd 3e74 f63c
00000090: c0f9 5b3c 6ca5 e13c 72e9 ddbc c64d d1bc
000000a0: 77df 9bbc 8817 913b 4791 733c bac3 c7bc
000000b0: ddf6 fdba 4a0a 19bc 856a 253d 9fba 8dbc
000000c0: 872e 293d 7405 e5bc ffd3 88bc 6665 03bd
000000d0: 72fe 0b3d d691 ecbc a30b 923c 0418 8fbc
000000e0: b4b3 313d 731d a43b d9e2 16bd 556b ee3b
000000f0: c23b 883b bc0f 28bd e4a8 183c 2af5 2e3d
00000100: 2e3a 343c ce90 1d3a cd0f f8bb 0a8a 563c
00000110: 0dce 93bc adce 2b3d d626 1a3d 2853 9a3c
00000120: 0eea 8fbc 3b84 2fbd 1360 d8bc 1ecd 353d
00000130: 5726 21bd 5d06 33bd 0ae5 92bb e691 4c3c
00000140: 88dc 37bd 5096 27bd c7f3 ee3a 683c 8abc
00000150: c87d 003d ba5c 373c 6071 16bd 467e 20bd
00000160: 3762 033d e93b cdbb fed4 8fbc 39da 4b3c
00000170: dd2b 20bc 4ae2 a13c 92ee 273c cac8 98bc
00000180: 866c 12bd 8855 d63c 14b6 e7bc 9cc3 bfbb
00000190: 7fb2 e73b 8ba2 d0bc a8e7 b93c 58b8 f2bc
000001a0: 42b6 193c f4ad a13b 5b29 743c 6e0d 38bd
000001b0: 6595 9a3a 46d9 9e3c 7628 e0bc 3368 413c
000001c0: 9acf fa3a 1d45 153d 5b66 30bc e5a3 b8ba
000001d0: e356 a6bc e380 1ebc 5413 423c b61e 2abd
000001e0: 5bb7 0b3d 983d fa3c 8035 9e3c 046a 083d
000001f0: 586d 74bc 5ea6 113c 518f fc39 9842 03bd
00000200: 656d 79bc a47c 8ebc 686e 27bc 3504 1ebd
00000210: f685 02bd 76d3 afbb 34f1 bfbb b947 20bd
00000220: 3e93 f43b 9b60 ba3c f8db 1c3d b9b9 143d
00000230: dde1 ffbc f0bb 6dbc f787 b8bc 0a70 093c
00000240: 955d 293c 85b0 183c 39cc d63c e461 ba3c
00000250: e751 bbbc e9e4 ee3c 43b5 003d cfc2 e63b
00000260: 07a8 21bd 2673 d6bc b0d4 553c 2593 843c
00000270: 7edd 303d f553 ab3c 7a91 903c 743c 31bb
00000280: 0ac3 ed3c f3b1 8dbc 7e55 883c 6bda a5bc
00000290: b18c cab9 4a90 ce3c 8a76 9e3c 6d01 3cbc
000002a0: 58c8 c6ba 9f34 bfbc 3ed2 9b3c 769d fe3c
000002b0: f511 5e3c 00aa 35bd 5e9d 06bd d6d0 eb3c
000002c0: a369 eebb e869 d03c b182 0d3d 8714 58bc
000002d0: 4839 cdbc 48a3 26bd ff17 773c 59d6 ae3c
000002e0: 4ecd 17bc 3f84 32bd 09c9 f6bc 2f92 25bb
000002f0: 9907 a93c 5ac1 75bc f90d f6bc b3f6 02bd
00000300: c8d6 213d 97c4 6c3c b5ea 0bbd ff04 ecbc
00000310: e5ea 19bd 49cc ab3b 889d a0bc 5b15 94ba
00000320: 1f1e 0dbc e519 24bd 839f 27bd 6052 12bd
00000330: 5ffd 9ebc e6df e93b 27ac b6bc 8554 57bb
00000340: 56a3 d8bb 84a7 1f3d 5519 97bc 70d3 313d
00000350: 9c21 03bd ec2e 1dbd 793a 4b3c bdcd c6bc
00000360: 28d9 b93c bca5 c9bc 5436 113d bf53 2a3d
00000370: 5c2d 943b 1c92 043c 827b 2f3d 021c cd3c
00000380: 894c 1bbd 3183 3fba 56d9 1bbd 22de 113d
00000390: afef 1cbc 3664 1b3a 3239 ecbc a6e7 bcbc
000003a0: e669 af3b f234 1b3d c524 c0bc a069 b73b
000003b0: 4fa3 1f3d 9261 293d f28e e0bb ed63 2c3d
000003c0: 224f 733c c48d 2a3d 559a 623a 3335 1abd
000003d0: 4869 56bc 649f 733c 5e1a b53c 176b 2cbd
000003e0: 7c27 093d bc76 1cbd 1f9a c83c d2d5 2c3d
000003f0: 883b 393c cde5 eabb 2be2 bc3c 7c41 45bc
0.039959956 0.034504756 -0.03997685 -0.01846616 0.023491506 -0.026492838 0.0076037133 -0.017675253
0.0073471395 0.022278132 0.012686857 0.030904904 -0.0068369573 0.023910606 0.0154616535 -0.014934599
-0.032204855 0.041508242 -0.011294374 0.03237596 0.026668051 -0.003217111 -0.037468094 0.004748198
-0.020611545 0.0113451015 -0.019218039 0.032244295 -0.03800767 -0.0122647 0.007823147 0.0034135296
0.034954432 -0.0155690005 -0.03363694 0.030084725 0.013426244 0.0275447 -0.027088854 -0.02554978
-0.019027455 0.004427854 0.01486618 -0.024385322 -0.0019375939 -0.009340832 0.040384788 -0.017300902
0.041304138 -0.027956702 -0.01670265 -0.032079123 0.034178205 -0.028878134 0.017827814 -0.017467506
0.04338427 0.0050083934 -0.036837433 0.0072759786 0.0041575143 -0.04103063 0.00931761 0.042714275
0.011000199 0.0006010652 -0.007570243 0.0130944345 -0.018042589 0.04194515 0.037634693 0.01883848
-0.01756766 -0.042850714 -0.026413 0.044385068 -0.039343204 -0.04370724 -0.00448287 0.012485957
-0.04488805 -0.040914834 0.001823061 -0.016874507 0.031369954 0.011191541 -0.036729217 -0.039182924
0.032076087 -0.0062632454 -0.017557617 0.012442165 -0.009776083 0.019761223 0.010249751 -0.018650431
-0.035748027 0.026163831 -0.028285064 -0.005852176 0.007070839 -0.025468132 0.02269347 -0.029628918
0.009381833 0.004934067 0.014902438 -0.044934683 0.0011793791 0.019390713 -0.027363043 0.011804628
0.0019135356 0.036442865 -0.010766591 -0.001408693 -0.020305103 -0.009674284 0.0118454285 -0.041533194
0.03411041 0.030546948 0.01931262 0.03330423 -0.014918648 0.008889763 0.00048171965 -0.03204593
-0.015223836 -0.017393418 -0.010219194 -0.03857823 -0.031866036 -0.0053657843 -0.005857611 -0.0391309
0.0074638417 0.022751143 0.038295716 0.03630993 -0.03123563 -0.01451014 -0.02252577 0.008388529
0.010337253 0.009319429 0.026220428 0.022751756 -0.022866203 0.029161887 0.031422865 0.007042266
-0.039466884 -0.026177954 0.013051197 0.016183445 0.04317998 0.020914057 0.017647494 -0.002704409
0.029023666 -0.017296767 0.016642328 -0.020245751 -0.00038633266 0.025215287 0.019343633 -0.011474949
-0.0015165908 -0.023340521 0.01902115 0.031080943 0.013554086 -0.044351578 -0.03286492 0.028786104
-0.0072757765 0.025441125 0.034548465 -0.013188488 -0.025051728 -0.04068306 0.015081405 0.021342443
-0.009265257 -0.04358315 -0.030125158 -0.0025264134 0.020633506 -0.014999712 -0.03003596 -0.031973552
0.039511472 0.014451168 -0.03415938 -0.028810976 -0.03757753 0.0052428585 -0.019606367 -0.0011297868
-0.008613138 -0.040063757 -0.040923607 -0.03572309 -0.019407926 0.0071372865 -0.022298886 -0.0032856774
-0.006611268 0.038978115 -0.018444696 0.043414533 -0.032014474 -0.038374826 0.012404078 -0.024268026
0.022686556 -0.024615161 0.035452202 0.041583773 0.004522009 0.008091476 0.042842396 0.02503777
-0.037914786 -0.0007305621 -0.038049065 0.035612233 -0.009578629 0.00059277134 -0.028835867 -0.023059677
0.0053532002 0.03789229 -0.023455033 0.0055973083 0.038974103 0.041352816 -0.006852978 0.042087484
0.01485041 0.041639104 0.0008644213 -0.03764839 -0.013086624 0.014869545 0.0221073 -0.042094316
0.03348492 -0.03819917 0.024487553 0.042196102 0.011305697 -0.0071685077 0.023057064 -0.0120395385

fc2.bias f4 [256]
00000000: 0a33 55bc 788e 073d 935e f6bc f083 1bbd
00000010: 0678 b8bc e17b d03c f087 04bd dd93 043d
00000020: 6c2b 033d 48f1 053d d101 303c b485 623c
00000030: 8f14 713c 9f78 063d b661 64bc f5f2 2f3d
00000040: b966 3cbd ffbb 1ebd 6a47 02bd 072a 0f3d
00000050: f33e d4bb 4e18 0abd 63cf e2bc 16c7 dcba
00000060: c6aa 5b3c 85a5 233d 9f08 a63c 5d68 983b
00000070: d73a 15bb c452 e03c 88ea 35bc 910b adbb
00000080: 8316 1f3d b11c 01bd f833 be3c 17e9 edbc
00000090: 306b 20bd 7fac 8c3c 52a7 18bd ff1f 113d
000000a0: ae72 8abc cac9 1abd d36f 30bd b27d 153d
000000b0: 310e 34bd 06bb 923c 0d0c c4bc 39ef 603c
000000c0: 45a4 f33c d0ba 32bc a005 ea3c 68bd 7abc
000000d0: 8b75 cb3b af25 f3bc 0a6c d53c 084d f93b
000000e0: 3287 6e3b c31b f73c fdf1 24bd 14c4 8c3c
000000f0: dbf0 d7bb 2dd3 89bc e927 dabb 3f47 f03a
00000100: c1d5 133d 3bc0 2abd 6faf 9b3c 19f1 a13c
00000110: 6ae5 24bd 1ae9 1dbc 4b04 7ebc 01f5 073d
00000120: 0e25 06bd 1000 dd3c b972 863c ed1a 1c3d
00000130: a986 113d 8cab 27bb cde6 b6bc 2462 2f3d
00000140: 9e0a 8cbc 85d5 7cbb caed 813c e1f7 d23c
00000150: ddbb e93c 8af2 a7bc 776a dc3c ac9c 90bc
00000160: 1bf7 f93a 74b5 34bd 29de 2cbb 8370 31bc
00000170: 0fe5 93ba 79e9 133d 1fb0 5fbc 3276 733c
00000180: fb23 d4bc 1d42 e83c a5a0 88bc 0817 963c
00000190: 67a2 c43c 023d be3c 4efe 0b3d f100 0cbd
000001a0: dc5f 12bb fa1c c8bb f82d 28bd c482 97bb
000001b0: aba2 463d d298 63bc 9b94 193d 3aac 33bc
000001c0: 1e70 d7bc ec10 f43c ed9e 72bc 3d93 113d
000001d0: 4084 31bd 94a7 0ab9 6239 b3bc 3338 2ebd
000001e0: dce9 853c 4c98 36bd f4e0 233d c7d7 9f3c
000001f0: 19a2 cbbc c001 9cbc 3031 3ebb fb38 153d
00000200: 30ab 56bc edf4 143d 37a1 f5bc 2683 9d3b
00000210: 597b 3b3d 58c5 a93c e566 f5bb 8367 a13c
00000220: 6aa8 633b e69b 463c 2a55 b23c 174f 293d
00000230: aa7d c3bc f38b 0c3d 7030 b53b ffb7 173d
00000240: fe52 143c 4966 8a3a 19c5 ac3c 5753 923c
00000250: 8495 fd3c ad19 d9bc 8ef4 0e3d d797 003d
00000260: 54dd 2f3d db33 27bd 481d 39bd 3269 e6bc
00000270: 2c67 afbc 5896 e83c c652 343c 9bfd 88bc
00000280: 8df3 033c 039c 7cbc 5298 cfbc b543 2e3d
00000290: e24f 2f3c 8240 193d 586c 1a3d 1c39 c5bc
000002a0: 39fd 18bd 4449 15bd 2302 c63c e943 ddbc
000002b0: 95a9 d73b 7b81 8b3a c873 fcbc e0e0 ffb8
000002c0: 4a89 4dbc 287e 54bc 8292 1fbd c294 98bc
000002d0: 0601 43bc fc55 0fbd f166 1bbd 3811 eabc
000002e0: ebea abbb b510 30bd 87d1 7f3c de13 f9bc
000002f0: 1fc5 ccbc 905c bfbc 0c68 6f3c 7289 ea3c
00000300: d6e4 b53b 55ee c63c 1118 233c 66a2 26b7
00000310: 7309 a63c ea83 23bd 34e6 e1bc 8ac5 383d
00000320: fdf6 003c a971 22bd 6306 d93b 1e7a 1abd
00000330: 1caf 8cbc 2c13 38bc 4216 e5bc 18a5 23bd
00000340: 4c52 06bc 7a1f edbb 1e9c f2bc e439 31bb
00000350: d8ca 14bd 5cfb 153d 5173 07bc 7348 293d
00000360: 7d06 153c cc01 2abd c482 3a3d 2f6f eb3c
00000370: f0e3 37bc afc4 b93c 9b13 ddbc a35f dfbc
00000380: 9998 c9bc 0c29 df3c 56ac e5bb afaa f9ba
00000390: fd8a 1dbd ad66 a03c 86c8 a13b ffcf 31bd
000003a0: ee07 223c a625 8739 6f3a 3d3c 9633 02bd
000003b0: 6157 debc 183f 49bb 941c 033b 2596 073d
000003c0: cb9a 0c3d 4d5c 023c 3a79 2bbb ab0f 89bb
000003d0: 1b7f 013d b22a 20bd 7e65 d43c 0dec ebbc
000003e0: 9d6e c2bc 0377 b7bc e82b 13bd 60aa 0e3c
000003f0: fe58 4ebc 2cbc 03bc 9eaa efbc 1ecc 0c3d
-0.013012657 0.033094853 -0.030074393 -0.037967622 -0.02251817 0.025449695 -0.032356203 0.032367576
0.032023832 0.032700807 0.010742621 0.013825823 0.014714374 0.032829877 -0.013939312 0.04295631
-0.0459964 -0.038753506 -0.031806387 0.03495219 -0.0064772307 -0.033714585 -0.02768678 -0.0016844
0.013407415 0.039952774 0.020267783 0.004651113 -0.0022770667 0.027383216 -0.01110328 -0.00528092
0.03883983 -0.031521503 0.02321814 -0.02904181 -0.039164722 0.017172096 -0.037268944 0.035430904
-0.016900387 -0.037790097 -0.043075394 0.036496826 -0.043958846 0.017911445 -0.023931528 0.01372891
0.029741416 -0.010908797 0.028567135 -0.015303947 0.0062090806 -0.029681055 0.026052494 0.00760806
0.00363965 0.030164605 -0.04026984 0.017183341 -0.0065899915 -0.01682433 -0.0066575897 0.001833178
0.036092523 -0.04168723 0.019004552 0.019768285 -0.04025785 -0.009638095 -0.015503953 0.03319264
-0.03275018 0.026977569 0.016412126 0.038111616 0.035528813 -0.0025584428 -0.022326851 0.042818204
-0.017094906 -0.0038579416 0.015860457 0.025752963 0.028531963 -0.020501394 0.026906235 -0.017652832
0.0019070836 -0.04411836 -0.0026377535 -0.010830048 -0.0011283475 0.03611133 -0.01365283 0.014859723
-0.025896063 0.028351838 -0.016678164 0.018321529 0.02400322 0.02322245 0.03417807 -0.034180585
-0.0022334969 -0.00610697 -0.041059464 -0.004623743 0.048494976 -0.013891416 0.037495237 -0.010966355
-0.026298579 0.029793225 -0.014808399 0.035540808 -0.043339014 -0.00013223133 -0.021877948 -0.042534065
0.016346864 -0.044578835 0.040009454 0.01951207 -0.024857568 -0.019043803 -0.0029021017 0.036431294
-0.013102338 0.036366392 -0.0299841 0.004806894 0.04577193 0.020723984 -0.0074890726 0.019702679
0.0034737834 0.01212213 0.021769125 0.04133519 -0.023863632 0.034313153 0.005529456 0.037040707
0.00905299 0.0010559048 0.021090077 0.017862005 0.030955084 -0.026501501 0.034901194 0.031394806
0.042935684 -0.040820938 -0.04519394 -0.028126333 -0.0214115 0.028392002 0.011006063 -0.016722491
0.0080536725 -0.0154180555 -0.025341187 0.04254504 0.010700198 0.037415035 0.03770098 -0.024075083
-0.037350867 -0.036446825 0.02417094 -0.027009921 0.006581495 0.0010643447 -0.030816928 -0.00012201234
-0.012544939 -0.012969531 -0.03895808 -0.01862562 -0.0119020995 -0.03499411 -0.03793997 -0.028572664
-0.0052465103 -0.042984683 0.01561392 -0.030404981 -0.024996338 -0.023359567 0.014612209 0.028629992
0.005550961 0.024283567 0.009954468 -9.932182e-06 0.020268178 -0.039920725 -0.02757559 0.045110263
0.007871387 -0.039659176 0.006623076 -0.037714116 -0.017173342 -0.01123504 -0.027964715 -0.039952368
-0.008198332 -0.0072364183 -0.029615458 -0.0027042562 -0.03632626 0.036616668 -0.00826724 0.04132886
0.009095785 -0.04150562 0.045534864 0.02873954 -0.011223778 0.022676794 -0.026986888 -0.027267283
-0.024608897 0.027241252 -0.0070090694 -0.001904806 -0.038462628 0.01958021 0.0049372343 -0.04341125
0.009889586 0.00025777257 0.011549576 -0.031787477 -0.027141275 -0.0030707773 0.0020006048 0.033102173
0.03432731 0.0079565765 -0.0026164786 -0.004182776 0.031615358 -0.039103217 0.025927301 -0.028799081
-0.023734385 -0.022395616 -0.035930544 0.008707613 -0.01259446 -0.008040469 -0.029256161 0.03437435

fc3.weight f4 [128, 256]
00000000: f7bb 87bc ae1d 12bd 816f e13c 44f4 513d
00000010: f5d1 99bc db80 6dbd 0ece e33c c84e 313d
00000020: 71b5 073d 4ac7 3d3d a218 2d3d 1679 44bd
00000030: dc8f 3dbd 3635 fe3c 6c63 d039 00a8 223d
00000040: 8e69 3d3d 272f 2cbc bd8f 74bd 8baa 1c3c
00000050: 9ec3 e23c 0299 ca3c 892e 793b ace9 8fbc
00000060: f778 3a3d 8dc4 233d 5f5a 653d cd09 0bbd
00000070: 4adb aebc 25b2 e23c 086a 513d 6943 843d
00000080: 56db 4abd 016b a03c d2b7 a73c 16e5 1bbd
00000090: 0a42 22bc 11aa be3c 0115 81bc fb22 303d
000000a0: f555 1bbc 8add 06bc d3cd 933c c17e bcbc
000000b0: 5e39 19bd 0621 4b3d 844a 393c 9d26 55bd
000000c0: f47a 4d3d 6bbc 0a3d 0ec1 34bc 709f edbc
000000d0: d92b bfbc 133d cdbc bf5a 533d 80f7 2f3c
000000e0: 9137 613b 17f7 c5bc f271 773d 1c6d 5abd
000000f0: 2e45 50bd 16c9 17bd 68ea 503d 5cb8 ce3c
00000100: f741 71bd b587 3cbd a9ac 20bc 5f1a 323d
00000110: 1add 373b b366 853d 5c19 4abd 82d2 cd3c
00000120: dc06 82bc bfb2 6d3c 3200 73bc 162e 2bbd
00000130: 9f33 65bd 20ab 3dbd e5ec 0fbd 3167 65bd
00000140: 6518 6e3c bd25 72bc 97a1 873b e290 bdbc
00000150: 989a 50bd f4ef 3fbd 24e9 c5bc 25a9 76bd
00000160: d071 0b3d 037d 173d a1e5 1abd fb44 983c
00000170: 1a0b 27bd e24a bdbc f56b 91bc 2804 2cbd
00000180: a238 d43c 1e87 853c 0469 f63b c01e 053c
00000190: 8205 66bd f354 6a3c d6e3 383d 7b76 0cbd
000001a0: f68d 61bd 643a 7fb9 19d9 ef3c 94e4 5b3c
000001b0: 232e 073d d7af e5bb 7557 d5bb e3d0 6abd
000001c0: 84ff 81bd 7e53 59bd 0ed6 53bd 8a91 1d3c
000001d0: 8ca6 63bc 4a6f d3bc b3fc 69bd 123f 4d3d
000001e0: a422 53bb 1e4a 093d 1e9a 56bd 0aac 1dbd
000001f0: 3585 173d 97b9 283d 0dec 32bd a108 453d
00000200: a962 0c3d 28ef 513d 4065 4abd 60a9 80bd
00000210: a1cd 60bd ec36 2e3b 9ed1 9c3c c2c6 87bc
00000220: 323e 7dbc 7737 893c f44e 09bd e451 28bd
00000230: a4c1 5cbd 5e41 4f3c 41fa 2fbd 27a0 993c
00000240: 8703 edbb b1bd 25bd cbc0 613d d860 0e3d
00000250: c286 453d 05fe 54bd 8412 1cbd f5a4 04bd
00000260: 3c9e b63b dc24 f83c 52ef 6dbd ab58 9b3c
00000270: 50f8 7c3d 24b8 343d 3652 6abc 13bb e73a
00000280: a459 d0bb b2ab 5d3d 465a 533d 843e f2bb
00000290: 2a0a 3cbd 639d bcbc c4f1 193d 28dc 353d
000002a0: 0437 133d 13e1 d3bc 8399 1cbb 6517 0b3c
000002b0: 3149 da3c ba08 4abd ec30 7b3c 0389 bebc
000002c0: 4434 4dbc 908e 093d 690d cc3c f891 633d
000002d0: 5e11 fb3c f43f 35bd c8d7 33bb 6e9b 6bbd
000002e0: 3c50 dcbb 61cd cabb 58f4 ab3b 6550 7c3c
000002f0: 80c0 823c 68a7 69bd 2430 85bc d933 4ebc
00000300: afb3 1f3d 4c73 7dbd 3891 4f3b 33c4 08bd
00000310: e16e 65bc c351 12bd d22a a23a 865f f93c
00000320: 9783 10bd 4b89 a5bc baac 7e3d fcc8 abbc
00000330: 7e67 9a3c 6ac3 46bd 4f47 273d b12d e2b9
00000340: bca4 9cbc a328 95bc a502 683d 9b69 4c3d
00000350: 553b 10bd 34fc 74bd 94e5 be3c 305b 8fbb
00000360: 493d e63b dc9b f43c 5d6a 4bbd b647 e83c
00000370: b4de 06bd 4659 403c 2a23 bfbb 6d71 a0bb
00000380: f145 2f3d eee7 49bc 2664 733c fac6 d13b
00000390: 72e0 723d 1698 45bd 3b86 7c3d 8810 863c
000003a0: cecf 9cb9 b5f7 cebb 446d 04bc 31de a73a
000003b0: 6aa4 9bbc e1e9 e63b f484 813d 588d 44bc
000003c0: 56bc d43c ba69 beba 99ce 9dbc b674 8fbc
000003d0: b234 ff3b ddf7 b8bb 50e9 173c 9628 50bd
000003e0: af29 63bb 03c2 56bd d007 64bd 4d87 09bc
000003f0: 5c45 0f3c 2fda 653d 3c96 b1bb 2285 7c3c
-0.01656912 -0.035672836 0.02751899 0.05125834 -0.018776873 -0.057984214 0.027808215 0.043288022
0.03313202 0.046332635 0.04225982 -0.04796704 -0.046279773 0.031031232 0.00039746927 0.039711
0.046243243 -0.010509289 -0.059707392 0.009562145 0.027681168 0.024731163 0.0038022122 -0.017567478
0.045525517 0.039982367 0.055994388 -0.033944894 -0.0213448 0.027672837 0.05112651 0.0645817
-0.04952558 0.019582273 0.020473395 -0.03806027 -0.00990344 0.023274453 -0.015757086 0.04300211
-0.009480943 -0.00823153 0.01804248 -0.02300966 -0.037408225 0.04959204 0.01130927 -0.052038778
0.050166085 0.033871096 -0.011032356 -0.02900669 -0.023336338 -0.025053537 0.051600214 0.010740161
0.0034365396 -0.024165673 0.0604114 -0.05332671 -0.050847225 -0.037057005 0.051004797 0.025234394
-0.0589008 -0.046027858 -0.00980679 0.04348218 0.002805537 0.06513729 -0.04934059 0.025124792
-0.015872411 0.014507948 -0.01483159 -0.041791998 -0.055957433 -0.046305776 -0.03513803 -0.056006614
0.014532183 -0.014779505 0.004139136 -0.023140375 -0.050928682 -0.046859697 -0.024159022 -0.060219903
0.034044087 0.036984455 -0.037816647 0.01858758 -0.04078207 -0.023106996 -0.017751673 -0.04199615
0.02590591 0.01629978 0.007519843 0.008125007 -0.056157596 0.01430248 0.045139156 -0.03429268
-0.055067025 -0.00024340447 0.029278325 0.0134211965 0.033002984 -0.007009487 -0.00651067 -0.057328116
-0.06347564 -0.05305814 -0.05171781 0.009617219 -0.013894688 -0.025809903 -0.05712576 0.050108977
-0.0032216692 0.03351795 -0.05239307 -0.038494147 0.03699227 0.041192617 -0.043682147 0.048103932
0.034273777 0.051253468 -0.049412966 -0.06282306 -0.054883603 0.002658303 0.019142922 -0.016574267
-0.015456723 0.01675008 -0.03352256 -0.041093722 -0.053895608 0.012649862 -0.04296327 0.018753124
-0.0072330865 -0.040464107 0.055115502 0.034760326 0.04822422 -0.052000064 -0.038103595 -0.032383878
0.005573062 0.030291013 -0.05808956 0.018963179 0.061760247 0.044120923 -0.014301827 0.0017679654
-0.0063583422 0.05411882 0.051599763 -0.0073927063 -0.04590813 -0.023024267 0.03758408 0.04439941
0.03594114 -0.02586416 -0.002389521 0.008489464 0.026646229 -0.04932473 0.015331488 -0.023258692
-0.012524668 0.033583224 0.024908738 0.05555913 0.03064793 -0.044250444 -0.0027441848 -0.057521276
-0.006723432 -0.006189034 0.005247634 0.015400027 0.015960932 -0.057044417 -0.016258307 -0.012585604
0.03898972 -0.061877534 0.003167225 -0.033390235 -0.014003486 -0.035722505 0.0012372381 0.030441057
-0.035281744 -0.020207068 0.062176444 -0.02096986 0.018848177 -0.048526205 0.04083949 -0.00043140122
-0.01912152 -0.018207854 0.056643147 0.0499054 -0.035212833 -0.059810832 0.02330283 -0.004374884
0.0070263487 0.029859476 -0.049661983 0.028354507 -0.03292723 0.011740034 -0.0058330493 -0.004896334
0.04279131 -0.012323363 0.01485542 0.0064018937 0.05929608 -0.048240744 0.06165145 0.016365305
-0.00029909465 -0.00631615 -0.008082692 0.0012807307 -0.018999297 0.0070469235 0.06324187 -0.01199659
0.025968712 -0.0014527359 -0.019263553 -0.017511707 0.007788264 -0.005644782 0.009271935 -0.050819956
-0.0034662297 -0.052431118 -0.055671513 -0.008394075 0.008744564 0.05611628 -0.0054195207 0.015412601

fc3.bias f4 [128]
00000000: e5cc cc3c d05b 0fbd 95da 573d 391b 44bd
00000010: af09 873c 1593 fd3b 8352 283c fed5 b1bc
00000020: 05ad 7f3d db9d 123c 0513 89bb 277b 2dbc
00000030: 80db ed3c 1cfa 903b f7f0 3fbd 1afd 2f3d
00000040: 30da 01bd d7b4 983b 9fd0 3ebd e3f4 c43b
00000050: b24c 703d 7951 20bd bc6f 57bd 20dd 60bb
00000060: 5890 00bd 0da4 2bbd 764d 1c3d 08e2 6cbd
00000070: 11f6 b7bc 3906 643d 5fb0 4a3c c7f3 033d
00000080: 60f3 49bd ec3a f73c 6b10 3c3c 3e9d 233b
00000090: d6a8 1e3d 4b9d ccbc 2a8c 4b3c 6443 1e3d
000000a0: 0d7c 1f3c bb89 5e3d 3b53 2e3d 7af1 353d
000000b0: 8dc6 c8bc 8720 bb3c 2676 0e3c 0c57 123d
000000c0: be8e b8b9 346c 8c3c 9af6 0abd faa3 6d3d
000000d0: 82c5 923a 29d2 67bd ab02 afbc 7dfb 78bd
000000e0: 46fb 80bc ea74 143d d7e9 0c3d 573f 90bc
000000f0: eebf 23bd a44b 833b 26b2 bb3c c5cf 8fbb
00000100: b819 ffbb 505b 9a3c df77 3f3d ad17 2f3d
00000110: e9ce 33bd f3f1 18bd 79f1 a5bb 8c91 9fbb
00000120: d41a 283d 873b 473d d70a a6bb bad1 d2bc
00000130: 8981 283d 265f a23c b6b6 383d 1d05 3e3d
00000140: 0884 06bd 7c32 103c d67a 3fbd aef8 11bd
00000150: 30d7 6dbd 9608 14bd 17e6 553d 4e75 223d
00000160: 88f1 573d d48a 5bbd fe43 aa3c 5bae 733b
00000170: 9b40 f8bc f401 0bbd bbe9 65bd b5c2 2738
00000180: 6f57 b6bc 6d89 9dbb bfde 9f3b 1dc9 623d
00000190: 203b 80bd 37bc dbbc fab4 433c c202 543c
000001a0: 5999 7dbb f53a 833b feaa 38bd f375 7dbc
000001b0: f703 b93c 63ad ffbc 6b51 75bd 2be8 ed3c
000001c0: f355 4c3d 0200 0ebd 7043 263c 53a3 b53b
000001d0: a3c7 33bd 6352 073d fd18 79bd cb1d 513d
000001e0: e31b 09bd 8f42 1d3c 4752 823c e4c6 373c
000001f0: 4a60 52bb f970 6b3d c77f 913c a282 17bd
0.025000045 -0.03499967 0.05269869 -0.047877524 0.01648411 0.007738481 0.010273579 -0.021708485
0.062420864 0.0089487685 -0.0041831755 -0.010588444 0.02903533 0.0044243466 -0.04686066 0.042965986
-0.03170222 0.0046602297 -0.046585675 0.006010638 0.058666892 -0.0391402 -0.052596793 -0.0034311488
-0.031387657 -0.041904498 0.03815981 -0.057832748 -0.0224562 0.055669997 0.012371152 0.032214906
-0.049304366 0.030179463 0.011478524 0.002496555 0.038735233 -0.024977347 0.012423554 0.038638487
0.009734166 0.05433057 0.042559844 0.044419743 -0.024508739 0.022842659 0.008695161 0.035727546
-0.00035201566 0.017141439 -0.033926584 0.05801771 0.0011197778 -0.05659691 -0.021363577 -0.060786713
-0.015744817 0.03624431 0.034402695 -0.017608328 -0.03997796 0.00400682 0.022912096 -0.0043887817
-0.0077850483 0.01884237 0.046745177 0.04274719 -0.043898497 -0.037340116 -0.005064186 -0.0048696455
0.04104121 0.048640754 -0.00506721 -0.025734771 0.04113916 0.019820761 0.04509612 0.046391595
-0.03284076 0.008801099 -0.046748005 -0.03563755 -0.058066547 -0.036141 0.052221384 0.03966265
0.052720577 -0.053599194 0.020784374 0.0037182781 -0.030304244 -0.03393741 -0.056131106 3.9997238e-05
-0.022258488 -0.004807642 0.0048788483 0.055367578 -0.06261277 -0.026823146 0.011945004 0.012940111
-0.0038696139 0.004004831 -0.045084946 -0.015470016 0.022584898 -0.031210607 -0.0598921 0.02904137
0.049886655 -0.034667976 0.010147914 0.0055431514 -0.04389156 0.033037554 -0.060814846 0.051053803
-0.03347386 0.009598388 0.015908374 0.011216853 -0.003210085 0.057480786 0.017761124 -0.036989816

bn1.weight f4 [512]
00000000: f304 803f 9b23 7f3f 3a11 803f 3fc9 7f3f
00000010: c7f6 7f3f 0327 803f c384 7f3f 79bc 7f3f
00000020: 3ff1 7f3f 76d6 7f3f bd96 7e3f f6f1 7f3f
00000030: bd12 803f 4416 803f df98 7f3f d6ed 7f3f
00000040: dbe2 7f3f f918 803f 1422 803f 5dd3 7f3f
00000050: d8f2 7f3f acb5 7f3f e0ed 7f3f 0003 803f
00000060: bc42 803f 71f5 7f3f 22e9 7f3f 853f 803f
00000070: e322 803f 44dc 7f3f 851d 803f 5e22 803f
00000080: 6615 803f 921d 803f 25a8 7f3f b1d0 7f3f
00000090: f610 803f 3cfe 7f3f 57b7 7f3f 120e 803f
000000a0: 8129 803f 609e 7f3f 8500 803f 24eb 7f3f
000000b0: a341 7f3f 2c16 803f c91d 803f 2dd9 7f3f
000000c0: 8eae 7f3f ce62 7f3f 002f 803f 5210 803f
000000d0: 1f11 803f 7e24 803f 207d 7f3f 490f 803f
000000e0: 25d1 7f3f 40de 7f3f 3424 803f a738 803f
000000f0: a70c 803f 9d89 7f3f 5232 803f 9dd7 7f3f
00000100: 82ab 7f3f 370e 803f b417 803f 8105 803f
00000110: c1b7 7f3f 45fb 7f3f 75a9 7f3f bf1b 803f
00000120: d931 803f d21c 803f a634 803f a3e8 7f3f
00000130: 43f1 7f3f a2a4 7f3f c0ea 7f3f 1625 803f
00000140: f807 803f 262c 803f d12e 803f 0c70 803f
00000150: fcb1 7f3f 76e3 7f3f 3ddc 7f3f 442d 803f
00000160: bebc 7f3f 29a3 7f3f 151f 803f ac22 803f
00000170: d73b 803f 8d00 803f 773b 803f c701 803f
00000180: 64d7 7f3f 844c 803f dafb 7f3f a71d 803f
00000190: 7115 803f a625 803f 2d10 803f ddff 7f3f
000001a0: 1dac 7f3f 9f30 803f f200 803f 5415 803f
000001b0: 11d1 7f3f 4a9f 7f3f 25c5 7f3f 8507 803f
000001c0: 7cb5 7f3f a99f 7f3f 2ef1 7f3f 5a39 803f
000001d0: cc8d 7f3f b5f1 7f3f 4c12 803f 7607 803f
000001e0: 4edd 7f3f 2a09 803f 260b 803f 0608 803f
000001f0: 6db6 7f3f 6997 7f3f d149 7f3f d7f4 7f3f
00000200: d3a9 7f3f cdd1 7f3f f2ee 7f3f a2fe 7f3f
00000210: e50f 803f 1632 803f 1007 803f 1bbc 7f3f
00000220: b16d 7f3f 7a96 7f3f b2dd 7f3f 4d98 7f3f
00000230: afdb 7f3f 0649 803f e809 803f b92e 803f
00000240: 4d0b 803f a575 7f3f 3633 803f a625 803f
00000250: 8707 803f ef19 803f 5df3 7f3f 2c3a 803f
00000260: 8d01 803f f924 803f af0f 803f bdf7 7f3f
00000270: d312 803f 7d16 7f3f 569b 7f3f 48e6 7f3f
00000280: 22f6 7f3f 071c 803f e4e9 7f3f 430e 7f3f
00000290: 4d0e 803f 8316 803f 6aeb 7f3f b82d 803f
000002a0: 1d35 803f 9d06 803f 9ade 7f3f 191d 803f
000002b0: 7d1e 803f 7504 803f 56a1 7f3f 88ca 7f3f
000002c0: 7df1 7f3f 121d 803f 7ce6 7f3f c507 803f
000002d0: 6c0a 803f 460e 803f 86bb 7f3f db89 7f3f
000002e0: 571e 803f 3006 803f 8c12 803f 960f 803f
000002f0: ea48 803f d5f8 7f3f 05d8 7f3f 7106 803f
00000300: 28f9 7f3f 5044 7f3f 8c14 803f 48c4 7f3f
00000310: 0702 803f b00c 803f 02eb 7f3f f11c 803f
00000320: af02 803f a025 803f 74df 7f3f e114 803f
00000330: 09ed 7f3f f108 803f f3e9 7f3f a004 803f
00000340: d81d 803f 45f1 7f3f 0fd5 7f3f abb4 7f3f
00000350: 439f 7f3f a245 803f 3603 803f 7304 803f
00000360: 5a31 7f3f 84d4 7f3f dae0 7f3f f60f 803f
00000370: 451e 803f f11e 803f 7ffd 7f3f 7f16 803f
00000380: f8ad 7f3f 4aa4 7f3f 02f0 7f3f 2113 803f
00000390: dfa2 7f3f e309 803f 26f8 7f3f c356 7f3f
000003a0: 5218 803f 5118 803f 01fc 7f3f 2af1 7f3f
000003b0: 59e6 7f3f d4f9 7f3f 1edf 7f3f bab3 7f3f
000003c0: 1c29 803f ad03 803f 77d0 7f3f 82c4 7f3f
000003d0: 233e 803f 9405 803f c1dc 7f3f edd6 7f3f
000003e0: 271a 803f 7722 803f 39ed 7f3f 2739 803f
000003f0: 101a 803f f706 803f 5e15 803f 861d 803f
1.000151 0.99663705 1.0005257 0.9991645 0.9998593 1.0011905 0.99811953 0.9989696
0.9997749 0.99936616 0.9944876 0.9997858 1.0005718 1.0006795 0.9984264 0.99972284
0.9995553 1.0007621 1.00104 0.9993189 0.99979925 0.99886584 0.99972343 1.0000916
1.0020366 0.9998389 0.9996511 1.0019385 1.0010647 0.99945474 1.0009009 1.0010488
1.000653 1.0009024 0.99865943 0.9992781 1.0005176 0.99997306 0.9988913 1.0004294
1.0012666 0.99851036 1.0000159 0.9996817 0.9970953 1.0006766 1.000909 0.9994076
0.99875724 0.9976014 1.0014343 1.000498 1.0005225 1.0011137 0.998003 1.0004665
0.99928504 0.999485 1.0011048 1.0017289 1.0003861 0.99819356 1.0015357 0.99938375
0.99871075 1.0004338 1.0007234 1.000168 0.9988976 0.9999278 0.99867946 1.0008467
1.0015212 1.0008795 1.0016067 0.9996435 0.9997751 0.99860585 0.99967575 1.0011318
1.0002432 1.0013473 1.0014287 1.0034194 0.9988096 0.9995645 0.9994543 1.0013814
0.9989737 0.9985834 1.0009485 1.0010581 1.0018262 1.0000168 1.0018147 1.0000542
0.99938035 1.0023351 0.9999367 1.0009049 1.0006543 1.0011489 1.0004936 0.9999979
0.99872 1.0014838 1.0000288 1.0006509 0.99928385 0.9985243 0.99910194 1.0002295
0.998863 0.99853 0.99977386 1.0017502 0.9982574 0.9997819 1.0005584 1.0002277
0.9994706 1.0002797 1.0003402 1.0002449 0.99887735 0.9984041 0.9972201 0.9998297
0.99868506 0.99929506 0.99973977 0.99997914 1.0004851 1.0015285 1.0002155 0.998964
0.9977675 0.99838984 0.99947655 0.9984177 0.99944586 1.0022285 1.0003023 1.0014259
1.0003449 0.99788886 1.0015628 1.0011489 1.0002297 1.0007914 0.9998072 1.0017753
1.0000473 1.0011283 1.0004786 0.99987394 1.0005745 0.9964369 0.998464 0.99960756
0.99984944 1.0008553 0.99966264 0.99631137 1.0004364 1.000687 0.9996859 1.0013952
1.0016209 1.0002018 0.9994904 1.000888 1.0009304 1.000136 0.99855554 0.99918413
0.99977857 1.0008872 0.99961066 1.0002371 1.000318 1.0004356 0.99895513 0.99819726
1.0009259 1.0001888 1.000566 1.0004756 1.0022252 0.9998906 0.99938995 1.0001966
0.9998956 0.9971361 1.000627 0.99908876 1.0000619 1.0003872 0.9996797 1.0008832
1.0000819 1.0011482 0.9995034 1.0006372 0.9997106 1.0002729 0.99966353 1.0001411
1.0009108 0.99977523 0.99934477 0.9988505 0.9985239 1.002125 1.000098 1.0001358
0.9968468 0.9993365 0.9995247 1.0004871 1.0009238 1.0009443 0.9999618 1.0006865
0.9987483 0.9986006 0.999756 1.0005838 0.99857897 1.0003017 0.9998802 0.9974176
1.0007422 1.0007421 0.999939 0.9997736 0.9996086 0.9999058 0.99949825 0.99883616
1.0012546 1.0001122 0.9992747 0.9990922 1.0018963 1.0001702 0.9994622 0.99937326
1.0007981 1.0010518 0.9997135 1.0017442 1.0007954 1.0002126 1.0006521 1.000901

bn1.bias f4 [512]
00000000: 078a 243b 8e57 01bb bd7f e2ba 5227 e43a
00000010: f86b 83ba 7049 cd39 4a24 6abb 8199 293b
00000020: 2dcb 393b aebd e8ba 60c3 0ebb 81cf 133b
00000030: 2487 88bb 87e2 82bb 97e9 bf39 4f09 903a
00000040: c631 fa3a b3d4 5c3b 9cb9 823b f8ce 383b
00000050: c091 37bb 97fc 093b 1167 dbba 5204 a539
00000060: 5627 253a a5da 343b 0959 dfba 9d5b 36bb
00000070: 0504 a93b 5ee5 7ab9 d17d 17bb c848 b23b
00000080: d4ac c5b8 045e 11ba e2fe 5e3b 5b39 023b
00000090: ae8c 66bb 7880 023b d1fe fdba 8645 3c39
000000a0: 5f24 6939 f740 a2bb 6199 5e3b 9196 28bb
000000b0: b973 ae3a f9ba a83b 8bea bbba 2b5b e2b9
000000c0: 51c4 97ba dcd9 533b b2e9 1d3a 3032 293b
000000d0: c231 9dba f68f a33a aeda b8ba 7d19 20bb
000000e0: 315e 73b9 e119 ae3b 73a8 223b c8f6 023b
000000f0: 95f5 813a 243c fc3a 7371 7a39 9d44 0d3b
00000100: 74aa 6cbb 527c db3a e2ca d43a cf84 71ba
00000110: 5b5a 48bb 3ede a0bb 9f3e 43b8 33a8 053b
00000120: f816 00bb 8c42 deb9 3051 673b 712c 4b3a
00000130: 0b37 0dba c105 e6ba e8c5 b539 2f6f 6ebb
00000140: 3433 0dbb c3b0 43bb ae3f 5d3b 9ce2 92bb
00000150: e908 ec3a 8e06 2bbb 280c 243b aeda a1ba
00000160: a3bb ea39 35aa 2dbb dca3 7a3b 21fb 233b
00000170: 9190 6bbb 9e2b 9db9 47f2 223a 976c ef39
00000180: 5ef8 c739 9897 93bb 9549 ef3a 4c88 713a
00000190: b1d8 bb3a c556 4bbb d082 67bb a5ca a23b
000001a0: aa77 57bb 2e23 f83a c2a4 933b db79 c8bb
000001b0: b226 cd3a f5a9 a6ba 8973 68bb a626 9dbb
000001c0: a201 b83a 7630 f8b9 5d76 8dbb e886 98ba
000001d0: 15cb 29bb 5142 ba3a d66a 72bb 0dbc 113b
000001e0: 68ac f8ba be9b e43a cea3 30bb 51b0 d8ba
000001f0: 4ae8 b73a 92be 8cba 8510 42bb a624 6e3b
00000200: a14c 00bb d872 d93a 4031 5d39 44d5 95ba
00000210: 79e1 d6ba 9ee5 79ba f3ee a8bb 4dbc a93b
00000220: 6835 f2b9 0144 303b 6255 9936 423f cdba
00000230: b57f df3a d2ca 4437 864a 7fbb 24fc 07bb
00000240: 50f1 953b 5aad a7bb 030c 1b3b 2733 7e3b
00000250: a015 adb8 874a f93a ecfe fbba 256c 003b
00000260: 0b3b 0139 73f4 e7ba 6b6f b93a a13f 053a
00000270: 4111 0e3b c7aa 8fb9 abd0 48b9 7d27 a3ba
00000280: 73ea 2f3a d219 4e3a 9700 0abb de31 6dbb
00000290: 0346 8f3b 6b2b 473a 263f 3d3b 2097 94ba
000002a0: e3c9 323b bd73 603b cb12 9bb9 a0a0 ee39
000002b0: 04a6 83bb 1fd4 b4ba 2ebb 68bb d801 adbb
000002c0: 05be 06bb 39f2 42bb 7545 3aba 9f60 873b
000002d0: eed6 843a 9e6c 003b 274f a6ba 3736 b13b
000002e0: 2a33 233b aff4 87bb 084d 5fbb d464 553b
000002f0: 8a8b ba3a 02ba 813b cc16 04bb 2765 47bb
00000300: f5c4 b43a a668 d43a c293 8c3b e756 5bbb
00000310: 9750 7c3b 3d2a 97ba a1fd 01bb fb15 1cbb
00000320: 68a7 92ba 3694 ddba 9d1e b83a f8f1 673b
00000330: 8799 f9b8 1234 38bb bad6 a03b 35f2 f5ba
00000340: 7416 c73a 181a 6fba f9b7 35bb 2334 b03b
00000350: 5b28 4e3b ec58 443a d7ed 4abb da77 8cba
00000360: 2979 1dbb 9187 103b f268 31bb 600e c73a
00000370: 2b39 01bb 93da 46bb 9157 36bb 4f43 933a
00000380: 300d e2ba 1134 6dbb bf76 6dbb 2594 673b
00000390: 2230 c837 62df 1e3b 6378 71bb d524 093b
000003a0: 4405 63ba 471b 95ba d6ac 08bb 49a8 1dbb
000003b0: 4983 5bbb 38f3 453b 4683 8dbb 69e2 f139
000003c0: 9f30 00ba d284 60ba 2ee9 033b bd98 08bb
000003d0: 3e2d 12bb ea44 ccba 35d2 b0ba e31f a63b
000003e0: 3dbd 013a ad1f 4bbb 2777 0b3b b132 9bbb
000003f0: 6b24 1bbb be63 7b3b be68 80bb f47e 98bb
0.0025106685 -0.0019736025 -0.0017280501 0.0017406738 -0.0010026684 0.00039155362 -0.0035727196 0.002587885
0.0028349862 -0.0017756724 -0.0021783933 0.0022554102 -0.0041665006 -0.0039942893 0.00036604397 0.0010989102
0.001908832 0.0033696115 0.0039894115 0.0028199535 -0.0028010458 0.0021055096 -0.001673909 0.0003147447
0.0006300112 0.0027596143 -0.0017040084 -0.0027825602 0.00515795 -0.00023927304 -0.0023115764 0.005440805
-9.425884e-05 -0.00055453205 0.0034026434 0.0019870612 -0.0035179066 0.0019913 -0.0019378309 0.00017954977
0.00022234161 -0.004951592 0.0033965933 -0.002572451 0.0013309635 0.005149242 -0.0014336867 -0.00043174005
-0.0011578893 0.00323259 0.0006023898 0.0025817268 -0.0011992978 0.0012478817 -0.0014103258 -0.0024429255
-0.00023209375 0.0053131436 0.0024819642 0.001998352 0.0009915108 0.0019243998 0.00023884121 0.002155579
-0.003611234 0.0016745424 0.001623478 -0.00092132104 -0.0030571434 -0.004909306 -4.6549943e-05 0.0020394444
-0.001954494 -0.0004239272 0.0035296194 0.0007750458 -0.0005386925 -0.0017549322 0.00034670462 -0.0036382189
-0.0021545412 -0.0029859997 0.003375988 -0.0044825803 0.0018008027 -0.0026096436 0.002503166 -0.0012348497
0.00044771758 -0.0026499156 0.003824464 0.002502151 -0.0035944323 -0.0002997787 0.00062159117 0.00045666538
0.00038141286 -0.0045041554 0.0018256182 0.000921373 0.0014331547 -0.003102706 -0.0035325773 0.0049680048
-0.0032877722 0.0018931383 0.0045057246 -0.006118042 0.0015651791 -0.0012715446 -0.0035469255 -0.004795867
0.0014038573 -0.00047338352 -0.0043170885 -0.0011636885 -0.00259084 0.0014210438 -0.0036989949 0.002223733
-0.001897228 0.0017441434 -0.0026953104 -0.0016532039 0.001403102 -0.0010737947 -0.0029611897 0.0036337762
-0.0019576924 0.0016590012 0.0002109455 -0.0011431356 -0.00163941 -0.0009532812 -0.005155438 0.005179918
-0.00046197628 0.0026896002 4.569695e-06 -0.0015659111 0.001705161 1.1729733e-05 -0.0038954332 -0.0020749653
0.004575886 -0.0051171007 0.0023658283 0.0038787813 -8.253311e-05 0.0019019403 -0.0019225753 0.001959571
0.00012324394 -0.0017696753 0.0014147585 0.0005083029 0.0021677765 -0.00027402324 -0.00019151221 -0.0012447682
0.0006710656 0.0007862124 -0.002105748 -0.0036193053 0.0043723597 0.00075977173 0.002887675 -0.0011336543
0.0027280978 0.0034248673 -0.00029577906 0.00045514572 -0.0040175933 -0.0013796127 -0.0035511958 -0.005279761
-0.0020560038 -0.0029746427 -0.0007105687 0.004131391 0.0010134855 0.001959599 -0.0012688384 0.0054080742
0.0024902322 -0.0041490416 -0.0034073014 0.003256132 0.001423226 0.0039589414 -0.002015519 -0.0030425282
0.0013791608 0.0016205504 0.004290075 -0.0033468546 0.0038500184 -0.0011532974 -0.0019835012 -0.0023816812
-0.0011188807 -0.0016905132 0.0014047209 0.0035392027 -0.00011901842 -0.0028107208 0.00490841 -0.00187642
0.0015189187 -0.0009121015 -0.0027728064 0.005377309 0.003145716 0.0007490057 -0.0030964518 -0.0010716871
-0.0024028516 0.002205346 -0.002707061 0.0015186779 -0.0019717913 -0.0030342683 -0.002782319 0.001123527
-0.0017246362 -0.0036194364 -0.0036234108 0.0035336104 2.3864271e-05 0.0024242033 -0.0036845438 0.0020926495
-0.00086601474 -0.0011375927 -0.0020854971 -0.0024056605 -0.0033495 0.0030204784 -0.0043186275 0.0004613579
-0.00048900576 -0.00085647136 0.0020128 -0.0020842992 -0.0022304798 -0.0015584503 -0.0013490381 0.005069719
0.0004949158 -0.0030994222 0.0021280737 -0.0047362675 -0.002367283 0.0038359012 -0.0039187362 -0.004653806
