data/rl4wound_paper_res/ctr/models_map524/agent_ctr_True_ep_7824.pth (torch, 950255 bytes, 21 tensors)

fc1.weight f4 [512, 5]
000000 2e 29 28 bc 45 d3 71 3e 77 13 b9 be 81 14 a7 be
       -0.010263724 0.23615749 -0.36147663 -0.3263283
000010 9c b9 2c be bf 9a eb 3d 5c 1c 23 bc 1a 8c b6 3e
       -0.1686768 0.11504125 -0.009955492 0.35653764
000020 7f b1 1e bd 7e d6 ef 3d e2 05 0b be 1e 48 c1 bd
       -0.038743492 0.11710833 -0.13576463 -0.094375834
000030 ba c2 d8 be a5 72 97 be 96 d7 35 be 7c 4e 8d 3c
       -0.42336065 -0.29579654 -0.17758021 0.017249338
000040 67 8f 33 3e 18 81 88 3e fa ed 9c be b7 68 45 be
       0.17535172 0.2666099 -0.30650312 -0.19278227
000050 b2 90 28 3e f2 53 bb 3e d6 b3 c1 bd e5 fb ab 3e
       0.16461447 0.36587483 -0.09458129 0.33590618
000060 1b ff 93 bd 4b e3 3a 3d 07 4e cc 3e 7d b0 d3 be
       -0.07226392 0.04562692 0.3990328 -0.41345587
000070 3d 8b 8e be 23 56 e8 bd 11 0d 32 be 82 a8 c3 3e
       -0.27840605 -0.11344554 -0.17387797 0.382145
000080 5b 16 92 be 93 42 56 be 49 27 9d be 24 b7 d6 be
       -0.2853268 -0.20923834 -0.30694035 -0.419366
000090 66 40 85 be 83 fb c2 3e 0f ef 4d 3e 24 e7 5c 3e
       -0.26025695 0.38082513 0.20110725 0.21572548
0000a0 45 c4 d4 3c d5 b4 65 be a4 5f 92 3d 13 3c d6 be
       0.025972495 -0.22432263 0.07147148 -0.41842708
0000b0 21 30 a8 be 09 54 6d be b0 d6 91 3e ad d3 86 3e
       -0.3284922 -0.23176588 0.28484106 0.2633337
0000c0 f4 2c 48 be c8 06 90 bc 99 81 90 3e 1f d7 e2 3e
       -0.19548398 -0.017581359 0.28223875 0.4430475
0000d0 49 95 37 3e f2 d2 82 3d 98 68 99 3e c5 1b 86 be
       0.17928042 0.06387891 0.2996261 -0.2619306
0000e0 e8 dd a1 3d c7 41 b0 be 50 ae 9d be 43 be 6b be
       0.079036534 -0.34425184 -0.30797052 -0.23021798
0000f0 57 dd 48 3e b5 ca 33 3e 55 91 86 be 2f 89 0e 3e
       0.19615684 0.17557795 -0.26282755 0.13919519
000100 e6 41 7a 3e 0f 84 61 bd fa ba 64 3c 45 9b cf 3d
       0.24439201 -0.05505758 0.013960594 0.10137037
000110 f9 a0 8c 3e a1 39 dd 3e 16 8d af be 24 5b 28 be
       0.27466562 0.4320803 -0.34287328 -0.16441017
000120 7c fe 33 3e 1f 99 be 3e 50 4b c7 3e dd 6c cb 3e
       0.17577547 0.37226197 0.38924646 0.39731494
000130 d9 b4 b1 3d 86 67 c8 be 6a 1d 26 3d 6d f1 8c be
       0.08677072 -0.39141482 0.040555395 -0.27527943
000140 f9 8d d3 be 8f 43 cc 3e b6 89 ad 3e 36 cf e4 be
       -0.41319254 0.39895293 0.33894128 -0.4468934
000150 4a be aa 3d 93 d1 a1 bd 3f 84 91 bd d3 a4 4b be
       0.08337076 -0.07901301 -0.07105302 -0.19887094
000160 85 29 34 3e 2a 5e 86 be ac c9 23 3e bc b1 6a 3e
       0.17593963 -0.26243716 0.159949 0.22919363
000170 dc 0f a4 3e 46 9e 2e 3e f9 66 e0 be f9 bb 94 be
       0.3204335 0.17052564 -0.43828562 -0.29049662
000180 34 1e 5e 3e b4 ae bd 3d a8 5d b3 be d9 f5 82 be
       0.21691209 0.092618376 -0.35032392 -0.25578192
000190 8c 2b d8 3e 3a 54 99 3e 71 5d 48 be f9 54 de bd
       0.42220724 0.29947072 -0.19566895 -0.10856051
0001a0 22 56 dd be 6c 83 bc bc 16 d5 ac be 2f 05 b0 be
       -0.43229777 -0.023011886 -0.33756322 -0.34378955
0001b0 6b 0c ba bc 65 86 8b 3d d1 3e 37 be 6f 53 89 3e
       -0.022711 0.06812743 -0.17895056 0.26821467
0001c0 0d b9 8d be 13 e0 cd 3e 30 68 9d 3e 13 3e c0 be
       -0.27680245 0.40210018 0.3074355 -0.3754736
0001d0 13 57 e0 bd f8 69 a5 3c ee 47 87 3d e8 0b e3 3d
       -0.10954108 0.020192131 0.066055164 0.11086255
0001e0 10 ae 35 3e 94 2d ea 3c 61 cc 5f be d7 06 58 3e
       0.17742181 0.028586186 -0.21855308 0.21096359
0001f0 b5 af db be 5f b3 86 be 84 25 e5 bd d2 0d 60 be
       -0.4290749 -0.26308724 -0.11188796 -0.21880272
000200 db da 25 be 60 ba b9 be 10 32 b8 bd 88 44 c4 3d
       -0.16196768 -0.36275005 -0.08993924 0.09583384
000210 87 4c 98 be ac 87 d0 bc 15 48 a1 3e 2b 9c 47 bd
       -0.29745886 -0.025455318 0.31500307 -0.048732918
000220 6f b1 72 3c ff 5a 2b bd 88 d2 b7 3d 85 59 91 3e
       0.014812811 -0.041834828 0.089757025 0.2838861
000230 73 0a d8 3e 1e 81 94 3e 48 c4 d8 3e ae b0 09 bd
       0.42195472 0.2900476 0.4233725 -0.03361576
000240 ad ca cc be 9d 75 5a be 1c a5 9b 3e 3f c4 32 bb
       -0.3999838 -0.21333928 0.30399406 -0.0027277616
000250 21 ee 61 be 3e 24 ae be bc 59 d5 be 7a 57 c2 be
       -0.22063495 -0.34012026 -0.41670024 -0.37957364
000260 59 16 c3 bd e8 b8 78 3e 34 f4 78 3e d6 e0 dd be
       -0.09525747 0.24289286 0.24311906 -0.433356
000270 31 2c 8f 3e 30 33 b2 be 42 b5 bf bd 96 38 38 be
       0.27963403 -0.34804678 -0.09360744 -0.17990336
000280 a8 21 b0 bd 04 f6 d2 bd d5 74 cc be 01 81 c5 be
       -0.086001694 -0.1030083 -0.39932886 -0.38574985
000290 6d 06 90 bd b5 35 26 3c 01 7b 53 be ef 3c 28 3e
       -0.070324756 0.010144641 -0.20652391 0.16429494
0002a0 23 8c cf be f3 10 16 bd 6a aa c9 3e 1d 88 37 be
       -0.40536603 -0.036637258 0.39387828 -0.17923017
0002b0 45 24 cd 3e 55 64 22 3e 7c 74 d0 be 3d 76 91 3e
       0.40066734 0.15858586 -0.4071387 0.2841052
0002c0 08 9e 60 bd c3 85 4a be c5 e5 b6 3e e0 7d b8 be
       -0.05483821 -0.19777589 0.35722175 -0.36033535
0002d0 7a 59 44 3d 8f 01 b7 bd a5 2c a3 3e 59 26 00 3e
       0.047936894 -0.08935844 0.3187 0.12514628
0002e0 83 8a 5e 3e 4f 40 23 3e 0e 34 d4 bd 4e c0 c7 bd
       0.21732526 0.159425 -0.10361491 -0.09753476
0002f0 1f bf bf be 52 d1 76 3e 69 c3 b6 3e a8 d3 9b 3e
       -0.374505 0.24103287 0.3569596 0.30434918
000300 74 71 a3 be 4f 16 94 3c 5a 84 a3 be 4d ae 7a be
       -0.31922495 0.018077044 -0.31936914 -0.24480553
000310 d0 85 83 be 55 ef 19 3e 4d cd 88 be 4f e3 49 bc
       -0.25688028 0.15032704 -0.26719132 -0.012322261
000320 70 5d 8b 3c 52 04 95 3e 73 d9 ab be 91 ac 9c be
       0.017012328 0.2910486 -0.33564338 -0.30600408
000330 dd 5e 83 be fa 47 a1 3e e9 43 25 be 8e 03 bf 3e
       -0.25658312 0.31500226 -0.16139187 0.373074
000340 7f b2 28 3e 43 61 58 3d 8a 3b 7d bb 8b b6 ac bd
       0.16474341 0.05282713 -0.0038640224 -0.08433255
000350 70 52 63 3d 8d 17 d6 bd 80 48 87 bb 15 91 66 3d
       0.05549854 -0.10453711 -0.0041285157 0.056290705
000360 0f 24 b3 be b0 9e 6a be bf f6 bb 3e 88 2a b8 be
       -0.34988448 -0.22912097 0.3671169 -0.3596995
000370 21 07 d2 bc 31 d1 e4 3e b9 97 1e 3e 90 81 02 3c
       -0.025638165 0.4469085 0.15487565 0.00796546
000380 b2 4b c6 be 0b 1c 62 3e f7 59 a4 be e6 55 00 be
       -0.38729626 0.2208101 -0.32099888 -0.12532768
000390 ac 66 19 be 90 2b 7f bd 55 39 a4 3b 77 88 be 3e
       -0.14980572 -0.062297404 0.0050117173 0.3721349
0003a0 82 fa 5a 3d a8 86 cd 3e cf cb 8a 3e bc ba 91 be
       0.05346156 0.40141797 0.2710862 -0.2846278
0003b0 55 82 47 3e 5c 54 a0 be af 57 42 be a0 45 06 3e
       0.19483311 -0.3131436 -0.18978761 0.13112497
0003c0 01 06 19 3e b0 07 ab 3e c9 68 0d be 51 50 e7 3a
       0.14943697 0.33404303 -0.13809504 0.0017647838
0003d0 9f a7 6e 3e 32 56 dc be ac 64 a6 3e fb 8c be be
       0.2330613 -0.43034512 0.32498682 -0.37216935
0003e0 25 c0 54 3b 0d 4d 9c bd 31 63 70 be 3a 83 63 3d
       0.003246316 -0.07631884 -0.23475339 0.05554507
0003f0 6d 07 be 3e 45 95 05 be f4 2f 87 be af 42 2b be
       0.3711504 -0.13045223 -0.26403773 -0.16724657

fc1.bias f4 [512]
000000 d6 31 97 be 0f 56 a2 be f3 db 97 3e b8 27 15 be
       -0.2953021 -0.31706282 0.29659995 -0.14565933
000010 1a cf f0 bc 95 37 05 3e 7e 1c 8e be 58 ac 23 3d
       -0.029395629 0.13009484 -0.27756113 0.03995928
000020 af 1f 89 3e e0 95 86 be c2 cf 03 3e 3d 9c 87 bc
       0.26781985 -0.2628622 0.12872222 -0.016553992
000030 05 9b 7b 3e ff 26 98 3e ff c2 ec 3d fd 5d 16 3c
       0.24570854 0.29717252 0.1156063 0.009177682
000040 21 ae c5 be ae 12 35 3e 82 68 8b 3e 5e 57 27 be
       -0.38609412 0.17682907 0.2722817 -0.16341922
000050 b7 43 e1 be 75 34 c0 3e 50 23 d2 bd 23 74 ad 3d
       -0.43996975 0.37540022 -0.102606416 0.08469417
000060 00 8d f4 bd a3 7a 91 3e 38 7d df 3e fa c6 8f 3e
       -0.11940956 0.28413877 0.43650222 0.28081495
000070 2e 5b 0f be 9e de 9e 3e 22 b7 5b 3e 5d 72 38 3d
       -0.13999626 0.31029218 0.21456578 0.04503094
000080 0f 36 b8 be 0e db 41 be f5 a5 e8 be de c8 98 3e
       -0.35978743 -0.18931219 -0.45439115 0.2984075
000090 7e 9d e2 3e 8b ff 84 3e 6a e2 06 3e 62 c7 d7 3d
       0.44260782 0.25976214 0.13172308 0.10536076
0000a0 d3 dd de 3e 6f 2d 64 be bc 10 1a be 47 a9 c7 be
       0.43528613 -0.22282957 -0.15045446 -0.38996336
0000b0 56 c0 3b bd 52 1a ee 3c 09 e9 f9 3d 22 45 a0 be
       -0.045837723 0.029065285 0.12202651 -0.31302744
0000c0 31 05 18 bd 52 72 bd be 5e 5f b8 be 39 9c 6f 3d
       -0.037114326 -0.37001282 -0.3601026 0.058498595
0000d0 c2 28 de be c6 e4 f7 3d 3f 7d d4 be 94 e2 9e be
       -0.4339047 0.12104182 -0.41501805 -0.3103224
0000e0 04 6b cb bd 48 b8 d7 be a6 5c b9 3e 1e 13 bb 3e
       -0.09932521 -0.42132783 0.36203498 0.36538023
0000f0 10 21 6a be 6f 60 da 3d 43 e0 6b 3e 86 c5 10 3e
       -0.22864175 0.106629245 0.23034768 0.14137849
000100 20 c5 81 bd b6 0b ce be 58 4a ad 3e 82 0d cc be
       -0.06336427 -0.4024331 0.33845782 -0.39854056
000110 9f 9d a9 bd 0e cd ea 3c c5 6e 1a be 13 b0 0e be
       -0.08282017 0.02866223 -0.15081318 -0.13934354
000120 b7 3a c5 be 37 f3 b0 3c 66 f9 48 bd ad 94 c7 3e
       -0.38521358 0.021600349 -0.04906597 0.38980618
000130 16 90 17 be 6f de ac 3e d7 17 4b 3c 3a 6f 52 be
       -0.14801058 0.33763453 0.012395821 -0.20550242
000140 00 cf db bd c9 3d 86 bd 3a a3 9d 3b 05 66 9f bd
       -0.107328415 -0.06554753 0.004810718 -0.077831306
000150 0f 82 08 3e 28 37 b4 3e 7d f6 9a 3d da ee 25 3e
       0.13330863 0.3519833 0.07566545 0.16204396
000160 b1 85 8e 3e 24 62 d6 3d 88 26 54 3e ff 57 78 3e
       0.27836373 0.104679376 0.20717824 0.24252318
000170 4b f6 cf 3e 3c 21 d2 be ea 00 1d 3e ea 14 ab bc
       0.40617594 -0.4104098 0.1533238 -0.020883996
000180 dd 40 95 bd 87 8b 25 be 93 fc 81 3e c6 a3 d1 3e
       -0.07287762 -0.16166507 0.2538801 0.40945262
000190 41 33 bc be a1 4d 7b 3e b8 f4 a7 3e d8 c8 9f 3d
       -0.36757854 0.24541332 0.32803893 0.0780198
0001a0 8f 83 4a 3c 15 0d b0 3e 3c db 0e 3c 30 7c e1 bd
       0.012360468 0.3438498 0.008719262 -0.11010015
0001b0 0c 71 0b bd 00 3e 0f 3e f1 bc e0 3d 69 fe 90 bc
       -0.034043357 0.13988495 0.10973538 -0.017699437
0001c0 18 ee 0c 3e 13 71 f4 3d f6 b3 ae be ee a8 e3 3d
       0.137627 0.1193563 -0.34121674 0.11116205
0001d0 20 71 8f 3e 74 df 4e 3d 29 c4 1f bd 85 07 af 3e
       0.28015995 0.05050607 -0.039005432 0.34185424
0001e0 98 3c ce be 03 b5 50 be ae bf 4e be f8 b9 c4 3e
       -0.40280604 -0.2038155 -0.20190307 0.38423133
0001f0 38 be dd be bf 87 d9 3c e8 76 e2 be 72 9c 80 bc
       -0.43309188 0.026553987 -0.44231343 -0.015699599
000200 07 6b 25 3e 1c 49 ce bd 4c 58 e0 3e 7a f1 c2 3c
       0.16154109 -0.10072538 0.43817365 0.023796786
000210 7b 04 69 be 00 96 d2 3d 21 0c 65 3e 70 59 b1 b8
       -0.22755615 0.102825165 0.22367908 -8.456677e-05
000220 a8 0f c4 3e 49 b2 8a be 2f 7f 44 3e ea 0d 7f 3e
       0.38293195 -0.27089146 0.19189142 0.24907652
000230 98 0d 64 3e 84 15 88 3a f5 e6 d0 3d 7d 83 b3 be
       0.2227081 0.0010382389 0.102003016 -0.35061255
000240 60 b8 b4 be a3 c0 e5 bc a2 6c 88 bd 71 7f a9 3e
       -0.35296917 -0.028045958 -0.06661345 0.33105043
000250 1b a3 b2 3e 54 a3 9f 3e 23 83 52 be 12 1b b3 be
       0.34890065 0.31179297 -0.20557837 -0.3498159
000260 f4 b0 dc be fd 30 3a 3e 61 18 c5 be dd 54 e8 be
       -0.43103755 0.1818275 -0.38495162 -0.45377246
000270 68 64 63 be 6e 33 c2 be 53 90 3e be 25 92 8f be
       -0.2220627 -0.37929863 -0.18609743 -0.28041187
000280 e6 31 6d be da 12 da 3e 8e 3c ad bd 1e 0e be 3e
       -0.23163566 0.42592508 -0.084588155 0.37120146
000290 36 eb 01 3c 83 37 87 bd 1b e4 03 be 27 29 a2 be
       0.007929614 -0.06602385 -0.12879984 -0.31672022
0002a0 02 9d b7 be b5 02 9f 3e 93 cf 09 be c5 91 e1 be
       -0.35861975 0.31056753 -0.1345809 -0.44056526
0002b0 a4 f0 d1 3e c8 f6 15 3c 25 5b 9a be 3f fd b4 be
       0.41003907 0.0091530755 -0.30147663 -0.3534946
0002c0 70 24 ba be 61 5a c8 be 15 63 cf 3e a2 ef 9d 3e
       -0.36355925 -0.39131454 0.4050528 0.30846888
0002d0 ae 9f 17 3d 15 d2 c2 be fa ea f0 bd 34 2b d6 be
       0.037017517 -0.38050905 -0.11763568 -0.41829836
0002e0 6d 59 16 3e 30 db f5 bd db 1b ca bd 4f 13 0f be
       0.1468255 -0.12004697 -0.09868594 -0.1397221
0002f0 72 d3 54 3e d6 51 77 3e a2 19 c6 3d 6f 32 c1 bd
       0.20783785 0.24152312 0.09672858 -0.094334476
000300 0c 87 33 bd c8 1c 0b bc a7 59 ac be 2b 19 d7 3e
       -0.043829963 -0.008490749 -0.3366215 0.4201139
000310 6a fb 46 be f5 a6 84 3e f0 d2 80 be 81 02 46 3c
       -0.19431844 0.25908628 -0.25160933 0.012085558
000320 20 6f 16 3e 56 d8 d1 be 73 03 5c 3e 75 e7 b7 be
       0.14690828 -0.40985364 0.21485691 -0.35918775
000330 5b 97 8d 3d 34 78 b6 bd 0d 85 88 3e c5 c7 df 3e
       0.069136344 -0.08909646 0.2666401 0.437071
000340 ec ae a8 3d 4c d1 8b bc b0 e8 5b be 27 0c 2c 3e
       0.08236489 -0.017067574 -0.21475482 0.16801511
000350 f5 a3 5e be af 8b 36 3e 3d 84 46 be f4 e6 9c 3e
       -0.21742232 0.17826723 -0.19386382 0.30644953
000360 eb 43 b0 3e 71 b3 92 3e 9e 41 01 3c b5 d4 41 3e
       0.34426817 0.28652528 0.0078891795 0.18928798
000370 cc d1 d4 be 36 ad b9 3e 1b 57 ef bd a6 dc 28 3e
       -0.41566312 0.36264962 -0.11686536 0.1649042
000380 4d de 9c bd b8 57 17 be 25 fa 55 be 12 a8 93 3e
       -0.07659588 -0.14779556 -0.20896204 0.28839165
000390 aa 44 7b be 97 6c b3 bd 92 84 5d 3e 55 a3 38 3d
       -0.24537912 -0.08760946 0.21632603 0.04507764
0003a0 c2 42 bd be 62 b5 e3 be 91 fa 5e be 5a 31 d1 3e
       -0.36964995 -0.44474322 -0.21775271 0.40857965
0003b0 9b bc a2 be c0 e7 7e 3e ee 35 a4 3e e0 d4 3d be
       -0.3178452 0.24893093 0.32072395 -0.18538237
0003c0 20 1b 48 be a2 d5 a3 be c4 c9 8e 3d 61 58 82 bd
       -0.19541597 -0.31998926 0.069720775 -0.06364513
0003d0 d0 6d aa 3c df ae 45 3e 17 a0 52 3e 83 3c 12 be
       0.020804316 0.1930499 0.20568882 -0.14280896
0003e0 b1 f9 fd 3c 5b 48 ef 3d d2 bc 0b 3c 1e 92 b6 3d
       0.031002851 0.116837226 0.008528905 0.089145884
0003f0 04 98 38 be 26 80 bb 3e 8d 4b 4d bd d1 73 29 bd
       -0.1802674 0.36621207 -0.05012088 -0.041370217

fc2.weight f4 [256, 512]
000000 7c 88 24 3d 3a 70 06 3d 8f 3c 21 bd 3c d5 8c bc
       0.040169224 0.03282187 -0.039364394 -0.017191522
000010 91 63 a5 3c 8c c6 d4 bc fd 72 02 3c 1f 2a a5 bc
       0.020189079 -0.02597358 0.007961986 -0.020161686
000020 8b 54 07 3c 7a ff 88 3c 82 36 e4 3b f2 ec fd 3c
       0.008259903 0.016723383 0.0069645057 0.030996773
000030 98 0b 06 bc 1d 4a 91 3c 6e 8c 2d 3c 1a 53 5c bc
       -0.008181475 0.017735535 0.010592563 -0.013447547
000040 ac aa 14 bd a9 6b 29 3d fb b0 5c bc fc 41 01 3d
       -0.036295578 0.04136244 -0.01346993 0.03155707
000050 21 7e f1 3c e3 a7 66 39 fd 4f 28 bd 39 23 02 3b
       0.029479088 0.00021997052 -0.041091908 0.001985742
000060 56 90 a5 bc 32 03 84 3c 08 f9 96 bc 9d 5d e6 3c
       -0.020210426 0.016114805 -0.018429294 0.02812081
000070 84 ba 1e bd 57 17 1f bc 3d fe 5f 3b 7a 01 97 3b
       -0.038752094 -0.0097101545 0.0034178637 0.0046083303
000080 35 88 0e 3d 37 ee 7d bc 20 4f 12 bd e7 61 ed 3c
       0.034797866 -0.015498689 -0.03571999 0.028977348
000090 09 57 18 3c 31 19 e3 3c c7 06 d0 bc 60 b0 d2 bc
       0.009298095 0.027721973 -0.025393857 -0.025718868
0000a0 d4 c1 8f bc c3 1a 0c 3a fd 6d 89 3c 76 44 cd bc
       -0.01754848 0.0005344564 0.01677608 -0.025057059
0000b0 ae 12 69 bb b2 99 db bb e7 4a 11 3d 54 9b 8d bc
       -0.0035564112 -0.0067016715 0.035471823 -0.01728598
0000c0 f5 09 28 3d 72 37 e3 bc 5d 45 8c bc 2a 7d fc bc
       0.04102512 -0.0277364 -0.017122919 -0.030821402
0000d0 06 97 ee 3c 9b 9e 06 bd 65 82 a0 3c 0e 12 97 bc
       0.029124748 -0.0328661 0.019593427 -0.018441226
0000e0 fb 26 28 3d b4 96 ef 3b 39 ab 1c bd ec b4 c6 3b
       0.0410528 0.0073116664 -0.03824923 0.006064048
0000f0 0e 24 15 3b 1a 13 33 bd 57 37 0a 3c 40 4b 20 3d
       0.0022757086 -0.04371939 0.008436046 0.039134264
000100 98 72 40 3c 6e 03 27 bb f2 1c 17 bc cc 3b dd 3b
       0.011746071 -0.0025484222 -0.00922321 0.006751513
000110 2e de a3 bc be 6d 30 3d 3a 84 09 3d 75 c7 9f 3c
       -0.020003404 0.04307341 0.033573367 0.019504288
000120 50 7f 97 bc ed 92 2d bd 49 6c d3 bc 73 25 20 3d
       -0.018493325 -0.042376447 -0.02580847 0.039098214
000130 3a f2 35 bd bb 2d 31 bd 58 1e 34 bb 90 05 52 3c
       -0.04442046 -0.043256503 -0.0027483907 0.012818709
000140 0e c6 46 bd 19 b4 40 bd b8 79 96 3a d2 09 9d bc
       -0.048528723 -0.047046755 0.0011480367 -0.019169722
000150 7c e8 d4 3c 89 cd 4f 3c 7b 3f 1d bd f7 88 20 bd
       0.025989763 0.012683281 -0.038390618 -0.03919312
000160 25 26 01 3d d1 22 a4 bb 2c 14 ad bc f0 76 67 3c
       0.031530518 -0.0050090333 -0.021127783 0.014127478
000170 01 fb 49 bc b7 13 a9 3c 55 99 e8 3b 34 e7 98 bc
       -0.01232791 0.020639284 0.0070983567 -0.018664934
000180 93 86 14 bd e9 3a d0 3c 17 6d f0 bc 2a 86 19 bc
       -0.036261152 0.025418716 -0.029348893 -0.009370366
000190 6a ef 68 3a 6b 8b dd bc 82 88 bd 3c 29 9e 05 bd
       0.0008885773 -0.027044019 0.023136381 -0.032621536
0001a0 4d 1d 3b 3c 93 10 af 3b bc 16 7c 3c 54 92 32 bd
       0.01142056 0.005342552 0.01538628 -0.04359658
0001b0 db 6c ab 3a de 79 a4 3c 28 d4 e2 bc 35 96 10 3c
       0.0013078706 0.020077642 -0.027689055 0.008824875
0001c0 4d 4d b7 3a 1c e1 01 3d 5f 5c 1c bc 07 1c cb ba
       0.001398483 0.03170882 -0.009543507 -0.0015496024
0001d0 f9 98 91 bc 31 be 78 bc 6c ad 14 3c fd 79 3e bd
       -0.017773138 -0.015182064 0.00907455 -0.046503056
0001e0 a6 ed 05 3d 5d d3 fb 3c da 1f 9c 3c ce 03 e6 3c
       0.032697342 0.030740434 0.019058157 0.028077986
0001f0 b4 72 87 bc 79 02 ef 3b 05 c2 89 bb 1f a9 03 bd
       -0.016534187 0.007293996 -0.004204037 -0.03214371
000200 f1 84 85 bc c0 f6 81 bc 57 e6 1a bc e1 c0 27 bd
       -0.016298743 -0.01586473 -0.009454331 -0.040955428
000210 ee 6e 09 bd c5 f5 b5 bb aa 5b 23 bc 46 f0 2b bd
       -0.033553056 -0.0055529797 -0.009970585 -0.04197719
000220 d2 65 18 3c 30 55 b5 3c 88 d2 0d 3d a9 7f 0c 3d
       0.00930162 0.022135347 0.034624606 0.034301434
000230 14 96 fb bc 34 2e 87 bc 68 7b bd bc 67 ed e5 3a
       -0.030711211 -0.016501524 -0.023130134 0.0017542065
000240 5e c8 45 3c cf 73 02 3c 09 7f d5 3c 09 fe c6 3c
       0.012071697 0.007962181 0.026061552 0.024291055
000250 d7 e7 c4 bc 29 9d fe 3c 9f ce e6 3c 7e 7d 02 3c
       -0.024036331 0.0310808 0.028174696 0.00796449
000260 29 7e 2c bd c3 8f ee bc d6 e1 de 3b 17 3a 68 3c
       -0.042112503 -0.029121285 0.006801824 0.014174006
000270 d2 40 2a 3d c4 79 bc 3c 59 c0 73 3c c9 41 5c 3b
       0.041565724 0.023007281 0.014877402 0.0033608547
000280 d8 52 f0 3c 43 0a 8f bc 2d da 7e 3c 1a b8 b3 bc
       0.029336378 -0.017460948 0.015554947 -0.021938372
000290 83 48 bd 3a 5d fc c5 3c d5 8c c4 3c f8 64 25 bc
       0.0014441166 0.024168188 0.023992935 -0.010094874
0002a0 83 91 fc bb d9 dc d4 bc 9b 9c 9c 3c c7 4c fa 3c
       -0.007707776 -0.025984215 0.019117644 0.030554188
0002b0 be 3a 40 3c 1b 41 2a bd 7b cd ff bc 58 d6 e4 3c
       0.011732755 -0.041565996 -0.03122591 0.027934238
0002c0 f4 4f 1d bc ac 7e d3 3c d9 a5 02 3d cb 09 81 bc
       -0.009601582 0.025817238 0.031896446 -0.01575174
0002d0 55 c2 07 bd 50 91 18 bd 98 0c 21 3c d8 1f a0 3c
       -0.033144314 -0.037247956 0.009829663 0.019546434
0002e0 a0 db 14 bc 6c 0e 3d bd 2c 57 f3 bc e8 ca 4a bb
       -0.009085566 -0.046156332 -0.029704653 -0.0030943695
0002f0 c7 c6 ca 3c ca 97 5a bc 7c 8f fc bc ce 72 05 bd
       0.024752988 -0.013341853 -0.030830137 -0.03258019
000300 f4 af 13 3d c7 be 50 3c 41 59 18 bd 03 ba f3 bc
       0.036056474 0.012740797 -0.037194494 -0.029751783
000310 02 6b 19 bd bb fa cf 3b 78 22 a9 bc 8e ae 36 3a
       -0.037455566 0.006347028 -0.020646319 0.00069687597
000320 e9 a8 05 bc 7e 61 1c bd 4d 20 23 bd f4 2e 0f bd
       -0.008157947 -0.038178913 -0.039825726 -0.034956887
000330 be 5d 9a bc cb 7c dc 3b 52 e8 a5 bc bd 5c 44 bb
       -0.018843528 0.0067287437 -0.02025238 -0.0029962503
000340 fb b0 f5 bb 79 df 1d 3d 95 15 a8 bc a9 0d 25 3d
       -0.0074979044 0.0385432 -0.020518104 0.04029623
000350 cd ae 0f bd 43 34 21 bd ed cc 42 3c 5a 25 dc bc
       -0.035078812 -0.03935648 0.011889678 -0.02687328
000360 c0 f6 c7 3c b0 f9 aa bc 13 36 08 3d 19 3e 34 3d
       0.024409652 -0.020871013 0.033254694 0.044004533
000370 6f 53 c4 3a 31 17 29 3c e8 4d 34 3d c4 1b c5 3c
       0.0014978478 0.010320471 0.04401961 0.024061091
000380 d7 77 09 bd 92 8c df 39 d8 0f 27 bd 17 02 0c 3d
       -0.033561554 0.00042638608 -0.040786594 0.03418168
000390 7b 9d 1a bc 4a 85 01 3a b0 2a da bc 49 ef c0 bc
       -0.00943696 0.0004940821 -0.026631683 -0.0235516
0003a0 6b 17 1b 3b d4 a5 20 3d 37 f6 c2 bc 06 99 2b 3c
       0.0023665081 0.039220646 -0.023799045 0.010473495
0003b0 9e fd 1c 3d e3 f9 20 3d 04 cb 2d bc 65 05 23 3d
       0.038327806 0.03930081 -0.010607485 0.039800067
0003c0 b7 97 80 3c bb 2a 2a 3d a4 3e f7 39 0e 5f 2e bd
       0.015697343 0.041544657 0.00047158182 -0.04257112
0003d0 a3 cf 49 bc 4d 35 57 3c 63 4d bb 3c d2 f6 32 bd
       -0.012317571 0.0131352665 0.02286405 -0.043692417
0003e0 6b 12 01 3d b5 48 24 bd c8 a7 cb 3c 50 8b 24 3d
       0.031511705 -0.0401084 0.024860278 0.04017192
0003f0 b8 2d fd 3b f4 08 58 bc 8e b9 be 3c 31 86 92 bc
       0.0077263974 -0.013185728 0.023281839 -0.017886253

fc2.bias f4 [256]
000000 70 a6 ae bb 25 2a 12 3d 04 d0 08 bd d2 18 24 bd
       -0.0053298995 0.035684723 -0.033401504 -0.040062733
000010 6c 5a b5 bc fb 69 f4 3c 55 60 0d bd 03 b8 0e 3d
       -0.022137843 0.029835692 -0.034515698 0.034843456
000020 3b a7 01 3d e0 05 3b 3d 67 cf 9f 3c aa d2 00 3c
       0.031653624 0.0456599 0.019508077 0.007862726
000030 b4 9c 63 3c 55 45 10 3d f7 64 ba bc 8b f1 67 3d
       0.013892341 0.03522237 -0.022753222 0.056626838
000040 b5 21 30 bd 39 ff 3f bd 25 ad 0f bd 4f 68 07 3d
       -0.043000896 -0.04687426 -0.035077233 0.03305846
000050 b2 0b b7 bb c1 d8 42 bd ff b4 09 bd 21 9d e5 bc
       -0.005586111 -0.047569994 -0.033619877 -0.028029026
000060 3f a5 b9 3b 2a 6e 31 3d 7e 7a af 3c 77 33 91 ba
       0.005665451 0.04331795 0.021420714 -0.001107796
000070 a5 1b 01 3b 77 f2 e6 3c c4 76 15 bc a2 7b ad 39
       0.0019700315 0.028191788 -0.009122554 0.00033089245
000080 a9 5a 01 3d 8e 8d 1c bd 0e 32 61 3c ee 6f e0 bc
       0.0315806 -0.038220935 0.013744844 -0.027397122
000090 16 58 06 bd 52 e9 74 3c d9 02 4a bd 9d dd 07 3d
       -0.03279885 0.014948206 -0.049319122 0.03317033
0000a0 fe 2b ac bc 75 be 34 bd 89 6d 21 bd 2b 1f 26 3d
       -0.02101707 -0.044126946 -0.0394111 0.040557068
0000b0 8c 68 22 bd 66 f1 cf 3c b4 d0 b0 bc fc ea 57 3c
       -0.039650485 0.025383662 -0.021583892 0.013178583
0000c0 fe 22 e9 3c 1d b8 6c bc 7f 8a a5 3c 70 fc 8f bc
       0.028459068 -0.014448193 0.020207642 -0.017576426
0000d0 2e 8f aa 3b 61 b9 59 bd cd a4 18 3d f3 38 84 3c
       0.0052050566 -0.053155307 0.03726654 0.016140437
0000e0 57 ae 07 3b d6 c6 fe 3c b2 fe 18 bd 5f 91 59 3b
       0.002070328 0.031100672 -0.03735227 0.003319822
0000f0 a0 c9 22 3b 8d 8b 6a bc ad 59 02 bc d6 d0 60 bc
       0.0024839416 -0.014315498 -0.007955951 -0.013721665
000100 fa ec ad 3c 67 cb 28 bd 3f d2 a6 3c 01 d0 67 3c
       0.021231163 -0.041209605 0.020363925 0.014148713
000110 ef 6e 27 bd 58 21 4f bc 35 16 68 bc 2a 7e 05 3d
       -0.04087728 -0.012642227 -0.014165451 0.032591023
000120 ca cb eb bc 3e 37 95 3c 7c 62 87 3c 02 b8 f5 3c
       -0.028783698 0.018214818 0.016526453 0.029994968
000130 48 6a 6b 3d 33 b8 64 ba 26 e3 00 bd e0 3b 29 3d
       0.057474405 -0.00087249576 -0.031466626 0.041316867
000140 00 0d 94 ba 9d de b1 bb 0c 14 2e 3c d2 71 d4 3c
       -0.0011295378 -0.005428149 0.010624897 0.02593318
000150 db 66 c7 3c dc d1 c8 bc d6 ad fe 3c 1b 76 8a bc
       0.024341037 -0.024514131 0.03108875 -0.01690202
000160 81 d3 26 3c 8e a4 78 bd fe 06 9c bb 28 66 7f bc
       0.010182262 -0.060703807 -0.0047615757 -0.015588321
000170 50 6c 15 3c 8c 99 01 3d c7 8f e7 bb 08 65 a1 3b
       0.009120062 0.031640574 -0.0070667 0.004925374
000180 b4 94 bb bc 20 2e dc 3c 5f b0 85 bc c3 4b 9c 3c
       -0.022898056 0.026877463 -0.016319452 0.019079095
000190 73 71 f6 3c e5 e3 f7 3c 2a b5 25 3d 26 e9 8c bc
       0.030083394 0.030260036 0.040455975 -0.017201018
0001a0 cd 75 7c 3b 99 98 48 bc 46 da 04 bd 6f 84 a8 3b
       0.0038522363 -0.012243413 -0.032434724 0.0051427404
0001b0 f7 01 88 3d 72 35 6c bc c7 29 2b 3d 76 92 4a bc
       0.06641 -0.014417039 0.04178789 -0.012364021
0001c0 1c 07 ea bc 00 54 1f 3d 1f 41 90 bc 35 d5 11 3d
       -0.028567843 0.038898468 -0.017609177 0.03560372
0001d0 41 bf 14 bd 75 3e c7 3b 05 87 4c bc 08 26 2e bd
       -0.036315206 0.0060804435 -0.012483363 -0.04251674
0001e0 04 91 88 3c ca 10 23 bd 29 ce 25 3d 56 f6 9f 3c
       0.016670711 -0.039810933 0.040479813 0.019526642
0001f0 70 d2 8a bc 85 65 93 bc 47 d2 00 bc 71 60 24 3d
       -0.016946048 -0.017992744 -0.007862634 0.040131036
000200 68 70 66 bc e5 9f 11 3d 38 81 06 bd 4b 6f c7 3b
       -0.014064886 0.035552878 -0.032838076 0.006086265
000210 23 ae 3d 3d f2 d0 09 3d 4a d9 34 bc 6b 7b e3 3c
       0.046308648 0.03364653 -0.011038134 0.027768811
000220 71 fe bb 3a 3b d1 79 3c 79 ce cf 3c 1e be 07 3d
       0.0014342797 0.015247638 0.025367009 0.033140294
000230 e0 cc e1 bb 63 52 09 3d cf 03 5b bb cc 8a 2a 3d
       -0.006890878 0.033525836 -0.0033419018 0.041636273
000240 47 72 04 3c 14 39 64 bb a0 4e 33 3d cf f7 8a 3c
       0.0080838865 -0.003482406 0.043776155 0.016963867
000250 61 bb 18 3d 24 87 f9 bc 80 fa 37 3d 15 78 d2 3c
       0.037288073 -0.030459948 0.04491663 0.025692025
000260 fb 58 0d 3d d2 ec 02 bd f7 4f 53 bd 93 2c 06 bd
       0.034508687 -0.03196413 -0.051589932 -0.032757353
000270 17 b7 d0 bc 43 31 d1 3c 11 13 9c 3c 95 82 89 bc
       -0.025477929 0.025536185 0.01905206 -0.0167859
000280 15 b7 0a 3c 1e bc 76 bc 78 d2 bd bc 0e 29 7c 3c
       0.008466502 -0.015059499 -0.023171648 0.015390648
000290 05 b2 a2 3c d6 66 43 3d 74 61 44 3d ee 21 bf bc
       0.019860277 0.047705494 0.0479445 -0.023331609
0002a0 07 d2 0f bd 6a e2 0c bd c7 9d 9c 3c 0d cc a7 bc
       -0.035112407 -0.034395613 0.019118203 -0.020483041
0002b0 2e 7b 78 3b 81 b2 00 39 fa 2e 2a bd 08 88 42 bc
       0.0037915218 0.00012273529 -0.041548707 -0.011873253
0002c0 8d 53 86 bc c2 2b 79 bc 8e bd e7 bc 2b d1 49 bc
       -0.016397262 -0.015208187 -0.028288629 -0.012317936
0002d0 fc 70 25 bd a0 98 1d bd e5 3b 0e bd 3e be 17 bd
       -0.040390953 -0.038475633 -0.03472509 -0.037046663
0002e0 2c 92 2f bc 9a a3 0e bd a2 f7 50 3c 57 71 05 bd
       -0.010716002 -0.03482399 0.012754353 -0.032578792
0002f0 11 54 c5 bc 73 0e a7 bc 63 42 86 3a da 49 64 3d
       -0.024087938 -0.020392632 0.0010243173 0.055734493
000300 14 d0 83 3b e3 70 b0 3c e6 f0 3b 3b 1f 1a 31 bb
       0.0040226076 0.021538204 0.0028677522 -0.0027023626
000310 34 47 9c 3c df 50 12 bd 0c d5 0a bc db c0 33 3d
       0.019076921 -0.035721656 -0.008473646 0.043885093
000320 ed 7d 75 3c 85 45 1b bd ba 5d 97 b9 fc 82 33 bd
       0.014983636 -0.037908096 -0.00028870796 -0.04382609
000330 91 e8 7e bc ef b7 2b bc 6a bf 0d bd c0 3a 3a bd
       -0.015558378 -0.010480865 -0.034606375 -0.045466185
000340 9b f0 c6 3b 78 e8 8d bb 6e f3 a7 bc 50 78 97 3a
       0.006071163 -0.004330691 -0.020501819 0.0011556242
000350 a5 6a 1b bd 44 1d 14 3d 5b aa 4b bb 94 ad a8 3c
       -0.0379435 0.036160722 -0.0031076882 0.020590581
000360 c6 23 3f ba 43 32 26 bd 86 b1 4f 3d 64 b2 0c 3d
       -0.00072914024 -0.040575277 0.05070641 0.034349814
000370 26 95 d2 bb df 53 18 3d c8 61 70 bc 25 45 2b bd
       -0.0064264713 0.03718936 -0.01467175 -0.04181399
000380 dd 59 9e 3b 34 cd bc 3c 01 77 10 bc 88 3a 1e bb
       0.00483249 0.023047067 -0.008817435 -0.0024143774
000390 30 1e 21 bd 8b bd 3a 3c 29 d0 cb 3b 0c b1 1f bd
       -0.03933543 0.01139773 0.006219883 -0.038987204
0003a0 80 3d f9 3b d7 ff 93 3a 7b 32 ad 3c 01 09 d5 bc
       0.0076062083 0.0011291456 0.021142235 -0.02600527
0003b0 e0 59 00 bd 43 2f 0c bc 3d 93 c2 39 d4 82 0f 3d
       -0.03133571 -0.00855619 0.00037112265 0.035036877
0003c0 ef e5 27 3d fe fd b1 3b a3 2e 0f 3c cc 02 f1 bb
       0.040990766 0.0054318896 0.008739146 -0.0073550697
0003d0 13 19 16 3d 01 a9 33 bd c3 d4 a6 3c ef 8c e8 bc
       0.036645006 -0.043862347 0.020365125 -0.028387515
0003e0 a6 5c f5 bc 2e ef 90 bc ce 65 d8 bc f3 f3 23 3c
       -0.029951405 -0.017692175 -0.026415732 0.0100068925
0003f0 0e 02 fe ba e1 6e ef ba bd 89 66 bd 9e 02 e8 3c
       -0.0019379274 -0.0018267297 -0.0562837 0.02832156

fc3.weight f4 [128, 256]
000000 6a 91 7e bc f7 6e 13 bd 8a d3 d5 3c 2e 5f 46 3d
       -0.015537599 -0.035994496 0.026101846 0.048430614
000010 be 2e 8a bc 47 c0 70 bd b4 2f eb 3c 33 82 29 3d
       -0.016867992 -0.05877712 0.02870927 0.041383933
000020 c5 e1 01 3d 26 99 1c 3d 90 ce 3b 3d 6f 2a 4b bd
       0.03170945 0.03823199 0.04585129 -0.049601015
000030 cb f1 33 bd d3 42 04 3d 98 26 9f bc ae 3c 1b 3d
       -0.043931764 0.03229029 -0.019427583 0.037899666
000040 a4 40 39 3d d0 23 1a bc 29 c8 65 bd 30 fb 18 3c
       0.04522766 -0.009407952 -0.05609909 0.0093372315
000050 1e bd f4 3c 36 20 db 3c 70 11 ad 3c 8d 20 8e bc
       0.029875334 0.026748758 0.021126479 -0.017349506
000060 da 4a 52 3d 65 62 0f 3d 0c 66 6a 3d 6b 06 09 bd
       0.051340915 0.035005946 0.057226226 -0.033453386
000070 59 80 b3 bc 23 b8 fb 3c df 98 29 3d 68 04 85 3d
       -0.021911787 0.030727452 0.041405555 0.06494981
000080 ce e0 50 bd 8a 8a af 3c 26 be 96 3c 86 45 13 bd
       -0.05099564 0.021428365 0.018401217 -0.035954975
000090 77 de e6 bb 7a 1d b1 3c 9d ad c1 bc 04 fe 3b 3d
       -0.007045563 0.0216205 -0.023642356 0.045896545
0000a0 87 93 20 bc 3a 29 31 bc af 0c 9e 3c 64 55 ac bc
       -0.009800798 -0.010813052 0.019293157 -0.021036811
0000b0 3a 9f 18 bd 29 6a 6d 3d da 45 0f 3c 56 4c 4e bd
       -0.037261225 0.05796257 0.008744681 -0.05036577
0000c0 5b 78 57 3d 3f e8 18 3d 92 3b 3b bc ec 40 c6 bc
       0.052605014 0.037330862 -0.011427777 -0.024200879
0000d0 b7 4b b0 bc d2 28 bb bc 72 e4 41 3d 3f c0 3e 3c
       -0.021520479 -0.022846613 0.047337003 0.011642515
0000e0 14 6a 31 3b ae c5 d5 bc f1 a3 74 3d 53 22 d0 bc
       0.0027071284 -0.026095238 0.05972666 -0.025406992
0000f0 48 f9 33 bd 97 50 3b bd e4 a0 54 3d bc 72 db 3c
       -0.043938905 -0.045731153 0.05191125 0.026788108
000100 e3 cf 85 bd 0b 51 42 bd 69 a2 01 bc 7b 8c 36 3d
       -0.06533792 -0.04744057 -0.007912257 0.044567566
000110 56 0f 67 3b 38 d2 80 3d c9 0e 50 bd 32 ad f7 3c
       0.0035256944 0.06290096 -0.05079535 0.030233953
000120 4f d7 9a bc 2c 48 41 3c 34 b5 72 bc d2 6e 29 bd
       -0.018901495 0.011796992 -0.01481371 -0.041365452
000130 89 e8 64 bd 8c 26 36 bd b0 07 0c bd ef f0 5c bd
       -0.055885825 -0.044470355 -0.03418702 -0.05394071
000140 a1 1c 47 3c e1 a9 29 bc d1 3a ec 3b 08 83 cc bc
       0.012152822 -0.010355444 0.00720916 -0.024964824
000150 9d c0 47 bd 06 51 47 bd 20 e2 bc bc 2f 38 78 bd
       -0.048767675 -0.048661254 -0.023057044 -0.060600456
000160 d0 f2 08 3d f6 85 24 3d 13 7a 23 bd b7 c7 85 3c
       0.03343469 0.040166818 -0.03991134 0.016330583
000170 10 dd 2d bd 6b bb aa bc f6 31 ab bc 88 8b 35 bd
       -0.04244715 -0.020841321 -0.020897847 -0.04432252
000180 fa c7 ce 3c c1 34 6d 3c 91 20 0c 3c 1a 08 d1 3b
       0.02524184 0.01447791 0.008552686 0.0063791396
000190 ef 7e 6b bd f9 00 77 3c 16 4b 31 3d ca 1e fb bc
       -0.0574941 0.0150759155 0.0432845 -0.03065433
0001a0 22 68 53 bd cd fa a5 ba 8c 3f f1 3c 35 39 73 3c
       -0.05161298 -0.0012663245 0.029449247 0.014845182
0001b0 1d ce 24 3d ea 2d e8 bb df ab c2 bb f8 ee 5f bd
       0.040235627 -0.0070855515 -0.005940899 -0.054671258
0001c0 76 2e 7b bd b0 34 58 bd 71 5f 53 bd c4 bd 29 3c
       -0.061323605 -0.05278462 -0.051604692 0.010360185
0001d0 25 a9 73 bc 83 71 db bc 09 93 67 bd e7 7e 53 3d
       -0.01487187 -0.026787525 -0.056536708 0.051634695
0001e0 f8 c2 5d bb b0 ec ff 3c 15 36 68 bd 73 c1 1c bd
       -0.0033838134 0.031240791 -0.0566922 -0.038270425
0001f0 36 3e 20 3d a2 3d 1f 3d 22 6f 3c bd 17 03 53 3d
       0.03912183 0.038877137 -0.046004422 0.05151662
000200 24 5d 15 3d 46 01 51 3d 8b 8c 43 bd f7 40 7b bd
       0.03646578 0.051026605 -0.047741454 -0.061341252
000210 93 af 5b bd 64 bb 5e 3b 20 30 97 3c c9 b5 4f bc
       -0.053634237 0.0033986205 0.018455565 -0.012677618
000220 dd 9d 97 bc 4a 65 87 3c 66 40 1a bd 82 26 21 bd
       -0.018507892 0.01652779 -0.03765907 -0.039343365
000230 fe 1e 65 bd d6 68 4b 3c f8 0d 53 bd f1 c0 82 3c
       -0.05593776 0.012415132 -0.051526994 0.015961142
000240 8e d6 14 bb ac ec 2b bd cb 89 4c 3d c5 3b 1a 3d
       -0.0022710892 -0.041973755 0.049936097 0.037654657
000250 29 2c 46 3d f0 6c 60 bd fe 34 2d bd 9f f6 05 bd
       0.04838196 -0.05479139 -0.042286865 -0.0327059
000260 76 17 ba 3b 76 5f ea 3c 39 41 79 bd c8 eb 76 3c
       0.0056790663 0.028609972 -0.060853217 0.015070863
000270 30 b4 7b 3d e2 8a 2e 3d 90 0a 86 bc 98 8f 20 3b
       0.061451137 0.042612918 -0.016362458 0.002449965
000280 1c cf 0e 39 5a 37 5d 3d 5f 28 4e 3d 59 27 28 bc
       0.0001361933 0.054007865 0.05033147 -0.010263287
000290 c7 a2 05 bd 57 42 9b bc 1f 18 14 3d 0d ef 27 3d
       -0.03262594 -0.018952532 0.036155816 0.04099946
0002a0 a5 af fc 3c 04 13 b0 bc 0b 71 1d bb c4 60 37 3c
       0.030845473 -0.021493442 -0.0024023678 0.011192504
0002b0 37 c1 d5 3c 3c 1a 50 bd f3 40 63 3c f9 d7 bb bc
       0.026093109 -0.05080627 0.013870466 -0.022930132
0002c0 7c 65 66 bc a2 25 13 3d 93 05 ce 3c 52 9e 57 3d
       -0.014062282 0.03592456 0.025149142 0.05264122
0002d0 2e dd 0f 3d 07 8a 40 bd 3c 78 18 bb ea db 66 bd
       0.035123043 -0.047006633 -0.0023265025 -0.05636207
0002e0 8c 37 9b bb b5 f6 4e 3b 06 da a4 3b c7 36 51 3c
       -0.0047368463 0.0031580154 0.005030873 0.012769408
0002f0 d3 33 09 3c d8 7c 6f bd a8 02 5f bc bb 55 28 bc
       0.008374172 -0.05846867 -0.013611473 -0.010274346
000300 ba 4f 3f 3d 74 01 7d bd 8d e2 a8 3b c3 c4 04 bd
       0.046706893 -0.061768964 0.00515396 -0.03241421
000310 bc 32 73 bc 1f 6c 29 bd 09 cd ba ba ae 90 fd 3c
       -0.014843639 -0.041362878 -0.0014251779 0.030952778
000320 6a 0c 24 bd 5b f3 b1 bc e3 96 81 3d 90 45 af bc
       -0.0400509 -0.021722486 0.063276075 -0.021395475
000330 46 6c 8a 3c 3b a4 4a bd b4 47 22 3d 02 ba 2f bb
       0.016897332 -0.04947303 0.039619163 -0.002681375
000340 ff 32 b2 bc 61 16 a9 bc 4d 87 70 3d 59 8c 4a 3d
       -0.021752832 -0.020640554 0.058722783 0.049450252
000350 f1 3e 0d bd 10 ed 6d bd d6 e9 c4 3c fd 4b 4e bb
       -0.034483854 -0.05808741 0.024037283 -0.0031478398
000360 ee f3 b5 3b 2a ab f4 3c 9a 26 51 bd aa 9f eb 3c
       0.0055527603 0.029866774 -0.051062204 0.028762657
000370 98 30 f4 bc 19 e7 65 3c 54 67 0f bc cd d9 b3 bb
       -0.029808328 0.014032149 -0.008752663 -0.0054886104
000380 67 86 2a 3d 2f 98 40 bc 13 9c 7c 3c f2 ca c3 3b
       0.041632082 -0.011755033 0.01541807 0.0059751207
000390 b3 15 74 3d 4d 29 36 bd bc a3 74 3d 57 10 6e 3c
       0.059591006 -0.04447298 0.05972646 0.014530263
0003a0 b2 08 83 ba e0 ad 43 bb 5f 77 17 bc 2a 67 8a 3b
       -0.0009997098 -0.0029858276 -0.009244769 0.004223724
0003b0 2b b0 9d bc 16 04 c2 3b 32 29 77 3d 53 b0 2e bc
       -0.019249042 0.0059208972 0.06034202 -0.010662156
0003c0 37 e6 d2 3c bb 5d 31 bb 45 88 67 bc c8 7c 9e bc
       0.02574454 -0.0027063924 -0.01413161 -0.01934661
0003d0 d2 9e 0b 3c d3 ad 0b bc fb 23 23 3c e0 e5 4f bd
       0.008521752 -0.00852533 0.009957309 -0.050756335
0003e0 98 45 c5 bb 99 ba 59 bd 5b 62 62 bd 88 bb 3f bc
       -0.006020259 -0.05315647 -0.05526958 -0.011702426
0003f0 30 20 1c 3c cf 0e 62 3d 24 24 56 bb ef 8c 6c 3c
       0.0095291585 0.055189904 -0.003267535 0.014437898

fc3.bias f4 [128]
000000 6a 5c 0f 3d 97 c0 fa bc 84 56 80 3d 2e 4f 44 bd
       0.035000242 -0.030609412 0.062665015 -0.047927074
000010 26 9b 9f 3c 5f da e4 39 63 47 9a 3c e5 4c d9 bc
       0.01948316 0.00043650248 0.018832868 -0.026525924
000020 38 92 97 3d e5 2d ac 3c f9 17 66 bb 75 dd 89 bc
       0.07400936 0.021017978 -0.0035109504 -0.016829232
000030 27 cf 36 3d 64 d0 2a 3c d3 b9 42 bd d7 5e 38 3d
       0.04463115 0.010425661 -0.047540497 0.04501232
000040 55 ed bf bc 86 55 6b 3b 22 9c 25 bd fb 72 ba 3a
       -0.023428598 0.003590913 -0.040432103 0.0014224941
000050 41 1f 7a 3d bb 32 48 bd 53 79 63 bd b0 3e 2e b9
       0.061064962 -0.048876505 -0.055535626 -0.00016617286
000060 58 3e c3 bc ef 98 0e bd 4c db 30 3d b0 89 7e bd
       -0.023833439 -0.034813818 0.043177888 -0.062143028
000070 29 90 22 bc aa 0f 86 3d e2 f9 f6 3b 58 45 18 3d
       -0.009922066 0.065459564 0.0075371126 0.037175506
000080 ec 50 4f bd 81 61 f5 3c 5d dc 2f 3c f7 20 23 bb
       -0.050614282 0.02995372 0.010733691 -0.0024891475
000090 20 af 11 3d 12 75 c8 bc 92 fb 18 3c 34 e5 3c 3d
       0.035567403 -0.024469886 0.009337323 0.046117023
0000a0 be cc 57 3c d8 41 72 3d ea b8 5b 3d d5 a5 0a 3d
       0.013171373 0.059144825 0.053643145 0.033849556
0000b0 cc 49 ea bc 53 1d cd 3c 6d 89 8f 3c 99 3e 32 3d
       -0.028599642 0.025038397 0.017521584 0.04351673
0000c0 85 95 f3 3b 8e 2c 81 3c cc 49 0a bd e6 f8 90 3d
       0.0074335956 0.015768316 -0.033761784 0.070787236
0000d0 c5 be 39 3b 29 96 74 bd 0c 0b 53 bc 8d d0 84 bd
       0.0028342467 -0.059713516 -0.012881052 -0.064850904
0000e0 48 1d 43 bc 7d 28 14 3d 19 be 2e 3d 84 64 6e bc
       -0.011908837 0.036171425 0.04266176 -0.014550332
0000f0 56 0d fe bc b0 88 69 3b f5 33 ba 3c 81 95 d9 3b
       -0.031012218 0.003563445 0.022729853 0.0066401367
000100 fa ff 79 bb 72 cd b0 3c f1 4a 67 3d a2 cb 24 3d
       -0.0038146959 0.021582339 0.056467954 0.040233262
000110 d5 d8 4b bd e7 da 4b bd f2 4f f6 b9 06 ab 5b bc
       -0.049767334 -0.04976931 -0.0004698034 -0.013407474
000120 07 03 43 3d bd ac 58 3d ba 43 96 bb 4d b3 0d bd
       0.04761031 0.05289911 -0.0045857104 -0.034594823
000130 a1 c7 31 3d 87 22 bd 3c 02 e6 03 3d 0f ef 1a 3d
       0.04340327 0.023087753 0.032201774 0.03782564
000140 fb 00 12 bd 60 cb 43 3c 02 e1 5c bd 82 5f 07 bd
       -0.035645466 0.011950344 -0.05392552 -0.033050068
000150 78 01 74 bd fa 03 15 bd 52 61 68 3d f4 f0 28 3d
       -0.059571713 -0.036380745 0.056733437 0.041245416
000160 21 93 4c 3d 32 47 5c bd 8f 9e 9c 3c 06 b1 d7 bb
       0.049945 -0.053778835 0.019118575 -0.006582382
000170 d3 a5 d0 bc 1c 39 ee bc 42 5d 83 bd 11 1e b5 bb
       -0.025469696 -0.029079966 -0.06414272 -0.005527266
000180 c1 1b b4 bc be e5 eb bb 69 9f ba 3b 09 51 8e 3d
       -0.02198589 -0.0071990183 0.0056952727 0.0694905
000190 1a 35 72 bd 39 cd ce bc 38 13 6e 3c 9d cb 35 3c
       -0.059132673 -0.025244342 0.014530949 0.0110959085
0001a0 d7 37 42 bc a4 5e 60 3b d1 18 2f bd b0 2e 80 bc
       -0.011854134 0.0034236098 -0.042748276 -0.015647262
0001b0 3e 1b e4 3c ad 8a d9 bc 41 5c 85 bd cc ee db 3c
       0.027845021 -0.026555384 -0.06511737 0.026847266
0001c0 b5 f3 53 3d de fc 02 bd 6c f7 15 3c 00 98 42 b9
       0.05174609 -0.031979434 0.009153228 -0.00018557906
0001d0 02 40 dd bc 9f d1 02 3d 6d d0 91 bd 7e 45 6d 3d
       -0.02700806 0.03193819 -0.07119832 0.0579276
0001e0 f4 e0 13 bd d4 4a ac 3c 55 3f 62 3c 65 8d ac 3c
       -0.036103204 0.021031775 0.013809045 0.021063516
0001f0 4e 98 b2 3a 98 f2 83 3d ef 5c 98 3c e7 89 1e bd
       0.0013625713 0.064427555 0.018599002 -0.038705733

bn1.weight f4 [512]
000000 8f 00 80 3f 41 87 7e 3f aa f8 7f 3f 38 e0 7f 3f
       1.000017 0.9942513 0.99988806 0.99951506
000010 f1 0d 80 3f 7e 0f 80 3f f4 43 7f 3f 5a c0 7f 3f
       1.0004255 1.0004728 0.99713063 0.9990288
000020 42 e3 7f 3f 85 b1 7f 3f a6 74 7f 3f ac d4 7f 3f
       0.9995614 0.9988025 0.99787366 0.99933887
000030 35 00 80 3f 78 17 80 3f db ac 7f 3f 8c b3 7f 3f
       1.0000063 1.0007162 0.9987313 0.9988334
000040 fb b7 7f 3f 11 05 80 3f 85 0c 80 3f f2 c2 7f 3f
       0.99890107 1.0001546 1.0003821 0.9990684
000050 ea 24 80 3f 4a 18 80 3f 44 f1 7f 3f 08 06 80 3f
       1.0011265 1.0007412 0.9997752 1.000184
000060 93 29 80 3f 54 f8 7f 3f ba e5 7f 3f 88 4c 80 3f
       1.0012687 0.99988294 0.9995991 1.0023355
000070 68 d7 7f 3f 72 a5 7f 3f 31 21 80 3f e9 2b 80 3f
       0.9993806 0.99861825 1.0010129 1.00134
000080 9e 30 80 3f 00 27 80 3f 60 8a 7f 3f 74 bc 7f 3f
       1.0014837 1.0011902 0.9982052 0.9989693
000090 4a 2a 80 3f 65 0e 80 3f 29 c6 7f 3f 7e ee 7f 3f
       1.0012906 1.0004393 0.99911743 0.99973285
0000a0 a6 27 80 3f cf 89 7f 3f ad 10 80 3f b8 b8 7f 3f
       1.00121 0.99819654 1.0005089 0.99891233
0000b0 2f 55 7f 3f cf 1c 80 3f 00 22 80 3f 77 83 7f 3f
       0.99739355 1.0008792 1.0010376 0.99809974
0000c0 c6 de 7f 3f 81 9d 7f 3f dd 58 80 3f 97 17 80 3f
       0.999493 0.99849707 1.0027119 1.0007199
0000d0 bd fd 7f 3f 51 12 80 3f de 28 7f 3f e2 0a 80 3f
       0.9999655 1.000559 0.99671733 1.0003321
0000e0 33 93 7f 3f 38 f7 7f 3f ad fb 7f 3f 6d 3d 80 3f
       0.99833983 0.999866 0.999934 1.0018746
0000f0 6c ef 7f 3f 2b 86 7f 3f f2 28 80 3f 05 c6 7f 3f
       0.99974704 0.998141 1.0012496 0.9991153
000100 3c 58 7f 3f cf 14 80 3f 00 09 80 3f b8 14 80 3f
       0.9974401 1.000635 1.0002747 1.0006323
000110 38 c1 7f 3f 91 f7 7f 3f cb 88 7f 3f 3c 1e 80 3f
       0.99904203 0.9998713 0.99818105 1.0009227
000120 d9 49 80 3f e8 22 80 3f b7 3f 80 3f f2 e2 7f 3f
       1.0022537 1.0010653 1.0019444 0.99955666
000130 d3 dc 7f 3f 3b a8 7f 3f 7f f3 7f 3f a7 23 80 3f
       0.99946326 0.99866074 0.9998092 1.001088
000140 2b 08 80 3f 01 00 80 3f d0 30 80 3f 7d 3f 80 3f
       1.0002493 1.0000001 1.0014896 1.0019375
000150 be d1 7f 3f 22 01 80 3f fb f6 7f 3f 04 1e 80 3f
       0.99929416 1.0000346 0.9998624 1.000916
000160 77 a9 7f 3f 50 b5 7f 3f e6 21 80 3f 65 1f 80 3f
       0.9986796 0.99886036 1.0010345 1.0009581
000170 1c 28 80 3f ac df 7f 3f e0 4c 80 3f 48 dc 7f 3f
       1.001224 0.9995067 1.002346 0.999455
000180 16 9d 7f 3f ca 1c 80 3f df ec 7f 3f be 31 80 3f
       0.9984907 1.0008786 0.9997081 1.001518
000190 5a 32 80 3f 86 15 80 3f 34 14 80 3f c3 d4 7f 3f
       1.0015366 1.0006568 1.0006166 0.99934024
0001a0 c7 9e 7f 3f ca 00 80 3f 6f ec 7f 3f 43 21 80 3f
       0.9985165 1.0000241 0.99970144 1.0010151
0001b0 01 cc 7f 3f 3b a7 7f 3f 81 7c 7f 3f 92 15 80 3f
       0.9992066 0.9986455 0.9979935 1.0006583
0001c0 d8 9b 7f 3f b4 6e 7f 3f d4 d2 7f 3f c2 3a 80 3f
       0.99847174 0.99778295 0.99931073 1.0017931
0001d0 7e 4c 7f 3f 4a fb 7f 3f f8 08 80 3f a2 d1 7f 3f
       0.9972609 0.9999281 1.0002737 0.9992925
0001e0 c1 e4 7f 3f 01 11 80 3f 9e c0 7f 3f 44 f7 7f 3f
       0.99958426 1.0005189 0.99903286 0.9998667
0001f0 c0 cf 7f 3f 1e a9 7f 3f 10 b7 7e 3f f2 02 80 3f
       0.99926376 0.9986743 0.9949808 1.0000899
000200 aa 92 7f 3f 2d f5 7f 3f 3f e7 7f 3f b3 05 80 3f
       0.99833167 0.99983484 0.9996223 1.0001739
000210 06 19 80 3f a3 3d 80 3f 3b 01 80 3f 09 c2 7f 3f
       1.0007637 1.001881 1.0000376 0.9990545
000220 17 52 7f 3f 45 9c 7f 3f 3d d6 7f 3f d8 e3 7f 3f
       0.99734634 0.99847823 0.99936277 0.99957037
000230 dd dc 7f 3f aa 37 80 3f 9c 15 80 3f 19 59 80 3f
       0.99946386 1.0016987 1.0006595 1.002719
000240 a8 0c 80 3f 9d 65 7f 3f 6e 9a 80 3f db 1c 80 3f
       1.0003862 0.99764425 1.0047128 1.0008806
000250 49 16 80 3f cc 1d 80 3f 40 d4 7f 3f 43 42 80 3f
       1.0006801 1.0009093 0.9993324 1.0020221
000260 ed 02 80 3f 88 36 80 3f a3 1a 80 3f 93 dc 7f 3f
       1.0000893 1.0016642 1.0008129 0.99945945
000270 61 10 80 3f 60 d6 7f 3f b9 99 7f 3f f0 09 80 3f
       1.0004998 0.99936485 0.9984394 1.0003033
000280 f4 cb 7f 3f e8 26 80 3f 0b 11 80 3f f4 48 7e 3f
       0.9992058 1.0011873 1.0005201 0.9933007
000290 84 0a 80 3f b5 11 80 3f 9f 10 80 3f 91 33 80 3f
       1.0003209 1.0005404 1.0005072 1.0015737
0002a0 75 56 80 3f dc ff 7f 3f 8a c8 7f 3f 55 11 80 3f
       1.0026385 0.99999785 0.99915373 1.0005289
0002b0 5e 44 80 3f 23 fb 7f 3f ef 8d 7f 3f 35 82 7f 3f
       1.0020864 0.9999258 0.9982595 0.99808055
0002c0 56 01 80 3f 3b 08 80 3f c2 e9 7f 3f d7 08 80 3f
       1.0000408 1.0002512 0.9996606 1.0002698
0002d0 70 0a 80 3f f4 84 7f 3f b6 ff 7f 3f 44 51 7f 3f
       1.0003185 0.99812245 0.9999956 0.99733377
0002e0 4f 24 80 3f 35 07 80 3f 5e 20 80 3f eb df 7f 3f
       1.001108 1.00022 1.0009878 0.99951047
0002f0 f5 5a 80 3f 54 ea 7f 3f 6c 0c 80 3f 1f 1b 80 3f
       1.0027758 0.9996693 1.0003791 1.0008277
000300 6b 0a 80 3f 39 9a 7e 3f c7 15 80 3f e2 e1 7f 3f
       1.0003179 0.99454075 1.0006646 0.99954045
000310 8f 05 80 3f 7f cb 7f 3f fc c7 7f 3f 03 38 80 3f
       1.0001696 0.99919885 0.99914527 1.0017093
000320 1c 0d 80 3f 26 19 80 3f b9 e6 7f 3f 0c 3e 80 3f
       1.0004001 1.0007675 0.9996143 1.0018935
000330 fd b8 7f 3f ea f5 7f 3f 50 f8 7f 3f 78 e9 7f 3f
       0.99891645 0.9998461 0.9998827 0.9996562
000340 bf 1b 80 3f fe e5 7f 3f 39 da 7f 3f ec ab 7f 3f
       1.0008467 0.99960315 0.99942356 0.99871707
000350 cb 85 7f 3f d6 2c 80 3f 8a e7 7f 3f dd 0c 80 3f
       0.99813527 1.0013683 0.99962676 1.0003926
000360 d7 c7 7f 3f fd 9f 7f 3f 71 f6 7f 3f 24 f8 7f 3f
       0.99914306 0.998535 0.99985415 0.9998801
000370 a7 22 80 3f 00 4e 80 3f 12 c5 7f 3f e3 42 80 3f
       1.0010575 1.0023804 0.9991008 1.0020412
000380 70 0f 80 3f 83 7c 7f 3f 32 ff 7f 3f 72 09 80 3f
       1.0004711 0.99799365 0.9999877 1.0002882
000390 14 a1 7f 3f 3b f0 7f 3f 7d d1 7f 3f c6 a3 7f 3f
       0.9985516 0.9997594 0.9992903 0.99859273
0003a0 4f 0f 80 3f b6 0b 80 3f 00 02 80 3f 7a 13 80 3f
       1.0004672 1.0003574 1.000061 1.0005944
0003b0 fb ff 7f 3f 93 fd 7f 3f fd da 7f 3f 0c 81 7f 3f
       0.9999997 0.999963 0.99943525 0.99806285
0003c0 f1 20 80 3f 59 38 80 3f 0a cd 7f 3f 51 c5 7f 3f
       1.0010053 1.0017196 0.9992224 0.99910456
0003d0 a3 4b 80 3f 39 08 80 3f f9 c5 7f 3f 9c ca 7f 3f
       1.0023082 1.0002509 0.9991146 0.9991853
0003e0 2f 14 80 3f 18 34 80 3f 29 0f 80 3f c1 29 80 3f
       1.000616 1.0015898 1.0004627 1.0012742
0003f0 27 21 80 3f 4d 14 80 3f 7d 05 80 3f 31 f8 7f 3f
       1.0010117 1.0006195 1.0001675 0.99988085
