data/rl4wound_paper_res/ctr/models_map524/agent_ctr_True_ep_1039.pth (torch, 950255 bytes, 21 tensors)

fc1.weight f4 [512, 5]
00000000: 032e afbb 81f0 763e ba01 bbbe 7194 a6be
00000010: 503e 31be 5b5b ef3d 99e6 0bbc 3af6 b53e
00000020: 3a91 22bd 3b01 f33d 18c8 09be ca6a b7bd
00000030: ce4d dabe 66dc 97be cefe 39be 7003 903c
00000040: cb14 363e 7163 883e cf15 9cbe 3c82 48be
00000050: 07d4 263e 3574 bc3e 6875 bebd 592f ac3e
00000060: 7db9 8fbd b927 3b3d fb59 d03e 9df1 d3be
00000070: 9dfa 8dbe a4df edbd 33dd 32be 7977 c43e
00000080: 853a 93be fdb1 55be 81a8 9ebe 8a50 d6be
00000090: c3f4 83be 8117 c43e 737b 4d3e 01c5 5e3e
000000a0: f80c c63c e2be 68be 3485 953d 49b0 d6be
000000b0: 1a35 a6be eaaa 6ebe a3dc 8f3e 7ec6 873e
000000c0: 6ae5 47be e9fc 57bc e827 913e db63 e43e
000000d0: 8c31 353e 89ce 7b3d c78c 973e fa52 86be
000000e0: b053 ab3d cc62 b1be 27ad 9ebe 0654 6dbe
000000f0: 32b2 4b3e 97aa 363e 7267 86be 7d77 0c3e
00000100: 8bbd 7d3e 524d 64bd 6c86 8c3c 6bf6 d13d
00000110: 8f5d 8c3e 0c71 dd3e ddb4 afbe 485a 28be
00000120: 6441 333e 2e28 bf3e 2b47 c63e d552 ca3e
00000130: 8af2 b43d 7778 c7be c52e 283d 82d5 8ebe
00000140: 6aec d4be e736 cc3e 4b40 ad3e ae43 e5be
00000150: afc6 a73d 391f 9cbd ea2b 90bd 683a 50be
00000160: 6ad3 2e3e b97a 88be 505d 263e 7d52 693e
00000170: 154c a33e 61f3 2b3e 193f e2be 2584 94be
00000180: 39c4 623e 65c5 bf3d cb62 b2be 235b 84be
00000190: 5d92 d73e 4f93 983e eee9 48be 822a e2bd
000001a0: e68f dbbe 775c 3bbc 2c96 abbe ede6 b1be
000001b0: 6540 cbbc 14b9 843d a2bf 3abe 405d 883e
000001c0: 7248 8cbe ac39 ce3e 60d3 9e3e 2970 c0be
000001d0: 9b3e e4bd 5a40 a53c f36a 883d 20bf dc3d
000001e0: 4fce 363e e15a f23c dce0 61be 2bf3 543e
000001f0: 04b0 ddbe eedf 86be 662e e1bd e868 60be
00000200: 4500 23be 0e60 bbbe 2631 bcbd 5916 c33d
00000210: fecf 95be ee16 c4bc baad a33e dfb4 3bbd
00000220: dcdb 7c3c 206d 24bd 193b b43d f1c2 923e
00000230: 33c9 d73e 0ed5 923e ba60 d93e c708 fdbc
00000240: aadb cebe aaac 5abe a0f1 993e 7897 31ba
00000250: 1b26 62be 7d5b afbe 365e d5be 51f3 c0be
00000260: 4d61 bdbd 4a6b 773e 9317 7b3e 8d94 ddbe
00000270: b65a 8e3e 4c36 b2be 5227 c1bd 6e5d 3bbe
00000280: 536b b0bd 12dc bcbd c508 cdbe 3896 c4be
00000290: 1563 94bd 2aa3 123c 7fdb 4cbe 6a83 283e
000002a0: ec34 d0be b4fe 08bd 08ce c93e 6be3 37be
000002b0: 904b ce3e 3335 253e b26e cfbe 9460 913e
000002c0: 22b1 54bd 632e 4bbe fe51 b63e 510a babe
000002d0: 8847 403d 2f68 babd 8375 a33e f499 003e
000002e0: e7c0 5b3e 2342 223e f4bf d5bd 396d c6bd
000002f0: fbca bebe 6df2 763e 9e7e b63e fcdd 9c3e
00000300: 1d06 a2be ee05 963c b483 a1be a98b 7bbe
00000310: f2b9 84be c97b 1b3e efc8 88be 9325 31bc
00000320: 0682 8e3c 88ee 953e 3157 adbe 516b 9cbe
00000330: de95 85be fde6 a03e 48f7 26be fe8b bf3e
00000340: 8f3d 273e 6426 673d 22de 4cbb eb2d acbd
00000350: 97ce 5f3d 74a2 d6bd 86cb c4bb 8b0a 673d
00000360: be99 b5be 4c17 6ebe 8e20 ba3e a072 b8be
00000370: 77cc e2bc 1ca8 e33e 4442 213e 25e3 203c
00000380: d2aa c6be 38d0 623e 5ec6 a4be b750 00be
00000390: 4810 18be c3bf 7fbd 06eb 973b 9025 bf3e
000003a0: b9f2 5d3d 86d1 cb3e 0035 8c3e bfb3 91be
000003b0: b429 4d3e 80be a1be 2f0f 41be f3ce 053e
000003c0: e7cc 183e 1d78 ab3e a480 13be 6d07 0539
000003d0: 8bb7 6b3e 48a5 dcbe 4d1b a63e 2759 bebe
000003e0: 5b2f 8c3b 7006 9abd 329b 6fbe 20e3 6a3d
000003f0: c947 bd3e cb29 06be 9926 89be 606e 2abe
-0.005346061 0.24115182 -0.36524755 -0.32535127 -0.17308927 0.116873465 -0.0085388655 0.35539418
-0.03968928 0.11865469 -0.13455236 -0.08955915 -0.42637485 -0.29660338 -0.18163607 0.017579764
0.1778137 0.26638368 -0.3048539 -0.1958093 0.1629182 0.3680741 -0.09299737 0.33629873
-0.07017801 0.04569218 0.4069365 -0.41395274 -0.27730265 -0.11614922 -0.17467193 0.383724
-0.28755584 -0.20868678 -0.30987933 -0.4185832 -0.25772676 0.38299182 0.20066623 0.21754839
0.024176106 -0.22729066 0.07300797 -0.4193137 -0.32462388 -0.23307386 0.2809802 0.26518625
-0.19521108 -0.013182857 0.2835076 0.44607434 0.17694682 0.061476264 0.29599592 -0.2623518
0.083655715 -0.3464569 -0.3099148 -0.23176584 0.19892195 0.17838512 -0.26250798 0.13717456
0.24779336 -0.0557378 0.017153941 0.102520786 0.2741513 0.4325031 -0.34317675 -0.1644069
0.17505413 0.37335342 0.38726172 0.3951632 0.08835323 -0.38959095 0.041060228 -0.2789727
-0.4158662 0.39885637 0.33838114 -0.44778198 0.08192193 -0.07623143 -0.07039626 -0.2033478
0.17072836 -0.2665613 0.16246533 0.22785373 0.31893983 0.1679206 -0.44188765 -0.29007068
0.22145166 0.09363822 -0.34840998 -0.25850782 0.42103854 0.29799888 -0.19620487 -0.11043264
-0.42883223 -0.01143562 -0.3351301 -0.34746495 -0.02481098 0.06480613 -0.18237165 0.26633644
-0.2739902 0.40278375 0.3102064 -0.3758557 -0.111447535 0.020172287 0.06661024 0.10778642
0.17852138 0.02958435 -0.22058433 0.20795886 -0.43298352 -0.2634272 -0.10995178 -0.21915019
-0.15918072 -0.3659672 -0.09189062 0.09525747 -0.29260248 -0.023936715 0.3196848 -0.04582679
0.015433278 -0.040143132 0.088003345 0.28664353 0.4214569 0.28678173 0.4245661 -0.030887974
-0.40401965 -0.21354929 0.30067158 -0.0006774585 -0.22084849 -0.34249488 -0.4167344 -0.37685636
-0.09247074 0.24162021 0.24520712 -0.43277398 0.27803582 -0.3480705 -0.09431328 -0.1829736
-0.086142205 -0.092216626 -0.40045753 -0.38395858 -0.07245461 0.008950034 -0.20005606 0.1645638
-0.40665376 -0.03344603 0.39415002 -0.17957847 0.40292025 0.16133575 -0.4051414 0.28393996
-0.05192674 -0.19841914 0.3560943 -0.36335996 0.046943218 -0.09101903 0.31925592 0.12558728
0.21460305 0.15845542 -0.10437003 -0.09688801 -0.37264237 0.24115916 0.35643476 0.3063811
-0.3164529 0.018313374 -0.31545794 -0.24564995 -0.25923115 0.15183939 -0.267158 -0.010812181
0.017395984 0.29283547 -0.33855584 -0.30550626 -0.26090902 0.3142623 -0.16305268 0.37411493
0.16332076 0.056433097 -0.003126033 -0.08407196 0.05464038 -0.10480204 -0.006005707 0.05640654
-0.35468858 -0.23251075 0.36352962 -0.36024952 -0.027685387 0.44464195 0.15747935 0.0098197805
-0.388022 0.22149742 -0.32182592 -0.1253079 -0.14849961 -0.062438738 0.0046361713 0.37333345
0.054186556 0.3980829 0.27384186 -0.28457448 0.2003544 -0.31590652 -0.18853448 0.13067226
0.14921914 0.33490077 -0.14404541 0.00012686635 0.23019235 -0.4309485 0.32442704 -0.37177393
0.004278106 -0.07520759 -0.23399046 0.05734551 0.3696883 -0.1310188 -0.2678726 -0.16643667

fc1.bias f4 [512]
00000000: 2fcb 96be 5b03 a1be 5e2e 983e a54e 15be
00000010: d602 edbc 7110 093e d785 8dbe 790b 2a3d
00000020: 9eab 873e 2f49 86be 0ff5 043e 5816 81bc
00000030: 797a 7b3e a602 983e 4feb ec3d a3f2 453c
00000040: 7740 c5be 6dc7 363e f898 8b3e 5ee7 26be
00000050: bf96 e1be 07f1 bb3e a797 d6bd 2c27 b23d
00000060: fa15 02be 6e7a 943e cc99 df3e e888 8f3e
00000070: ac8b 0ebe fabb a13e 4b77 5d3e 8c57 363d
00000080: 847e b8be bb36 43be 4112 e3be c2f2 983e
00000090: 543e e23e 0a04 853e cca4 0e3e a787 d83d
000000a0: cffb db3e 72dd 67be a731 1abe 1a37 ccbe
000000b0: 5673 2fbd 4613 df3c 9d19 fb3d 1992 9fbe
000000c0: a997 4abd 84cc bdbe eb60 b9be 86b9 703d
000000d0: 3975 dfbe 92c8 f53d e5df d3be 5e0b 9fbe
000000e0: 7d00 bdbd 518b d9be 58fe b83e 9182 bb3e
000000f0: 6f4a 6bbe 69a9 ca3d 856c 6d3e 3066 113e
00000100: 5ff6 6cbd 0820 d6be 1984 a73e 0a71 c9be
00000110: 53b1 a4bd 7cd6 d73c 6e9a 19be ef3d 21be
00000120: d880 c6be 9b1c b53c e177 49bd bdb5 c73e
00000130: 3644 16be 46a3 ad3e a169 da3c 1094 51be
00000140: 37f6 dabd 2c78 5dbd 7705 b93b a865 a2bd
00000150: ebd9 073e 8258 be3e 2d44 913d 81ba 253e
00000160: 6396 8e3e f2b4 c33d e012 533e 340a 703e
00000170: a2c1 d33e be3e d1be 1134 1d3e ee8a a6bc
00000180: 5276 a3bd 3cf5 29be e104 873e b976 d13e
00000190: d2c7 babe b753 763e 3fea 9f3e 9328 a03d
000001a0: ade9 053c 95fa af3e fe53 273c bb0b e3bd
000001b0: cc25 0abd e8e9 0f3e a0e1 e23d 2db4 97bc
000001c0: bcba 0c3e db5d f63d 2e0c b7be 39b8 e33d
000001d0: 7e71 8c3e 17d0 4d3d 1a60 25bd 4b6f af3e
000001e0: bcd8 c7be 2fe7 50be 7734 4ebe 87ac c53e
000001f0: 2afc ddbe f2e0 4c3d 2727 e0be 0d07 80bc
00000200: b77b 2c3e 18b5 d1bd 4240 de3e 274a 283b
00000210: 881a 69be 846a ec3d 38c4 683e b574 7eba
00000220: aee5 c33e 2049 90be d6a1 433e 3886 7e3e
00000230: 38e5 633e b99e 9c3a 759b f93d 9de8 b1be
00000240: c1c0 b0be 08bf dfbc ca7d 70bd 7c1e aa3e
00000250: 342b a93e 5d36 9c3e b2e5 53be d400 b3be
00000260: 5f17 d6be 1a70 2b3e 6678 ccbe f932 e5be
00000270: 2783 64be a22a c3be b2d3 38be fe52 90be
00000280: 303e 6cbe 9cd9 d93e 16ff adbd 5fc0 bd3e
00000290: 6833 113c 0343 7bbd 943e 05be 3dde a2be
000002a0: 18aa b7be 76b5 9e3e 9e82 0fbe fa38 e0be
000002b0: ded8 d13e 728d 133c 0d17 9abe d666 b4be
000002c0: 2314 bfbe 5f67 c8be fe5c cf3e d8b1 9d3e
000002d0: 7816 153d 692d c4be fde8 efbd 5df2 d5be
000002e0: ecf1 213e 3114 f6bd 0d9e c3bd 52f1 0ebe
000002f0: 1d50 563e 3650 7d3e e83b c63d 4f6c 80bd
00000300: 0c25 35bd a384 eebb 1e86 abbe 17e2 dc3e
00000310: bed1 45be 7442 853e cf88 80be ccd6 fe3b
00000320: c35b 1c3e e0fe d1be f882 553e e131 b1be
00000330: 8f27 7f3d ae6c b5bd d841 843e 9241 df3e
00000340: 6ec0 bd3d e23b 53bc 1bc9 60be 70fa 2a3e
00000350: 3a8e 5abe 51a5 3b3e f2f0 45be f832 9a3e
00000360: 5e9f af3e 8203 8f3e 70f4 433c 37bd 513e
00000370: a75c d2be 3cbe b93e f594 ecbd 82a8 273e
00000380: e6cf 9ebd fe9f 15be 1bd5 55be e482 933e
00000390: 81d1 7abe bc36 a6bd b833 623e de9a 3a3d
000003a0: bfae bfbe 136e e3be 950c 5fbe ad47 d13e
000003b0: 78c6 a2be de2d 803e f1e3 a33e f941 3fbe
000003c0: 70a2 4bbe eca3 a4be 4cbb 8d3d 60b6 81bd
000003d0: 48f7 b13c e4ee 463e 82b8 433e 2c65 13be
000003e0: 9071 003d a7a2 e23d 0745 2f3c 7040 b73d
000003f0: a49b 38be e0d4 bb3e 07ed 44bd ced1 74bd
-0.29451892 -0.31447873 0.29722875 -0.14580782 -0.028932016 0.13385178 -0.27641174 0.041514847
0.2649812 -0.2622771 0.12984107 -0.015757725 0.24558438 0.2968952 0.11568319 0.012081775
-0.38525745 0.17849512 0.27265143 -0.16299197 -0.44060323 0.36707327 -0.10478144 0.08698878
-0.12703696 0.28999656 0.43672025 0.2803414 -0.13920468 0.31588727 0.21627538 0.044517085
-0.36034024 -0.19063847 -0.44349864 0.2987271 0.44188178 0.25979644 0.13930053 0.10572749
0.42965552 -0.22643068 -0.15058003 -0.3988579 -0.042834602 0.02723087 0.12260745 -0.3116615
-0.04946104 -0.37070096 -0.36206755 0.05877068 -0.4364412 0.120011464 -0.41381755 -0.3106336
-0.09228609 -0.42489102 0.3613155 0.36623052 -0.22977613 0.09895594 0.23185928 0.14199138
-0.057852145 -0.41821313 0.3271797 -0.39344054 -0.080416344 0.026347391 -0.15000317 -0.15746282
-0.38770175 0.022108367 -0.04918659 0.39005843 -0.14674458 0.3391363 0.026661696 -0.20466638
-0.10691493 -0.054069683 0.0056464034 -0.07929546 0.13266723 0.371769 0.070930816 0.16184427
0.2784911 0.09555997 0.20612669 0.23441392 0.41358668 -0.4086818 0.15351893 -0.020329919
-0.07981552 -0.16597456 0.2637091 0.4091089 -0.36480576 0.24055372 0.31233403 0.07820239
0.008173388 0.34370866 0.010212896 -0.11086222 -0.033727452 0.14054072 0.11078191 -0.018518532
0.13743109 0.1202962 -0.3575148 0.11119122 0.27430338 0.050247278 -0.040374853 0.34264597
-0.39032543 -0.2040069 -0.20137201 0.3860819 -0.43356448 0.050019212 -0.4377987 -0.015628362
0.16844068 -0.10239619 0.434084 0.0025678964 -0.22764027 0.11543754 0.22731102 -0.0009706722
0.3826117 -0.2818079 0.19104704 0.24855888 0.22255409 0.0011949159 0.12187854 -0.34747782
-0.3452206 -0.02731277 -0.05871371 0.33226383 0.33040774 0.30510226 -0.2069309 -0.3496157
-0.41814706 0.16741982 -0.39935607 -0.44765452 -0.22315656 -0.38118464 -0.18049505 -0.28188318
-0.23070598 0.42548835 -0.084959194 0.3706083 0.008862354 -0.061343204 -0.13012153 -0.3181018
-0.3587196 0.3099782 -0.1401467 -0.4379347 0.4098577 0.009005891 -0.3009571 -0.35234708
-0.3732005 -0.39141366 0.40500635 0.30799747 0.03639838 -0.38315895 -0.11714361 -0.4178647
0.15814942 -0.1201557 -0.0955163 -0.13959244 0.20928998 0.2473763 0.09679395 -0.06270658
-0.044224784 -0.007278995 -0.3350076 0.43141243 -0.19318292 0.26027262 -0.25104377 0.0077770706
0.1526938 -0.41014767 0.20850742 -0.34608367 0.062293585 -0.0885862 0.25831485 0.43604714
0.09265219 -0.012892695 -0.21951716 0.16697097 -0.21343318 0.18324782 -0.19330195 0.3011701
0.34301275 0.27932364 0.011960134 0.20482336 -0.41086313 0.3627795 -0.11551849 0.16372874
-0.07754497 -0.14611813 -0.20882075 0.288108 -0.24493982 -0.081159085 0.22090042 0.04555785
-0.37438008 -0.44419917 -0.21782143 0.40874997 -0.31792045 0.25034994 0.32009843 -0.1867751
-0.19886184 -0.32156312 0.0692049 -0.063336134 0.021724358 0.19427067 0.19113353 -0.14394063
0.0313583 0.1106618 0.01069761 0.08947837 -0.18028122 0.36685848 -0.04807761 -0.059770398

fc2.weight f4 [256, 512]
00000000: 88b1 233d fe63 0d3d 3abf 23bd 67fc 96bc
00000010: af67 c03c d1fc d8bc 0f88 f93b 6dcc 90bc
00000020: afdf f03b 95d6 b63c 3b37 503c fb38 fd3c
00000030: 537e e0bb afaa c33c 130a 7d3c 9fd5 74bc
00000040: 79ca 03bd 89f8 293d 23cb 38bc 7cbc 043d
00000050: 637e da3c f442 54bb dd89 19bd 8031 9b3b
00000060: f5e4 a8bc 66e8 393c 638a 9dbc c3fa 033d
00000070: c083 1bbd 7e35 48bc 77e8 fe3b 0b28 603b
00000080: 902c 0f3d 3306 7fbc 9cbd 09bd 565d f63c
00000090: fe04 5c3c e2a2 e13c 98ed ddbc 9041 d1bc
000000a0: c3d0 9bbc 9833 913b 5bb3 733c 1be3 c7bc
000000b0: 4d83 f7ba 5247 19bc e161 253d 1eb5 8dbc
000000c0: 2d2b 293d ef0a e5bc 26b0 88bc af63 03bd
000000d0: 42fe 0b3d eba9 ecbc 81d3 913c d914 8fbc
000000e0: 1f94 313d a125 a43b 1bd4 16bd b535 ee3b
000000f0: d196 873b 4409 28bd 68c6 183c e7d2 2e3d
00000100: fde9 333c 3218 1f3a 9bf3 f7bb cba4 563c
00000110: 37c3 93bc 95d8 2b3d 3023 1a3d 8155 9a3c
00000120: 9b26 90bc 5982 2fbd d247 d8bc 38d6 353d
00000130: 3336 21bd 26f3 32bd b4ee 92bb 3198 4c3c
00000140: c5f1 37bd 1f79 27bd 6970 f03a 3287 8abc
00000150: 5f4d 003d fd45 373c d162 16bd 7485 20bd
00000160: 065b 033d 08d6 ccbb 4ab5 8fbc c1fc 4b3c
00000170: 6804 20bc 05e3 a13c a3b7 283c cbca 98bc
00000180: c788 12bd 1ef0 d63c 40ab e7bc a61c c1bb
00000190: ab9b e73b c47d d0bc aff8 b93c bbda f2bc
000001a0: bbdd 193c 188a a23b 6737 743c fd15 38bd
000001b0: 5bd2 9b3a 29bb 9e3c 2122 e0bc 1709 413c
000001c0: 2a85 f93a 102b 153d 6e5a 30bc 91a1 bbba
000001d0: 71a9 a6bc a6b4 1ebc 1885 413c a82c 2abd
000001e0: 8ea4 0b3d 8a51 fa3c 4437 9e3c 4561 083d
000001f0: 5625 74bc 1ee2 113c 2585 ff39 8a46 03bd
00000200: aa3c 79bc 557d 8ebc 974e 27bc ccf3 1dbd
00000210: 1977 02bd 57c9 afbb e0e2 c0bb c355 20bd
00000220: 331b f43b c039 ba3c 3ad4 1c3d dcb0 143d
00000230: 00f1 ffbc 768f 6dbc d391 b8bc 2f09 093c
00000240: fd39 293c 9b99 183c 2ffd d63c 0149 ba3c
00000250: 5f36 bbbc 29e6 ee3c 19b6 003d 8a11 e73b
00000260: 48b7 21bd fe51 d6bc d97e 553c 918b 843c
00000270: beea 303d 4e19 ab3c 22af 903c 39fe 32bb
00000280: 10ce ed3c 51b6 8dbc 8568 883c f5cb a5bc
00000290: 0271 c5b9 1764 ce3c bc85 9e3c d10d 3cbc
000002a0: 4166 c7ba 670f bfbc 6ada 9b3c b092 fe3c
000002b0: 6121 5e3c 3db7 35bd 28ad 06bd 9530 ec3c
000002c0: 5e6b efbb 2f4e d03c 6a8b 0d3d b826 59bc
000002d0: df19 cdbc 62bd 26bd 31ed 763c 0096 ae3c
000002e0: e861 18bc 9997 32bd 2607 f7bc 2cfd 25bb
000002f0: 7bc4 a83c 9952 76bc 2313 f6bc cb06 03bd
00000300: d9fc 213d 5f94 6c3c a9e0 0bbd c0e7 ebbc
00000310: 46f2 19bd b138 ab3b 688d a0bc 6dcc 94ba
00000320: 6d2c 0dbc 0129 24bd c98a 27bd f44b 12bd
00000330: 463e 9fbc 9ab6 e93b e3a3 b6bc efb5 57bb
00000340: 7144 d8bb 37b0 1f3d de13 97bc 94da 313d
00000350: 571c 03bd 0b49 1dbd 342d 4b3c 70fe c6bc
00000360: a6c9 b93c 8975 c9bc cb31 113d db45 2a3d
00000370: 4051 943b 3e0d 043c 5f70 2f3d 682e cd3c
00000380: c46b 1bbd 10cc 43ba 93d9 1bbd 01de 113d
00000390: 3fea 1cbc 4777 193a e463 ecbc d4da bcbc
000003a0: 3289 ae3b eb57 1b3d 1d14 c0bc 9998 b83b
000003b0: c0b3 1f3d 1c66 293d 7773 e0bb 255f 2c3d
000003c0: 39a9 733c 9096 2a3d f60d 663a e317 1abd
000003d0: 5277 56bc ed9b 733c 551e b53c 3865 2cbd
000003e0: d646 093d 658d 1cbd 4aac c83c 8dc7 2c3d
000003f0: 1887 393c aae5 eabb 5fec bc3c 6e2b 45bc
0.03996423 0.034519188 -0.03997729 -0.018430902 0.02348694 -0.02648774 0.0076150964 -0.017675603
0.007350884 0.022319118 0.0127084805 0.03091096 -0.0068509965 0.0238851 0.015444296 -0.014943509
-0.032175515 0.041496787 -0.0112789 0.032406315 0.026671594 -0.003238854 -0.037484992 0.0047361255
-0.020616988 0.011346912 -0.019231027 0.032221567 -0.037967443 -0.012219785 0.007779177 0.0034203555
0.034954607 -0.015565443 -0.03362809 0.030073803 0.013428925 0.027543489 -0.027090833 -0.025543958
-0.019020444 0.0044311993 0.014874305 -0.024400285 -0.0018883735 -0.009355383 0.040376548 -0.017298277
0.04130094 -0.027959315 -0.016685557 -0.032077488 0.034178026 -0.028889617 0.017801048 -0.017465996
0.04335415 0.0050093685 -0.036823373 0.007269586 0.0041378518 -0.04102446 0.0093246475 0.0426816
0.01098108 0.0006068974 -0.007566882 0.013100813 -0.018037422 0.041954596 0.037631214 0.0188396
-0.017596534 -0.04284892 -0.026401434 0.044393748 -0.03935833 -0.043688916 -0.004484022 0.012487457
-0.044908304 -0.040886994 0.0018344048 -0.01691017 0.031323787 0.01118612 -0.036715332 -0.03918977
0.03206923 -0.0062511005 -0.0175425 0.012450398 -0.0097666755 0.019761572 0.010297689 -0.018651387
-0.035774972 0.026237544 -0.0282799 -0.0058933077 0.0070681176 -0.025450595 0.02270159 -0.029645314
0.009391244 0.0049603097 0.014905787 -0.044942845 0.0011888252 0.019376354 -0.027360024 0.011781952
0.0019036878 0.03641802 -0.010763748 -0.0014315118 -0.020344468 -0.009686625 0.011811517 -0.041546494
0.03409248 0.030556459 0.019313462 0.03329589 -0.01490148 0.008904008 0.0004873659 -0.032049693
-0.015212217 -0.017393747 -0.010211608 -0.03856258 -0.03185186 -0.0053645778 -0.0058864206 -0.03914429
0.0074495315 0.022732615 0.038288333 0.03630148 -0.031242847 -0.014499536 -0.022530472 0.008364006
0.010328767 0.009313966 0.026243774 0.02273989 -0.022853075 0.029162483 0.03142366 0.0070516514
-0.03948143 -0.026162144 0.013030731 0.016179832 0.043192618 0.02088609 0.017661635 -0.0027312173
0.029028922 -0.01729885 0.016651401 -0.020238856 -0.00037658965 0.025194211 0.019350879 -0.011477903
-0.0015212969 -0.023322774 0.019025046 0.031075805 0.013557763 -0.044364203 -0.03287998 0.02883176
-0.0073065003 0.025427906 0.034556784 -0.01325386 -0.02503675 -0.040707953 0.015071199 0.02131176
-0.009300686 -0.043601606 -0.030154776 -0.0025327904 0.020601502 -0.015034341 -0.030038422 -0.0319889
0.039547775 0.014439671 -0.0341498 -0.02879703 -0.037584566 0.005225264 -0.019598678 -0.0011352428
-0.008616549 -0.040078167 -0.04090384 -0.035716966 -0.019438874 0.0071323635 -0.022294944 -0.0032914837
-0.0065999557 0.03898641 -0.01844209 0.043421343 -0.03200945 -0.038399737 0.012400914 -0.024291247
0.022679161 -0.024592178 0.035447877 0.041570526 0.0045262873 0.008059798 0.042831775 0.025046542
-0.03794457 -0.00074690674 -0.03804929 0.03561211 -0.009577333 0.00058542605 -0.028856225 -0.023053564
0.0053264135 0.037925642 -0.02344709 0.0056334254 0.038989782 0.041357145 -0.006849702 0.042082924
0.014871889 0.041647494 0.0008775884 -0.037620436 -0.013089972 0.014868719 0.02210919 -0.042088717
0.03351482 -0.03822078 0.024496216 0.042182494 0.011323713 -0.0071684914 0.02306193 -0.01203428

fc2.bias f4 [256]
00000000: 5561 55bc a5e4 073d 2d53 f5bc 289b 1bbd
00000010: 3b46 b8bc a476 d03c 721b 04bd e982 043d
00000020: 66e8 023d 20a5 053d b9ce 303c bc3c 5f3c
00000030: 7981 703c 1a57 063d 8b4b 63bc baaa 2f3d
00000040: bd90 3cbd 8285 1ebd 580a 02bd e039 0f3d
00000050: e3ae d3bb 2749 0abd feda e2bc 8c5f d4ba
00000060: 56ae 5a3c 6d7e 233d b480 a53c e71c 983b
00000070: 26af 0ebb 232f e03c 0523 34bc c2b1 aabb
00000080: 6ccc 1e3d 7060 01bd 72a4 bd3c 0483 edbc
00000090: 8750 20bd 6bcb 8c3c e873 18bd a73a 113d
000000a0: c582 8abc 609a 1abd ac94 30bd 3533 153d
000000b0: 85f4 33bd cd49 923c 0cb7 c3bc 452e 623c
000000c0: f842 f33c 54c4 33bc 83b9 e93c 6408 7abc
000000d0: dc05 cc3b 0c3e f4bc 414e d53c 7dc4 f83b
000000e0: 6afd 723b c234 f73c 18c6 24bd 2899 8c3c
000000f0: 85a1 d4bb ba56 89bc 7c2a dcbb b3e6 fa3a
00000100: 398f 133d b1eb 2abd 2d81 9b3c c2ad a13c
00000110: e801 25bd fefa 1dbc f40c 7ebc 1826 083d
00000120: 940d 06bd 387b dc3c f275 863c 8c41 1c3d
00000130: bf25 123d 93bf 29bb 0eb0 b6bc afc5 2f3d
00000140: e1f8 8bbc 8fe3 7cbb 07af 813c d425 d33c
00000150: fe92 e93c 54c4 a7bc c88f dd3c 3852 90bc
00000160: e4cc fd3a 0bd6 34bd e38d 31bb 7da1 31bc
00000170: 980b 91ba a0ca 133d f946 60bc f75c 723c
00000180: eb8e d4bc 05e1 e73c fc86 88bc af7c 963c
00000190: f2d2 c43c 176c be3c b6f9 0b3d cbf1 0bbd
000001a0: d5ff 0fbb f35b c9bb 79e8 27bd c81b 95bb
000001b0: c739 473d c767 62bc 5cea 193d fb70 34bc
000001c0: 618a d6bc ea20 f43c dfcd 71bc ff00 113d
000001d0: 776a 31bd 894b 99b8 e2e0 b3bc b570 2ebd
000001e0: 7ca1 863c 46d7 36bd a9d3 233d 96c0 9f3c
000001f0: f888 cbbc 6984 9cbc 2e76 41bb 4c58 153d
00000200: cd5a 56bc e6f2 143d 56cd f4bc 0037 9d3b
00000210: 0fba 3b3d 2f61 aa3c 5184 f5bb b487 a13c
00000220: 2223 5e3b 3839 463c e086 b23c 4962 293d
00000230: ec68 c3bc a1e1 0c3d fb5c b43b 33b0 173d
00000240: d7eb 143c 26d7 733a 23f5 ac3c d5ab 913c
00000250: 27be fd3c a857 d9bc a8bf 0f3d 5579 003d
00000260: 15b6 2f3d 271b 27bd 354c 39bd 2769 e6bc
00000270: 3180 b0bc 3872 e83c 1e2a 363c 9013 8abc
00000280: 8f31 043c 20a0 7cbc ffa1 cfbc 6e13 2e3d
00000290: d67f 303c 3fb3 193d ece7 1a3d ca81 c6bc
000002a0: 7a4f 19bd c14c 15bd d988 c63c dc79 dcbc
000002b0: 2048 d63b 8ba2 853a 1e74 fcbc c536 5ab9
000002c0: 7cbc 4dbc b1dd 54bc 770a 1fbd 2e4b 98bc
000002d0: da29 44bc 4d07 0fbd a759 1bbd 6ea2 e9bc
000002e0: 074d a9bb 4a84 30bd 838b 7f3c 1bee f9bc
000002f0: 30d7 cdbc 9928 bfbc a428 703c 47fa eb3c
00000300: c83b b53b d945 c73c bdda 223c 88e5 8a38
00000310: 5d67 a63c 40af 23bd 656e e1bc 57eb 383d
00000320: 38de 013c 0046 22bd 7dae d83b 6a90 1abd
00000330: 3dec 8cbc ef96 38bc ca21 e5bc ad6d 23bd
00000340: 2acd 04bc caf1 edbb aa39 f3bc f2e1 36bb
00000350: 2466 14bd ca2e 163d 0f7f 06bc 4c2e 293d
00000360: c507 143c dc14 2abd 4078 3a3d ad3b eb3c
00000370: f6f6 34bc ef82 ba3c 326b ddbc cc22 dfbc
00000380: de06 c9bc da9f de3c 72dd e4bb be15 f7ba
00000390: 2b85 1dbd 490c a13c d3bf 9f3b f2c3 31bd
000003a0: 63db 223c e917 4039 cc54 3c3c 5d8e 02bd
000003b0: 0f81 debc dfa9 4dbb 14ec fc3a e3c5 073d
000003c0: 1ce0 0c3d 85a5 023c dcaa 2abb 0b7e 87bb
000003d0: 2477 013d 4ecf 1fbd 172a d43c 7cf9 ebbc
000003e0: b5e9 c2bc b444 b7bc 2bc3 12bd 1e08 0e3c
000003f0: 48a4 4bbc e50f 04bc 5f70 f0bc 7ebd 0c3d
-0.013023694 0.033177037 -0.029946888 -0.037989765 -0.022494426 0.025447197 -0.032252736 0.03235141
0.031959914 0.03262818 0.010791474 0.01362532 0.014679306 0.03279791 -0.013872991 0.042887427
-0.04603647 -0.03870154 -0.031748146 0.034967303 -0.006460057 -0.03376117 -0.027692314 -0.0016202792
0.013347229 0.03991549 0.020202972 0.0046421173 -0.0021771877 0.027366227 -0.010994677 -0.0052091787
0.03876917 -0.03158611 0.023149703 -0.028993137 -0.039139297 0.017186841 -0.03721991 0.035456326
-0.016908059 -0.03774488 -0.043110535 0.036425788 -0.043934364 0.017857457 -0.023890994 0.013804977
0.02969502 -0.010972101 0.028530842 -0.01526079 0.0062262844 -0.029814743 0.026038291 0.0075917826
0.0037077316 0.030176524 -0.04022798 0.017162874 -0.006488981 -0.016764987 -0.0067189317 0.001914224
0.03602526 -0.04172868 0.018982494 0.019736174 -0.04028502 -0.009642361 -0.015506018 0.033239454
-0.032727793 0.026914224 0.016413663 0.038148448 0.03568053 -0.002590154 -0.022300746 0.042913135
-0.017086448 -0.0038587784 0.01583053 0.025774874 0.028512474 -0.020479359 0.0270461 -0.01761733
0.001936343 -0.04414944 -0.0027092628 -0.010841724 -0.0011066077 0.03608191 -0.013688796 0.014792672
-0.025947055 0.02830554 -0.016665928 0.01837 0.024026368 0.0232449 0.03417369 -0.03416614
-0.0021972556 -0.0061449944 -0.040993188 -0.004550431 0.048639085 -0.013818688 0.03757702 -0.011013265
-0.026189031 0.02980085 -0.014758556 0.03540134 -0.043314423 -7.309678e-05 -0.021957818 -0.042587955
0.016434424 -0.044638894 0.039996777 0.019501012 -0.024845585 -0.019106107 -0.0029519903 0.03646116
-0.013083172 0.03636446 -0.029883068 0.0047978163 0.045831736 0.020798294 -0.00749258 0.019718029
0.0033895453 0.012098603 0.021792829 0.041353498 -0.023853742 0.034394864 0.005504248 0.03703327
0.009089432 0.0009301774 0.021112984 0.017782131 0.03097446 -0.026531056 0.035094887 0.03136571
0.042898256 -0.04079738 -0.045238692 -0.028126312 -0.021545501 0.028374776 0.01111844 -0.016855031
0.008068456 -0.015419036 -0.0253458 0.042499 0.010772666 0.037524458 0.037818834 -0.02423181
-0.03742931 -0.03645015 0.024235176 -0.026913576 0.0065393597 0.0010195536 -0.030817088 -0.00020810503
-0.012557145 -0.0129923085 -0.03882834 -0.018590536 -0.011972869 -0.034919072 -0.037927296 -0.028519835
-0.005166653 -0.04309491 0.015597227 -0.030509045 -0.025127023 -0.023334788 0.014658127 0.028805865
0.005530808 0.024325298 0.009939847 6.623106e-05 0.02031296 -0.039962053 -0.02751846 0.045146313
0.007926516 -0.03961754 0.0066125975 -0.03773538 -0.017202491 -0.011266454 -0.027970213 -0.039899517
-0.008105556 -0.0072614895 -0.029690582 -0.002790567 -0.03623022 0.036665715 -0.008209004 0.041303918
0.0090350555 -0.0415238 0.045524836 0.028714979 -0.011045208 0.022767512 -0.027028654 -0.027238272
-0.024539407 0.027175833 -0.006984406 -0.0018851084 -0.038457077 0.019659178 0.004875162 -0.04339976
0.009940001 0.00018319454 0.0114948265 -0.03187405 -0.02716115 -0.0031381769 0.0019296431 0.033147704
0.034393415 0.007974033 -0.0026041782 -0.0041348985 0.031607762 -0.03901606 0.025898976 -0.028805487
-0.02379308 -0.022371627 -0.035830658 0.0086689275 -0.012429304 -0.00806043 -0.029350458 0.0343604

fc3.weight f4 [128, 256]
00000000: e83d 88bc 04ea 11bd 920d e13c b934 523d
00000010: 01e9 99bc 2c41 6dbd fdec e23c 7960 313d
00000020: f9c1 073d 8e62 3d3d 61e0 2c3d a944 44bd
00000030: 74b7 3dbd b675 fe3c 8fd2 9139 ccf3 223d
00000040: 6d39 3d3d cff4 2cbc c085 74bd 1a78 1c3c
00000050: 1a81 e23c 490f ca3c b488 7e3b 4490 90bc
00000060: 915a 3a3d 89ae 233d 0c2d 653d fdaa 0abd
00000070: d7ad aebc 6557 e23c 570d 513d 5721 843d
00000080: feb2 4abd 143a a03c e42f a83c 8611 1cbd
00000090: dd6e 21bc ee35 bf3c 785e 81bc 1210 303d
000000a0: 0fec 1abc c163 06bc 95cf 933c daf3 bcbc
000000b0: 1fc0 18bd dee6 4b3d e34b 3a3c 052d 55bd
000000c0: 0f62 4d3d c5a2 0a3d 43b1 33bc d367 edbc
000000d0: 2907 bfbc 14cb cdbc 0739 533d e22a 2f3c
000000e0: 074d 613b 5674 c5bc da7f 773d 9800 5abd
000000f0: 76e4 4fbd 3967 18bd c9bf 503d b6fe cd3c
00000100: e991 71bd a179 3cbd a469 21bc c1fc 313d
00000110: 55ea 333b af82 853d f7ea 49bd c0ef ce3c
00000120: 0805 82bc b07d 6f3c 2a03 74bc f11e 2bbd
00000130: b970 65bd 81e7 3dbd 1f2e 10bd eb5d 65bd
00000140: f45b 6f3c ead3 72bc 29bd 863b d622 bebc
00000150: 4dd6 50bd 05a1 3fbd 612f c6bc 048c 76bd
00000160: aa9e 0b3d dcbf 173d 86cb 1abd be87 983c
00000170: 5eb6 26bd cabf bdbc 9a26 92bc b33d 2cbd
00000180: deab d43c 33a5 853c 7d11 f53b a4b8 043c
00000190: fdd8 65bd 5337 693c a5fc 383d 8531 0cbd
000001a0: c9df 61bd 0b9f 40b9 c744 f03c 5c73 5a3c
000001b0: bc5b 073d b4b3 e7bb 9080 d6bb 18fb 6abd
000001c0: 770f 82bd b2f8 58bd 20a5 53bd 5657 1e3c
000001d0: 5664 62bc 94c9 d2bc 6557 6abd c57c 4d3d
000001e0: a1c2 54bb 4512 093d c390 56bd dd89 1dbd
000001f0: 43c0 173d 32b8 283d 20ee 32bd 1bef 443d
00000200: 4f2e 0c3d c152 523d 0466 4abd c980 80bd
00000210: 0318 61bd 3d59 2e3b 7816 9d3c c060 88bc
00000220: f7c0 7bbc a2f2 883c 581b 09bd 8aa4 28bd
00000230: b374 5cbd ef9a 503c b3c7 2fbd 5ea2 993c
00000240: 3259 eebb 2d7c 25bd d2d5 613d 2813 0e3d
00000250: 5875 453d 5ac0 54bd f1e3 1bbd 44b7 04bd
00000260: de9d b83b f320 f93c 79d7 6dbd 020e 9b3c
00000270: 6653 7d3d 5cdb 343d aac3 6bbc 2d71 e93a
00000280: d2cd d0bb 7cae 5d3d b891 533d a9f9 f4bb
00000290: f877 3bbd a468 bdbc a0b1 193d 7625 363d
000002a0: 7745 133d 8852 d3bc 93e6 20bb a321 0b3c
000002b0: 1583 da3c 49d9 49bd a9f9 7a3c e048 bebc
000002c0: dab0 4ebc c333 0a3d 359c cb3c eccf 633d
000002d0: 189c fa3c a7ff 34bd 9d85 30bb d445 6bbd
000002e0: 558f dabb f49b cabb a217 ab3b df28 7c3c
000002f0: 9bc3 823c a788 69bd 23c8 85bc f9ee 4ebc
00000300: f3db 1f3d 0441 7dbd be50 4c3b 2be9 08bd
00000310: 66d0 64bc 68b2 12bd 3457 a93a 5c1f f93c
00000320: edcb 10bd 28e3 a4bc 0218 7f3d db1d acbc
00000330: ad16 9b3c 6bc0 46bd d258 273d 0982 b0b9
00000340: 7c24 9dbc 8b92 94bc 35d2 673d 396c 4c3d
00000350: 52c2 0fbd f3fb 74bd 1867 bf3c 8152 8ebb
00000360: 7e7b e73b 5262 f53c 4f07 4bbd 2060 e73c
00000370: 53c3 06bd 5520 3f3c 9051 bfbb 74c6 a2bb
00000380: ae83 2f3d ea69 4abc 5ad6 743c 9120 d43b
00000390: 5f00 733d b19e 45bd 49d6 7c3d bdea 853c
000003a0: 1ab3 cfb9 26db cfbb 7a1e 04bc ea86 9d3a
000003b0: ad51 9bbc 3eea e73b a79a 813d cd99 43bc
000003c0: 9989 d43c 5afd b9ba dbd6 9dbc 0f24 8fbc
000003d0: 7196 ff3b 101b bbbb 7272 173c 9903 50bd
000003e0: 0b7d 60bb add0 56bd d8b4 63bd 19e3 08bc
000003f0: ba95 103c 400d 663d 26b7 b4bb fe25 7d3c
-0.016631082 -0.035623565 0.027472291 0.05131981 -0.018787863 -0.05792348 0.027700895 0.043304894
0.03314397 0.046236567 0.042206172 -0.047917042 -0.046317533 0.031061988 0.00027813434 0.039783284
0.046197344 -0.010556414 -0.059697866 0.009550119 0.027649451 0.024665492 0.0038838806 -0.017646916
0.045496527 0.03996137 0.055951163 -0.033854473 -0.021323128 0.027629564 0.051038112 0.064516716
-0.049487107 0.019558944 0.020530649 -0.03810265 -0.009853092 0.023341145 -0.015792117 0.042984076
-0.009455695 -0.008202494 0.018043319 -0.023065496 -0.037292596 0.04978072 0.011370632 -0.052044887
0.050142344 0.033846635 -0.010967555 -0.028980171 -0.023318844 -0.02512125 0.051568057 0.010691376
0.0034378187 -0.024103325 0.060424663 -0.053223222 -0.050754987 -0.037207816 0.05096415 0.02514587
-0.05897704 -0.046014432 -0.009851847 0.043453936 0.0027452905 0.065190665 -0.049296346 0.025260806
-0.01587154 0.014617369 -0.0148933325 -0.041777555 -0.056015704 -0.046363357 -0.035200235 -0.05599777
0.014609326 -0.014821032 0.004111905 -0.02320997 -0.050985623 -0.04678442 -0.024192514 -0.060192123
0.03408686 0.037048206 -0.03779175 0.018619414 -0.040701263 -0.023162741 -0.017840672 -0.04205103
0.025960859 0.016314125 0.0074788914 0.008100662 -0.05611514 0.014234382 0.045162816 -0.034226913
-0.05514506 -0.00018369795 0.02932967 0.013333168 0.03304647 -0.007070983 -0.0065460876 -0.057368368
-0.06350606 -0.05297155 -0.051671147 0.009664377 -0.013817867 -0.025730886 -0.057212252 0.050167818
-0.003246464 0.03346469 -0.05238415 -0.038461555 0.03704859 0.041191287 -0.043684125 0.04807959
0.03422385 0.05134845 -0.049413696 -0.06274564 -0.05495454 0.0026603483 0.019175753 -0.016647696
-0.015365831 0.016717259 -0.033473343 -0.04117254 -0.05382223 0.012732252 -0.042915057 0.01875418
-0.0072738165 -0.040401626 0.055135556 0.034686238 0.04820761 -0.051941253 -0.03805918 -0.03240134
0.0056340536 0.03041122 -0.05806682 0.018927578 0.061847113 0.04415451 -0.014389912 0.0017810218
-0.006372192 0.05412148 0.05165264 -0.007476051 -0.045768708 -0.023121186 0.037522912 0.04446932
0.03595492 -0.02579619 -0.0024551495 0.008491906 0.026673833 -0.049279485 0.015318313 -0.023228109
-0.012615407 0.03374077 0.024854759 0.05561821 0.03059201 -0.04418912 -0.0026935108 -0.05743964
-0.0066699185 -0.006183142 0.005221323 0.015390604 0.015962413 -0.057015087 -0.016330784 -0.012630218
0.03902812 -0.06182958 0.0031176056 -0.03342549 -0.013965702 -0.035814673 0.0012919665 0.030410461
-0.03535073 -0.020127848 0.062278755 -0.02101033 0.018931711 -0.048523348 0.04085619 -0.0003366622
-0.019182436 -0.018136283 0.056596953 0.049907897 -0.035097428 -0.05981059 0.023364589 -0.0043433313
0.007064282 0.02995411 -0.049567517 0.028244078 -0.03290112 0.011665423 -0.0058385804 -0.004967505
0.04285019 -0.012354353 0.0149436835 0.006473609 0.059326526 -0.048247043 0.061727796 0.016347283
-0.00039615558 -0.006343263 -0.008063907 0.0012018357 -0.018959844 0.0070774844 0.06328326 -0.011938524
0.025944518 -0.0014189885 -0.01926749 -0.017473249 0.0077999164 -0.005710013 0.0092435945 -0.05078468
-0.003425422 -0.052445102 -0.055592388 -0.008354926 0.00882476 0.05616498 -0.005514997 0.015450953

fc3.bias f4 [128]
00000000: af9c cc3c 8627 0fbd d567 583d 9389 44bd
00000010: d174 883c a91c fd3b 4362 293c ccc0 b1bc
00000020: 1dfe 7f3d ff8a 133c c38b 8abb 76c8 28bc
00000030: 20ff ef3c 4f8c 943b 2be9 3fbd dadd 2f3d
00000040: 7888 01bd a7d0 993b eda2 3ebd 96fc c33b
00000050: cd79 703d d629 21bd e14c 57bd 3b33 57bb
00000060: f38a 00bd 6643 2bbd 999d 1b3d fbf5 6cbd
00000070: 768b b7bc 24f0 633d 3f69 4a3c dedb 043d
00000080: b181 49bd dca9 f53c 3527 3c3c 1ace 1c3b
00000090: d795 1e3d dacc ccbc 39ac 4b3c c260 1e3d
000000a0: 2ccb 203c c0da 5e3d d2ee 2e3d bdcf 353d
000000b0: 7c39 c8bc c1e7 bb3c 664a 103c 430d 133d
000000c0: 1bc7 96b9 0b1f 8c3c f415 0bbd 190c 6e3d
000000d0: 2926 a03a 1fcd 67bd 52d5 aebc 2337 79bd
000000e0: a499 80bc 96ac 143d 0e26 0d3d eabd 8fbc
000000f0: 1993 23bd ceb2 813b 35d6 bb3c bebd 8dbb
00000100: 6562 00bc cc62 9a3c 7da8 3f3d 3927 2f3d
00000110: 9dbf 33bd d7fd 18bd 752f a1bb 564a a2bb
00000120: ea13 283d 176a 473d 2243 a7bb 6235 d3bc
00000130: 987e 283d 5427 a33c db78 383d 7173 3e3d
00000140: ab2d 06bd 36ea 103c 5f7f 3fbd ca97 11bd
00000150: d9d8 6dbd 3f87 13bd 5a3b 563d 1061 223d
00000160: 4151 563d 5a5f 5bbd 3173 aa3c c652 713b
00000170: f1ea f7bc 00d6 0abd b1ea 65bd a5c2 a537
00000180: 52b3 b6bc f0a1 9dbb c79c 9f3b f442 633d
00000190: c23d 80bd fef3 dbbc 7e2b 453c de1d 533c
000001a0: eabc 80bb 86d4 813b 6b9d 38bd 5ef7 7dbc
000001b0: 17c4 b93c 9ea7 ffbc df5b 75bd 33d3 ed3c
000001c0: 1744 4c3d 891d 0ebd fafc 253c d74c b53b
000001d0: f980 33bd 1444 073d 5635 79bd 5e61 523d
000001e0: 1251 09bd 7efd 1d3c fa00 823c fdb7 383c
000001f0: 332c 4cbb cb92 6b3d 2924 913c 17b8 17bd
0.024977056 -0.0349498 0.052833397 -0.047982763 0.016657265 0.007724364 0.010338369 -0.021698378
0.0624982 0.009005307 -0.0042280867 -0.0103017 0.029296458 0.0045333277 -0.046853226 0.042936184
-0.031624287 0.0046940628 -0.046542097 0.0059810383 0.05870991 -0.03934654 -0.05256355 -0.0032836932
-0.031382512 -0.041812323 0.037992094 -0.057851773 -0.022405367 0.055648938 0.012354194 0.032436244
-0.04919595 0.029988222 0.011483957 0.0023926557 0.038717117 -0.025000025 0.012431198 0.038666494
0.009814065 0.054407835 0.042708226 0.044387568 -0.024441473 0.022937657 0.0088068005 0.03590132
-0.00028758575 0.017104646 -0.033956483 0.058117006 0.0012218404 -0.056592103 -0.021341953 -0.060843598
-0.015698262 0.036297403 0.03446012 -0.017546613 -0.039935205 0.0039580828 0.02292929 -0.0043255975
-0.007835959 0.018845938 0.046791542 0.042762015 -0.04388391 -0.037351456 -0.0049189874 -0.004952709
0.041034617 0.04868516 -0.0051044384 -0.02578229 0.041136354 0.019916214 0.04503713 0.046496812
-0.032758396 0.008844903 -0.04675233 -0.035545148 -0.05806813 -0.036017653 0.052302696 0.039643347
0.052323584 -0.05355773 0.02080688 0.0036823018 -0.030263396 -0.033895493 -0.056132022 1.9760171e-05
-0.022302303 -0.004810564 0.0048709842 0.055483773 -0.06261779 -0.026849743 0.012034295 0.012885539
-0.0039287703 0.0039621023 -0.045072 -0.015500871 0.02267651 -0.031207856 -0.05990207 0.029031372
0.049869623 -0.034696136 0.010131115 0.0055328417 -0.04382417 0.03302391 -0.06084188 0.051362388
-0.03352458 0.009642957 0.015869606 0.011274335 -0.0031154274 0.05751304 0.017717438 -0.037040796

bn1.weight f4 [512]
00000000: cb03 803f b523 7f3f 4b10 803f a2c5 7f3f
00000010: 5ff4 7f3f fb25 803f 7783 7f3f 54bb 7f3f
00000020: c3f2 7f3f a0d8 7f3f d591 7e3f 29f1 7f3f
00000030: 1911 803f d414 803f da99 7f3f a5ec 7f3f
00000040: d2e2 7f3f e119 803f a322 803f d7d3 7f3f
00000050: ecf3 7f3f 08b7 7f3f 10ef 7f3f 3204 803f
00000060: 8f42 803f b2f3 7f3f 61e9 7f3f 7a3f 803f
00000070: f521 803f 50db 7f3f 7a1c 803f 3822 803f
00000080: 5b14 803f a71e 803f 42a9 7f3f 7ed0 7f3f
00000090: 7810 803f 68fe 7f3f 5bb9 7f3f 7a0e 803f
000000a0: 6328 803f 8c9e 7f3f d3fe 7f3f 5aec 7f3f
000000b0: 903b 7f3f 7a15 803f 731c 803f b6da 7f3f
000000c0: dbad 7f3f 1c63 7f3f c72e 803f cf0e 803f
000000d0: ea0f 803f 8325 803f 597f 7f3f 6b10 803f
000000e0: 3fd0 7f3f 75e1 7f3f d523 803f c139 803f
000000f0: c80d 803f fa8b 7f3f 7c33 803f ccd9 7f3f
00000100: 12ae 7f3f 2f0e 803f f818 803f 5204 803f
00000110: a6b6 7f3f 1cf9 7f3f 83a8 7f3f d61b 803f
00000120: c130 803f 891d 803f 8333 803f 23e8 7f3f
00000130: 75f2 7f3f fba3 7f3f bbe8 7f3f 1225 803f
00000140: dc06 803f cb2c 803f 432f 803f 1f6f 803f
00000150: 31b4 7f3f 28e1 7f3f 40de 7f3f 412e 803f
00000160: a4bd 7f3f a2a3 7f3f 4220 803f a721 803f
00000170: 5f3d 803f 1900 803f 8a3a 803f a501 803f
00000180: a1d9 7f3f 2a4c 803f 47fb 7f3f 011e 803f
00000190: a916 803f 8b24 803f e90e 803f 0e02 803f
000001a0: 6aac 7f3f 5d30 803f 6001 803f d015 803f
000001b0: 9acf 7f3f f7a0 7f3f efc1 7f3f ac06 803f
000001c0: f9b7 7f3f 93a1 7f3f 6aef 7f3f a439 803f
000001d0: 6f8c 7f3f 1ef4 7f3f a411 803f 0907 803f
000001e0: 7ae0 7f3f 7f09 803f 3a0b 803f 0007 803f
000001f0: 32b9 7f3f b595 7f3f dc49 7f3f adf3 7f3f
00000200: 8caa 7f3f 2ad0 7f3f e4ee 7f3f 61fd 7f3f
00000210: 3110 803f 2a33 803f 0f06 803f cfba 7f3f
00000220: 7870 7f3f ac97 7f3f 28dc 7f3f 7a96 7f3f
00000230: 73dd 7f3f 594a 803f fc0a 803f db2c 803f
00000240: e109 803f 5572 7f3f 6c35 803f 5226 803f
00000250: 5008 803f 8719 803f 49f4 7f3f ac39 803f
00000260: ba00 803f 7624 803f bc0f 803f def8 7f3f
00000270: 2614 803f b516 7f3f 099a 7f3f 72e7 7f3f
00000280: 47f3 7f3f c11b 803f 08e8 7f3f 9e0b 7f3f
00000290: c10d 803f 8816 803f 02eb 7f3f e02e 803f
000002a0: 3336 803f 7205 803f 5ede 7f3f ee1d 803f
000002b0: 9b1e 803f 2205 803f b7a0 7f3f 89cc 7f3f
000002c0: 61f1 7f3f fe1c 803f b8e3 7f3f 9508 803f
000002d0: de0a 803f c90c 803f 7db9 7f3f b28a 7f3f
000002e0: 091f 803f 8806 803f 6711 803f a710 803f
000002f0: b148 803f ebf9 7f3f edd5 7f3f 0106 803f
00000300: aaf7 7f3f f344 7f3f 8c15 803f adc3 7f3f
00000310: 3201 803f 4e0d 803f d7ec 7f3f ff1b 803f
00000320: fc02 803f dc25 803f 6ce0 7f3f 9014 803f
00000330: aceb 7f3f 310a 803f c1e7 7f3f ac05 803f
00000340: 121d 803f 5ef1 7f3f 72d2 7f3f 99b7 7f3f
00000350: cf9a 7f3f 9945 803f 0c04 803f 5205 803f
00000360: 602d 7f3f f2d1 7f3f c0e1 7f3f 520e 803f
00000370: 561e 803f dc1e 803f 94ff 7f3f 4215 803f
00000380: 18ad 7f3f f8a2 7f3f 43f1 7f3f 1b14 803f
00000390: 40a1 7f3f 760b 803f 7ef9 7f3f 085a 7f3f
000003a0: 4d19 803f 5d18 803f 27fb 7f3f c6f3 7f3f
000003b0: a1e8 7f3f 05fb 7f3f dbdd 7f3f 0fb3 7f3f
000003c0: 5228 803f c103 803f dbd1 7f3f 1fc8 7f3f
000003d0: 313e 803f eb04 803f d4dc 7f3f 25d6 7f3f
000003e0: ef1a 803f 5221 803f cfeb 7f3f 8638 803f
000003f0: 631b 803f 6307 803f e713 803f e71c 803f
1.0001158 0.9966386 1.0004972 0.9991094 0.99982256 1.0011591 0.99809974 0.99895215
0.999798 0.9993992 0.9944127 0.99977356 1.0005218 1.0006356 0.99844134 0.99970466
0.99955475 1.0007898 1.001057 0.99932617 0.9998157 0.9988866 0.99974155 1.000128
1.0020312 0.99981225 0.9996548 1.0019372 1.0010363 0.9994402 1.000869 1.0010443
1.0006212 1.0009354 0.9986764 0.9992751 1.0005026 0.9999757 0.99892205 1.0004418
1.0012325 0.998513 0.99998206 0.9997002 0.9970026 1.0006554 1.0008682 0.999431
0.9987466 0.99760604 1.0014275 1.0004519 1.0004857 1.0011448 0.9980369 1.000501
0.99927133 0.99953395 1.0010935 1.0017625 1.0004206 0.9982296 1.0015712 0.99941707
0.99874985 1.0004328 1.000762 1.0001318 0.99888074 0.99989486 0.99866503 1.0008495
1.0014879 1.0009013 1.001572 0.9996359 0.99979335 0.9985959 0.99964494 1.0011313
1.0002093 1.001367 1.0014423 1.0033911 0.99884325 0.99952936 0.999485 1.0014116
0.99898744 0.9985906 1.0009844 1.001027 1.0018729 1.000003 1.0017865 1.0000502
0.9994145 1.0023243 0.99992794 1.0009156 1.0006915 1.0011152 1.000455 1.0000627
0.9987246 1.0014759 1.000042 1.0006657 0.9992615 0.9985499 0.99905294 1.0002036
0.99890095 0.9985592 0.9997469 1.001759 0.9982366 0.9998187 1.0005383 1.0002147
0.999519 1.0002898 1.0003426 1.0002136 0.9989196 0.9983781 0.99722075 0.99981195
0.9986961 0.9992701 0.99973893 0.99996 1.0004941 1.0015614 1.0001849 0.9989442
0.9978099 0.9984081 0.99945307 0.99838984 0.9994728 1.0022689 1.0003352 1.0013689
1.0003015 0.9978383 1.0016303 1.0011694 1.0002537 1.000779 0.99982125 1.00176
1.0000222 1.0011127 1.0004802 0.99989116 1.0006149 0.99644023 0.99844414 0.9996253
0.99980587 1.000847 0.99963427 0.996271 1.0004197 1.0006876 0.9996797 1.0014305
1.001654 1.0001662 0.9994868 1.0009134 1.000934 1.0001566 0.99854606 0.9992147
0.9997769 1.0008848 0.99956846 1.0002619 1.0003316 1.0003902 0.9989241 0.9982101
1.0009471 1.0001993 1.0005311 1.0005082 1.0022184 0.9999072 0.999358 1.0001832
0.9998728 0.99714583 1.0006576 0.9990795 1.0000365 1.000406 0.99970764 1.0008544
1.0000911 1.0011554 0.99951816 1.0006275 0.9996898 1.000311 0.99963003 1.0001731
1.0008872 0.9997767 0.9993049 0.9988952 0.99845594 1.002124 1.0001235 1.0001624
0.9967861 0.99929726 0.9995384 1.000437 1.0009258 1.0009418 0.99999356 1.0006487
0.99873495 0.99858046 0.9997751 1.0006136 0.9985542 1.0003498 0.9999007 0.9974675
1.0007721 1.0007435 0.99992603 0.99981344 0.9996434 0.999924 0.999479 0.99882597
1.0012305 1.0001146 0.9992959 0.99914736 1.0018979 1.0001501 0.9994633 0.99936134
1.000822 1.0010169 0.9996919 1.001725 1.0008358 1.0002254 1.0006074 1.000882

bn1.bias f4 [512]
00000000: 774b 263b adf5 05bb f43a e6ba 03fd e53a
00000010: b54c 78ba f563 cc39 ae25 6abb 8d0c 2a3b
00000020: 6f73 3b3b ae71 edba 86ae 0abb d560 193b
00000030: 9290 8abb b64c 85bb a067 d539 9353 933a
00000040: b623 003b c25b 613b 79c6 833b ccce 393b
00000050: a1bd 38bb 6378 0e3b 6f2d daba 66cb 8339
00000060: 05d8 2a3a 5192 333b 6411 efba a438 40bb
00000070: bdf7 ab3b 807e 98b9 8db4 19bb e369 b23b
00000080: 9d24 62b9 e834 24ba eff5 623b 09f7 023b
00000090: 38f8 6bbb 9338 023b 5447 feba 860b 6439
000000a0: af64 3139 2a0b a4bb 3be5 613b 7f4e 2abb
000000b0: 294d a63a 30f1 ad3b 7175 c1ba 457e f8b9
000000c0: 16ea 90ba a64b 5e3b f094 2d3a d450 2c3b
000000d0: 5a69 a5ba 749e ae3a 87fd c0ba 3bae 23bb
000000e0: c44b 38b9 6b3c af3b d3a9 253b 96a3 093b
000000f0: 8a58 803a 89ce fa3a b46e 3c39 7de4 0a3b
00000100: 3b90 71bb 6898 d73a d6ed d53a 2bfc 78ba
00000110: 64cf 49bb 1fe7 a0bb f31d 34b8 f821 093b
00000120: 95d9 ffba 2ca6 d1b9 b933 6a3b 25c8 493a
00000130: 5062 0aba 626c e2ba 8941 9d39 5f12 71bb
00000140: 30cc 0fbb af64 44bb ba80 623b db04 94bb
00000150: d478 ec3a 772e 2bbb bbec 243b c0ba 9cba
00000160: 9671 113a 55ba 2dbb 7735 813b 2b3c 253b
00000170: 2f59 71bb 6cb6 b5b9 4ff4 363a 5522 ff39
00000180: bc36 e039 8bf0 95bb c9d7 f83a fbc6 7b3a
00000190: 7f0e b93a db5f 4dbb 1466 68bb 168c a53b
000001a0: e19c 5dbb fb2b ff3a 15d4 963b def2 ccbb
000001b0: 2f9f c73a 8033 b3ba b905 6ebb b36d 9ebb
000001c0: edfb c03a cc4e 03ba d911 91bb b7a7 9eba
000001d0: dcd2 29bb 7c0d b73a 8bb7 79bb 3ea0 153b
000001e0: 3be9 fbba 3c1e f13a bb66 34bb 8567 dcba
000001f0: d2e3 c13a 1c95 8aba a154 40bb 4719 753b
00000200: ff61 02bb 503e dc3a 9ed3 0439 fa01 97ba
00000210: c3de dfba 4c50 77ba be66 abbb c35d ac3b
00000220: 2c84 00ba ba17 353b b311 e637 fe43 d2ba
00000230: 72ce e53a 6309 6938 3a7c 83bb 33e4 0cbb
00000240: e563 983b 7324 a9bb 7962 223b 9594 843b
00000250: ec06 25b9 fda0 003b 7af5 ffba d90a 083b
00000260: b6ad 2939 148c eeba 23e6 c03a dd18 f139
00000270: 049a 113b 8324 c6b9 a656 94b9 33bf abba
00000280: b317 2f3a 5eda 543a 5a9c 0cbb f473 72bb
00000290: b193 913b 2a15 353a f20b 393b 8923 97ba
000002a0: abc8 333b 718d 603b 64fb 9db9 1f1b cd39
000002b0: e8a4 84bb 70fc b3ba 2b42 6bbb a4b1 b0bb
000002c0: bc05 03bb 1dc1 46bb 86ff 2fba da74 873b
000002d0: 760d 893a 89a2 023b 2fca a7ba 902f b53b
000002e0: b3a7 243b 3311 8cbb a89a 65bb cbbf 543b
000002f0: 5340 b23a 86d6 823b 2d6c 07bb 95c3 4abb
00000300: d30b ad3a faf1 d03a 0b28 8e3b 9b6b 5ebb
00000310: da18 7e3b c0f5 9eba 70cc 04bb cdaa 1bbb
00000320: 1872 99ba 3747 dfba f747 b53a 2032 6d3b
00000330: 7149 eeb8 c70a 3cbb 1437 a43b 3179 faba
00000340: 635a d13a 855c 73ba de2d 37bb 38f4 b13b
00000350: 07f7 4e3b 625f 453a df6b 51bb b665 9eba
00000360: 9823 25bb 22c3 153b ddb0 2ebb 96e7 c33a
00000370: 7ed4 05bb f3e1 4cbb 0a4f 36bb 91fa 933a
00000380: 3221 e5ba 78fb 72bb 2c1a 6dbb a8e6 6d3b
00000390: 162f 1e38 7bdd 253b 60d4 74bb 7786 083b
000003a0: 00a1 6bba aa5d 98ba b3e7 01bb cfbe 21bb
000003b0: 9a7e 63bb 1945 483b e1d0 8dbb daee 183a
000003c0: f0ea 16ba 1110 62ba c012 023b ed9e 0ebb
000003d0: fb8f 11bb cfcf ccba f8d5 b9ba dee3 a83b
000003e0: fd9a f739 7c00 4ebb 6d82 0c3b 44a4 9fbb
000003f0: 432a 1abb ca48 7c3b 978d 82bb 6d88 9abb
0.002537457 -0.0020440624 -0.0017565177 0.0017546717 -0.00094718795 0.00038984386 -0.0035728025 0.0025947422
0.002860274 -0.0018115544 -0.0021161153 0.0023403664 -0.00422866 -0.0040679825 0.00040703733 0.0011240117
0.0019552535 0.0034386967 0.0040214625 0.002835202 -0.00281892 0.0021739237 -0.001664562 0.0002513781
0.0006517175 0.0027400444 -0.0018239436 -0.0029330635 0.0052480386 -0.0002908595 -0.0023453564 0.0054447516
-0.00021566679 -0.0006263987 0.003463145 0.001998367 -0.0036006104 0.0019870147 -0.001939992 0.00021748067
0.00016917543 -0.0050062137 0.0034468907 -0.0025986729 0.001268779 0.005308293 -0.0014759732 -0.00047396324
-0.0011056091 0.0033919602 0.00066216197 0.0026293295 -0.0012619898 0.0013322369 -0.0014723995 -0.0024975676
-0.00017575832 0.0053477786 0.0025278225 0.0021002046 0.0009792012 0.0019135039 0.00017970317 0.0021193319
-0.003685965 0.0016448619 0.0016321491 -0.0009498025 -0.003079378 -0.0049103643 -4.2943237e-05 0.0020924788
-0.00195198 -0.00039987394 0.0035736396 0.00076973654 -0.0005278932 -0.0017274732 0.000299942 -0.0036784632
-0.0021941774 -0.0029967239 0.003456159 -0.0045171804 0.0018041381 -0.0026120225 0.0025165516 -0.0011957511
0.00055482367 -0.0026508768 0.003943141 0.0025212865 -0.003682684 -0.00034658925 0.0006979154 0.0004866297
0.0004276539 -0.004575794 0.0018985207 0.00096045405 0.00141187 -0.0031337652 -0.0035461234 0.0050521
-0.003381543 0.0019468063 0.004602919 -0.006254538 0.0015229936 -0.0013671964 -0.003631933 -0.0048348545
0.0014723517 -0.0005008995 -0.0044271764 -0.0012104426 -0.0025913035 0.0013965811 -0.0038103785 0.0022831107
-0.0019219288 0.0018395851 -0.0027527052 -0.0016815519 0.0014792627 -0.0010573003 -0.0029347318 0.00373991
-0.0019894836 0.0016803239 0.00012667335 -0.0011520975 -0.0017079938 -0.00094342674 -0.0052307537 0.0052602007
-0.00049025076 0.002763255 2.7426378e-05 -0.0016041992 0.0017532839 5.556027e-05 -0.0040126117 -0.0021498322
0.00465058 -0.005161816 0.0024777933 0.0040460327 -0.00015738205 0.0019627206 -0.0019528114 0.0020758419
0.00016181808 -0.0018199706 0.0014717024 0.00045985627 0.0022217045 -0.00037792706 -0.00028293318 -0.0013103246
0.00066792517 0.00081196974 -0.0021455497 -0.0036995383 0.004442655 0.0006907756 0.002823588 -0.0011530976
0.002743284 0.0034263993 -0.00030132674 0.00039120854 -0.0040479787 -0.0013731848 -0.0035897593 -0.00539227
-0.0019992432 -0.0030327507 -0.0006713796 0.004133803 0.0010456282 0.0019933304 -0.0012801344 0.0055293515
0.002512437 -0.0042745112 -0.003503481 0.003246295 0.0013599492 0.0039928583 -0.0020663843 -0.003093933
0.0013202376 0.0015941255 0.0043382696 -0.003393865 0.0038772137 -0.0012127683 -0.0020263456 -0.0023752928
-0.0011706976 -0.0017034773 0.0013830651 0.0036193207 -0.00011362404 -0.0028692947 0.0050114486 -0.0019109604
0.0015972372 -0.0009283501 -0.0027950923 0.0054307245 0.0031580345 0.0007529167 -0.0031955165 -0.0012084756
-0.0025198217 0.0022851904 -0.0026655712 0.0014946337 -0.0020420845 -0.0031262606 -0.0027818107 0.0011289885
-0.0017481206 -0.0037076157 -0.003617893 0.0036300812 3.7713988e-05 0.0025309015 -0.003735803 0.00208321
-0.00089885294 -0.0011624594 -0.0019821941 -0.0024680381 -0.0034712912 0.0030558764 -0.004327879 0.00058339315
-0.00057570543 -0.000862361 0.0019847602 -0.0021762208 -0.0022211063 -0.0015625897 -0.0014178148 0.005154117
0.00047226986 -0.0031433394 0.0021440045 -0.004871877 -0.0023523725 0.0038495534 -0.003984164 -0.0047159703
