data/rl4wound_paper_res/ctr/models_map524/mapper_ctr_True_ep_7924.pth (torch, 143266 bytes, 17 tensors)

Amat f4 [4, 4]
0.062159363 0.0 0.0 0.0 0.08271832 0.14821744 0.0 0.0
0.0 0.15059571 0.044055738 0.0 0.0 0.0 0.03899881 0.0
00000000: d19a 7e3d 0000 0000 0000 0000 0000 0000
00000010: 3968 a93d 50c6 173e 0000 0000 0000 0000
00000020: 0000 0000 c335 1a3e ca73 343d 0000 0000
00000030: 0000 0000 0000 0000 37bd 1f3d 0000 0000

fc11.weight f4 [64, 5]
1.1841697 0.013287946 0.014395507 -0.1257294 -0.31869164 -0.31752124 0.116337374 0.20699549
0.21571237 0.9089576 -0.1351538 -0.08790672 -0.42724484 -0.29618156 -0.18435177 2.52057
0.3115482 0.30680197 -0.2877188 -0.5845571 -0.15616824 0.21892236 0.12389643 0.5761024
-0.563516 1.954054 0.13480388 -0.05749663 -2.0294273 -0.4014496 1.9586058 0.18056287
0.001132985 -1.7346163 -0.569281 -0.9334436 -0.020845097 0.103120506 0.10032715 0.75027496
2.045768 -0.0015630686 -0.00851223 -0.21903309 -0.5560911 -0.23055202 0.28216404 0.26221085
-0.198337 -0.016136527 1.9882958 0.38927576 0.34605414 -0.12823279 1.0970702 -0.2633204
0.08333558 -0.34672716 -0.30995756 -0.23102319 1.4081272 -0.003584989 -0.13430387 -0.12930153
0.5182749 -0.73435724 0.007835388 0.05806965 0.7064138 0.7202386 0.41260585 0.033472814
0.07627186 0.81005454 0.2878442 1.920422 -0.12126931 -0.18171512 -1.5688807 -0.3415456
0.6706202 0.4194994 0.41397896 -0.35315254 0.54006493 -0.8942473 -0.122591704 -0.12155928
0.8495638 0.23808 -0.44628683 0.2829209 0.35367244 0.46829778 -0.86800903 1.4565244
0.23536325 0.23830295 -0.13310157 -0.4888933 2.3586893 0.13332237 0.0887302 -1.7962749
-0.4260148 -0.008038282 -0.33677816 -0.3449612 -0.024641305 0.0671469 -0.8073774 0.12589368
-0.16713877 0.95179796 0.55595547 -1.047983 -0.12695108 -0.018659692 0.663466 0.1173947
1.1481707 -0.029684689 -0.03302348 0.48084706 -0.123120315 2.2416844 -0.17438647 -0.17122105
-0.20211089 -0.89046466 -0.28769365 -0.11533156 -0.14178501 -0.098144375 1.1425412 -0.62195385
-0.035558835 -0.03954332 -0.00779093 0.9079582 2.9382255 0.407199 0.43804473 0.17991866
-0.123851895 2.005089 0.23846434 0.20707703 -1.6234108 -0.34422025 -1.1028152 -0.2075872
-0.19003662 0.7357547 0.075805664 -1.0470291 0.053188007 -0.15310362 0.21086776 0.31554934
-0.086140156 -0.08780712 -0.4013071 -0.38614115 -0.06997976 1.5556588 -0.03915656 0.13055086
-0.9186197 0.7673253 -0.28644705 0.06326333 0.19995464 0.51464117 -0.42177993 0.12899493
-0.12183882 -0.120119 0.62755334 -0.97119445 -0.23840566 0.023114681 0.2084541 0.6251435
0.56248075 1.3605338 -0.030972729 -0.029938234 -0.2134973 0.7727792 1.2973251 0.07197999
0.06773255 -0.027641553 -1.0150319 -0.246184 -0.26059383 0.15283304 -0.26650047 -0.0097569525
0.018813431 0.28828418 -0.33805773 -0.3070176 -0.25967973 0.51039773 0.1918815 0.19363044
0.3940489 0.13072895 -0.0033290684 -0.08840588 0.056110263 -0.10211885 -0.003142327 -1.0433668
-0.28925535 -0.27470726 0.72295964 -1.0240871 2.1263702 0.40390414 0.3039998 -0.13354626
-0.08024087 1.372721 -0.3028764 -0.21921147 -0.18616356 0.47932065 -0.5708788 0.2909384
0.12278576 0.95399433 0.47830796 -0.2827347 0.20057714 -0.31613353 -0.18954036 0.13153565
0.1476664 0.33551216 -0.14396515 0.0007159412 0.23023611 -0.43249676 0.32332677 -0.36981094
0.0061637163 -0.0760338 -0.23553531 0.059108675 0.36980927 -0.13072926 -0.26550806 -0.6344308
00000000: df92 973f afb5 593c 22db 6b3c 35bf 00be
00000010: 8d2b a3be 2592 a2be 4a42 ee3d a0f6 533e
00000020: b4e3 5c3e 72b1 683f c265 0abe 7008 b4bd
00000030: d6bf dabe 1ca5 97be b6c6 3cbe 0551 2140
00000040: 3f83 9f3e 2615 9d3e e14f 93be 89a5 15bf
00000050: 91ea 1fbe 2f2d 603e 69bd fd3d 727b 133f
00000060: 9642 10bf 711e fa3f 070a 0a3e 9681 6bbd
00000070: 23e2 01c0 cd8a cdbe 98b3 fa3f 79e5 383e
00000080: ab80 943a e807 debf 66bc 11bf 29f6 6ebf
00000090: 56c3 aabc d830 d33d 5278 cd3d 0512 403f
000000a0: dded 0240 e1df ccba e176 0bbc 364a 60be
000000b0: fd5b 0ebf d415 6cbe ce77 903e 8040 863e
000000c0: db18 4bbe c030 84bc 7a80 fe3f 274f c73e
000000d0: 022e b13e 754f 03be cc6c 8c3f eed1 86be
000000e0: d8ab aa3d 3986 b1be c2b2 9ebe 5891 6cbe
000000f0: 833d b43f 23f2 6abb f486 09be 9f67 04be
00000100: aaad 043f d6fe 3bbf 0060 003c 71da 6d3d
00000110: 89d7 343f 8f61 383f 1341 d33e ca1a 093d
00000120: 6c34 9c3d bc5f 4f3f 5160 933e 63d0 f53f
00000130: 0b5c f8bd 8713 3abe 15d1 c8bf 11df aebe
00000140: c4ad 2b3f a0c8 d63e 0df5 d33e 69d0 b4be
00000150: b241 0a3f 64ed 64bf 5c11 fbbd 12f4 f8bd
00000160: 037d 593f 3ecb 733e b57f e4be 02db 903e
00000170: 8e14 b53e bac4 ef3e d735 5ebf 646f ba3f
00000180: 1003 713e b005 743e c74b 08be 3950 fabe
00000190: c4f4 1640 a985 083e 2eb8 b53d 56ec e5bf
000001a0: 9d1e dabe 00b3 03bc 306e acbe c19e b0be
000001b0: 90dc c9bc 5084 893d 49b0 4ebf 46ea 003e
000001c0: 6d26 2bbe 08a9 733f 1953 0e3f 4f24 86bf
000001d0: 77ff 01be 36dc 98bc e8d8 293f a26c f03d
000001e0: 42f7 923f 4e2d f3bc a143 07bd 9631 f63e
000001f0: 8126 fcbd c277 0f40 5e92 32be 9254 2fbe
00000200: 28f6 4ebe 7ef5 63bf 954c 93be f432 ecbd
00000210: 1730 11be ebff c8bd ca3e 923f 5e38 1fbf
00000220: 24a6 11bd 2df8 21bd 0f4b ffbb f36f 683f
00000230: e30b 3c40 637c d03e 6647 e03e 993c 383e
00000240: 10a6 fdbd 6153 0040 ff2f 743e 000c 543e
00000250: edcb cfbf a33d b0be 0c29 8dbf bd91 54be
00000260: f698 42be 6c5a 3c3f 0040 9b3d 0d05 86bf
00000270: abdb 593d 32c7 1cbe b8ed 573e af8f a13e
00000280: 406a b0bd 38d4 b3bd 2078 cdbe 4bb4 c5be
00000290: 8c51 8fbd d41f c73f a162 20bd 20af 053e
000002a0: a92a 6bbf 6e6f 443f 30a9 92be 3490 813d
000002b0: e9c0 4c3e 86bf 033f 8af3 d7be 3f17 043e
000002c0: a286 f9bd f300 f6bd 56a7 203f 33a0 78bf
000002d0: 9d20 74be 005b bd3c fe74 553e 6809 203f
000002e0: bdfe 0f3f f925 ae3f 85ba fdbc 0741 f5bc
000002f0: 099f 5abe dcd4 453f c00e a63f 3f6a 933d
00000300: 5db7 8a3d 8a70 e2bc 91ec 81bf a917 7cbe
00000310: 8e6c 85be 4480 1c3e c072 88be a0db 1fbc
00000320: a01e 9a3c fc99 933e e715 adbe 6931 9dbe
00000330: bef4 84be 6da9 023f 957c 443e 0f47 463e
00000340: c7c0 c93e cfdd 053e 802c 5abb 240e b5bd
00000350: e0d3 653d b023 d1bd 80ef 4dbb 0b8d 85bf
00000360: 4719 94be 6ea6 8cbe e213 393f 4915 83bf
00000370: 7316 0840 86cc ce3e dda5 9b3e 5ac0 08be
00000380: 5355 a4bd 52b5 af3f 9e12 9bbe f978 60be
00000390: a9a1 3ebe 8469 f53e 1d25 12bf e1f5 943e
000003a0: 1a77 fb3d f938 743f c8e4 f43e 9ac2 90be
000003b0: 1864 4d3e 41dc a1be de16 42be 48b1 063e
000003c0: dc35 173e 40c8 ab3e 9a6b 13be 00ae 3b3a
000003d0: 04c3 6b3e 3770 ddbe 168b a53e dc57 bdbe
000003e0: 00f9 c93b 9cb7 9bbd 2b30 71be f01b 723d
000003f0: a457 bd3e e4dd 05be acf0 87be 0f6a 22bf

fc11.bias f4 [64]
0.6584303 0.06305086 -0.35157594 1.1887785 0.15285733 0.77146816 0.6251999 0.06707274
1.0631003 -0.2175603 -0.056524 -0.3845684 0.45318404 0.73437476 -0.14620137 0.3145812
0.898906 0.89438874 0.44682086 0.7271516 0.3206283 -0.15694588 0.77715313 1.0480757
-0.26443157 1.575714 0.2801402 0.62242466 -0.038991667 0.770462 0.4589553 1.0466481
-0.08047187 0.5769572 -0.058237545 0.1732713 0.23831615 0.7376321 -0.35583186 0.101005435
-0.30258107 -0.50135046 -0.35913745 0.4774761 0.3892788 0.8105685 0.5723193 -0.39938205
-0.30519247 -0.07226193 -0.29043496 0.41096574 -0.1865043 -0.12225817 -0.4320492 -0.25390354
0.7925984 0.7592864 0.5051571 0.34831932 0.8003308 -0.064870976 0.51076645 0.67453295
00000000: e38e 283f cf20 813d c301 b4be e529 983f
00000010: a286 1c3e f07e 453f 1a0d 203f 6f5d 893d
00000020: ac13 883f 21c8 5ebe b685 67bd 26e6 c4be
00000030: bd07 e83e fcff 3b3f d0b5 15be c910 a13e
00000040: b41e 663f a9f6 643f b4c5 e43e 9b26 3a3f
00000050: 6429 a43e 6cb6 20be 82f3 463f 5827 863f
00000060: 9363 87be ffb0 c93f 896e 8f3e 3957 1f3f
00000070: bab5 1fbd ff3c 453f 30fc ea3e 91f8 853f
00000080: 70ce a4bd 78b3 133f 7e8a 6ebd 086e 313e
00000090: 2609 743e 75d5 3c3f 982f b6be f0db ce3d
000000a0: e8eb 9abe 8158 00bf dde0 b7be bf77 f43e
000000b0: 8d4f c73e 6b81 4f3f 8583 123f ce7b ccbe
000000c0: 3042 9cbe 10fe 93bd e4b3 94be 1a6a d23e
000000d0: fcfa 3ebe 7e62 fabd 8e35 ddbe a5ff 81be
000000e0: bbe7 4a3f 9860 423f fa51 013f e956 b23e
000000f0: 7be2 4c3f 13db 84bd 97c1 023f 31ae 2c3f

fc12.weight f4 [128, 64]
0.024121132 0.18821856 0.064832866 0.32584232 -0.035116233 0.08747005 0.038271237 -0.04539589
-0.043037467 -0.07013957 -0.1743744 0.08391629 0.10685845 0.013415213 -0.050685015 0.084767506
0.21775545 -0.024143357 -0.024254438 0.18229254 0.043828987 -0.09489317 0.13168375 0.09465136
-0.06271904 0.16379651 0.013480162 0.07310404 0.35544395 0.027814126 -0.12134887 -0.04511486
-0.033930644 0.031023541 0.027268004 0.0655503 0.056797013 0.026533296 -0.06657365 0.059935898
0.062005028 -0.079947606 -0.022367805 -0.18483052 0.056743044 0.058566075 -0.068644404 0.04646586
0.106097266 0.008198544 -0.08331096 -0.08943655 0.034032453 -0.07962333 0.06210129 -0.1134837
-0.17308876 -0.050789405 0.023887284 0.09046708 -0.08716251 0.15056463 -0.12933648 0.058546007
-0.052326377 -0.08754541 0.10366613 0.08051854 0.09865757 0.068264276 -0.05555063 0.15252696
-0.04432963 0.059277058 -0.05561525 -0.035953313 -0.15389104 -0.07065933 0.0011824497 -0.12481495
0.21975525 -0.026974672 0.09773677 0.018386178 -0.1354758 -0.038564578 0.003024625 0.14920354
-0.16555654 0.05160643 0.03252578 -0.19667101 -0.046103176 0.09373793 -0.18829045 0.06555468
-0.08824152 -0.08528575 -0.05061408 -0.030821731 0.006791813 0.03265338 -0.16121866 0.06916782
0.0040195137 -0.07764607 -0.027178958 -0.0854528 0.07941593 -0.087453425 0.069974095 -0.01359126
-0.1047432 -0.06763223 0.110602215 0.15281999 -0.13484184 0.03238026 0.0626449 0.07398981
-0.032727893 -0.03771832 0.31395984 0.03153282 -0.057700545 0.04612263 0.055145614 0.08997756
-0.0020528894 -0.12463195 0.03146863 -0.088823915 -0.024905745 -0.045708016 0.040473837 -0.060314786
-0.13036375 -0.030148372 0.035973724 -0.090549275 -0.035507403 -0.08357251 0.016809635 0.044564087
-0.078515336 -0.042272903 0.19361567 0.31503972 -0.043516286 -0.10133374 -0.08824192 0.015789371
-0.14753923 -0.10866679 -0.08938156 -0.037541695 -0.20690635 -0.018763153 -0.075638995 -0.007014765
0.017173186 -0.083599664 -0.10132296 0.101089716 -0.110546045 0.036632486 0.010539135 -0.11983265
0.12317312 -0.23279554 0.023965418 0.11375622 -0.09063591 -0.008141802 0.07667749 0.0059746206
-0.12170182 -0.07379502 -0.042612538 0.1905946 -0.15596959 0.0154465 -0.027841166 -0.022445247
0.13996635 0.07414198 0.29080212 0.10051557 -0.008637332 -0.14704557 -0.09295477 0.120810695
-0.010498409 -0.14445335 0.051241055 -0.104102075 -0.008210596 -0.064690426 -0.07205575 -0.0052132057
-0.07160881 -0.063123405 0.07649313 0.047469854 0.120543145 0.11684148 -0.041671816 -0.06641705
0.16879232 0.19927193 0.07686788 0.124869995 -0.06420254 0.11575197 0.14665501 0.18917897
-0.061537683 -0.9417882 -0.078930885 0.21303979 -0.1661043 0.038404092 0.10682268 0.02870933
-0.061565265 0.010056345 -0.007095204 -0.0050823577 0.08517404 0.081575945 0.40229654 0.108722955
0.063039556 -0.13992427 0.10635713 0.15620738 -0.011358289 0.22133087 0.039192785 -0.1219601
-0.035586447 -0.085145935 0.10959412 0.16555943 -0.252249 -0.034600522 0.07850161 0.032475054
0.11617274 0.007182147 -0.08610641 0.0070543634 -0.0039720447 -0.18553719 -0.051970296 0.10819467
00000000: ae99 c53c 5ebc 403e 18c7 843d ced4 a63e
00000010: 0ad6 0fbd 7f23 b33d 4dc2 1c3d 0af1 39bd
00000020: 0e48 30bd 56a5 8fbd 348f 32be 4edc ab3d
00000030: 9ad8 da3d 7bcb 5b3c 179b 4fbd 969a ad3d
00000040: 49fb 5e3e 4ac8 c5bc 3eb1 c6bc e5aa 3a3e
00000050: 0686 333d 5a57 c2bd 1bd8 063e 92d8 c13d
00000060: d772 80bd 46ba 273e e6db 5c3c 92b7 953d
00000070: c0fc b53e 73da e33c c285 f8bd 5cca 38bd
00000080: dcfa 0abd 1525 fe3c 2661 df3c 3c3f 863d
00000090: fca3 683d 5b5c d93c c457 88bd 587f 753d
000000a0: fcf8 7d3d 92bb a3bd b03c b7bc 3644 3dbe
000000b0: 656b 683d fbe2 6f3d 7095 8cbd fc52 3e3d
000000c0: 8649 d93d 3053 063c f09e aabd 832a b7bd
000000d0: 9d65 0b3d 8e11 a3bd ec5d 7e3d 246a e8bd
000000e0: 2e3e 31be 8d08 50bd 44af c33c ce46 b93d
000000f0: 4282 b2bd 9d2d 1a3e c870 04be f0cd 6f3d
00000100: 2f54 56bd 024b b3bd e84e d43d e8e6 a43d
00000110: fb0c ca3d 24ce 8b3d 0f89 63bd 0730 1c3e
00000120: fc92 35bd 80cc 723d d1cc 63bd c843 13bd
00000130: 9d95 1dbe d7b5 90bd 6efc 9a3a fb9e ffbd
00000140: 8507 613e fdf9 dcbc 372a c83d 9c9e 963c
00000150: 2bba 0abe e4f5 1dbd c938 463b d0c8 183e
00000160: a787 29be 4461 533d c139 053d 2064 49be
00000170: afd6 3cbd acf9 bf3d 36cf 40be 8841 863d
00000180: f8b7 b4bd 4caa aebd b650 4fbd db7d fcbc
00000190: db8d de3b 8dbf 053d 8116 25be dca7 8d3d
000001a0: 20b6 833b e704 9fbd 68a6 debc e101 afbd
000001b0: d2a4 a23d c81a b3bd 944e 8f3d e0ad 5ebc
000001c0: 9a83 d6bd c482 8abd 6a83 e23d d87c 1c3e
000001d0: fb13 0abe 2aa1 043d f84b 803d f887 973d
000001e0: af0d 06bd 867e 1abd 58bf a03e 8f28 013d
000001f0: 6857 6cbd 15eb 3c3d 5ee0 613d 2846 b83d
00000200: c589 06bb 093f ffbd 40e5 003d 50e9 b5bd
00000210: 2207 ccbc 5438 3bbd e5c7 253d a30c 77bd
00000220: 137e 05be b8f9 f6bc 2f59 133d e671 b9bd
00000230: 3670 11bd 1028 abbd 5cb4 893c d588 363d
00000240: a6cc a0bd 5a26 2dbd 3043 463e e34c a13e
00000250: 223e 32bd 1088 cfbd 2eb8 b4bd b658 813c
00000260: 8614 17be b28c debd ae0d b7bd 52c5 19bd
00000270: 42df 53be 2fb5 99bc 9ee8 9abd 1ddc e5bb
00000280: c8ae 8c3c 4d36 abbd 6982 cfbd 2008 cf3d
00000290: f765 e2bd f20b 163d 56ac 2c3c d26a f5bd
000002a0: 3042 fc3d f461 6ebe 2053 c43c 05f9 e83d
000002b0: 529f b9bd 3165 05bc 1609 9d3d c0c6 c33b
000002c0: ce3e f9bd d821 97bd 7c8a 2ebd 3b2b 433e
000002d0: 7eb6 1fbe 5113 7d3c 2813 e4bc 18df b7bc
000002e0: 5753 0f3e c0d7 973d 04e4 943e 1bdb cd3d
000002f0: 9983 0dbc 1d93 16be 125f bebd 996b f73d
00000300: 8501 2cbc 94eb 13be 24e2 513d 7833 d5bd
00000310: bc85 06bc 6a7c 84bd f791 93bd 8ad3 aabb
00000320: a4a7 92bd d846 81bd 6ea8 9c3d c06f 423d
00000330: 53df f63d 964a ef3d 11b0 2abd aa05 88bd
00000340: e5d7 2c3e f10d 4c3e e86c 9d3d d7bb ff3d
00000350: 9f7c 83bd 5e0f ed3d bb2c 163e 22b8 413e
00000360: f00e 7cbd 0819 71bf 84a6 a1bd 1a27 5a3e
00000370: 3f17 2abe 9c4d 1d3d d9c5 da3d d42f eb3c
00000380: dc2b 7cbd 5ec3 243c e37e e8bb e889 a6bb
00000390: ba6f ae3d 4a11 a73d d0f9 cd3e 24aa de3d
000003a0: e21a 813d 4f48 0fbe c4d1 d93d d4f4 1f3e
000003b0: 1e18 3abc 8fa4 623e 9d88 203d 38c6 f9bd
000003c0: 18c3 11bd fe60 aebd e272 e03d 6988 293e
000003d0: c826 81be 47b9 0dbd 74c5 a03d 9004 053d
000003e0: f9eb ed3d 3758 eb3b 8f58 b0bd 4a28 e73b
000003f0: ed27 82bb 76fd 3dbe cede 54bd 2b95 dd3d

fc12.bias f4 [128]
-0.022313733 0.12923506 0.06719341 0.15415353 0.08185565 0.34389868 0.0058282632 0.3052095
0.15241687 0.31009248 0.22274011 -0.051528275 0.06937656 -0.13420549 -0.04619645 0.2238218
0.44048545 -0.026216904 -0.028478667 0.21388213 -0.17825606 0.08098499 0.007164685 -0.12950203
0.249645 0.26721674 0.55067414 0.02798439 -0.0037423444 -0.082328066 -0.08708812 -0.07219645
0.12888904 -0.06433852 0.25216314 -0.1587149 -0.010412527 0.25669938 0.6570972 0.119759776
0.25715372 0.1550386 0.1549724 0.697932 0.05475375 0.19324014 0.3596299 0.27839684
0.11410484 0.17389318 0.45403916 -0.15218948 0.32560027 0.3442262 -0.2577924 0.143945
0.12518397 0.010300264 -0.037160546 0.13770756 0.11109662 0.40933186 -0.041882172 0.16371424
-0.080191836 0.522754 -0.07044423 -0.13070984 0.31309053 0.24141142 -0.0645796 0.05877179
-0.030085856 0.1614204 0.053466648 0.11857045 0.12257405 0.37773514 0.030250318 0.032422915
-0.077921264 0.16498806 -0.1136656 0.0809851 0.05736541 0.021576842 0.005922832 0.18925653
0.06932773 0.34565198 0.07453528 0.39617598 0.33249375 -0.028867517 -0.17432715 -0.123861775
0.09795794 -0.020356465 -0.12287876 0.2137701 0.21197031 0.24344936 0.05960677 -0.0067074294
0.22618525 0.24556014 0.47706345 -0.1740505 0.01663702 0.44931832 -0.0014008845 -0.07895625
0.16323912 -0.081839874 0.41725495 -0.2479966 0.14685254 0.35391113 0.058456622 0.26656112
0.3174965 -0.13240397 0.09432091 -0.25859326 0.048171077 -0.023772469 -0.03736171 -0.052623697
00000000: 4acb b6bc 3256 043e b39c 893d 6cda 1d3e
00000010: efa3 a73d 7d13 b03e 04fb be3b 6b44 9c3e
00000020: 2b13 1c3e 71c4 9e3e fc15 643e 500f 53bd
00000030: 4c15 8e3d 2a6d 09be 7d38 3dbd 8b31 653e
00000040: 4f87 e13e d5c4 d6bc 184c e9bc eb03 5b3e
00000050: c288 36be 75db a53d bcc5 ea3b 2e9c 04be
00000060: f0a2 7f3e a2d0 883e fbf8 0c3f 853f e53c
00000070: 1f42 75bb 9e9b a8bd 425b b2bd bbdb 93bd
00000080: 7dfb 033e eac3 83bd 871b 813e 2986 22be
00000090: 4e99 2abc 1a6e 833e 8637 283f 9d44 f53d
000000a0: a7a9 833e 70c2 1e3e 16b1 1e3e acab 323f
000000b0: 7845 603d bee0 453e 6921 b83e 088a 8e3e
000000c0: ccaf e93d 0e11 323e d277 e83e 8fd7 1bbe
000000d0: 14b5 a63e 6b3e b03e 5efd 83be 5166 133e
000000e0: 3a30 003e 70c2 283c a835 18bd 3603 0d3e
000000f0: a086 e33d f293 d13e a48c 2bbd b5a4 273e
00000100: 9e3b a4bd 35d3 053f 1145 90bd cdd8 05be
00000110: 674d a03e 8e34 773e 4f42 84bd b0ba 703d
00000120: 9d76 f6bc 644b 253e d8ff 5a3d 10d5 f23d
00000130: 1b08 fb3d 8066 c13e 84cf f73c e4cd 043d
00000140: 2f95 9fbd a1f2 283e 83c9 e8bd 84db a53d
00000150: fef7 6a3d ebc1 b03c 5114 c23b 77cc 413e
00000160: b2fb 8d3d 4cf9 b03e f4a5 983d 94d7 ca3e
00000170: 9f3c aa3e 927b ecbc d182 32be 3eab fdbd
00000180: 2c9e c83d 9ac2 a6bc dca7 fbbd 8de6 5a3e
00000190: bf0e 593e ca4a 793e 3a26 743d ffc9 dbbb
000001a0: 1b9d 673e 1e74 7b3e a941 f43e 4b3a 32be
000001b0: 5c4a 883c 0d0d e63e e29d b7ba d0b3 a1bd
000001c0: 2828 273e aa9b a7bd 71a2 d53e d2f2 7dbe
000001d0: 8360 163e d733 b53e 3670 6f3d b37a 883e
000001e0: e78e a23e e894 07be 522b c13d 5666 84be
000001f0: 094f 453d 7bbe c2bc 9808 19bd f28b 57bd

fc13.weight f4 [64, 128]
0.053414 0.01647999 -0.019910369 -0.039890043 -0.05082238 -0.005784354 -0.0676909 0.06976793
0.13804366 -0.06539056 -0.030979773 0.050059564 0.08720457 -0.043812245 -0.09926935 0.053943615
0.14155094 -0.008465486 -0.051854648 -0.007064689 0.15159221 0.02242275 -0.10628588 -0.036367055
-0.054662473 0.057689443 -0.008414738 0.065980054 -0.0831463 0.02056761 0.0016384923 0.031272702
0.08589239 -0.034144256 0.01912354 0.007169035 0.019753775 -0.016752118 -0.09054959 0.05551976
0.006096322 -0.00032642213 0.044044584 0.04495676 0.0012782364 0.028347483 -0.055439904 -0.07261759
0.050039984 -0.023129491 -0.1581614 0.028540658 0.111422114 -0.026315248 0.030820323 0.034491125
-0.013219138 0.052665822 0.15226486 -0.012630491 0.025690721 0.048045754 -0.072537005 0.06929096
0.021743884 -0.058787905 0.3080191 -0.040961985 0.11657679 -0.05502877 0.064001076 0.03253418
0.078511484 -0.015570193 0.10191312 -0.04065434 0.09117024 0.004384458 -0.08233542 -0.025502361
-0.067886956 0.10854223 0.018168814 -0.0480074 -0.06668986 -0.0061762403 0.013275906 0.06999659
0.018279372 -0.081229396 0.02408973 0.036184344 -0.106107965 -0.0029627697 -0.07428391 0.016632698
0.069393896 -0.08940039 -0.008733188 0.09819474 0.28842306 0.035402514 0.0048357025 0.0548254
-0.008650975 0.14397192 -0.09148265 0.02090698 0.1246602 0.07775446 -0.07225324 -0.028110608
-0.040235363 0.020757146 -0.053994328 -0.064193726 -0.10029492 -0.05190528 0.032766964 0.102026485
0.084352866 -0.040275544 0.07347637 0.12966551 0.019567696 -0.08485744 -0.024351114 0.0147349965
0.0030058688 0.053934235 0.03589349 -0.054854378 -0.03329499 -0.001492702 -0.047435034 -0.036930062
0.0067467187 -0.026788697 0.049185786 -0.012584314 0.0813374 -0.10175203 0.046613537 0.053732652
-0.08665551 0.011406332 -0.011316083 0.057398684 0.059574954 -0.057905834 -0.04837901 -0.06351888
0.068007775 -0.10631167 -0.08525396 0.07962725 0.04609459 0.05082349 0.07791162 -0.08726531
-0.048899267 -0.0074519515 0.07258983 -0.04590871 -0.0059180707 0.029315423 0.02218394 -0.07625461
-0.077134274 -0.059800968 0.038408283 0.06801216 0.03985437 0.04350904 0.012530672 -0.016825598
-0.014587037 0.059542187 0.011047829 0.011954191 0.015266386 0.076742 0.0161195 -0.030721644
-0.0324884 -0.053707875 -0.072600976 0.057814967 0.045895647 -0.05674274 0.074563555 -0.029134477
-0.010650081 0.015457052 -0.081906304 -0.054287624 -0.0069843726 -0.045921545 0.04462669 -0.019448848
-0.075319834 -0.09834522 0.0636644 0.016791083 -0.12193811 -0.09322355 -0.058669347 0.080044664
0.048093013 0.0038034194 0.055695273 0.014972173 0.063021325 -0.08632691 0.06945678 0.015377517
0.005106959 0.04276111 -0.017268427 -0.07521112 -0.010689247 -0.06634256 0.00060239434 0.045462273
0.016453885 -0.027641363 0.033439405 -0.095198855 -0.08982323 -0.11256806 0.06591747 -0.09000622
0.036085382 0.034439832 -0.069398805 -0.011983341 0.071719676 -0.0843119 -0.09483602 -0.012958437
-0.024270333 -0.036177736 -0.011605564 0.03512447 0.042204868 0.011942112 0.061116446 -0.06613976
-0.03201262 0.02130375 0.0284255 -0.03333387 0.06153911 -0.067545414 -0.06961792 -0.08268669
00000000: a3c8 5a3d 0b01 873c 121b a3bc be63 23bd
00000010: 212b 50bd ae8a bdbb 87a1 8abd 7de2 8e3d
00000020: 515b 0d3e 7ceb 85bd 4bc9 fdbc 420b 4d3d
00000030: 4f98 b23d 7874 33bd bb4d cbbd fbf3 5c3d
00000040: bbf2 103e d2b2 0abc 8a65 54bd e87e e7bb
00000050: fd3a 1b3e eaaf b73c 69ac d9bd 9ff5 14bd
00000060: c2e5 5fbd c44b 6c3d f8dd 09bc 8d20 873d
00000070: 9b48 aabd 687d a83c aec2 d63a ce17 003d
00000080: 59e8 af3d d9da 0bbd f8a8 9c3c 39ea ea3b
00000090: abd2 a13c bd3b 89bc 1072 b9bd b068 633d
000000a0: a8c3 c73b a323 abb9 1868 343d 9424 383d
000000b0: 7f8a a73a fb38 e83c f414 63bd 88b8 94bd
000000c0: baf6 4c3d 0f7a bdbc 10f5 21be 19ce e93c
000000d0: 4731 e43d 1393 d7bc e77a fc3c 9146 0d3d
000000e0: 1595 58bc 1eb8 573d 52eb 1b3e 1ef0 4ebc
000000f0: 5975 d23c a0cb 443d 488e 94bd 6be8 8d3d
00000100: 3b20 b23c 96cb 70bd aeb4 9d3e c1c7 27bd
00000110: d0bf ee3d d965 61bd ff12 833d 8f42 053d
00000120: a1ca a03d 1f1a 7fbc d3b7 d03d 2a85 26bd
00000130: 76b7 ba3d 80ab 8f3b 799f a8bd 54ea d0bc
00000140: 5108 8bbd 644b de3d c4d6 943c 68a3 44bd
00000150: b194 88bd 0f62 cabb 3083 593c 5f5a 8f3d
00000160: 9fbe 953c 995b a6bd d357 c53c 0936 143d
00000170: 224f d9bd 072b 42bb 2a22 98bd 4c41 883c
00000180: 631e 8e3d 8d17 b7bd a515 0fbc 531a c93d
00000190: 30ac 933e 3a02 113d d074 9e3b 9990 603d
000001a0: d2bc 0dbc 606d 133e 415b bbbd 1d45 ab3c
000001b0: d94d ff3d bb3d 9f3d 82f9 93bd 3848 e6bc
000001c0: d6cd 24bd e40a aa3c 2829 5dbd 0078 83bd
000001d0: 6c67 cdbd a29a 54bd a736 063d 43f3 d03d
000001e0: 32c1 ac3d f8f7 24bd c77a 963d 09c7 043e
000001f0: 6f4c a03c bdc9 adbd fd7b c7bc 0e6b 713c
00000200: 1cfe 443b 25ea 5c3d 0d05 133d fcae 60bd
00000210: 5460 08bd c5a6 c3ba 3d4b 42bd fa43 17bd
00000220: 9413 dd3b f873 dbbc 0977 493d 702e 4ebc
00000230: 3994 a63d 5e63 d0bd d6ed 3e3d c516 5c3d
00000240: 7278 b1bd a0e1 3a3c 1867 39bc e21a 6b3d
00000250: de04 743d ab2e 6dbd 1229 46bd 3016 82bd
00000260: a947 8b3d efb9 d9bd a199 aebd 9d13 a33d
00000270: aecd 3c3d 4b2c 503d 2190 9f3d 28b8 b2bd
00000280: 994a 48bd 802f f4bb faa9 943d c60a 3cbd
00000290: 60ec c1bb e626 f03c 18bb b53c 612b 9cbd
000002a0: 93f8 9dbd dcf1 74bd 0152 1d3d f649 8b3d
000002b0: 563e 233d 8936 323d 734d 4d3c d6d5 89bc
000002c0: 78fe 6ebc 82e2 733d f401 353c 83db 433c
000002d0: dd1f 7a3c e92a 9d3d 0b0d 843c f5ab fbbc
000002e0: 8e12 05bd cafc 5bbd d2af 94bd 63cf 6c3d
000002f0: 13fd 3b3d 136b 68bd c7b4 983d 6dab eebc
00000300: ad7d 2ebc 933f 7d3c 7ebe a7bd b35c 5ebd
00000310: 2add e4bb 3b18 3cbd 7aca 363d 3153 9fbc
00000320: 4941 9abd 3869 c9bd 7b62 823d 748d 893c
00000330: b0ba f9bd fdeb bebd 454f 70bd 75ee a33d
00000340: 2efd 443d ca42 793b ba20 643d d84d 753c
00000350: 5311 813d 2acc b0bd 5b3f 8e3d fbf1 7b3c
00000360: 4758 a73b 4626 2f3d 8476 8dbc 4a08 9abd
00000370: f421 2fbc 9cde 87bd 00ea 1d3a a636 3a3d
00000380: 4cca 863c 2470 e2bc c2f7 083d 9ef7 c2bd
00000390: 3ef5 b7bd 158a e6bd bdff 863d 2e55 b8bd
000003a0: 44ce 133d c810 0d3d f620 8ebd c655 44bc
000003b0: c4e1 923d b8ab acbd 6339 c2bd a04f 54bc
000003c0: 94d2 c6bc 1b2f 14bd 4325 3ebc adde 0f3d
000003d0: 03df 2c3d d9a8 433c 3d55 7a3d 4874 87bd
000003e0: aa1f 03bd 3485 ae3c 98dc e83c 1989 08bd
000003f0: 6f10 7c3d 4055 8abd d793 8ebd a457 a9bd

fc13.bias f4 [64]
-0.1081756 -0.09117975 0.09163291 0.171454 -0.07324712 -0.07289083 0.47151533 -0.08272547
0.42996845 0.025031244 -0.0452395 0.20916276 0.2656305 0.15501197 0.17678636 0.05248467
-0.0661312 -0.068665944 0.046486463 0.19554976 -0.15598176 0.23484048 -0.037498377 0.009899186
-0.00205398 0.2225593 0.1473664 0.34314093 0.13370045 -0.015629828 0.04843827 0.016070666
0.030967927 -0.12315803 -0.014162915 0.022078091 0.24461117 -0.17234543 0.26747254 -0.010636319
0.4321731 0.15178956 0.08832482 0.04025056 -0.08464557 -0.046182174 -0.16707362 0.21620415
0.100152284 -0.07205117 -0.0752512 -0.1432049 0.04731729 0.19698614 0.24223632 -0.13680108
-0.042084906 -0.14467543 0.21870135 -0.06578782 -0.20963457 -0.115058705 -0.10428365 0.031715266
00000000: 2b8b ddbd 73bc babd 09aa bb3d a391 2f3e
00000010: 9602 96bd ca47 95bd 756a f13e f96b a9bd
00000020: d324 dc3e 530e cd3c 0e4d 39bd c32e 563e
00000030: b900 883e 75bb 1e3e 7c07 353e 2afa 563d
00000040: cb6f 87bd bba0 8cbd 9768 3e3d 323e 483e
00000050: afb9 1fbe 067a 703e e697 19bd 3230 223c
00000060: 119c 06bb 96e6 633e 38e7 163e 2bb0 af3e
00000070: c5e8 083e 200a 80bc 3567 463d a1a6 833c
00000080: 73b0 fd3c 473a fcbd 920b 68bc 1ddd b43c
00000090: 5a7b 7a3e 527b 30be 29f2 883e f543 2ebc
000000a0: cb45 dd3e b96e 1b3e a5e3 b43d c5dd 243d
000000b0: a85a adbd 8529 3dbd 5915 2bbe 9f64 5d3e
000000c0: a41c cd3d 908f 93bd 4d1d 9abd 4ea4 12be
000000d0: c6cf 413d bcb6 493e cc0c 783e 9515 0cbe
000000e0: 3961 2cbd cc25 14be 3ff3 5f3e c4bb 86bd
000000f0: 72aa 56be e6a3 ebbd ab92 d5bd dee7 013d

fc14.weight f4 [4, 64]
0.065597154 0.10577173 -0.042242635 -0.049191512 0.010434307 0.044619936 -0.21684107 -0.00077179074
-0.022741811 0.13991596 0.075238496 -0.0076123285 -0.101268604 0.026177153 0.023381155 -0.09439823
0.120756306 -0.13442394 -0.06010223 -0.052052815 0.08046508 -0.033266842 0.0043670386 -0.10510079
-0.0050543477 0.042414382 -0.06253847 -0.14382924 -0.013151379 0.038396213 -0.042991728 0.022648562
-0.030780075 0.051930804 0.10889719 0.0498564 -0.038441766 0.030921504 -0.004725156 -0.0063313465
-0.12769377 0.017858364 -0.026757393 0.031028084 -0.06358391 -0.066522844 0.07509846 -0.07238511
-0.04074255 0.033260375 0.03583975 -0.05456703 -0.039170988 -0.05904245 -0.13198364 -0.03779935
-0.050811563 0.025354845 -0.104216084 -0.04610361 -0.08917396 0.08411022 0.13612357 0.083943926
-0.0061353883 0.12171949 -0.016769236 -0.04460726 0.030065384 -0.10812248 0.039863564 0.08792111
0.0689551 0.0883128 0.07063264 0.009465053 0.060444053 0.016919363 0.05935721 -0.10800075
-0.01749656 -0.09932234 -0.07539549 -0.03389273 -0.013952528 -0.014780248 -0.07816987 -0.078493156
0.080595076 0.06577612 -0.040344022 0.02383626 -0.023119008 -0.06841469 -0.046734385 0.024932493
-0.02705575 0.018745927 -0.020339781 0.10239949 -0.022799494 0.00034469762 -0.032905146 0.07085758
-0.06571621 0.0029749721 -0.07393484 0.03657009 0.009019434 0.07508561 0.018047417 -0.055165574
-0.01923787 -0.005231425 0.09061302 -0.11717844 -0.03776241 0.059942182 0.028179917 -0.036275376
-0.04532247 0.1220677 -0.05923341 0.034247383 -0.111987606 0.0010296915 -0.03282718 -0.023141546
-0.03495519 0.052610006 -0.000860701 -0.010362267 -0.14380845 0.10206203 -0.006970557 -0.019832894
0.051342774 0.04926715 -0.10477999 0.02680618 0.051631153 0.017498566 0.07320392 -0.0820262
-0.0050377217 0.12678276 -0.061746553 -0.01760729 -0.049989834 0.00605218 -0.09935595 -0.060325913
0.023054413 0.020972585 -0.020856485 0.0077908454 -9.357597e-05 0.048064105 -0.08744071 0.040118434
-0.03021601 -0.010182928 -0.06314184 0.07096378 -0.0164888 -0.01398686 -0.078853555 -0.016943635
-0.06748713 0.031649314 -0.07097578 0.050757576 -0.10697238 0.076066226 -0.0062367227 -0.12470908
0.003236666 -0.10659222 0.0818512 0.063134156 -0.039476898 0.037730146 0.009877026 -0.03760689
-0.028422337 0.0546988 -0.062277123 -0.060034692 -0.040733367 0.016996494 -0.14560714 -0.091989465
-0.36468846 -0.040024415 -0.10318497 0.065379694 0.062361207 -0.09971312 -0.020227026 0.011186346
0.047303636 0.14334103 0.06401664 0.11261544 0.058564555 0.23264766 0.10253332 -0.02555645
0.0658259 0.044602357 0.01578093 0.0147813335 -0.33665237 0.052163694 0.022397771 0.0055985916
-0.04622236 -0.1331862 0.001405906 0.01384899 0.029310562 -0.025998382 -0.035126407 0.08647367
-0.029712234 0.13675308 0.070523895 0.0639206 0.019384086 -0.13012405 -0.20158406 -0.09558471
-0.107557744 0.073976 0.11708533 0.09271483 0.11719313 -0.034705848 -0.18677622 0.0793228
0.028980523 -0.032314673 -0.060788535 0.051023576 0.034528088 0.03559386 0.013916513 -0.037422087
-0.029000264 -0.098554626 -0.07265462 0.028609738 0.10134137 0.009449145 0.14908235 -0.08696573
00000000: cd57 863d d99e d83d 9d06 2dbd 0a7d 49bd
00000010: a8f4 2a3c 65c3 363d 960b 5ebe 0052 4aba
00000020: 094d babc 2146 0f3e a416 9a3d d770 f9bb
00000030: ea65 cfbd 7871 d63c d689 bf3c dc53 c1bd
00000040: 154f f73d 6ea6 09be c22d 76bd 5535 55bd
00000050: e0ca a43d d042 08bd 6019 8f3b 153f d7bd
00000060: f19e a5bb b4ba 2d3d 2b14 80bd f947 13be
00000070: e278 57bc 5945 1d3d 1818 30bd 7a89 b93c
00000080: 7f26 fcbc 65b5 543d 7d05 df3d 3936 4c3d
00000090: 1d75 1dbd 184f fd3c 7bd5 9abb 2f77 cfbb
000000a0: 28c2 02be b44b 923c 5232 dbbc 9c2e fe3c
000000b0: 4838 82bd 213d 88bd 39cd 993d a53e 94bd
000000c0: a9e1 26bd 083c 083d b4cc 123d ae81 5fbd
000000d0: c271 20bd 7fd6 71bd b826 07be 7ed3 1abd
000000e0: c91f 50bd f7b4 cf3c 3e6f d5bd 24d7 3cbd
000000f0: d6a0 b6bd fb41 ac3d fa63 0b3e cbea ab3d
00000100: 5e0b c9bb 1148 f93d a35f 89bc 1ab6 36bd
00000110: ae4b f63c 526f ddbd fa47 233d fc0f b43d
00000120: 5538 8d3d 57dd b43d d8a7 903d 4f13 1b3c
00000130: 2f94 773d 7a9a 8a3c 8c20 733d 7f2f ddbd
00000140: f254 8fbc 8369 cbbd f368 9abd 1ad3 0abd
00000150: 2599 64bc da28 72bc 8617 a0bd 05c1 a0bd
00000160: 080f a53d a1b5 863d c63f 25bd 4344 c33c
00000170: 1364 bdbc 001d 8cbd 8e6c 3fbd 3a3f cc3c
00000180: 05a4 ddbc 0f91 993c 9d9f a6bc d3b6 d13d
00000190: 01c6 babc 88b8 b439 8cc7 06bd c71d 913d
000001a0: 3896 86bd c0f7 423b 266b 97bd 85ca 153d
000001b0: 40c6 133c 7cc6 993d 2dd8 933c 4cf5 61bd
000001c0: bd98 9dbc 606c abbb 5293 b93d 40fb efbd
000001d0: c2ac 1abd ef85 753d 92d9 e63c 7d95 14bd
000001e0: 0ea4 39bd a1fe f93d bb9e 72bd fc46 0c3d
000001f0: c259 e5bd b7f6 863a cb75 06bd 5793 bdbc
00000200: 2c2d 0fbd 977d 573d aba0 61ba 7fc6 29bc
00000210: 8642 13be e605 d13d 4569 e4bb 9878 a2bc
00000220: cd4c 523d 5acc 493d e496 d6bd a298 db3c
00000230: 307b 533d 2759 8f3c f0eb 953d 5afd a7bd
00000240: 7913 a5bb 57d3 013e f4e9 7cbd 2a3d 90bc
00000250: 24c2 4cbd 5e51 c63b 227b cbbd 4e18 77bd
00000260: 9cdc bc3c b3ce ab3c 38db aabc 594a ff3b
00000270: 373e c4b8 dede 443d 1d14 b3bd 3a53 243d
00000280: 9187 f7bc 4cd6 26bc 8250 81bd 7555 913d
00000290: 8513 87bc 2529 65bc f97d a1bd 61cd 8abc
000002a0: b136 8abd b6a2 013d c05b 91bd 2de7 4f3d
000002b0: 5614 dbbd 9cc8 9b3d 6c5d ccbb 7967 ffbd
000002c0: 3f1e 543b 064d dabd 9aa1 a73d 7b4c 813d
000002d0: 87b2 21bd ed8a 1a3d 40d3 213c af09 1abd
000002e0: f6d5 e8bc d90b 603d 4c16 7fbd f0e6 75bd
000002f0: 08d8 26bd 3b3c 8b3c 0a1a 15be f964 bcbd
00000300: 72b8 babe a4f0 23bd a452 d3bd cae5 853d
00000310: 776e 7f3d 6436 ccbd 26b3 a5bc f046 373c
00000320: 75c1 413d fec7 123e 281b 833d eca2 e63d
00000330: 63e1 6f3d 303b 6e3e fdfc d13d c35b d1bc
00000340: bbcf 863d f6b0 363d 0247 813c 682d 723c
00000350: b35d acbe 99a9 553d 887b b73c 6474 b73b
00000360: a853 3dbd f761 08be 6146 b83a e0e6 623c
00000370: b41c f03c 8ffa d4bc b5e0 0fbd 1c19 b13d
00000380: 1267 f3bc 0009 0c3e d56e 903d cee8 823d
00000390: 60cb 9e3c 3d3f 05be 0d6c 4ebe ebc1 c3bd
000003a0: 3c47 dcbd bb80 973d 6fca ef3d 46e1 bd3d
000003b0: f402 f03d b827 0ebd 4442 3fbe fe73 a23d
000003c0: 9068 ed3c 645c 04bd 66fd 78bd 19fe 503d
000003d0: 536d 0d3d deca 113d 1602 643c e747 19bd
000003e0: f691 edbc 02d7 c9bd f2cb 94bd f85e ea3c
000003f0: 108c cf3d 96d0 1a3c 0ba9 183e 171b b2bd

fc14.bias f4 [4]
-0.28381577 0.19349027 -0.05698893 0.15966816
00000000: 4d50 91be 5022 463e 396d 69bd 0d80 233e

fc21.weight f4 [64, 4]
-0.24027309 0.28992823 -0.45257607 -0.45901972 0.058761895 -0.29381472 0.39828628 -0.26444262
-0.06492847 0.23754248 -0.11124139 -0.1119241 0.1102517 -0.23082605 -0.46608418 0.46853775
0.37940967 -0.24570435 0.30005187 0.16336179 -0.336519 -0.23662007 -0.0022089481 -0.2925995
0.0055999313 0.35815692 -0.4896315 -0.3624194 -0.32335013 -0.5407661 0.25993893 0.50614583
0.33384043 0.0051634884 0.050825886 -0.44501647 -0.3282588 -0.98908573 0.35337797 0.42170733
-0.106523335 -0.21483362 0.41601646 0.27552974 0.8295922 0.1059873 -0.33542448 -0.40960133
-0.16107011 -0.01733552 0.5589441 -0.2070219 -0.44813728 0.021011353 0.08813876 0.1376388
0.10079775 -0.32359448 -0.57078147 0.61669606 -0.14344531 -0.099180244 0.34234157 -0.3995629
-0.45787734 -0.48714167 -0.026793659 0.1577717 0.26441523 -0.20709065 0.049964435 0.023483634
0.3047433 -0.30083108 0.36841714 -0.11294663 0.21490097 -0.41320145 -0.17833549 -0.2763834
-0.6225946 -0.85636973 0.096646085 0.63622636 0.37652683 -0.3124144 -0.0499236 -0.13332444
-0.23311843 -0.19510768 0.25441098 -0.22091788 -0.42159 0.07619693 0.49546462 -0.053886868
0.26951194 -0.5009282 0.5194742 -0.004213112 0.3566991 0.06754339 0.12685132 -0.4201399
-0.09127474 -0.0059944987 -0.08042818 0.3261336 -0.070997305 -0.27927268 -0.67862606 0.16287035
0.7469033 0.42349315 -0.29105455 0.25373822 0.059534088 0.30952325 -0.007471787 0.45815998
0.4603977 -0.039953608 0.47405377 -0.33793715 -0.21344075 0.807184 -0.32766926 0.096412994
0.292881 -0.60901153 0.27043974 0.09253017 0.31649324 0.56038356 -0.2927401 -0.25428006
-0.30053902 0.5131783 -0.4140484 0.3691271 -0.055405952 -0.22926192 0.5077635 0.34061676
0.27921498 -0.1693542 0.09182706 -0.61342746 -0.011983335 -0.0017329454 -0.41602474 -0.091612816
0.40074477 0.68155634 -0.0077428217 -0.2837553 -0.23676908 -0.32322502 -0.18652439 -0.24236941
-0.38039148 0.09794217 -0.32189125 -0.011366725 0.36844853 -0.15807545 0.47431013 -0.28763324
-0.23340847 0.6138423 -0.49406785 0.43876553 0.78708076 0.46465212 -0.25605312 0.16145603
0.3325113 0.007766738 -0.2465065 0.35243866 0.36832717 0.61205965 -0.24752995 -0.18619469
0.40500447 0.18490958 0.22669539 -0.36077636 0.096581936 -0.3881337 0.06989044 0.07704699
-0.17367557 0.07512814 0.10164005 0.17326644 -0.52436316 -0.10980116 0.21536835 0.31077707
-0.39183384 -0.00013905764 -0.025747001 -0.08312762 0.21427214 0.20926106 -0.45438647 0.080002666
-0.3371767 0.36279497 -0.21943416 -0.17266771 0.19798352 0.6551352 -0.55878884 0.20834222
0.44740546 -0.0028820876 0.1792521 -0.33859465 -0.5055936 -0.6308691 0.15550494 0.32335448
0.2509177 0.09284828 -0.68300074 0.23163188 0.4617908 0.13985777 -0.34126973 0.31908503
-0.025812626 0.59459454 -0.44277212 0.21245044 -0.48072916 -0.062124956 0.44595313 0.34054956
-0.373509 -0.11918181 0.08296883 -0.16686058 0.2685044 0.76701313 -0.36320964 -0.34458873
-0.6710476 -0.39189053 -0.16507232 0.0834128 -0.27383584 -0.2583112 -0.2273866 0.19229603
00000000: 260a 76be 7971 943e 0db8 e7be a204 ebbe
00000010: 50b0 703d e26e 96be 2eec cb3e 0665 87be
00000020: 38f9 84bd 563e 733e 87d2 e3bd 7638 e5bd
00000030: a5cb e13d aa5d 6cbe 96a2 eebe 2ee4 ef3e
00000040: fc41 c23e ec99 7bbe 66a0 993e 5048 273e
00000050: 384c acbe 884c 72be 00c4 10bb 9acf 95be
00000060: a17f b73b 5860 b73e fbb0 fabe 098f b9be
00000070: 268e a5be a66f 0abf b716 853e c692 013f
00000080: 22ed aa3e 7b32 a93b ce2e 503d 33d9 e3be
00000090: 8a11 a8be b934 7dbf f5ed b43e 06ea d73e
000000a0: e828 dabd 58fd 5bbe 1c00 d53e 3c12 8d3e
000000b0: 2860 543f df0f d93d c2bc abbe 44b7 d1be
000000c0: 90ef 24be 3803 8ebc f616 0f3f 8dfd 53be
000000d0: 4072 e5be 0020 ac3c 1882 b43d 30f1 0c3e
000000e0: 0d6f ce3d 2dae a5be bc1e 12bf cbdf 1d3f
000000f0: 54e3 12be 031f cbbd 6547 af3e 8293 ccbe
00000100: e66e eabe a26a f9be 607e dbbc e88e 213e
00000110: 6f61 873e 920f 54be 82a7 4c3d c060 c03c
00000120: 5007 9c3e 8806 9abe 2ca1 bc3e 9050 e7bd
00000130: 000f 5c3e 248f d3be 949d 36be 2082 8dbe
00000140: 5c62 1fbf 0c3b 5bbf 62ee c53d bbdf 223f
00000150: 20c8 c03e c8f4 9fbe b07c 4cbd 3486 08be
00000160: 99b6 6ebe 4fca 47be 2842 823e 4c38 62be
00000170: a5da d7be 230d 9c3d 8aad fd3e 7ab8 5cbd
00000180: 78fd 893e d53c 00bf 43fc 043f 250e 8abb
00000190: 44a1 b63e 3054 8a3d 50e5 013e 941c d7be
000001a0: 40ee babd 806d c4bb 88b7 a4bd fcfa a63e
000001b0: 0967 91bd d4fc 8ebe 70ba 2dbf 7cc7 263e
000001c0: 0e35 3f3f 18d4 d83e 1a05 95be fae9 813e
000001d0: 04da 733d d579 9e3e e4d5 f4bb f293 ea3e
000001e0: 3fb9 eb3e 65a6 23bd 2db7 f23e 1906 adbe
000001f0: 3690 5abe 9ca3 4e3f 44c4 a7be 2d74 c53d
00000200: 80f4 953e 2ee8 1bbf 1477 8a3e 7580 bd3d
00000210: 670b a23e 4c75 0f3f 08e2 95be ff30 82be
00000220: 40e0 99be a75f 033f 27fe d3be 3afe bc3e
00000230: 5af1 62bd a3c3 6abe cafc 013f 5265 ae3e
00000240: 44f5 8e3e 306b 2dbe d30f bc3d 9509 1dbf
00000250: c055 44bc 0024 e3ba 3201 d5be 809f bbbd
00000260: 6b2e cd3e 7a7a 2e3f 7fb7 fdbb 6048 91be
00000270: 9873 72be c07d a5be 4000 3fbe b02f 78be
00000280: acc2 c2be e895 c83d eece a4be 803b 3abc
00000290: 49a5 bc3e 88de 21be c7d8 f23e aa44 93be
000002a0: a102 6fbe c524 1d3f 76f6 fcbe e0a5 e03e
000002b0: 207e 493f e2e6 ed3e 6519 83be bb54 253e
000002c0: ec3e aa3e 1f80 fe3b 336c 7cbe d772 b43e
000002d0: 6195 bc3e f1af 1c3f 7e78 7dbe d2a9 3ebe
000002e0: bf5c cf3e f058 3d3e d622 683e aeb7 b8be
000002f0: c0cc c53d 76b9 c6be b822 8f3d d0ca 9d3d
00000300: 02d8 31be c8dc 993d a928 d03d c26c 313e
00000310: aa3c 06bf 6edf e0bd 8589 5c3e 2c1e 9f3e
00000320: 729e c8be 00d0 11b9 60eb d2bc d03e aabd
00000330: 286a 5b3e 8848 563e 58a5 e8be 70d8 a33d
00000340: 6da2 acbe 43c0 b93e 59b3 60be cecf 30be
00000350: 31bc 4a3e f1b6 273f c90c 0fbf aa57 553e
00000360: 5412 e53e 68e1 3cbb dd8d 373e 475c adbe
00000370: 956e 01bf a380 21bf b03c 1f3e b88e a53e
00000380: 4978 803e 3d27 be3d 23d9 2ebf e830 6d3e
00000390: d86f ec3e e036 0f3e e8ba aebe 1d5f a33e
000003a0: 0075 d3bc 5937 183f 07b3 e2be 9c8c 593e
000003b0: 2222 f6be bd76 7ebd f853 e43e 835c ae3e
000003c0: 923c bfbe 9815 f4bd 90eb a93d 80dd 2abe
000003d0: 6979 893e f95a 443f 9df6 b9be ef6d b0be
000003e0: c7c9 2bbf e0a5 c8be b808 29be 55d4 aa3d
000003f0: 3634 8cbe 5e41 84be 08d8 68be 40e9 443e

fc21.bias f4 [64]
0.47694287 -0.43198723 0.08449274 0.18726648 -0.35245883 -0.2918319 0.42181787 -0.20010954
0.21951807 -0.049345914 -0.4458543 0.36962065 0.12460775 -0.30432838 0.16546112 -0.14327294
-0.28367287 -0.12831768 -0.4089318 -0.46456242 -0.022182766 -0.326119 0.2164715 0.3178037
-0.052612513 -0.4226743 -0.45728254 0.1579967 0.14602144 -0.44300565 -0.16999833 0.1981107
-0.09306605 0.27169997 0.3680549 -0.15043505 -0.17870092 -0.49505925 0.45905405 -0.042963386
-0.14473605 0.09432971 -0.1870578 0.12085954 0.13837872 0.20488846 0.11874227 -0.22948474
0.12592648 0.4391061 -0.42686254 -0.28316957 0.31933472 0.37108865 0.14690764 0.34427565
-0.025875928 0.18826412 0.2905672 0.3861521 -0.37543756 0.32661164 0.1261285 -0.2090522
00000000: db31 f43e 6e2d ddbe 880a ad3d c9c2 3f3e
00000010: 7c75 b4be fe6a 95be 83f8 d73e 84e9 4cbe
00000020: 58c9 603e f11e 4abd 0447 e4be eb3e bd3e
00000030: 5932 ff3d eed0 9bbe a46e 293e 24b6 12be
00000040: 923d 91be b665 03be 825f d1be 20db edbe
00000050: a2b8 b5bc 12f9 a6be b4aa 5d3e 2bb7 a23e
00000060: 3880 57bd c468 d8be f020 eabe e3c9 213e
00000070: a586 153e a3d1 e2be 0b14 2ebe 88dd 4a3e
00000080: 6a99 bebd 421c 8b3e b171 bc3e a50b 1abe
00000090: 60fd 36be 6878 fdbe 2209 eb3e 60fa 2fbd
000000a0: b035 14be ef2f c13d 148c 3fbe 3585 f73d
000000b0: 27b3 0d3e 48ce 513e 262f f33d 0cfe 6abe
000000c0: dff2 003e 84d2 e03e ba8d dabe 9afb 90be
000000d0: d77f a33e 55ff bd3e f56e 163e e644 b03e
000000e0: c1f9 d3bc 4fc8 403e 39c5 943e bab5 c53e
000000f0: 5a39 c0be a439 a73e d427 013e c811 56be

fc22.weight f4 [128, 64]
-0.055666167 0.04769285 -0.07533902 0.06543838 0.08190884 0.061365336 -0.07133506 0.117646426
0.044558737 -0.12267193 -0.12061857 0.04000777 0.057632186 0.108431846 0.09536619 0.07761854
-0.03761074 -0.008487938 -0.07829107 0.0041663647 0.026402503 0.057019353 0.02576001 0.022683665
-0.0016603259 -0.09797989 -0.05448033 -0.029683866 0.029652802 0.0048387647 -0.072115906 -0.059198167
-0.031926874 0.10338948 0.08149261 -0.10742408 -0.06812488 0.0465319 -0.047138967 -0.038981274
-0.10181393 -0.015368923 0.043122664 0.107163265 -0.03677282 -0.05261256 0.020068882 0.009910315
0.014609266 -0.11597471 0.09760161 -0.001473859 -0.012266718 -0.043639824 -0.11828249 -0.041333035
-0.1162713 0.048296947 -0.06777856 -0.11410349 -0.06332567 0.045630228 -0.06956756 -0.09660433
0.04289512 0.1175053 0.08335862 0.09797256 -0.03218086 -0.051005647 0.23396719 -0.07666357
-0.076051004 0.0019497335 -0.120315686 0.13380682 -0.20712738 0.040454194 0.07878003 -0.11021537
-0.09169933 -0.083220795 0.052708387 0.089169905 -0.2505122 0.006943062 -0.07764567 -0.041398183
-0.021475809 -0.09529354 0.061397895 0.04810456 0.31516322 -0.02276308 -0.041428097 0.09071318
-0.16513126 0.31933656 0.025324184 -0.07573572 -0.37096313 0.11163828 0.09046233 -0.116634786
-0.07747416 -0.0128036775 0.3863272 0.3099383 0.0018592784 0.09383114 -0.0017569292 0.049984753
0.11347837 -0.07760067 -0.061328426 0.10428575 0.15149412 0.28734833 0.0992948 0.035911366
0.4837458 0.04722886 0.10554949 -0.11687978 0.0816161 0.40508893 0.06057667 -0.022213668
-0.11145139 0.109009996 0.02025701 0.093626246 -0.031824708 -0.090285406 0.065069295 0.10916718
0.11161589 -0.015504111 0.04205458 0.2033762 -0.34173676 0.08403301 0.2423812 -0.114887595
0.078418404 -0.066119544 0.076665714 0.09697758 0.17426847 -0.041142985 -0.21137767 -0.040965147
-0.11782483 0.09535852 -0.0036292821 0.1225322 0.21638095 0.017877972 -0.001318523 0.15471007
-0.12225993 0.14831191 -0.0726196 -0.1808109 0.6840738 0.09504564 -0.08723138 0.022929564
0.01436837 -0.08085002 0.2608491 0.022692243 0.052255046 -0.07840071 -0.16368572 -0.09848763
0.0034879507 -0.00515502 -0.07281721 0.11192536 -0.116185665 0.16539726 -0.031135486 -0.07586016
0.74233365 0.258749 0.19001237 -0.17529526 -0.046756476 0.020053918 0.11541256 0.028008938
-0.07060593 -0.01641877 0.07877777 0.10957014 0.001031071 -0.113316074 -0.063917026 0.07759965
0.01150367 0.073620364 0.10301317 -0.04767165 0.06291271 -0.014449015 -0.06117943 -0.08633797
0.024410337 0.027254507 0.082022086 0.122630835 -0.113246 -0.020108595 -0.04994918 0.055776898
0.050916348 0.113364786 0.08607978 0.078375004 -0.1005552 -0.0827906 -0.1069673 -0.06889874
-0.069655664 0.08087962 -0.06794461 0.0896301 0.10548039 0.07793522 0.066302076 0.088770196
0.020487651 -0.09438284 0.09340376 0.08510038 0.07763977 -0.09366876 -0.023143284 0.08105336
-0.011630685 -0.016797828 -0.066796675 0.0625886 0.04775619 -0.033605237 0.08566132 -0.081605755
0.06501792 -0.010815358 -0.05716672 0.011423796 -0.1090934 0.09703502 -0.035497066 -0.06432748
00000000: 3502 64bd 9459 433d 584b 9abd 8f04 863d
00000010: d2bf a73d 385a 7b3d 1e18 92bd 9cf0 f03d
00000020: 3983 363d 6c3b fbbd de06 f7bd 30df 233d
00000030: ba0f 6c3d 8411 de3d 594f c33d 78f6 9e3d
00000040: b80d 1abd fe10 0bbc 1257 a0bd 0086 883b
00000050: 104a d83c 208d 693d a806 d33c 18d3 b93c
00000060: 4b9f d9ba aea9 c8bd c426 5fbd 942b f3bc
00000070: 6fea f23c 808e 9e3b 81b1 93bd c779 72bd
00000080: c1c5 02bd ddbd d33d 99e5 a63d 2801 dcbd
00000090: 0f85 8bbd 3c98 3e3d ca14 41bd d4aa 1fbd
000000a0: d283 d0bd efcd 7bbc 64a1 303d 6a78 db3d
000000b0: 199f 16bd 4580 57bd 7f67 a43c e05e 223c
000000c0: b45b 6f3c 2684 edbd 5ae3 c73d 802e c1ba
000000d0: 58fa 48bc acbf 32bd 173e f2bd d44c 29bd
000000e0: a61f eebd 05d3 453d 7ccf 8abd 17af e9bd
000000f0: e4b0 81bd c3e6 3a3d 7079 8ebd 7ed8 c5bd
00000100: cbb2 2f3d 9ea6 f03d edb7 aa3d d6a5 c83d
00000110: 14d0 03bd 4ceb 50bd 1895 6f3e ca01 9dbd
00000120: a1c0 9bbd 338e ff3a 1268 f6bd a804 093e
00000130: 3319 54be 4cb3 253d 6d57 a13d 99b8 e1bd
00000140: dccc bbbd aa6f aabd c0e4 573d b69e b63d
00000150: 2343 80be a082 e33b b104 9fbd 2491 29bd
00000160: 09ee afbc 4229 c3bd 5c7c 7b3d 4909 453d
00000170: 135d a13e a479 babc 82b0 29bd d5c7 b93d
00000180: 2b18 29be 1580 a33e aa74 cf3c 541b 9bbd
00000190: e1ee bdbe 9ca2 e43d 5044 b93d 38de eebd
000001a0: c6aa 9ebd 84c6 51bc aecc c53e 3cb0 9e3e
000001b0: 08b3 f33a 8a2a c03d c348 e6ba d0bc 4c3d
000001c0: 5967 e83d 1aed 9ebd 8433 7bbd c493 d53d
000001d0: 4621 1b3e 521f 933e 125b cb3d cc17 133d
000001e0: 88ad f73e 0d73 413d 552a d83d ab5e efbd
000001f0: 5826 a73d d167 cf3e 3e1f 783d 70f9 b5bc
00000200: a040 e4bd a240 df3d 07f2 a53c 1ebf bf3d
00000210: a05a 02bd 8ee7 b8bd 0d43 853d 0b93 df3d
00000220: df96 e43d f404 7ebc 6c41 2c3d da41 503e
00000230: 1ff8 aebe 8019 ac3d c732 783e 304a ebbd
00000240: d499 a03d af69 87bd ea02 9d3d 2e9c c63d
00000250: 6f73 323e 8c85 28bd 6373 58be 12cb 27bd
00000260: 254e f1bd 544b c33d 40d9 6dbb 29f2 fa3d
00000270: f892 5d3e d374 923c 4ad2 acba 516c 1e3e
00000280: 6a63 fabd 14df 173e 96b9 94bd 7e26 39be
00000290: 761f 2f3f 4aa7 c23d 5ea6 b2bd c8d6 bb3c
000002a0: 5069 6b3c b294 a5bd 038e 853e 15e5 b93c
000002b0: 6309 563d 8d90 a0bd 3b9d 27be e2b3 c9bd
000002c0: 1a96 643b 71eb a8bb 3021 95bd 2039 e53d
000002d0: c0f2 edbd e65d 293e d90f ffbc 925c 9bbd
000002e0: 9409 3e3f c07a 843e 9a92 423e 9a80 33be
000002f0: b883 3fbd 1d48 a43c 6c5d ec3d 0073 e53c
00000300: d899 90bd a880 86bc 3d56 a13d 4f66 e03d
00000310: 0025 873a 4212 e8bd eee6 82bd 91ec 9e3d
00000320: e479 3c3c 46c6 963d 92f8 d23d 5943 43bd
00000330: 61d8 803d 90bb 6cbc 4897 7abd f6d1 b0bd
00000340: 30f8 c73c d844 df3c 32fb a73d e025 fb3d
00000350: 85ed e7bd c8ba a4bc 8397 4cbd 5176 643d
00000360: a98d 503d cc2b e83d 984a b03d 1383 a03d
00000370: e2ef cdbd 1e8e a9bd ac11 dbbd c81a 8dbd
00000380: a1a7 8ebd 37a4 a53d 8b26 8bbd fc8f b73d
00000390: 1a06 d83d 809c 9f3d 62c9 873d 26cd b53d
000003a0: b8d5 a73c ca4b c1bd 784a bf3d 1c49 ae3d
000003b0: 9a01 9f3d 68d5 bfbd fc96 bdbc 4eff a53d
000003c0: a18e 3ebc 999b 89bc b2cc 88bd 742e 803d
000003d0: ff9b 433d a5a5 09bd 346f af3d eb20 a7bd
000003e0: 1e28 853d e632 31bc a727 6abd e02a 3b3c
000003f0: 5c6c dfbd 4cba c63d 5f65 11bd 20be 83bd

fc22.bias f4 [128]
-0.04777731 0.14351319 -0.14489815 -0.115273654 -0.16163075 0.10151819 0.021741897 0.14481024
0.07492866 0.092554584 -0.09213726 -0.045310397 0.023458542 0.06683412 -0.029724741 -0.115821674
0.06115541 0.03360087 0.06814651 -0.033626612 0.015819902 -0.1225 0.040752247 -0.05263349
-0.041215893 -0.10047101 -0.0846818 0.015226809 0.06453812 -0.107858635 0.022601819 0.08990363
-0.032530382 0.024901913 0.100334026 -0.06628704 -0.028993392 0.06190273 0.005391 -0.08220804
-0.06524521 0.13323018 -0.008728981 0.10367778 0.04569235 -0.053367313 0.025016561 0.029327191
-0.03378249 0.0310588 -0.0024179362 -0.0074877143 -0.105875224 -0.052602902 0.12686473 -0.060719702
-0.07860052 -0.058113366 -0.053957645 0.04648871 -0.043601543 -0.034696586 0.1505326 -0.035400376
-0.0055870917 -0.025756268 0.0008188784 0.13591236 0.070606165 -0.11851056 0.07353568 -0.07907804
-0.06486428 0.15392591 0.079544246 -0.09201123 0.0627157 0.028019927 -0.11085118 0.058969207
-0.08826663 -0.045837294 0.056771744 -0.01772094 -0.052741144 0.06452258 0.086852394 -0.054006338
0.06754254 -0.096634224 0.11641745 0.041209094 0.039636806 -0.113920435 0.14936125 0.044690147
-0.03126974 0.08214051 0.10570989 -0.00973782 0.005634926 0.0098667 -0.09832691 -0.04827949
-0.11888787 0.17160343 0.04412808 -0.06272086 0.07578066 0.059830114 -0.117617205 -0.055901393
0.09197492 -0.066398725 0.008844449 7.980777e-06 0.03775298 0.09034814 0.03145896 0.042200748
-0.024049941 -0.12146183 -0.0043118815 -0.032789037 0.065836996 -0.06590763 -0.04285422 0.07179066
00000000: 24b2 43bd 1ff5 123e 2e60 14be 9814 ecbd
00000010: 8882 25be c5e8 cf3d 101c b23c 2349 143e
00000020: 3374 993d 428d bd3d 76b2 bcbd 6597 39bd
00000030: 212c c03c 54e0 883d 4d81 f3bc ea33 edbd
00000040: 187e 7a3d 11a1 093d 6690 8b3d 0fbc 09bd
00000050: bd98 813c 48e1 fabd d4eb 263d 3796 57bd
00000060: ffd1 28bd bfc3 cdbd a76d adbd de79 793c
00000070: 902c 843d fde4 dcbd 7327 b93c 651f b83d
00000080: 943e 05bd 19ff cb3c ed7b cd3d 80c1 87bd
00000090: 8d83 edbc b88d 7d3d fca6 b03b b05c a8bd
000000a0: 489f 85bd 7e6d 083e 0004 0fbc 0455 d43d
000000b0: e727 3b3d af97 5abd 88ef cc3c 943f f03c
000000c0: 825f 0abd 066f fe3c 3d76 1ebb 805b f5bb
000000d0: 1cd5 d8bd 2476 57bd d4e8 013e 39b5 78bd
000000e0: 4ff9 a0bd 4808 6ebd b102 5dbd f26a 3e3d
000000f0: 8897 32bd 021e 0ebd 3825 1a3e fcff 10bd
00000100: ec13 b7bb cffe d2bc 00aa 563a 9c2c 0b3e
00000110: f799 903d aab5 f2bd e099 963d abf3 a1bd
00000120: 90d7 84bd c19e 1d3e 18e8 a23d 6270 bcbd
00000130: 1771 803d 0c8a e53c f205 e3bd b289 713d
00000140: 23c5 b4bd e3bf 3bbd 7d89 683d 812b 91bc
00000150: 1907 58bd 6a24 843d abdf b13d c035 5dbd
00000160: be53 8a3d 2ae8 c5bd 466c ee3d deca 283d
00000170: 345a 223d 1e4f e9bd 28f2 183e 040d 373d
00000180: b314 00bd 4939 a83d 6d7e d83d 618b 1fbc
00000190: 2fa5 b83b f0a7 213c 9e5f c9bd b7c0 45bd
000001a0: 7c7b f3bd cfb8 2f3e a5bf 343d cb73 80bd
000001b0: e432 9b3d 6c10 753d 4ae1 f0bd dcf8 64bd
000001c0: 595d bc3d 0efc 87bd 4fe8 103c 2de5 0537
000001d0: dea2 1a3d 7208 b93d 1cdb 003d b1da 2c3d
000001e0: 6204 c5bc fbc0 f8bd af4a 8dbb cc4d 06bd
000001f0: 8cd5 863d 94fa 86bd e887 2fbd fb06 933d
