data/rl4wound_paper_res/non_ctr/models_map524/checkpoint_ctr_False_ep_1619_seed0.pth (torch, 143962 bytes, 17 tensors)

Amat f4 [4, 4]
000000 cb 98 d2 3e 00 00 00 00 00 00 00 00 00 00 00 00
       0.41132197 0.0 0.0 0.0
000010 cd 0a e4 3e 69 10 8b 3e 00 00 00 00 00 00 00 00
       0.4453949 0.27160957 0.0 0.0
000020 00 00 00 00 94 e1 6e 3e c9 68 89 3d 00 00 00 00
       0.0 0.23328239 0.06709439 0.0
000030 00 00 00 00 00 00 00 00 46 14 88 3d 00 00 00 00
       0.0 0.0 0.06644492 0.0

fc11.weight f4 [64, 5]
000000 aa c1 ac 3d b1 54 92 3e 6e 65 78 be b6 3e 8f be
       0.08435376 0.2858024 -0.24257442 -0.27977532
000010 54 61 30 be 80 aa 92 3e df de 54 bd 7e 63 e5 3e
       -0.17224628 0.28645706 -0.05197036 0.4480247
000020 09 de 1e bd 63 f0 80 3e c2 65 0a be 70 08 b4 bd
       -0.038785968 0.251834 -0.1351538 -0.08790672
000030 d6 bf da be 1c a5 97 be b6 c6 3c be 2b be 65 3e
       -0.42724484 -0.29618156 -0.18435177 0.22435825
000040 48 fd 84 3e 87 4f 00 3f 1a 67 23 be 1b da 8f bd
       0.25974488 0.5012135 -0.15957299 -0.07024022
000050 be 72 37 3e 89 64 db 3e 93 c1 82 bc 72 d6 b0 3e
       0.17914864 0.4285014 -0.015961444 0.3453861
000060 5f fb a0 bd 00 1f d3 3d cd 31 9c 3e 47 57 c2 be
       -0.07860445 0.10308647 0.30506745 -0.37957212
000070 09 30 3b be e1 1e d3 bd 63 46 ab bd e3 40 b0 3e
       -0.18280043 -0.10308624 -0.083630346 0.34424505
000080 54 de 21 be 3d 19 84 be f2 29 ac be 90 2a 2d be
       -0.15807468 -0.25800505 -0.33625752 -0.16910768
000090 8f 4e 37 be 0c 68 a0 3e 47 4b 5d 3e bd 96 3f 3e
       -0.17901061 0.3132938 0.21610747 0.18709846
0000a0 1f 5d 06 3e ec 3a 82 be ce a3 9d 3e 8b 9d 59 be
       0.1312146 -0.2543558 0.30789036 -0.21251504
0000b0 31 6d 39 be d4 15 6c be ce 77 90 3e 80 40 86 3e
       -0.1810806 -0.23055202 0.28216404 0.26221085
0000c0 db 18 4b be c0 30 84 bc b3 5b db 3e 2b ce 0d 3f
       -0.198337 -0.016136527 0.42843398 0.5539271
0000d0 80 c0 ba 3e 1f ef fa 3d 6b 0a 2f 3e ee d1 86 be
       0.3647499 0.1225264 0.17093818 -0.2633204
0000e0 d8 ab aa 3d 39 86 b1 be c2 b2 9e be 58 91 6c be
       0.08333558 -0.34672716 -0.30995756 -0.23102319
0000f0 ed bf 3b 3e e0 f4 98 39 cf 5b d1 be 38 ce 8a 3d
       0.18334933 0.00029174145 -0.40890357 0.06777614
000100 1c c3 7e 3e bf 16 3e be 2b e1 a4 bd 1d e4 41 bd
       0.24879116 -0.18563364 -0.0805076 -0.047336686
000110 02 f5 59 3e 5a 1f d5 3e 07 dc e1 3d 2c db c7 3d
       0.2128487 0.41625482 0.11028295 0.097586006
000120 4a 33 49 3e 21 4c db 3e 7e 09 e8 3e 4d 04 f2 3e
       0.19648471 0.4283152 0.45319742 0.47268906
000130 8c 85 bb 3c 59 e4 bb be 58 8c a6 3b 7b e3 98 be
       0.022890829 -0.36697653 0.0050826482 -0.29861054
000140 57 76 9f be 2b 6b cb 3e 9e d1 fa 3e 8b b7 95 be
       -0.31144974 0.397302 0.4898805 -0.29241595
000150 5e fd 21 3e 24 be 26 be dd 90 2c be ab db a3 be
       0.15819308 -0.1628347 -0.16852136 -0.3200353
000160 87 59 30 3e 39 be 81 be 22 5a a8 3e fa dc 8f 3e
       0.17221652 -0.2534044 0.32881266 0.2809828
000170 d9 d3 dd 3e 77 1f 3e 3e 95 f5 e2 be 75 65 3b bd
       0.4332569 0.1856669 -0.4432799 -0.045751054
000180 cc 34 93 3e 0e 86 a3 3e 70 a5 7b be c3 57 40 be
       0.28751218 0.31938213 -0.24574828 -0.18783478
000190 0f 90 10 3f 05 ad b9 3e 43 36 e7 3c ed e2 3e 3d
       0.56469816 0.36264816 0.028224116 0.046603132
0001a0 4e 14 ae bd 00 b3 03 bc 30 6e ac be c1 9e b0 be
       -0.084999666 -0.008038282 -0.33677816 -0.3449612
0001b0 90 dc c9 bc 50 84 89 3d 8f 67 7d be 9f d6 74 3e
       -0.024641305 0.0671469 -0.24746536 0.23909996
0001c0 a0 7a cf be cf 06 c9 3e cf d2 94 3e 56 5e 9d be
       -0.40523243 0.39263007 0.29067084 -0.30736035
0001d0 d1 bd 25 be 7a 02 fd bd 1c 10 8e 3d 4b 45 c2 3d
       -0.1618569 -0.12353988 0.06936666 0.09485873
0001e0 39 49 08 3e 44 7b 15 3e 28 57 1f be 03 c4 90 3e
       0.13309182 0.14597803 -0.15560591 0.28274545
0001f0 3a df d4 be 6b 45 a6 be 61 00 c0 be 3a 44 bd be
       -0.41576558 -0.32474837 -0.3750029 -0.36966115
000200 dd f9 54 be 9a a0 3e bf 0f 06 a1 be 14 1f be bd
       -0.2079844 -0.7446381 -0.31449935 -0.092832714
000210 fc f4 da be 24 9e df bc e3 99 a7 3e d7 da 27 be
       -0.42765033 -0.027297087 0.32734594 -0.16392075
000220 ad b5 1d be a5 26 3e be 77 a1 15 3d a9 da 8e 3e
       -0.15401335 -0.18569429 0.036530938 0.279012
000230 09 a7 15 3f e4 af 99 3e 98 52 20 3f 93 59 01 3e
       0.58458 0.30017006 0.6262603 0.12631826
000240 4e 74 f9 bc a0 18 27 bd 1d 10 d0 3e b1 71 3c 3e
       -0.030450966 -0.04079497 0.40637293 0.18402745
000250 9e 59 05 be 16 04 d4 bd b3 bc f5 bd 6a bb 1d be
       -0.13022467 -0.10352342 -0.11998882 -0.15403524
000260 cc b2 9d bd db 15 ab 3e 5c fe ff 3d 94 ba f2 be
       -0.077001184 0.33415112 0.12499687 -0.47407973
000270 62 38 3a 3e ab d0 f3 be b9 ac c8 bd 7a ae 2c be
       0.18185571 -0.4762014 -0.09798569 -0.16863433
000280 40 6a b0 bd 38 d4 b3 bd 20 78 cd be 4b b4 c5 be
       -0.086140156 -0.08780712 -0.4013071 -0.38614115
000290 8c 51 8f bd 7b fb f9 3d ed 7f 78 be f1 fb cf 3e
       -0.06997976 0.12206169 -0.2426755 0.40621904
0002a0 e4 e6 59 be 1d a5 e8 3c 1c b2 0a 3f 41 02 4e be
       -0.21279484 0.028399045 0.54178023 -0.20118047
0002b0 bd 9b 00 3f cd c0 3b 3e 40 8d 43 be 62 ac e2 3e
       0.5023764 0.18335266 -0.19096851 0.44272143
0002c0 51 2e 26 be e5 2a 6e be 31 be 82 3e 68 d5 47 be
       -0.16228606 -0.2325855 0.2553573 -0.19515002
0002d0 77 c1 e4 3d f6 52 32 bb e8 32 ac 3e 66 b6 30 3e
       0.11169713 -0.0027210093 0.33632588 0.1725708
0002e0 a4 58 a7 3e 81 f0 75 3e e2 d0 00 be 86 e0 da 3d
       0.32684815 0.24017526 -0.12579682 0.10687356
0002f0 1c 3d 53 be 4b d9 89 3e 1c 5d a7 3e 83 ba 95 3e
       -0.2062878 0.26923594 0.32688224 0.2924386
000300 33 16 db be b3 ae e7 bd 40 69 a1 be a9 17 7c be
       -0.42790374 -0.11312618 -0.31525612 -0.246184
000310 8e 6c 85 be 44 80 1c 3e c0 72 88 be a0 db 1f bc
       -0.26059383 0.15283304 -0.26650047 -0.0097569525
000320 a0 1e 9a 3c fc 99 93 3e e7 15 ad be 69 31 9d be
       0.018813431 0.28828418 -0.33805773 -0.3070176
000330 be f4 84 be 32 79 84 3e 35 f7 7d be b3 48 b2 3e
       -0.25967973 0.25873715 -0.24801333 0.3482109
000340 7e b4 3f 3e f2 f3 67 3d 80 2c 5a bb 24 0e b5 bd
       0.18721196 0.05662913 -0.0033290684 -0.08840588
000350 e0 d3 65 3d b0 23 d1 bd 80 ef 4d bb d6 bd 03 bd
       0.056110263 -0.10211885 -0.003142327 -0.032163464
000360 46 3e cf be 48 b0 9b be 7f 66 9a 3e 41 a5 04 bf
       -0.40477198 -0.3040793 0.30156323 -0.5181466
000370 73 29 30 3e 35 7b f0 3e 04 69 97 3e 27 47 1f 3b
       0.17203312 0.46969 0.29572308 0.0024303885
000380 5a 91 6f be f8 fe 87 3e d6 b6 eb be 7d 8a 58 be
       -0.23395291 0.26561713 -0.4603793 -0.21146579
000390 39 b2 28 be 11 92 42 bd 2f de 43 bc 73 57 c8 3e
       -0.16474237 -0.04750258 -0.011954828 0.39129218
0003a0 07 08 f7 bc 82 cb bc 3e 15 17 a3 3e 9a c2 90 be
       -0.030155195 0.36874014 0.31853548 -0.2827347
0003b0 18 64 4d 3e 41 dc a1 be de 16 42 be 48 b1 06 3e
       0.20057714 -0.31613353 -0.18954036 0.13153565
0003c0 dc 35 17 3e 40 c8 ab 3e 9a 6b 13 be 00 ae 3b 3a
       0.1476664 0.33551216 -0.14396515 0.0007159412
0003d0 04 c3 6b 3e 37 70 dd be 16 8b a5 3e dc 57 bd be
       0.23023611 -0.43249676 0.32332677 -0.36981094
0003e0 00 f9 c9 3b 9c b7 9b bd 2b 30 71 be f0 1b 72 3d
       0.0061637163 -0.0760338 -0.23553531 0.059108675
0003f0 a4 57 bd 3e e4 dd 05 be ac f0 87 be 43 d0 55 3c
       0.36980927 -0.13072926 -0.26550806 0.013050142

fc11.bias f4 [64]
000000 64 cb 2b 3e 91 6f 62 3d c3 01 b4 be 54 63 09 3e
       0.16776806 0.05528218 -0.35157594 0.13416797
000010 1a 71 7e 3e b8 39 06 3f 6b 08 9d 3e 8b e1 49 3e
       0.24847832 0.5243182 0.30670485 0.19714944
000020 6b 9c b6 3e 21 c8 5e be fc 86 ae be 26 e6 c4 be
       0.35666212 -0.2175603 -0.3408736 -0.3845684
000030 e0 cc e5 3e ae 2a 83 3e 35 1a 23 be 12 15 31 3e
       0.4488287 0.256185 -0.15927966 0.17293194
000040 68 fe de 3e 30 7e f4 3e 90 a1 ba 3e 4b 34 d0 3e
       0.43553472 0.47752523 0.36451387 0.40664896
000050 43 c3 4f 3d 6c b6 20 be b4 8c ba 3e 18 b0 ab 3e
       0.050723325 -0.15694588 0.36435473 0.33532786
000060 e5 89 2c be 34 30 94 3e 83 5a 75 3e f6 8e 80 3e
       -0.16849478 0.28943026 0.23960309 0.2510907
000070 ab fd c7 bd d2 9c 4a 3e 60 9e d4 3c 25 d2 d2 3e
       -0.0976518 0.19786385 0.025954425 0.41175953
000080 70 ce a4 bd 34 0a a1 3e 58 18 bd 3d 00 38 d0 3d
       -0.08047187 0.31453097 0.09233159 0.10166931
000090 84 73 d3 bd ec 9d cc 3e af ff c0 be f0 db ce 3d
       -0.10324767 0.39964235 -0.3769507 0.101005435
0000a0 e8 eb 9a be c8 08 f9 be dd e0 b7 be ae bc 91 3e
       -0.30258107 -0.48639512 -0.35913745 0.28464264
0000b0 75 a6 79 3e 2c 79 f0 3e 27 6c a6 3e ce 7b cc be
       0.24379905 0.46967447 0.3250439 -0.39938205
0000c0 30 42 9c be 10 fe 93 bd e4 b3 94 be 4c ef a9 3e
       -0.30519247 -0.07226193 -0.29043496 0.33190382
0000d0 81 bc ac be 72 36 9c bd 8e 35 dd be a5 ff 81 be
       -0.33737567 -0.07627572 -0.4320492 -0.25390354
0000e0 de 1f c6 3e 33 18 b8 3e ac 50 84 3e f2 3b b2 3e
       0.38696188 0.35955963 0.25842798 0.3481136
0000f0 0a 9f d0 3e bb 7f d5 bd aa 5d 7e 3e 96 2c b1 3e
       0.40746337 -0.10424753 0.24840418 0.3460433

fc12.weight f4 [128, 64]
000000 f8 ab ad 3d 66 43 9e 3e 18 c7 84 3d c2 2a 85 3e
       0.08480066 0.30910796 0.064832866 0.26009184
000010 2d 41 b3 bc 1a 3a 8f 3d ca aa 73 bb 83 fa 27 bd
       -0.021881664 0.06993504 -0.0037180656 -0.04101039
000020 ab 48 9f 3b 56 a5 8f bd 07 81 1f 3e 4e dc ab 3d
       0.0048609576 -0.07013957 0.15576564 0.08391629
000030 7a b2 c4 3d c0 a0 b0 3a d3 59 96 bd 52 a0 79 3d
       0.09604354 0.0013475642 -0.07341351 0.06094391
000040 de d1 0e 3e c1 33 59 bc bd 32 31 bc 55 e7 0e 3e
       0.13947245 -0.013256968 -0.01081532 0.13955434
000050 60 c8 01 3e 5a 57 c2 bd 22 d6 ca 3d f4 39 1d 3d
       0.12674093 -0.09489317 0.09904124 0.038385347
000060 5e f7 11 be 8b 8d d2 bb 88 e8 2a be b4 18 c2 bc
       -0.1425452 -0.0064255646 -0.16690266 -0.02369342
000070 95 65 a5 3e c0 1e 5a 3d 10 98 5a be 53 08 1b be
       0.32304063 0.05325198 -0.2134707 -0.15139894
000080 dc fa 0a bd 71 c9 ae 3d 36 20 ce 3d 13 13 f7 3d
       -0.033930644 0.08534516 0.100647375 0.12064185
000090 ad 18 bf 3d 7b d3 04 3d 1e 6e 2a be 58 7f 75 3d
       0.093308784 0.032428246 -0.16643569 0.059935898
0000a0 fc f8 7d 3d 6f 66 5e 3e b0 3c b7 bc 25 cb 01 be
       0.062005028 0.21718763 -0.022367805 -0.1267515
0000b0 dd 6d 59 ba 04 f2 39 3d fd a7 89 bd fc 52 3e 3d
       -0.0008294264 0.04539682 -0.06721494 0.04646586
0000c0 86 49 d9 3d 30 53 06 3c f0 9e aa bd 79 46 5a be
       0.106097266 0.008198544 -0.08331096 -0.21315946
0000d0 49 7c 1f 3e 2b d3 e4 bd ec 5d 7e 3d 24 6a e8 bd
       0.15574755 -0.111730896 0.06210129 -0.1134837
0000e0 9d b0 23 be ae 1d 47 bd 14 20 8e bb b2 c0 4a 3d
       -0.15985341 -0.04861229 -0.00433732 0.049500175
0000f0 e6 19 31 be 49 59 22 3e 27 e5 b5 bd 96 f6 78 3d
       -0.17295036 0.15854372 -0.08881598 0.060782038
000100 64 a5 a6 bd 96 6a 1d bd e8 4e d4 3d 37 4e a7 3d
       -0.081370145 -0.038431726 0.10366613 0.08169215
000110 3b b9 08 3e 94 7f 0d 3d 1a ec ec bd 40 b8 14 3e
       0.1335191 0.034545496 -0.1156847 0.14523411
000120 fc 44 09 bd 80 cc 72 3d 11 97 33 bd c8 43 13 bd
       -0.033513054 0.059277058 -0.04384524 -0.035953313
000130 9d 48 f8 bd ed e9 8a bc 12 52 81 3d 6b 6f 1a be
       -0.12123225 -0.016957248 0.06314482 -0.15081565
000140 23 3a b3 3d ff 3c 67 3d 0b 31 cc 3c b3 a3 94 bd
       0.08751323 0.056454655 0.02492573 -0.07257786
000150 d6 b5 0c be e4 f5 1d bd c1 02 94 3d 56 03 15 3e
       -0.1374124 -0.038564578 0.07227088 0.14552054
000160 c4 f6 fe 39 79 96 6d bd 26 85 89 3d 90 f0 c2 bd
       0.0004863051 -0.05800483 0.06714849 -0.0951854
000170 c5 04 e3 bd 56 52 ac 3d ab d0 9a bd ca 84 8a 3b
       -0.11084894 0.08414142 -0.075593315 0.0042272555
000180 f8 b7 b4 bd 6e c6 bc bd d9 82 b9 bd 1a e0 6f 3d
       -0.08824152 -0.09217535 -0.0905816 0.05856333
000190 4d e8 76 3d 4d d5 b1 3d 59 1c e4 3d dc a7 8d 3d
       0.060280133 0.08683262 0.111382194 0.06916782
0001a0 20 b6 83 3b a4 bc 91 3e 68 a6 de bc 49 46 39 bb
       0.0040195137 0.28464234 -0.027178958 -0.0028270653
0001b0 9d 26 9e 3d a6 b3 c1 bd 2c 2a 03 3e e0 ad 5e bc
       0.07722209 -0.09458093 0.12809056 -0.01359126
0001c0 9a 83 d6 bd c4 82 8a bd 6a 83 e2 3d 17 74 e3 3d
       -0.1047432 -0.06763223 0.110602215 0.11106127
0001d0 68 85 6b bd da 65 ed 3d f8 4b 80 3d f8 87 97 3d
       -0.057500273 0.11591692 0.0626449 0.07398981
0001e0 14 20 d1 3d b6 9a 80 bd 89 69 87 3d ae 26 64 3d
       0.102111965 -0.06279509 0.06611926 0.05570095
0001f0 96 13 21 bd 62 da a2 3d a3 92 b3 3d 41 99 b8 3d
       -0.03932532 0.079518095 0.08768203 0.09013606
000200 67 d1 f1 bc 2e 29 96 bd 40 e5 00 3d 81 d8 f8 bb
       -0.029518796 -0.07332073 0.03146863 -0.0075941687
000210 ef 92 50 bd eb a5 56 3c ac 55 7d 3d 45 a2 65 3c
       -0.050921377 0.013101081 0.06184928 0.014015739
000220 b5 78 d5 bb b8 f9 f6 bc 6f 99 16 3d e6 71 b9 bd
       -0.0065146335 -0.030148372 0.03676742 -0.090549275
000230 c5 11 5d bd 06 9b 2e bd 77 08 01 3e ea 0c ac bd
       -0.053972024 -0.04262831 0.12600885 -0.08400901
000240 6c c0 c0 3b 1a 24 2a bd 72 5a ee 3d 6d a2 00 3e
       0.0058823135 -0.041538335 0.11638345 0.1256196
000250 4c 9b d4 bd 10 88 cf bd d9 e1 7a bd e4 36 3e 3d
       -0.10381183 -0.10133374 -0.06125054 0.046439067
000260 a8 29 5e bd 2e 4a ef bd a1 e5 a6 3c c0 30 59 3d
       -0.054238945 -0.116840705 0.020373167 0.053025007
000270 cd c5 0f be 71 e2 aa 3c 09 1a 37 3c ca b8 a7 bc
       -0.14040299 0.020859929 0.011175641 -0.020473856
000280 c8 ae 8c 3c 8b 29 36 3d 43 d0 ea bd 02 2a ea 3b
       0.017173186 0.044473212 -0.11465504 0.007146121
000290 d3 af 4c bd df b6 f1 3d e6 8f 4d 3d d2 6a f5 bd
       -0.049972367 0.11802458 0.05018606 -0.11983265
0002a0 30 42 fc 3d d2 ba 02 be 20 53 c4 3c 04 b2 80 3b
       0.12317312 -0.12766579 0.023965418 0.003927471
0002b0 4d 19 02 bd 7a 54 eb bc 0a 7e c7 3d c0 c6 c3 3b
       -0.03176241 -0.028726805 0.09740837 0.0059746206
0002c0 ce 3e f9 bd d8 21 97 bd 7c 8a 2e bd bf 76 42 3d
       -0.12170182 -0.07379502 -0.042612538 0.047476526
0002d0 78 27 fd bd 9e cd 02 3e 28 13 e4 bc 18 df b7 bc
       -0.12361044 0.12773749 -0.027841166 -0.022445247
0002e0 f4 15 01 3e 88 8c 5e 3d 8e 33 fc 3d 2a 26 da 3d
       0.1260603 0.05433324 0.12314521 0.106518105
0002f0 3e 14 a4 3b f5 be d4 bd 26 ca 93 3d d9 8b e0 3d
       0.005007296 -0.10387985 0.07216291 0.10964174
000300 fb c4 2e 3d 96 8f 2c be 24 e2 51 3d 53 87 c0 3d
       0.042668324 -0.16851649 0.051241055 0.09400811
000310 22 64 9f bc be ef 04 bc 99 5b 34 bd 7a fc f6 3c
       -0.019456927 -0.0081138 -0.044032667 0.030149687
000320 fa 64 50 bd d8 46 81 bd 49 08 4f 3d c0 6f 42 3d
       -0.05087755 -0.063123405 0.05054501 0.047469854
000330 02 5b 17 3e 0a db df 3d be be 60 bd 2a e5 c1 bd
       0.1478081 0.1093045 -0.054869406 -0.09467538
000340 95 b1 1b bd 24 64 19 3e fd 39 3f 3d c1 3d cc 3d
       -0.038011152 0.14979607 0.04668616 0.09972716
000350 55 bd c2 bd 5e 0f ed 3d d7 61 1f 3e 02 4c 21 3e
       -0.095087685 0.11575197 0.15564667 0.15751651
000360 7a fc 31 be 27 9a 1f bd a0 26 22 3c df cd 1d 3e
       -0.17381468 -0.03896537 0.009896904 0.15410565
000370 ca 44 0b be 68 93 84 bb c7 ad a1 3d 8b cb b2 3d
       -0.1360046 -0.0040458925 0.078944735 0.08730229
000380 dc 2b 7c bd bc cd 96 bd b2 48 83 bd c1 61 ce bd
       -0.061565265 -0.073634595 -0.0641035 -0.10077239
000390 ca ec 35 3d 2d 0e 15 bd 70 8b 6e 3e 24 aa de 3d
       0.044415273 -0.036390472 0.23295379 0.108722955
0003a0 e2 1a 81 3d fd ed b6 be c4 d1 d9 3d 47 35 da 3c
       0.063039556 -0.35728446 0.10635713 0.026636733
0003b0 2c a1 41 bd 4f 24 3f 3e 16 38 44 3d 38 c6 f9 bd
       -0.047272846 0.18666194 0.04790505 -0.1219601
0003c0 18 c3 11 bd fe 60 ae bd e2 72 e0 3d 52 94 6a bd
       -0.035586447 -0.085145935 0.10959412 -0.057270356
0003d0 fc 28 6d be 83 21 19 bd 74 c5 a0 3d 90 04 05 3d
       -0.23160166 -0.037385475 0.07850161 0.032475054
0003e0 32 99 93 3d 2c c5 0c 3d cc bf a5 3d 6c 9a be 3c
       0.07206954 0.034367725 0.08093223 0.023266993
0003f0 28 be a2 3c 07 62 40 be 79 4d dd ba 97 60 81 3d
       0.019866064 -0.18787394 -0.001688405 0.06317251

fc12.bias f4 [128]
000000 59 34 08 bb e5 85 f9 3d af d1 88 bd c0 c6 92 bd
       -0.0020783155 0.121837415 -0.06680619 -0.07166815
000010 eb 03 4c 3d 33 7b 02 3e a4 20 8f 3c 14 e7 ef bc
       0.049808424 0.1274231 0.017471619 -0.029284991
000020 58 a5 f6 bd ee a7 09 3e 1b b2 7e bd 50 0f 53 bd
       -0.120432556 0.13442966 -0.062181573 -0.051528275
000030 4c 15 8e 3d 5c 1d 35 bd 2e 19 5f bd c4 e2 e3 bc
       0.06937656 -0.044217452 -0.054467373 -0.027818091
000040 e3 61 a8 3d 24 db 94 bd 18 4c e9 bc 6f 4e 06 bd
       0.082217954 -0.0726836 -0.028478667 -0.032789644
000050 d6 d7 b7 3d 73 97 f0 3d 82 9b 30 3c b2 c9 f6 bc
       0.08976714 0.11747637 0.010779263 -0.030125473
000060 f3 99 1e 3d d8 87 7c 3d 47 82 00 3e 86 28 ae 3d
       0.038721036 0.06165299 0.12549697 0.08503823
000070 ac 0f c0 3d 13 85 52 bd 61 79 7a bc dd d9 ae bd
       0.09377989 -0.05139644 -0.015287728 -0.08537648
000080 03 1e 71 3d ea c3 83 bd 76 49 ad ba 68 0a f5 bd
       0.058866512 -0.06433852 -0.0013220746 -0.119648755
000090 24 17 57 3d ff 0d 71 3d f2 02 de 3d 08 ca 06 bd
       0.052512303 0.05885124 0.108404055 -0.032907516
0000a0 dd 13 69 bb 0d 1d b7 3d d3 a8 25 3c c5 b9 1f 3e
       -0.0035564818 0.08941088 0.010111052 0.15598209
0000b0 af ee f4 3d f1 41 bd 3d b6 e8 df 3d 98 c8 bd 3d
       0.11959588 0.09241093 0.10933058 0.09266776
0000c0 cc af e9 3d f2 27 fa 3c 73 9a 0c 3e 0e 4c 7d bd
       0.11410484 0.030536626 0.13730793 -0.06184011
0000d0 bd 96 22 bc 3a b5 9d 3d 96 65 b1 bd f0 3b 44 bd
       -0.009923634 0.07700582 -0.08661954 -0.047908723
0000e0 bd ce 81 3d 70 c2 28 3c 83 48 93 3c ed ba 8d 3c
       0.0633826 0.010300264 0.017978912 0.017301047
0000f0 b8 fb 22 3d 78 9c 08 3e a4 8c 2b bd c5 37 b8 3d
       0.03979084 0.13340938 -0.041882172 0.08995012
000100 61 03 22 3d 62 26 a7 3d d1 df e5 3d 05 04 20 3c
       0.039554004 0.08161618 0.1122433 0.009766583
000110 aa a9 4e 3b e7 b6 64 bc d8 df 0d bd c5 e9 81 bc
       0.0031534233 -0.013959623 -0.034637302 -0.01585854
000120 58 db fc bc f2 ea 59 3d d1 e7 48 3d 9b b2 52 bd
       -0.03086631 0.053202577 0.049049202 -0.051439863
000130 58 55 c6 3d 54 67 f8 3c ab a1 b0 bc 5d cb 1e 3d
       0.09684247 0.030322708 -0.021561464 0.03876816
000140 68 66 8f bd 04 58 ad 3c d9 2a c0 3d 84 db a5 3d
       -0.07001954 0.021160133 0.093831725 0.0809851
000150 38 b3 67 3d 99 1c f8 bb cf 6d 5a 3c 60 f1 a2 3d
       0.0565674 -0.0075717685 0.0133318445 0.07956195
000160 23 8b 49 bb 85 cb ed 3d 22 b6 81 3d d2 a7 ba 3d
       -0.0030753098 0.11611084 0.06333567 0.091140404
000170 83 13 c7 3d 1d 52 12 bd 47 48 ec bd 3e ab fd bd
       0.097205184 -0.03572284 -0.11537223 -0.123861775
000180 2c 9e c8 3d 6a f6 ac bd 86 48 c9 bd a1 0c 24 3d
       0.09795794 -0.08445437 -0.09828286 0.040051106
000190 88 30 07 bd 85 09 a8 3d f4 b5 05 bd 4e 73 98 3d
       -0.033005267 0.08204941 -0.032644227 0.074438676
0001a0 b1 d0 c8 bd 45 d2 a5 bd b6 27 17 3e 91 17 b9 bd
       -0.0980543 -0.08096746 0.14761242 -0.09037698
0001b0 4b f2 21 3d 26 5f 5d 3d c1 07 cc 3b d0 b3 a1 bd
       0.03953771 0.05404582 0.0062265103 -0.07895625
0001c0 1b 26 14 3c aa 9b a7 bd 05 ed 0f 3e 09 61 2c 3d
       0.009042288 -0.081839874 0.1405526 0.042084727
0001d0 8a e7 00 3e 4c 44 ec 3d 8b 72 5a 3d 01 32 c5 3d
       0.12588325 0.11536464 0.053331893 0.09628678
0001e0 45 66 e8 3d d0 83 86 bd 52 2b c1 3d 64 d0 0c bd
       0.11347631 -0.0656811 0.09432091 -0.034378424
0001f0 75 99 f4 3d 65 42 9a bb a4 6e 3e 3d 1e 37 c3 3d
       0.11943332 -0.004707622 0.046492234 0.09531997

fc13.weight f4 [64, 128]
000000 40 31 13 3d e2 7b 4e bd ba 1b e8 3c 61 8b 10 be
       0.03593564 -0.050411113 0.028333534 -0.14115669
000010 b6 59 d6 bc fd 22 12 bd 87 a1 8a bd 3e 7e 8b 3d
       -0.026165824 -0.0356779 -0.0676909 0.06811188
000020 e1 d0 d2 3c 9f e3 02 bd 09 46 e9 3d 42 0b 4d 3d
       0.025734367 -0.031955358 0.11390311 0.050059564
000030 4f 98 b2 3d 74 2e 6e 3d 7d ab 22 be f6 d7 6e bd
       0.08720457 0.05814977 -0.1588573 -0.058311425
000040 30 80 e5 3d cf 2b 92 bd 8a 65 54 bd 66 f8 cd bb
       0.112060905 -0.07137262 -0.051854648 -0.006285715
000050 db 7f 1b 3d 4e 5b 32 bd 0f a0 70 bd 3b 9a f2 bd
       0.03796373 -0.043544106 -0.058746394 -0.118458234
000060 b0 14 b5 3d cb e3 d1 3d d8 5f 74 3c 10 0b 51 3e
       0.088418365 0.10248526 0.014915429 0.20414376
000070 f7 e6 12 3d f0 4b 01 bc f2 01 a1 bd 46 55 98 bc
       0.035864796 -0.00789164 -0.07861699 -0.018595349
000080 ca 3f b8 bc d9 da 0b bd 78 9f fe 3d 44 a3 7f bd
       -0.022491354 -0.034144256 0.1243276 -0.06241156
000090 76 63 b1 3d 7a a2 44 3e 3d 86 14 bd 36 60 04 3d
       0.08661549 0.19202605 -0.036260832 0.032318316
0000a0 31 9d 2e bc 72 1b cb 3d 0d 01 9f 3d a8 d0 14 3e
       -0.010657595 0.09917344 0.07763872 0.14532721
0000b0 27 7f f3 bb 1f aa 69 bc 77 30 bb 3c c1 b1 f1 bb
       -0.007430929 -0.014261751 0.022850258 -0.0073759262
0000c0 ba f6 4c 3d 3d 17 11 be 09 65 e5 bd 0b b7 2e bc
       0.050039984 -0.14169021 -0.112009116 -0.010663758
0000d0 c8 09 9b 3d 19 71 28 3c 18 74 a6 bc 02 cb 19 3d
       0.07570225 0.010280871 -0.02031903 0.03754712
0000e0 57 11 1b 3e 1e b8 57 3d 53 98 a0 3d 1b 50 b7 3a
       0.15143333 0.052665822 0.078415535 0.0013985665
0000f0 a8 4a 9a 3c 49 92 1a 3e 48 8e 94 bd 2b 58 f7 3d
       0.018834427 0.15094866 -0.072537005 0.120773636
000100 77 a0 ba 3d 5e a1 8b bd 48 fe d5 3d 8f a9 b4 3c
       0.091126375 -0.06817888 0.10448891 0.022053508
000110 0f d2 3a 3e b9 62 4e bc 35 69 98 3d fc c3 11 be
       0.18244193 -0.0125967795 0.07441942 -0.14234918
000120 23 e3 a1 3d 06 41 23 bd e2 66 a5 bc f8 3e ac bd
       0.07904651 -0.039856933 -0.02019066 -0.08410448
000130 2f 7d 22 3e 79 48 26 bd fe 94 96 bd 05 36 c9 3c
       0.15868066 -0.04059646 -0.07352637 0.024561891
000140 ca 88 91 bd 65 2d 56 3d 04 b0 86 3d 68 a3 44 bd
       -0.071061686 0.052289385 0.06576541 -0.0480074
000150 7e 0a 6d bd 4e 31 3f bd 79 f5 35 3d 44 a7 59 bd
       -0.057871334 -0.04667788 0.044423554 -0.053138033
000160 d5 d2 08 3d 83 ce e1 bd 50 c0 d7 3c d4 25 5b 3e
       0.03340419 -0.11025717 0.026336819 0.21401149
000170 c3 11 2b 3d d9 57 d2 3c cd a6 ac bd 4c 41 88 3c
       0.041764986 0.025676655 -0.08430252 0.016632698
000180 63 1e 8e 3d aa 8e f5 bd f0 0a 43 bc 4d 8f d8 3d
       0.069393896 -0.11990102 -0.011904463 0.105742075
000190 c7 d3 95 3d 31 0e 93 3d a0 e4 e7 3c 59 af 05 3d
       0.07315784 0.07180441 0.02830726 0.032637928
0001a0 75 b1 8c 3c 8f 8a e4 3d 6a 19 4b 3e e6 50 7b 3c
       0.017174462 0.111592405 0.19833913 0.015339112
0001b0 d4 ee 88 3c 5d 72 66 3e f3 d4 25 be 38 48 e6 bc
       0.016715445 0.22504564 -0.16194515 -0.028110608
0001c0 82 05 1c be e4 0a aa 3c 6c 20 9b 3d d1 4c bd 3c
       -0.15236476 0.020757146 0.07574543 0.023107918
0001d0 85 2d 80 3c 7b f9 7f 3d cd e0 a7 3e 66 03 32 3e
       0.015646705 0.062493782 0.32788697 0.17384109
0001e0 e5 64 9f 3d f5 45 0d be c7 7a 96 3d ff 92 9f 3d
       0.07782916 -0.13796218 0.07347637 0.07791709
0001f0 3d dd 02 3e 3c ab be bd 69 c3 6e bd 5f f6 cf bd
       0.12779708 -0.09310004 -0.058291826 -0.101544134
000200 40 43 69 3c 68 83 89 3d 28 e4 53 3d f8 a3 46 bd
       0.014237225 0.06714517 0.05173126 -0.048496217
000210 d2 21 32 bd cb 10 7e 3c 3d 4b 42 bd 71 21 14 bc
       -0.043489285 0.015506933 -0.047435034 -0.009041176
000220 90 81 d1 3c 53 73 1b bd 92 e6 d7 3c 70 2e 4e bc
       0.025574476 -0.03795178 0.026355062 -0.012584314
000230 39 94 a6 3d a5 c4 9c bd 06 1b 8f 3d 7e 63 5e 3d
       0.0813374 -0.076546945 0.06987576 0.054294102
000240 b6 47 a5 bd bf ba 82 3c 18 67 39 bc 4a 13 2a 3d
       -0.080703184 0.015958188 -0.011316083 0.0415223
000250 5e 6c 6f 3d 6b 00 58 bd f6 a1 63 bd 55 73 86 bd
       0.058452956 -0.052734774 -0.05557438 -0.065649666
000260 dd 8c 70 3d b5 da 9f bd 23 f2 77 bd 02 06 98 3d
       0.058728088 -0.07805387 -0.060533654 0.07423021
000270 a5 7c 29 3d 3a 81 78 3d 02 c6 9a 3d b5 4e a8 bd
       0.041378636 0.060670115 0.07557298 -0.08218137
000280 84 ad b4 bc 80 2f f4 bb ca a0 9c 3d a4 9c cc bc
       -0.022055395 -0.0074519515 0.076478556 -0.024977036
000290 c2 25 01 bc 1f 26 39 3d 55 85 2b 3d ba c5 78 bd
       -0.007882537 0.04520237 0.041875202 -0.06073544
0002a0 7f 9f a7 bd 93 b9 08 bd 97 a1 ba 3c f5 5e a6 3d
       -0.08184718 -0.033380102 0.02278213 0.0812358
0002b0 56 3e 23 3d 9b 28 3c 3d e6 03 b2 3c 58 a3 e2 bc
       0.03985437 0.045937162 0.021730375 -0.027665779
0002c0 78 fe 6e bc 50 a8 8c 3d f8 11 60 3c 82 fb 90 3c
       -0.014587037 0.068680406 0.013676159 0.017698053
0002d0 bd 87 52 3d a8 e2 70 3d 52 49 a4 3c c0 24 12 bc
       0.05139898 0.058809906 0.020054493 -0.008919895
0002e0 34 eb 36 bd ca fc 5b bd 09 66 3e bd 9e d9 88 3d
       -0.0446579 -0.053707875 -0.046484027 0.06682132
0002f0 61 1e 90 3d e5 34 55 bd c7 b4 98 3d d8 08 e7 bc
       0.07037044 -0.052052397 0.074563555 -0.02820246
000300 eb f9 de bc b0 54 bc 3c e3 70 9d bd aa da 5a bd
       -0.02721878 0.0229896 -0.07687547 -0.05343119
000310 af 41 92 bc 0b b4 06 bd 7a ca 36 3d b3 f2 d8 bc
       -0.017853586 -0.032886546 0.04462669 -0.026482916
000320 49 41 9a bd 56 9a 9d bd f4 0b a4 3d a7 8b 0d 3d
       -0.075319834 -0.07695453 0.080100924 0.03455701
000330 ca 52 be bd cc 19 96 bd 04 a5 64 bd 75 ee a3 3d
       -0.092931345 -0.07329139 -0.055821434 0.080044664
000340 2e fd 44 3d 64 2e be 3c 9a f5 4c 3d d8 4d 75 3c
       0.048093013 0.02321548 0.05003891 0.014972173
000350 53 11 81 3d df 0f 9d bd 5b 3f 8e 3d 9a 7c 25 3d
       0.063021325 -0.07669043 0.06945678 0.040402032
000360 dd 38 e8 3c ec 77 50 3d 84 76 8d bc 77 a7 3e bd
       0.028347427 0.050895616 -0.017268427 -0.046546426
000370 fb c8 f1 bc 93 33 92 bd 00 ea 1d 3a a6 36 3a 3d
       -0.02951478 -0.07138743 0.00060239434 0.045462273
000380 4c ca 86 3c 00 38 48 bb c2 f7 08 3d 64 fe aa bd
       0.016453885 -0.0030550957 0.033439405 -0.083493024
000390 8e 07 6e bd 9f 20 a7 bd 43 f7 b3 3d 42 46 ac bd
       -0.058112673 -0.08160519 0.08787396 -0.08411838
0003a0 02 cf 26 3d d9 97 71 3d 5a 19 f8 bc 90 36 64 bc
       0.04072476 0.058982704 -0.030285526 -0.013929024
0003b0 db 2a 8b 3d 91 50 9d bd ad 39 b6 bd a0 4f 54 bc
       0.067952834 -0.076813824 -0.088977195 -0.012958437
0003c0 a4 90 77 bc 1b 2f 14 bd 77 53 fd 3a 5b 75 37 3d
       -0.015110169 -0.036177736 0.0019327243 0.044789653
0003d0 db ed 2b 3d 40 1e a6 3c 57 0f 6f 3d 80 c1 2d bd
       0.041974884 0.020278096 0.05836424 -0.042420864
0003e0 ef bc 67 3a 36 d0 c9 3c 98 dc e8 3c 5e e1 11 bd
       0.0008840104 0.024635416 0.0284255 -0.035615318
0003f0 9d 14 8d 3d 40 55 8a bd 10 0c 3f bd e6 4e b9 bd
       0.06888697 -0.067545414 -0.046642363 -0.09048252

fc13.bias f4 [64]
000000 31 9a b9 bc ad bb 9a bd 8c d7 a5 bd 3c 8d fa 3c
       -0.022656532 -0.075553276 -0.08097753 0.030584924
000010 91 c0 af bc 85 b0 8d bd e2 35 8b 3d f9 6b a9 bd
       -0.021454128 -0.06918434 0.06797387 -0.08272547
000020 c8 3e e3 bc 06 f7 27 3d 0e 4d 39 bd e1 9d bf 3d
       -0.027739897 0.041007064 -0.0452395 0.09356285
000030 37 1f 87 bd b2 87 42 3c 7c ec d1 3c 8c 5c f0 3b
       -0.06597751 0.011873173 0.02562546 0.007335251
000040 ce f3 80 bd 9a e5 28 3c c5 37 0e 3d 61 18 e5 3d
       -0.06296502 0.0103086475 0.034721155 0.111862905
000050 4f cf d5 3c f7 24 04 3e e6 97 19 bd a8 78 35 3c
       0.026099829 0.12904726 -0.037498377 0.01107613
000060 26 b6 00 3d 0e 2c 84 3d 4d 4d ea 3d e3 e2 93 3d
       0.03142371 0.06453715 0.11440525 0.072210096
000070 c3 53 73 39 33 87 99 bc 90 a2 98 3d 04 ed 0b 3e
       0.0002320549 -0.018741226 0.07452881 0.13664633
000080 59 fd 45 3d 18 4e 5c 3c cf 4a a8 bc 9e 39 a5 3d
       0.048337314 0.013446353 -0.020543484 0.0806763
000090 c2 55 8a 3d f7 57 44 bd 5e 30 cf 3d cc 18 24 bc
       0.06754638 -0.047935452 0.10116647 -0.010015678
0000a0 fe 94 c7 3d dd ce e2 3d 0b 9a f9 3c f7 65 f6 bc
       0.09745215 0.11074612 0.030468961 -0.030077918
0000b0 a8 5a ad bd 8d c4 38 bd 27 bb 64 3d 34 40 6b 3d
       -0.08464557 -0.04510932 0.055842545 0.057434276
0000c0 71 c7 e9 3c 90 8f 93 bd 11 1a 9c 3d 2d 6f df bc
       0.028537484 -0.07205117 0.07622159 -0.027274692
0000d0 1b e9 21 3d 7a 76 f3 bc b4 fa a7 ba 55 4e 0b 3d
       0.039528947 -0.02971958 -0.0012815804 0.03401025
0000e0 26 36 83 3d 3b 36 95 bd 93 fa dc 3d c4 bb 86 bd
       0.06406812 -0.07285734 0.10789981 -0.06578782
0000f0 78 ee 8a bd 05 8b af bd 1d 57 b0 bd e0 e7 01 3d
       -0.067837656 -0.08571438 -0.086103655 0.031715274

fc14.weight f4 [4, 64]
000000 0a 73 3d 3e 61 9b cd 3d a7 09 03 3e 07 bd 0f 3c
       0.18500915 0.10039402 0.12796651 0.008773095
000010 2a 4c 05 3e f6 b2 3c 3d 28 86 6a be 00 52 4a ba
       0.13017336 0.046069108 -0.22902739 -0.00077179074
000020 20 d5 ff 3c bb d2 b1 3d a4 16 9a 3d de f5 3a be
       0.031229556 0.08682772 0.075238496 -0.18257853
000030 ca 48 ba bb 03 47 f3 3d e8 8f 4e 3e c5 91 3f be
       -0.0056849467 0.11878779 0.20172083 -0.1870795
000040 18 c9 fd 3d cd 50 15 be 32 13 33 be 1f 7b a6 3b
       0.12391871 -0.14581604 -0.17487791 0.005080595
000050 40 c8 00 3e 20 e7 80 be 60 19 8f 3b dd 7d 74 be
       0.1257639 -0.25176334 0.0043670386 -0.23876138
000060 4f 17 8c bc cf f3 e5 3d 67 a6 f6 bd 2e 7b 26 be
       -0.017100958 0.112281434 -0.120434575 -0.16257927
000070 1a 6b 6e ba ac d6 7d 3d b5 fd 8f 3c f3 27 48 be
       -0.0009094939 0.061972305 0.017577032 -0.1954649
000080 c2 ca d1 bc 40 c6 81 bd 0f 93 d3 3d cd d2 2c be
       -0.025609378 -0.06336641 0.103307836 -0.16877289
000090 93 df 02 3d 57 2b 0e 3e 77 dc b2 3d 87 39 c7 bb
       0.0319515 0.1388372 0.087334566 -0.006079856
0000a0 b7 c1 d3 bd b7 90 7a be fa 4c 6d 3d 3a 49 03 be
       -0.103396825 -0.24469267 0.05793474 -0.12820902
0000b0 48 38 82 bd 3d 9a 89 bd 43 c8 49 3e 57 18 0c 3c
       -0.06358391 -0.06718872 0.197053 0.008550725
0000c0 75 58 57 3e 08 3c 08 3d ba 61 15 3d 2e e2 da bd
       0.21029837 0.033260375 0.036470152 -0.106876716
0000d0 2e d0 fb bc 57 0c 71 3d 86 e1 39 be 61 ed 13 be
       -0.030738916 0.05884966 -0.18152437 -0.14446022
0000e0 28 18 93 be 6a 0b b4 bd c9 77 3a bd 24 d7 3c bd
       -0.28729367 -0.087912396 -0.045524392 -0.04610361
0000f0 3f b0 6b be 4c 1b 18 3e 92 da 90 3d b3 ea ab 3d
       -0.23016451 0.14854163 0.07072939 0.08394375
000100 bf 29 0f bb 75 35 f3 3d 3e 6e f1 bc 21 07 c6 bd
       -0.002184495 0.118754305 -0.029471513 -0.096693285
000110 65 f7 d5 bd 88 47 d8 bd 5e 52 89 3d fc 0f b4 3d
       -0.104475774 -0.105605185 0.067051634 0.08792111
000120 4e 87 bf 3d b9 f4 b2 3d d8 a7 90 3d b9 3a cf bd
       0.09351979 0.087380834 0.07063264 -0.10118622
000130 87 45 b8 3d 80 1e 18 be 2c e3 be bc 5c 7e 4a be
       0.08997636 -0.14855385 -0.023301683 -0.19774765
000140 60 ac 6a bc 77 29 a8 bd 21 9b b6 bd 3e 07 0e be
       -0.014323324 -0.08211034 -0.08916307 -0.1386995
000150 85 a2 b4 3c 0a d7 cf bd 86 17 a0 bd db 7e 19 be
       0.022050152 -0.10148437 -0.07816987 -0.14989798
000160 bf 5b 72 3d ad 52 0a 3e 85 f7 21 bd cd aa 9e 3d
       0.059169527 0.13508101 -0.039542694 0.077474214
000170 8e bf 5a 3d de 22 a5 bd 10 4e 03 3d 52 df 10 3d
       0.053405337 -0.08063291 0.032056868 0.035369225
000180 9a bc 32 3d 59 c4 f5 bc 08 02 eb bc 1d ea c0 3d
       0.043636896 -0.030000852 -0.028687492 0.094196536
000190 15 ba 32 be 12 c1 5f bd 57 2e 9a bd d1 78 90 3d
       -0.17453797 -0.054627486 -0.0752837 0.07054294
0001a0 79 27 13 3d 0e af bf bd 4b b1 90 bd 64 76 12 bd
       0.035926316 -0.09359561 -0.07065066 -0.035757437
0001b0 40 c6 13 3c 71 cc 98 3d 38 a1 f7 bc 0a 1b 4f bd
       0.009019434 0.07460869 -0.030228242 -0.050562896
0001c0 6f cd 87 be 60 6c ab bb 3b 92 2f 3e 83 a8 11 be
       -0.2652392 -0.005231425 0.17145626 -0.14224438
0001d0 06 17 21 bd 82 fd fc 3d 54 78 a2 3d 89 df 9f bd
       -0.039328597 0.1235304 0.07933107 -0.07806308
0001e0 e1 06 0b be 23 9c 0a 3e 64 f2 97 bd fc 46 0c 3d
       -0.13576843 0.13536124 -0.07419279 0.034247383
0001f0 ee 71 10 be 2c 41 52 bd 41 e1 38 bb 20 93 bd bc
       -0.1410596 -0.051331684 -0.0028210434 -0.023141444
000200 03 10 32 be d9 19 5c 3d 43 ac cf be d7 17 6a bd
       -0.1738892 0.053735588 -0.40561113 -0.05715164
000210 95 5c 68 bd 19 02 bf 3d 17 7c c3 3b 98 78 a2 bc
       -0.056728918 0.09326572 0.0059657204 -0.019832894
000220 50 c6 c9 3c ea 1c aa 3d e4 96 d6 bd 5d 9e c0 3d
       0.024630696 0.08306296 -0.10477999 0.094052054
000230 51 58 6b 3d a2 54 74 3d 5f db 0e be 65 89 85 bd
       0.057457272 0.059651025 -0.13950871 -0.065203466
000240 60 89 06 bc 1a 08 04 3e 21 19 6c bd c1 85 d5 bd
       -0.008211464 0.12893716 -0.057641152 -0.10425902
000250 4c e2 09 bb 6b 29 58 3d 22 7b cb bd 32 26 36 bb
       -0.0021039424 0.052773874 -0.09935595 -0.0027793762
000260 64 9f 23 3e 61 92 43 bd 38 c3 c2 bd e9 45 bc bc
       0.15978771 -0.04774702 -0.09509891 -0.022982555
000270 a6 f4 a3 bd e0 e6 67 3d a5 1a 01 be ab b4 3f 3d
       -0.08005647 0.056616664 -0.1260782 0.046803158
000280 aa 24 a0 bc e4 6b b1 3d b1 5d 62 bd ab b7 ab 3d
       -0.019548733 0.08663157 -0.055265132 0.08384641
000290 f8 e3 45 3c 8c e2 cb 3c 36 b8 09 be 24 46 8b bc
       0.012078278 0.0248883 -0.13449177 -0.01700122
0002a0 f1 48 9b bd 48 16 ab 3d 87 6d 2a be 5b 9f d5 3d
       -0.07582272 0.08353859 -0.16643344 0.10430785
0002b0 56 14 db bd aa c1 a1 3d 81 29 06 be 63 cf 31 be
       -0.10697238 0.078982666 -0.1310177 -0.17364268
0002c0 48 03 09 3c 06 4d da bd 0a f6 f7 3c ed dc 0a 3e
       0.008362599 -0.10659222 0.030268688 0.13560839
0002d0 50 48 0a bd 97 c1 c3 bd e7 35 01 3e 8a 68 97 bb
       -0.03376037 -0.09558409 0.12618218 -0.0046206163
0002e0 0b b2 90 3c d5 61 91 3d 5e 0f 06 be f0 e6 75 bd
       0.017663023 0.07098738 -0.130918 -0.060034692
0002f0 ad f0 44 3d 65 0e e4 3c 9d 29 3f bd 32 65 bc bd
       0.04808109 0.027838895 -0.046670545 -0.09198989
000300 a6 fc bd bd b4 29 15 bd d9 0b cc 3d 96 00 d7 3d
       -0.092767045 -0.036416724 0.09963197 0.10498159
000310 55 9a 7f bb 77 22 bc bd f0 5b 8c bd f0 46 37 3c
       -0.0039001901 -0.09186261 -0.06853473 0.011186346
000320 48 f3 dd 3c ad 2f ba 3d 28 1b 83 3d 5d ba 2d 3e
       0.027093545 0.09091125 0.06401664 0.16965623
000330 8b 94 68 3d fa b1 e6 3d ee 1a a3 3d ed 21 3a bc
       0.056782287 0.11264415 0.07964121 -0.011360628
000340 56 6b 80 3d 61 57 55 3c a3 81 57 3d fc a0 dc 3d
       0.06270473 0.013021321 0.052613866 0.10772893
000350 58 e2 7b be 13 dc 02 3e 88 7b b7 3c 08 76 ba 3c
       -0.24598062 0.12779264 0.022397771 0.02276136
000360 2a 7a d3 be 05 7c 02 be 7c 20 3d 3d f9 f6 85 bb
       -0.4130414 -0.12742622 0.046173558 -0.0040882793
000370 f7 09 56 3d 90 bb 09 bd de cf 1c be 67 28 0b 3e
       0.052255597 -0.03362614 -0.1531367 0.13589631
000380 41 13 ac bd 86 a2 f2 3c 30 a0 94 3d 40 08 bb 3d
       -0.0840211 0.029618513 0.07257116 0.09132433
000390 1c e4 b5 3d a6 b8 79 be 02 42 44 be 48 f7 c3 bd
       0.08881399 -0.24386844 -0.19165805 -0.095686495
0003a0 03 93 26 be 72 89 1d 3e 47 4d bc 3d c6 3c 0c 3e
       -0.16267018 0.15384462 0.09194427 0.13695058
0003b0 f4 02 f0 3d 3b 64 24 bd fa 3e 04 be 9e dc e5 3c
       0.11719313 -0.04013465 -0.12914649 0.0280593
0003c0 ef bd 96 3d 64 5c 04 bd a0 8f 35 be 92 25 1d bd
       0.07360446 -0.032314673 -0.1773057 -0.038365908
0003d0 7d 85 5c 3c cc 38 aa 3c ae f2 49 bd db cd 0f bb
       0.01345956 0.020779036 -0.049303703 -0.0021942768
0003e0 a8 1b 09 3d a8 4d 23 be 7d 92 83 3b f8 5e ea 3c
       0.03347364 -0.15947592 0.0040152655 0.028609738
0003f0 94 6f 19 3d 60 ed 52 bc 72 26 96 3d 51 1b b2 bd
       0.037459925 -0.012873977 0.073315516 -0.086966164

fc14.bias f4 [4]
000000 be 75 d5 bd 2e 19 53 bc af 3c 0e 3d 4d 89 9b 3d
       -0.10422848 -0.012884421 0.03472584 0.075945474

fc21.weight f4 [64, 4]
000000 4f c8 e1 bd f5 a5 8f 3e 00 71 a3 be 37 b3 d7 be
       -0.11024534 0.28056303 -0.3192215 -0.42128918
000010 50 b0 70 3d e2 6e 96 be 2e ec cb 3e 06 65 87 be
       0.058761895 -0.29381472 0.39828628 -0.26444262
000020 34 ac 1b 3e c5 d6 c7 3e 65 d3 07 3e cb 00 83 3d
       0.15202409 0.39031044 0.13264234 0.063966356
000030 28 f1 19 bb 83 e4 91 be 7c 2c 2a be 3c ce 1a 3f
       -0.0023489688 -0.28494653 -0.16618532 0.6047094
000040 fc 41 c2 3e ec 99 7b be 66 a0 99 3e 50 48 27 3e
       0.37940967 -0.24570435 0.30005187 0.16336179
000050 38 4c ac be 88 4c 72 be 00 c4 10 bb 9a cf 95 be
       -0.336519 -0.23662007 -0.0022089481 -0.2925995
000060 0e d0 60 bd 2a df 41 3e c2 0a 04 bf 28 20 9b be
       -0.054885916 0.18932787 -0.51578915 -0.3029797
000070 3e 72 2a be 8a 3c 82 be 09 44 d1 3e 86 5c df 3e
       -0.16645142 -0.25436813 0.4087222 0.43625277
000080 d0 31 07 3f 8f 15 05 3e 90 2b ac 3e c5 eb 5b be
       0.5281038 0.12996505 0.33626986 -0.21476658
000090 71 d9 3c be da 73 40 bf 83 bf e2 3e 62 0e d8 3e
       -0.18442322 -0.75176775 0.44286737 0.42198473
0000a0 e8 28 da bd 58 fd 5b be 1c 00 d5 3e 3c 12 8d 3e
       -0.106523335 -0.21483362 0.41601646 0.27552974
0000b0 e8 ce 3d 3f 7a 19 b2 bd 29 06 ae be b9 3b ca be
       0.7414384 -0.086962655 -0.33989075 -0.3949869
0000c0 1b d1 28 be 3f 98 3e 3d 34 51 26 3f 6d e3 48 be
       -0.16486017 0.046531912 0.64967656 -0.19618006
0000d0 40 72 e5 be 00 20 ac 3c 18 82 b4 3d 30 f1 0c 3e
       -0.44813728 0.021011353 0.08813876 0.1376388
0000e0 61 2b 92 3c 6a ac f0 be 4a c7 15 bf a5 89 23 3f
       0.01784295 -0.47006541 -0.58507216 0.63881904
0000f0 e4 3a 05 be 20 25 c0 bd de 47 8b 3e 98 ec 87 be
       -0.13010746 -0.09382081 0.27203268 -0.26547694
000100 e6 6e ea be a2 6a f9 be 60 7e db bc e8 8e 21 3e
       -0.45787734 -0.48714167 -0.026793659 0.1577717
000110 a2 25 5c 3e 57 25 75 be d5 5c fb 3c e6 8a 97 3c
       0.21498731 -0.23940025 0.030683914 0.01849885
000120 50 07 9c 3e 88 06 9a be 2c a1 bc 3e 90 50 e7 bd
       0.3047433 -0.30083108 0.36841714 -0.11294663
000130 00 0f 5c 3e 24 8f d3 be 94 9d 36 be 20 82 8d be
       0.21490097 -0.41320145 -0.17833549 -0.2763834
000140 66 43 3b bf 68 03 3d bf c4 74 63 3d 55 1f 2f 3f
       -0.73149717 -0.7383332 0.05553128 0.68407184
000150 20 c8 c0 3e c8 f4 9f be b0 7c 4c bd 34 86 08 be
       0.37652683 -0.3124144 -0.0499236 -0.13332444
000160 27 17 86 be 11 8a 3d be fe db ce 3e 0b 74 60 be
       -0.2618954 -0.185097 0.40402216 -0.21919267
000170 fe 19 b6 be 4d 6f 47 3e 08 42 35 3f 63 bb 7a bd
       -0.35566705 0.19476052 0.7080388 -0.061213862
000180 9f 12 01 3f 44 06 6e be 1e 50 2e 3f b9 c8 30 bc
       0.5041904 -0.23244578 0.68091 -0.0107900435
000190 44 a1 b6 3e 30 54 8a 3d 50 e5 01 3e 94 1c d7 be
       0.3566991 0.06754339 0.12685132 -0.4201399
0001a0 40 ee ba bd 80 6d c4 bb 88 b7 a4 bd fc fa a6 3e
       -0.09127474 -0.0059944987 -0.08042818 0.3261336
0001b0 d1 78 b6 bd a0 f9 d6 be eb bf 1b bf c3 8b 83 3e
       -0.08909763 -0.41987324 -0.6083972 0.25692567
0001c0 4f 63 1c 3f 1a 8e 05 3e b1 1a f3 be 0c b1 97 3e
       0.6108903 0.13042489 -0.474813 0.29627264
0001d0 dd ff 77 3d 24 16 9f 3e da 07 d4 bb f0 75 eb 3e
       0.060546745 0.3107158 -0.0064706625 0.45988417
0001e0 fd f1 19 3f f5 1e 6e be 2c c0 e5 3e 77 e9 4f be
       0.6013487 -0.23253997 0.44873178 -0.20303904
0001f0 f3 79 86 be 33 d5 19 3f 4f 77 c2 be 01 5b 12 3e
       -0.26264915 0.6009094 -0.3798165 0.14292528
000200 32 0a 0e 3f c9 1b 6a be d1 5b fb 3e 00 e3 f2 3d
       0.55484307 -0.22862162 0.49093488 0.11859703
000210 ed c6 6e 3e 31 0c c0 3e 9e 61 af be 78 b9 48 be
       0.23318072 0.375093 -0.34254164 -0.19602
000220 35 98 72 be d7 bc f3 3e 54 c0 b0 be 8d f8 ce 3e
       -0.23690875 0.4760501 -0.34521735 0.40424004
000230 d5 4c ce 3d bd 08 0e bd c0 7e 27 3f 2c 1c 8a 3e
       0.10073248 -0.034676302 0.6542778 0.26974618
000240 41 58 f3 3e db de 3d be 4f 6e 24 3d 55 e6 09 bf
       0.4752827 -0.18542044 0.04014426 -0.53867084
000250 c0 55 44 bc 00 24 e3 ba 32 01 d5 be 80 9f bb bd
       -0.011983335 -0.0017329454 -0.41602474 -0.091612816
000260 f7 ad df 3e 7c 73 28 3f 23 95 00 3e 1d 6f 78 be
       0.43687412 0.65801215 0.12556891 -0.24261136
000270 98 73 72 be c0 7d a5 be 40 00 3f be b0 2f 78 be
       -0.23676908 -0.32322502 -0.18652439 -0.24236941
000280 ac c2 c2 be e8 95 c8 3d ee ce a4 be 80 3b 3a bc
       -0.38039148 0.09794217 -0.32189125 -0.011366725
000290 ab 09 fa 3e 30 56 83 3c 86 8e 20 3f af 95 5d be
       0.488355 0.016032308 0.62717474 -0.21639131
0002a0 de 6b b1 be eb da 0a 3f 34 6d c6 be 78 bf 13 3f
       -0.3465261 0.5424029 -0.3875519 0.57714033
0002b0 2e d0 2d 3f 30 73 92 3e 88 73 b3 be 6f 76 2d 3e
       0.6789578 0.28603506 -0.3504908 0.1693971
0002c0 75 f5 5c 3e 55 c9 d8 3c 6f 1e c9 3d 79 85 fe 3e
       0.2157801 0.02646319 0.09820258 0.49711207
0002d0 ea c9 a7 3e 04 b4 e5 3e dd c2 97 be 46 d9 01 be
       0.32771236 0.44863904 -0.29640856 -0.1268054
0002e0 ea 8c e8 3e cb 0a 84 3e a4 c8 00 3f 9a 9a 81 be
       0.4542001 0.25789484 0.50306153 -0.25313264
0002f0 c0 cc c5 3d 76 b9 c6 be b8 22 8f 3d d0 ca 9d 3d
       0.096581936 -0.3881337 0.06989044 0.07704699
000300 4f 24 f2 bb 15 86 03 3e b7 82 93 3e 3f ba b8 3e
       -0.007389582 0.12844117 0.28810665 0.36079594
000310 86 6e ff be 87 4f 37 bd 9b cc b6 3e a5 8f 98 3e
       -0.4988901 -0.044753578 0.35702977 0.29797092
000320 72 9e c8 be 00 d0 11 b9 60 eb d2 bc d0 3e aa bd
       -0.39183384 -0.00013905764 -0.025747001 -0.08312762
000330 28 6a 5b 3e 88 48 56 3e 58 a5 e8 be 70 d8 a3 3d
       0.21427214 0.20926106 -0.45438647 0.080002666
000340 5f b7 56 be cf 2f 0c 3f 4b 28 8e 3e 9d 21 5a 3d
       -0.20968388 0.5476045 0.27765116 0.053254712
000350 1f 53 02 3e 1c ba f8 3e 48 5f 16 bf 9d 73 87 3e
       0.1272702 0.4857949 -0.5873914 0.26455393
000360 33 0a 09 3f 1a 3b c8 3d a6 65 e6 3e 63 a7 8a be
       0.5353119 0.09776898 0.44999427 -0.2708083
000370 8e 2d 76 be e3 e3 a9 be 0d 9a a1 3e 24 20 ac 3e
       -0.24040815 -0.33181676 0.31562844 0.3361827
000380 0a 61 09 3e 45 33 d6 bd f8 1e 10 bf ef 49 ce 3e
       0.13415924 -0.10458998 -0.56297255 0.40290782
000390 9e d6 b4 3e a3 f0 0d be 1e 66 15 bf f3 f0 9d 3e
       0.3531999 -0.13861327 -0.58358943 0.30847892
0003a0 04 5e 19 be 62 f5 bf 3e 8b 93 0f bf f5 86 84 3e
       -0.1497727 0.374919 -0.5608451 0.25884214
0003b0 6c 32 a4 be fe af b8 3d 7d 72 38 3f ea 11 b9 3e
       -0.3206972 0.09017943 0.72049695 0.3614648
0003c0 92 3c bf be 98 15 f4 bd 90 eb a9 3d 80 dd 2a be
       -0.373509 -0.11918181 0.08296883 -0.16686058
0003d0 1f f7 33 3e 91 6d 1f 3f 77 a8 bd be f3 04 b3 be
       0.17574738 0.6227656 -0.3704259 -0.34964713
0003e0 72 15 fe be b8 0c 26 be 13 73 55 bd 9e 90 7c 3e
       -0.49625736 -0.1621579 -0.052111696 0.24664542
0003f0 36 34 8c be 5e 41 84 be 08 d8 68 be 40 e9 44 3e
       -0.27383584 -0.2583112 -0.2273866 0.19229603

fc21.bias f4 [64]
000000 4b bb 0d 3f 6e 2d dd be d3 06 95 3e e4 ce b7 3e
       0.5536391 -0.43198723 0.2910677 0.35900033
000010 7c 75 b4 be fe 6a 95 be cb 67 d6 3e 95 7a 03 be
       -0.35245883 -0.2918319 0.41876063 -0.1283973
000020 9e ba b7 3e d5 58 2a 3d 04 47 e4 be 22 03 c0 3e
       0.35884565 0.041588623 -0.4458543 0.3750239
000030 cb 5f 19 3e ee d0 9b be eb 24 2a 3e 4c d7 41 be
       0.14977948 -0.30432838 0.16615646 -0.18929785
000040 92 3d 91 be 65 b5 34 be 82 5f d1 be 20 db ed be
       -0.28367287 -0.17647322 -0.4089318 -0.46456242
000050 d7 a4 05 3d 12 f9 a6 be ce 51 80 3e 34 de c5 3e
       0.032627907 -0.326119 0.25062412 0.3864609
000060 e1 f9 d1 3c c4 68 d8 be f0 20 ea be 3d 02 76 3e
       0.025631847 -0.4226743 -0.45728254 0.24024291
000070 db 78 89 3d 1b f6 e1 be 0e ef f5 bd 6a 97 42 3e
       0.067125045 -0.44133076 -0.12008487 0.19003072
000080 50 cb a1 3d e6 5b 81 3e 2d 7e eb 3e 2a 2f c5 bd
       0.07900107 0.25265425 0.45994702 -0.096281365
000090 9b 07 c6 bd 68 78 fd be 33 df 02 3f 60 fa 2f bd
       -0.096694194 -0.49505925 0.51121825 -0.042963386
0000a0 b0 35 14 be 9a 07 26 3e 8b aa 01 be 5d d2 ad 3d
       -0.14473605 0.16213837 -0.12662713 0.08487389
0000b0 b6 fe c1 3e 7b 0d 51 3e bc bf 4b 3e 0c fe 6a be
       0.37889642 0.20415299 0.1989736 -0.22948474
0000c0 e4 4f 8b 3e 30 16 fd 3e ba 8d da be 9a fb 90 be
       0.2720939 0.4943099 -0.42686254 -0.28316957
0000d0 9a 65 0e 3f 1e 8a c3 3e 64 2e 60 3e b3 37 f2 3e
       0.5562378 0.38191313 0.21892697 0.4730812
0000e0 1d 5d 62 3d 7e dc d7 3d 06 07 82 3e 03 2e 0b 3f
       0.05526458 0.105401024 0.25395983 0.54367083
0000f0 5a 39 c0 be df 52 a9 3e 16 31 63 3e c8 11 56 be
       -0.37543756 0.33071038 0.22186694 -0.2090522
